DDPG/local_checkpoint/Walker2d-v2(orginal)/('actor', 17).ckpt (torch, 705111 bytes, 6 tensors)

l1.weight f4 [800, 17]
0	0x3d95e8b5	0.07319776
1	0x3eb89dc8	0.36057878
2	0xbec5bef2	-0.38622242
3	0x3ef2c98d	0.47419396
4	0xbd41f108	-0.047349006
5	0x3f361a95	0.7113431
6	0xbdd5626d	-0.10419164
7	0x3c834565	0.0160243
8	0xbf25d70d	-0.64781266
9	0xbd5c9257	-0.053850498
10	0x3d66e983	0.056375038
11	0x3def315c	0.116793364
12	0x3d352d5b	0.044232707
13	0x3cd78e98	0.026313111
14	0xbdb5257d	-0.08845041
15	0x3d607f8d	0.054809142
16	0xbdda1283	-0.10648062
17	0xbe58c72b	-0.21169727
18	0xbfed3935	-1.8533083
19	0x3f7a1c43	0.97699374
20	0x3f6d307e	0.9265212
21	0x3eed8799	0.46392515
22	0xbda2737d	-0.07932184
23	0x3de9c07b	0.11413666
24	0x3e66a5a8	0.2252413
25	0xbe0551c1	-0.13019468
26	0x3e6c3faf	0.23071168
27	0xbe001b17	-0.12510334
28	0xbd62756d	-0.055287767
29	0xbc1e02a4	-0.009644184
30	0xbbab2449	-0.0052228314
31	0xbe2231de	-0.15839335
32	0xbab0080b	-0.0013430131
33	0x3c1f45ad	0.009721202
34	0xbe5968d4	-0.21231395
35	0xbeb36d77	-0.35044453
36	0x3e585edb	0.21129934
37	0xbd1f3eb6	-0.038878165
38	0x3f35854f	0.7090654
39	0x3f9b9ef3	1.2157882
40	0x3f86ad8d	1.0521713
41	0xbcad18e9	-0.021130042
42	0xbe8764b9	-0.26444033
43	0x3f191435	0.5979646
44	0x3caee194	0.021347798
45	0x3d91b6b9	0.0711493
46	0xbe5454ba	-0.20735446
47	0x3d0d2113	0.03445537
48	0x3e50d8c1	0.20395185
49	0x3e1b15d5	0.15145047
50	0x3cc8dfa9	0.024520712
51	0x3f0fa8e0	0.5611706
52	0x3d904988	0.07045275
53	0x3d9f5831	0.07780493
54	0xbf081d37	-0.5316958
55	0xbe0ae74a	-0.13564792
56	0x3e6e09f5	0.23245986
57	0x3d9c7a48	0.07640511
58	0xbe08d766	-0.13363418
59	0x3dda9a47	0.10673957
60	0x3ce3fdd3	0.027830994
61	0xbdeb46f8	-0.114881456
62	0xbda5e491	-0.08100236
63	0x3d33ff48	0.043944627
64	0xbac475a5	-0.0014988674
65	0x3e6c50d0	0.23077703
66	0x3dc7df3c	0.097593755
67	0xbce33523	-0.027735298
68	0x3f0b9e7a	0.5453869
69	0xbf83bfd6	-1.0292919
70	0x3f2c5f35	0.67332774
71	0xbcf6a9c7	-0.030110253
72	0x3e653086	0.22381791
73	0x3e35ed2c	0.17766255
74	0xbf83b084	-1.0288243
75	0x3d83c6a2	0.064343706
76	0xbf043ed0	-0.51658344
77	0xbee94871	-0.4556308
78	0xbe1ebd6d	-0.15501948
79	0x3ccf5d7d	0.025313133
80	0xbd3eaca2	-0.046551354
81	0xbb179b9b	-0.002313352
82	0x3e76fb19	0.24119224
83	0xbcd2cf03	-0.025733477
84	0x3d20487d	0.03913163
85	0xbf20eef7	-0.6286463
86	0x3dcde6d3	0.10053792
87	0xbeacd665	-0.3375732
88	0xbe69858b	-0.22804849
89	0xbd5ad74c	-0.05342798
90	0xbe2a8a45	-0.16654308
91	0xbe56f5f1	-0.20992257
92	0x3e84321c	0.2581948
93	0x3ebb069b	0.36528477
94	0xbd920665	-0.07130126
95	0x3cf99b33	0.030469513
96	0xbdedab0e	-0.11604892
97	0xbdae0672	-0.08497323
98	0xbc47e71e	-0.012201099
99	0x3d9c84f7	0.076425485
100	0x3ddaed36	0.10689776
101	0xbc755d63	-0.014975878
102	0xbf51c273	-0.8193733
103	0x3f5f15c1	0.8714257
104	0x3e1304e2	0.14357331
105	0xbf0aa69a	-0.54160464
106	0xbeb3c5d9	-0.35111883
107	0xbf4acd32	-0.79219353
108	0xbf58179b	-0.8441102
109	0x3dd395cd	0.103313066
110	0x3e9505d1	0.29106
111	0xbe8806c8	-0.26567674
112	0x3e590b76	0.21195778
113	0xbd84d8eb	-0.06486686
114	0xbe0a8b6f	-0.13529752
115	0xbbca6ec1	-0.0061777537
116	0xbdcaa85e	-0.09895395
117	0x39e5c813	0.0004382735
118	0x3c28e955	0.010309537
119	0xbcdfd8d1	-0.027325066
120	0xbf012717	-0.5045027
121	0x3f869bd1	1.0516301
122	0x3e90e0a2	0.2829638
123	0x3e2d62d5	0.16932233
124	0x3f370886	0.7149738
125	0x3d80b1c3	0.06283905
126	0x3ec92cdd	0.3929204
127	0x3d46f820	0.048576474
128	0xbe3893f8	-0.18025196
129	0x3e60be1c	0.21947521
130	0x3d4e435e	0.050357215
131	0x3dbaa803	0.09114077
132	0xbdfc794c	-0.12327823
133	0xbad962da	-0.0016585246
134	0x3e379370	0.17927337
135	0x3dd02877	0.10163968
136	0xbf159dcc	-0.58443904
137	0x3f10b678	0.56528425
138	0xbf0b04c7	-0.54304165
139	0x3ee88f07	0.4542162
140	0xbf25d10a	-0.64772093
141	0x3f50fef2	0.81639016
142	0xbe088089	-0.13330282
143	0xbea16c03	-0.3152772
144	0xbd7c6ac7	-0.06162527
145	0xbe256e30	-0.16155314
146	0x3d255b4a	0.040370263
147	0x3d3fc65e	0.046820037
148	0xbd97127c	-0.073765725
149	0xbd8fa187	-0.07013231
150	0xbde40dd7	-0.11135452
151	0xbcdf4a35	-0.027257064
152	0x3d0f1a7d	0.03493737
153	0xbf2e06b4	-0.6797898
154	0x3f0aa9b9	0.54165226
155	0xbec8fdff	-0.39256284
156	0xbf1b47bc	-0.6065633
157	0x3ec7d598	0.39030147
158	0xbf2007af	-0.62511724
159	0x3cd683fe	0.026185986
160	0x3ecd75ac	0.4012884
161	0xbca23754	-0.019801773
162	0x3d8004fb	0.0625095
163	0x3e8ed8c0	0.27899742
164	0xbd44274d	-0.047889043
165	0xbd67b8a1	-0.05657256
166	0xbd7d86f0	-0.061896265
167	0xbe0cb794	-0.13741904
168	0xbe463959	-0.19357814
169	0x3d1eb4ae	0.03874653
170	0x3e0f39ec	0.13986939
171	0x3ea25eb9	0.31712893
172	0xbee517d8	-0.44744754
173	0x3ed901bf	0.42384145
174	0x3e8a2a52	0.26985413
175	0xbdd6e73e	-0.10493325
176	0x3eab46b4	0.3345238
177	0x3ef71548	0.48258424
178	0x3b6165da	0.0034392984
179	0x3dc5c45a	0.09656592
180	0xbcdac518	-0.02670531
181	0x3c8cfa41	0.017209174
182	0xbdda6e0d	-0.10665522
183	0xbd412bff	-0.0471611
184	0xbbfe7c8b	-0.0077663115
185	0x3e5a3194	0.21307975
186	0xbdc41387	-0.09574037
187	0x3f120345	0.5703624
188	0xbf2e9d1e	-0.6820849
189	0xbdee71ba	-0.11642785
190	0x3f097c02	0.53704846
191	0xbddd5695	-0.1080753
192	0x3f0c5f7a	0.54833186
193	0xbf685280	-0.90750885
194	0x3eb1f801	0.34759524
195	0xbda46c60	-0.080284834
196	0x3f8daf33	1.1069092
197	0xbbd9bcfd	-0.0066448436
198	0x3daa91b1	0.0832857
199	0x3e32e0a4	0.17468506
200	0x3d82a205	0.06378559
201	0x3dc2985e	0.09501718
202	0x3d0b7266	0.034044646
203	0x3cdadccb	0.02671661
204	0xbea9ff0f	-0.33202407
205	0x3ba5ab30	0.0050558075
206	0xbf12e1e9	-0.5737596
207	0x3f736b06	0.9508518
208	0xbec8291b	-0.3909386
209	0x3fd5d064	1.6704221
210	0x3ef1b5a6	0.472089
211	0xbefde069	-0.49585274
212	0xbe1b7c76	-0.15184197
213	0x3eb39a95	0.35078874
214	0xbae52322	-0.0017481784
215	0xbc3274d7	-0.010892115
216	0x3d9b11ca	0.07571752
217	0x3d9d7ccf	0.07689821
218	0x3db37e7d	0.0876436
219	0xbdec3192	-0.11532892
220	0xbd29fb47	-0.041499402
221	0xbe1f7d45	-0.1557513
222	0xbed1bdea	-0.40965205
223	0xbedbd8a6	-0.42938727
224	0xbf0dd8da	-0.55409014
225	0xbddba8bb	-0.10725542
226	0x3ce8fa37	0.028439624
227	0x3dabd8fa	0.08390994
228	0xbd89a374	-0.06720629
229	0xbf65bda3	-0.8974249
230	0x3de870fe	0.113496765
231	0xbdeba2c7	-0.11505657
232	0x3e14afcf	0.1452019
233	0x3e035496	0.12825236
234	0x3c15f729	0.009153166
235	0x3e8fe1ca	0.2810195
236	0x3daf9f71	0.08575333
237	0x3b1fdc09	0.0024392626
238	0xbdc795c6	-0.09745364
239	0x3e9d2d89	0.30698803
240	0x3dfce2f8	0.12347978
241	0xbe30db50	-0.17271161
242	0xbea0e9a1	-0.31428245
243	0x3f84acc1	1.036522
244	0x3d89701c	0.06710836
245	0xbf2078f8	-0.62684584
246	0xbe19e84b	-0.15030019
247	0xbed6f2de	-0.41982168
248	0xbd3a461f	-0.04547703
249	0xbda3088a	-0.07960613
250	0x3e382d2e	0.17985985
251	0xbcf2242a	-0.02955826
252	0x3d8ad058	0.0677802
253	0x3c3fd8a5	0.011709367
254	0x3d8818cb	0.06645354
255	0xbc96e851	-0.018421324

l1.bias f4 [800]
0	0xbe355e2b	-0.17711703
1	0xbc4aeaaa	-0.01238505
2	0xbded1ee8	-0.115781605
3	0xbe2cd7bc	-0.16879171
4	0x3efb3862	0.49066454
5	0xbe66343b	-0.22480862
6	0xbeefbecb	-0.4682525
7	0xbf023726	-0.508654
8	0x3e5fef8a	0.2186872
9	0xbed4d4d0	-0.41568613
10	0xbf30c26d	-0.6904667
11	0x3d3aeeab	0.045637768
12	0xbd158236	-0.036501132
13	0x3d18bb3d	0.03728794
14	0xbd0785af	-0.033086475
15	0x3e3e3ec2	0.18578628
16	0xbd26578a	-0.040610828
17	0xbe2a3042	-0.16619971
18	0x3ece7ad0	0.40328074
19	0xbeca5afa	-0.39522535
20	0xbda4f38f	-0.080542676
21	0xbe032cec	-0.12810105
22	0xbe8309a6	-0.255933
23	0x3ef0c5d0	0.4702592
24	0x3e398cd0	0.18120122
25	0xbe531544	-0.20613581
26	0x3e1d6943	0.15372185
27	0xbe85bd72	-0.26121098
28	0x3d29720d	0.041368533
29	0xbe9046c8	-0.28179002
30	0xbdf3147e	-0.11869143
31	0x3e40e3c1	0.18836881
32	0xbf00ffb8	-0.50390196
33	0x3e83203d	0.25610533
34	0x3e634d0d	0.22197361
35	0xbf0ae6d4	-0.54258466
36	0x3e8707f1	0.26373246
37	0xbec1597d	-0.37763587
38	0xbf16b735	-0.588733
39	0xbbf2bcbf	-0.007407754
40	0xbe299037	-0.1655892
41	0xbedc5571	-0.43033937
42	0xbf4e765e	-0.80649364
43	0xbee7a136	-0.45240182
44	0x3d1e93e5	0.038715262
45	0xbe81d5f2	-0.2535854
46	0x3d9f62d6	0.07782523
47	0xbe2291e8	-0.15875971
48	0xbda663ed	-0.08124528
49	0xbeae8521	-0.34085944
50	0x3dd0b619	0.10190982
51	0x3cfe4c13	0.031042134
52	0xbd69ebcb	-0.057109635
53	0x3e3d7f8b	0.18505685
54	0xbe35247d	-0.176897
55	0xbe2526e2	-0.16128114
56	0xbe8985af	-0.26859805
57	0x3d6d3219	0.057909105
58	0xbe07ad9f	-0.13249825
59	0xbf2bbb3c	-0.6708257
60	0xbea96f56	-0.33092755
61	0xbd8e7971	-0.06956757
62	0xbea5e9e4	-0.32405007
63	0x3e8acddd	0.27110186
64	0xbe812c94	-0.25229323
65	0x3e1abf13	0.15111952
66	0x3eb33f22	0.35009104
67	0x3ebff905	0.37494674
68	0xbf00fe68	-0.50388193
69	0xbcca29e7	-0.024678184
70	0x3c65b5b2	0.01402037
71	0xbe968303	-0.2939683
72	0x3e26b5e4	0.16280323
73	0xbe6ef154	-0.23334247
74	0x3f04dd03	0.5189974
75	0x3e843281	0.2581978
76	0xbd2e785c	-0.042595252
77	0xbe2d5a00	-0.16928864
78	0xbe01c60d	-0.12673207
79	0x3e2d31cc	0.16913527
80	0x3db69ff2	0.08917226
81	0xbee5bcfd	-0.4487075
82	0xbdbbbf7b	-0.091673814
83	0x3e161d1e	0.14659545
84	0x3e2e7eee	0.17040607
85	0xbd21a776	-0.039466344
86	0xbe3f6ee5	-0.18694647
87	0x3e90fdcf	0.2831864
88	0xbcb7cccc	-0.022436522
89	0xbe6d1318	-0.23151815
90	0xbc898a23	-0.016789502
91	0x3f3ffc4b	0.74994344
92	0x3b9e56f8	0.004832145
93	0xbf0128df	-0.5045299
94	0xbe9fdc1d	-0.3122262
95	0x3eb64a93	0.3560377
96	0xbe8ccf2b	-0.27501807
97	0xbde86b1d	-0.11348555
98	0xbd258c2b	-0.040416878
99	0x3e390560	0.18068457
100	0x3e120852	0.14260986
101	0xbbbb1460	-0.005709216
102	0xbec3de88	-0.38255715
103	0xbe100cfa	-0.1406745
104	0xbd618795	-0.05506094
105	0xbeb5889e	-0.35455793
106	0xbd467252	-0.048448868
107	0xbe8917fc	-0.2677611
108	0xbc9b7567	-0.01897688
109	0xbe587f02	-0.211422
110	0xbf2839f5	-0.65713435
111	0xbea81dd6	-0.32835263
112	0xbee20355	-0.44143167
113	0xbe7acee0	-0.24492979
114	0xbe0f076e	-0.13967678
115	0xbed3de4b	-0.41380534
116	0xbb943203	-0.0045225634
117	0xbece64da	-0.4031132
118	0x3ddb82a2	0.107182756
119	0x3ceedf61	0.02915925
120	0x3d1c6edc	0.03819166
121	0xbe114c93	-0.14189367
122	0xbee4ebc7	-0.44711134
123	0xbe2b75be	-0.16744134
124	0x3d3defc9	0.046371255
125	0x3e8daf6b	0.27672896
126	0x3e59f3c5	0.21284397
127	0xbe7259db	-0.2366709
128	0xbe22f9ee	-0.15915653
129	0xbe150dba	-0.14556018
130	0x3cdc6833	0.026905155
131	0x3d13fb4b	0.036128324
132	0xbe24c45e	-0.16090533
133	0xbeae8639	-0.3408678
134	0x3ea0c8f5	0.31403318
135	0xbeb3c6ed	-0.35112706
136	0xbe3f3695	-0.18673165
137	0xbd18eab1	-0.037333194
138	0xbcd628c9	-0.026142495
139	0x3e84eefc	0.2596358
140	0x3e822f0d	0.25426522
141	0x3ed29a31	0.41133264
142	0xbd948068	-0.07251054
143	0xbf107d51	-0.5644122
144	0x3d2706bc	0.040777907
145	0xbf0e2c8b	-0.5553672
146	0x3eadb483	0.33926782
147	0xbedea5f8	-0.43486
148	0xbe75a142	-0.23987296
149	0x3e9f0b60	0.31063366
150	0x3ec40653	0.38286075
151	0xbe7e3101	-0.24823381
152	0xbce17a64	-0.02752418
153	0xbe6aeff4	-0.22943097
154	0xbe59eefe	-0.21282575
155	0x3e9a6130	0.30152273
156	0xbe8263d3	-0.25466785
157	0xbee940c4	-0.45557225
158	0x3de80161	0.11328388
159	0x3c8ebb5f	0.01742333
160	0x3ebff54d	0.37491837
161	0xbebf7c26	-0.37399405
162	0xbe57b7a8	-0.21066153
163	0xbee70763	-0.45122823
164	0xbe8da97b	-0.27668366
165	0x3ec3abff	0.3821716
166	0xbee12ae4	-0.43978035
167	0xbd5096c0	-0.050925016
168	0x3cb8c8c2	0.022556666
169	0xbeb2d9f3	-0.34931907
170	0x3d16b0da	0.036789753
171	0xbf0f860a	-0.560639
172	0xbd711427	-0.05885711
173	0xbe634c51	-0.22197081
174	0xbd5cff21	-0.053954247
175	0xbf07862e	-0.52939117
176	0x3eb3a68a	0.35087997
177	0x3d5fe199	0.054658506
178	0x3ebab281	0.36464313
179	0x3d84ce1b	0.06484624
180	0xbeeacf18	-0.45861125
181	0x3dc42db7	0.09579032
182	0xbeda282e	-0.4260878
183	0xbeba1f54	-0.36352026
184	0x3e5551e3	0.20832019
185	0xbe2e22bc	-0.17005438
186	0x3e4e1d72	0.2012842
187	0x3ea6c401	0.32571414
188	0xbecf17e2	-0.4044791
189	0x3d68773f	0.056754347
190	0x3da6817f	0.08130168
191	0xbe0705b6	-0.13185772
192	0xbed799e7	-0.42109606
193	0xbd31fe87	-0.043455627
194	0xbe66bba7	-0.22532521
195	0xbebdcec5	-0.37071815
196	0x3e5d371e	0.21603057
197	0xbab3a28d	-0.001370506
198	0xbcaa5f32	-0.020797346
199	0xbea9e000	-0.3317871
200	0xbe19ab92	-0.15006855
201	0x3dd7639c	0.10517046
202	0x3da48f07	0.08035093
203	0xbf3f9d6c	-0.7484958
204	0xbedcdfa9	-0.4313939
205	0xbf12a814	-0.57287717
206	0x3e03cc2c	0.12870854
207	0xbe740787	-0.23830996
208	0xbe04a742	-0.12954429
209	0xbef5f0eb	-0.48035368
210	0xbec806c5	-0.39067665
211	0xbed66fc9	-0.4188216
212	0x3eb7f6be	0.35930437
213	0xbedb963a	-0.4288805
214	0xbed35365	-0.41274562
215	0xbca7dd0f	-0.020491151
216	0x3c9e8e43	0.019354945
217	0xbe28a767	-0.16470109
218	0xbec91f93	-0.39281902
219	0x3cbc2753	0.02296797
220	0xbedc114c	-0.42981946
221	0xbe68b653	-0.22725801
222	0xbee0c2de	-0.43898672
223	0xbe28d4d3	-0.16487436
224	0xbf154f68	-0.5832429
225	0xbd6ef13c	-0.058335528
226	0xbed69996	-0.41914052
227	0xbe0a94a3	-0.13533263
228	0x3db7d0f3	0.08975401
229	0x3edf366b	0.43596205
230	0xbe53fe02	-0.20702365
231	0x3e202c31	0.15641858
232	0x3e5fd8a1	0.21859981
233	0xbd9bac24	-0.076011926
234	0xbdd094c5	-0.101846255
235	0xbeac8b00	-0.336998
236	0xbded95df	-0.11600851
237	0x3e0bc355	0.13648732
238	0xbd29e37a	-0.041476704
239	0xbeb14470	-0.34622526
240	0xbe7ea591	-0.24867846
241	0xbeb42b1a	-0.35189134
242	0xbef58f56	-0.4796092
243	0x3e724b33	0.23661499
244	0x3e16345f	0.14668415
245	0xbd0a385b	-0.03374515
246	0xbf11b935	-0.5692323
247	0xbec9e436	-0.39431924
248	0x3edb63fe	0.42849725
249	0x3d693941	0.056939367
250	0xbf24485c	-0.6417291
251	0x3e1d28de	0.15347621
252	0x3de8f2f3	0.11374464
253	0x3e26958c	0.16267985
254	0x3e711c99	0.23546065
255	0xbf227d95	-0.6347287

l2.weight f4 [200, 800]
0	0xbdad79eb	-0.0847052
1	0x3d908792	0.07057108
2	0x3d362b5d	0.04447495
3	0xbd42e362	-0.04758013
4	0x3bb0592c	0.005381724
5	0x3e128547	0.14308654
6	0xbde14a8a	-0.11000545
7	0x3d543dcb	0.051816743
8	0xbe8402ea	-0.25783473
9	0x3da03628	0.078228295
10	0x3e1b574f	0.15170024
11	0xbde12008	-0.109924376
12	0xbeae883d	-0.34088317
13	0x3cf534ef	0.029932467
14	0xbd908485	-0.07056526
15	0xbd6c0bb8	-0.057628363
16	0x3e1b2537	0.15150915
17	0x3de2ddb7	0.11077445
18	0xbe54e85f	-0.20791768
19	0xbc201b4b	-0.009772132
20	0x3d059e59	0.032621715
21	0x3c594950	0.013262108
22	0xbcf756c7	-0.030192746
23	0xbe12ab6d	-0.14323206
24	0xbe3a29ca	-0.18180004
25	0xbd9c4af5	-0.076314844
26	0x3ccf7be4	0.02532763
27	0x3dd66dba	0.104701474
28	0xbd697f6e	-0.057006292
29	0x3dd54806	0.10414128
30	0xbdc2a075	-0.09503261
31	0x3d18fab2	0.037348457
32	0xbc059d6f	-0.008155211
33	0x3e504c8b	0.20341699
34	0xbd21bdd1	-0.039487664
35	0xbe03c3c3	-0.12867646
36	0x3ceabdd0	0.028654963
37	0x3cf6b437	0.03011523
38	0x3da3d405	0.07999424
39	0xbb84a218	-0.0040476434
40	0x3c931efb	0.017959109
41	0x3d58f005	0.052963275
42	0x3dc7bfd6	0.09753387
43	0x3e40c06d	0.18823405
44	0x3e3676f8	0.1781882
45	0xbea184f8	-0.3154676
46	0xbe552d56	-0.20818076
47	0xbe92389c	-0.28558815
48	0x3cef0351	0.029176386
49	0xbd8c7e88	-0.068600714
50	0xbe379dda	-0.1793131
51	0x3d8fc69b	0.07020303
52	0xbd96b0f0	-0.07357967
53	0xbe1e7084	-0.15472609
54	0x3cb88e26	0.02252872
55	0x3d64e766	0.05588474
56	0xbd6168b2	-0.055031486
57	0xbe0cd7a4	-0.13754135
58	0x3da46448	0.0802694
59	0xbd3853fc	-0.04500197
60	0x3cbd1037	0.02307902
61	0xbd4ea707	-0.05045226
62	0x3e2b8183	0.16748624
63	0xbe013f54	-0.12621814
64	0xbe972395	-0.29519334
65	0xbe24a126	-0.16077098
66	0xbd672529	-0.056431923
67	0xbf1d0b81	-0.6134568
68	0x3daf69ae	0.08565079
69	0xbd26f4a6	-0.04076066
70	0xbe6b618a	-0.22986427
71	0xbd992759	-0.07478208
72	0xbc3e3d7a	-0.011611337
73	0x3d481f49	0.04885796
74	0xbc7ce86e	-0.015436275
75	0xbd440ee8	-0.04786578
76	0x3de09ca1	0.109673746
77	0xbd84428a	-0.06458004
78	0xbc89d735	-0.016826252
79	0xbbc63c3e	-0.006049662
80	0xbeb141ad	-0.3462042
81	0x3e57818e	0.21045515
82	0xbb4d5735	-0.0031332497
83	0x3da92a7e	0.08260058
84	0xbde43705	-0.11143307
85	0xbbafcbcb	-0.00536487
86	0x3dbc794d	0.09202824
87	0xbdaac1de	-0.083377585
88	0x3e5fdce5	0.21861608
89	0x3ddbe616	0.10737245
90	0xbe71d741	-0.23617269
91	0x3de67aa1	0.11253858
92	0xbe123478	-0.14277828
93	0x3c8870a2	0.01665527
94	0xbc85e4b6	-0.01634441
95	0x3d72cae3	0.05927552
96	0x3ad02b2e	0.0015882009
97	0xbc9a33d0	-0.018823534
98	0x3ae3ee09	0.0017389666
99	0x3cd17c5c	0.025571994
100	0x3d237942	0.039910562
101	0xbd197a6b	-0.037470262
102	0x3ca83f70	0.020538062
103	0xbdf18d0a	-0.11794479
104	0xbc823074	-0.015892245
105	0x3dae0910	0.08497822
106	0xbd4fff84	-0.050780788
107	0xbe2dda3c	-0.16977781
108	0x3ca0a7e0	0.019611299
109	0x3dcb4c54	0.09926668
110	0x3ccb52de	0.024819788
111	0xbdcf4e00	-0.10122299
112	0x3e3637e3	0.17794757
113	0xbd0c161d	-0.034200776
114	0xbce180c7	-0.027527226
115	0x3bb1f988	0.005431358
116	0xbc642945	-0.013925855
117	0x3da529ce	0.08064614
118	0xbe076ec7	-0.13225852
119	0xbe12f915	-0.1435283
120	0xbd60e2ff	-0.05490398
121	0x3da0c2ca	0.07849653
122	0x3c72b2ed	0.014813167
123	0xbba3c299	-0.004997563
124	0x3d9c59b0	0.07634294
125	0xbe607cc0	-0.21922588
126	0xbd5c853d	-0.053838003
127	0x3daa027b	0.08301254
128	0x3e81ea07	0.2537386
129	0x3d05ad2d	0.032635856
130	0xbd7cae88	-0.061689883
131	0xbd2b7bd4	-0.04186614
132	0x3c24dbd6	0.010062179
133	0xbd2a4703	-0.04157163
134	0xbc9b66f6	-0.018969994
135	0xbcf0b094	-0.029381074
136	0xbe26c0d1	-0.16284491
137	0x3b65c1e0	0.0035058185
138	0xbd84a9f4	-0.064777285
139	0xbdd44005	-0.10363773
140	0xbd39d1b6	-0.04536601
141	0x3a805dbb	0.0009793559
142	0xbdc7603c	-0.09735152
143	0x3db15961	0.08659626
144	0xbec8c77e	-0.392147
145	0xbd0ce69e	-0.03439962
146	0xbce0b95b	-0.027432134
147	0xbdc02ea7	-0.09383898
148	0x3ce0a5d8	0.02742283
149	0xbc06b435	-0.008221676
150	0xbe24a3e8	-0.1607815
151	0x3d82d513	0.06388297
152	0xbdd2028d	-0.10254393
153	0xbe30586b	-0.17221229
154	0xbe406188	-0.18787205
155	0x3d558461	0.0521282
156	0x3e030b00	0.12797165
157	0x3e64be53	0.22338228
158	0xbcc459b4	-0.023968555
159	0xbd59b67b	-0.053152543
160	0xbd2ce9a0	-0.04221499
161	0x3d96200f	0.073303334
162	0xbd24cf23	-0.040236603
163	0x3d467331	0.0484497
164	0x3d44811f	0.047974702
165	0xbb26c8bb	-0.0025449235
166	0xbd7a97dc	-0.06117998
167	0xbd0a8d7b	-0.033826333
168	0x3df33f5b	0.118773185
169	0xbd933a6f	-0.0718888
170	0x3d57cc00	0.052684784
171	0x3d5c028d	0.05371337
172	0xbe299598	-0.16560972
173	0xbb14a77b	-0.0022682834
174	0x3dab2e74	0.083584696
175	0x3ca0c1ba	0.019623626
176	0xbea63550	-0.3246255
177	0xbe2d99a2	-0.16953138
178	0xbde63de9	-0.11242277
179	0xbdbb998d	-0.09160147
180	0x3d5a9c50	0.053371727
181	0x3d4ea131	0.050446693
182	0x3c6abef9	0.014327758
183	0xbcbad02b	-0.02280434
184	0xbd8b6f92	-0.0680839
185	0x3cbeecf1	0.023306342
186	0xbc7f956f	-0.015599593
187	0xbd801d0e	-0.06255542
188	0xba1f036a	-0.00060658774
189	0x3d9639d5	0.07335249
190	0x3dfed6d2	0.124433175
191	0xbce7d889	-0.028301494
192	0x3df252eb	0.118322216
193	0xbdbdcb6f	-0.092673175
194	0xbd40e72c	-0.047095463
195	0xbda98bdb	-0.082786284
196	0x3d9f649b	0.07782861
197	0x3d0dd4d1	0.034626786
198	0x3c4674d0	0.012112811
199	0x3d481aa7	0.048853543
200	0x3cb49fd0	0.02204886
201	0x3d0dddc3	0.034635317
202	0x3d9fa34d	0.07794819
203	0xbe9744ce	-0.2954468
204	0xbc905eff	-0.017623423
205	0x3da49674	0.08036509
206	0x3d89f77a	0.067366555
207	0x3d5a56b1	0.05330533
208	0x3e39194a	0.18076053
209	0xbd16b49d	-0.03679334
210	0x3e2e8f81	0.1704693
211	0x3e26e91f	0.16299866
212	0x3e209054	0.15680057
213	0xbd96dc21	-0.07366205
214	0x3da67713	0.0812818
215	0xbd953713	-0.07285895
216	0xbc2f886f	-0.010713681
217	0xbdbf74fa	-0.093484834
218	0x3ca316d9	0.019908356
219	0xbe6ba0a9	-0.23010506
220	0x3d19b5c4	0.03752686
221	0xbe76bec3	-0.24096207
222	0xbcc37435	-0.023859123
223	0x3c205072	0.009784805
224	0x3d8eda9d	0.06975291
225	0xbcf3e614	-0.029772796
226	0x3d7187d0	0.05896741
227	0xbe0b1957	-0.13583885
228	0xbe8b9349	-0.27260807
229	0xbd33006a	-0.043701567
230	0x3d19aa33	0.03751583
231	0xbe1a80a3	-0.15088134
232	0xbe0d26ac	-0.13784283
233	0xbec6a538	-0.38797927
234	0x3d444613	0.04791839
235	0x3e479863	0.19491725
236	0x3dc8858c	0.09791097
237	0xbdb74fa0	-0.08950734
238	0x3cf4cba4	0.02988226
239	0xbc13a0ca	-0.009010503
240	0x3d8849b3	0.06654682
241	0x3dc50ca7	0.09621554
242	0x3e17273e	0.14761063
243	0x3cce831c	0.025209002
244	0xbdb06388	-0.08612734
245	0xbd50a4a6	-0.05093827
246	0xbbd80e64	-0.0065935124
247	0xbe0b8dd2	-0.13628319
248	0x3dd51966	0.10405235
249	0xbe9f845f	-0.3115568
250	0xbeb881a9	-0.36036423
251	0xbe27d744	-0.16390711
252	0x3dba14e8	0.09086019
253	0xbe68fcd0	-0.2275269
254	0xbd69c4bd	-0.05707239
255	0xbcbf1b91	-0.023328574

l2.bias f4 [200]
0	0xbc753d17	-0.014968178
1	0x3c0dce88	0.008655198
2	0xbd495900	-0.049157143
3	0xbe0e6370	-0.1390512
4	0xbe04480b	-0.12918107
5	0xbe13d5bb	-0.14437
6	0x3dbc8415	0.0920488
7	0xbe192c62	-0.14958337
8	0x3e117ff9	0.14208974
9	0xbc6cf297	-0.014462135
10	0x3ca35693	0.019938743
11	0xbdee1448	-0.11624962
12	0xbe940307	-0.2890856
13	0xbd42ba76	-0.047541104
14	0xbdba106c	-0.090851635
15	0x3c67be85	0.0141445445
16	0xbec530d2	-0.3851381
17	0xbd688b69	-0.056773577
18	0x3da371eb	0.079807125
19	0x3e10b2e7	0.14130746
20	0x3c2cf0d4	0.010555465
21	0x3dc59834	0.09648171
22	0xbe3576dc	-0.17721123
23	0x3d4dac26	0.050213
24	0xbd85a6c5	-0.065259494
25	0xbe305905	-0.17221458
26	0xbe1abfb8	-0.15112197
27	0xbe892552	-0.26786286
28	0xbd2be3ea	-0.041965403
29	0x3d8f918a	0.07010181
30	0x3e935c3b	0.28781304
31	0xbc94bcf7	-0.018156512
32	0x3d3f2651	0.0466674
33	0x3c62b794	0.013837714
34	0xbde7ee12	-0.11324705
35	0x3e944cbc	0.28964794
36	0xbd8d2b3e	-0.068930134
37	0xbd9e85b9	-0.07740349
38	0xbdd4d717	-0.10392588
39	0xbe8bc777	-0.27300617
40	0xbdcb463d	-0.09925506
41	0x3b535632	0.0032247421
42	0xbd55619f	-0.05209505
43	0x3e16582a	0.1468207
44	0xbd0c0b5c	-0.03419052
45	0x3c73b74b	0.014875243
46	0x3e5ca46e	0.215471
47	0xbcb1a1f8	-0.021683678
48	0x3c9d86bc	0.019229285
49	0xbebc8604	-0.36820996
50	0x3d908cfa	0.07058139
51	0x3e2c801c	0.16845745
52	0xbbf4a314	-0.0074657295
53	0xbc20f939	-0.009825044
54	0xbd9bdb68	-0.07610208
55	0x3e56a38e	0.20960829
56	0xbebc7d32	-0.36814266
57	0xbd0b2e1d	-0.033979524
58	0xbd950566	-0.0727642
59	0xbed60db8	-0.41807342
60	0x3d7a3138	0.061082095
61	0xbce65f0a	-0.02812149
62	0xbd45434f	-0.048159894
63	0xbda9ecaa	-0.08297093
64	0xbe2ba7b0	-0.16763186
65	0xbc97a0df	-0.018509327
66	0xbe0e58b4	-0.13901025
67	0xbd17e4a5	-0.037083287
68	0x3e0d5cca	0.13804927
69	0xbd819db7	-0.0632891
70	0x3d501817	0.050804224
71	0xbcaef120	-0.021355212
72	0x3e4fa4c1	0.20277692
73	0x3d9c8116	0.07641809
74	0x3c1c6e6b	0.00954781
75	0x3e41d3b3	0.18928413
76	0x3be3f07a	0.0069561573
77	0xbda74d88	-0.08169085
78	0xbd1df2ef	-0.038561758
79	0xbdfe33e1	-0.12412239
80	0xbdaac3b0	-0.08338106
81	0xbe06f8f6	-0.13180909
82	0xbca52230	-0.020157903
83	0xbdede2bd	-0.116155125
84	0xbdcbdf2e	-0.099546775
85	0xbdfae24d	-0.12250195
86	0x3dbcb48a	0.092141226
87	0x3df4a304	0.11945155
88	0xbd869a83	-0.065724395
89	0xbbd4bcf1	-0.00649225
90	0x3c1f2c51	0.009715156
91	0x3da1f997	0.079089336
92	0x3c8def97	0.01732616
93	0xbe45977d	-0.1929607
94	0xbe63ae5d	-0.22234483
95	0x3e41f667	0.18941651
96	0x3d8d0066	0.068848416
97	0x3cfbc374	0.030732848
98	0x3bf30fe1	0.0074176644
99	0x3ab7bd3d	0.0014018189
100	0xbe4f80b3	-0.20263939
101	0xbd29ddca	-0.04147128
102	0x3d93acfd	0.07210729
103	0xbd5b6ebd	-0.053572405
104	0xbccb665e	-0.024829086
105	0xbd625546	-0.055257104
106	0x3d0a335b	0.033740383
107	0xbcfe5778	-0.031047568
108	0xbe02c59e	-0.12770697
109	0x3c7b210a	0.015327701
110	0x3db5e37b	0.08881279
111	0xbe369a6b	-0.17832343
112	0xbd9de895	-0.07710377
113	0xbd1c9d37	-0.03823587
114	0xbe9a95bc	-0.30192363
115	0xbe677388	-0.22602665
116	0xbe3d288a	-0.18472496
117	0x3e2728fd	0.1632423
118	0xbd9191c5	-0.071078815
119	0x3e851c06	0.25997943
120	0x3db5278d	0.08845434
121	0xbda8900b	-0.08230599
122	0xbde8e899	-0.113724895
123	0x3dc45c60	0.09587932
124	0x3cebe4f3	0.028795695
125	0xbde103a2	-0.10987021
126	0x3ce0804f	0.027404932
127	0xbc05798e	-0.008146657
128	0xbdaa1f7e	-0.08306788
129	0xbdeeab98	-0.11653823
130	0x3c83c990	0.016087323
131	0x3cb5a503	0.02217341
132	0x3e3c6e55	0.18401463
133	0xbde76789	-0.11299045
134	0xbc881593	-0.01661185
135	0xbd9af1e1	-0.07565666
136	0xbd75ca4f	-0.06000739
137	0x3b240aee	0.0025030929
138	0xbd49ccc9	-0.049267564
139	0xbba866a3	-0.0051391884
140	0x3d1ce05a	0.038299896
141	0xbab07f0d	-0.0013465598
142	0x3c8380dc	0.016052656
143	0x3c84bd36	0.016203504
144	0xbbcaaa72	-0.0061848694
145	0xbcea052d	-0.028566921
146	0x3cb43ff6	0.022003155
147	0x3deea201	0.116519935
148	0xbd3acbc9	-0.0456045
149	0x3e04e078	0.12976253
150	0xbccfc8c8	-0.025364295
151	0x3bff177f	0.0077847834
152	0xbe69a206	-0.22815713
153	0xbd1c6d6b	-0.038190287
154	0x3d8d404e	0.06897031
155	0xbcdb238b	-0.026750347
156	0xbdaca507	-0.08429914
157	0xbdd82a49	-0.1055494
158	0x3da8f0c7	0.0824905
159	0x3e2cea25	0.16886194
160	0x3db68b64	0.089133054
161	0x3d30585a	0.04305301
162	0xbda63960	-0.08116412
163	0x3dc74651	0.09730209
164	0xbcd13b3c	-0.02554094
165	0xbebe6dd1	-0.37193158
166	0x3c112151	0.008858041
167	0x3c326fde	0.010890929
168	0xbe830a7f	-0.25593945
169	0xbd0ba735	-0.034095008
170	0x3e358a63	0.17728572
171	0xbd2f1eb0	-0.042753875
172	0xbe0579ab	-0.13034694
173	0x3c1a0c50	0.00940235
174	0xbc4ecb8f	-0.012621774
175	0x3de553b5	0.111976065
176	0xbe9a0774	-0.3008381
177	0xbde9f711	-0.11424077
178	0xbec011f8	-0.3751371
179	0x3dda7385	0.10666565
180	0x3de72d8d	0.11287985
181	0xbe886d92	-0.26646096
182	0xbe5d717c	-0.21625322
183	0xbd808e64	-0.06277159
184	0xbcfed7dc	-0.03110879
185	0xbe537ba5	-0.20652635
186	0x3ce462d3	0.027879154
187	0x3e3db77f	0.1852703
188	0x3dec2581	0.11530591
189	0x3cda9f1a	0.026687194
190	0x3e533987	0.20627414
191	0xbe4f9c85	-0.20274551
192	0xbc335849	-0.010946342
193	0xbd1750b7	-0.03694221
194	0x3d97e76c	0.07417187
195	0xbd7748a9	-0.06037203
196	0x3de20eb3	0.1103796
197	0x3d9a9b4e	0.07549153
198	0xbd42f663	-0.047598254
199	0xba22e8b7	-0.0006214487

l3.weight f4 [6, 200]
0	0x3f08b4dd	0.53400975
1	0xbf575afa	-0.84123194
2	0x3e47c178	0.19507396
3	0x3ddb3f22	0.10705401
4	0xbea5b1f4	-0.3236233
5	0x3ca46eb2	0.020072315
6	0xbdb0e99d	-0.08638308
7	0x3dca46f8	0.098768175
8	0x3e845648	0.25847077
9	0x3d4ec111	0.05047709
10	0xbdf551a1	-0.1197846
11	0xbe4d9b18	-0.20078695
12	0xbe5354d4	-0.20637828
13	0xbd1dd620	-0.038534284
14	0x3bc53aff	0.006018996
15	0x3cafeb3a	0.02147447
16	0x3f250eb0	0.64475536
17	0xbdc52cab	-0.0962766
18	0x3e47c1b5	0.19507487
19	0x3e7dab74	0.24772435
20	0x3f2bb7ac	0.67077136
21	0xbd6bddf2	-0.05758471
22	0x3effbbbc	0.49947917
23	0x3c82c23b	0.015961757
24	0xbdd3cbbc	-0.103415936
25	0x3df34310	0.118780255
26	0xbead8823	-0.33892927
27	0xbe100f06	-0.14068231
28	0xbd313276	-0.043261014
29	0xbe7af97c	-0.24509233
30	0x3e83eec4	0.257681
31	0x3c23e009	0.010002145
32	0x3e03b59e	0.1286225
33	0x3eb0c1c1	0.34522822
34	0x3d4197aa	0.04726378
35	0x3e340112	0.17578533
36	0xbe5cfeb2	-0.21581534
37	0x3d94fd6b	0.07274898
38	0xbe1e0cb1	-0.15434529
39	0xbde77c67	-0.11303025
40	0xbe9062fe	-0.28200525
41	0x3d8e3f36	0.0694565
42	0x3e68ed9b	0.2274689
43	0x3db51c24	0.08843258
44	0xbd41fd52	-0.047360726
45	0x3f0d029c	0.55082107
46	0x3f82ce00	1.0219116
47	0x3c96cf1b	0.018409302
48	0xbc4bb535	-0.01243334
49	0xbeb9a78e	-0.36260647
50	0xbde37fbc	-0.11108348
51	0x3e8c8300	0.27443695
52	0xbbc13769	-0.005896498
53	0x3d020b18	0.03174886
54	0xbf28acc7	-0.6588864
55	0x3e239764	0.1597572
56	0xbf12971f	-0.5726184
57	0x3e07b581	0.13252832
58	0x3db939a0	0.09044194
59	0xbe281a30	-0.1641624
60	0xbe21251d	-0.15736814
61	0xbcca0aad	-0.024663294
62	0xbe0ee143	-0.13953118
63	0xbcc4ddf6	-0.02403162
64	0xbde74795	-0.1129295
65	0x3e38db96	0.18052515
66	0xba984210	-0.0011616368
67	0x3dc46d45	0.09591154
68	0x3d9659e8	0.07341367
69	0x3e1195d7	0.14217316
70	0x3d5e4eaa	0.05427424
71	0x3dd48196	0.10376279
72	0x3e226aea	0.15861097
73	0xbe62473d	-0.22097488
74	0xbea2ec77	-0.31821033
75	0x3f4f66b4	0.8101609
76	0xbe2c47d4	-0.16824275
77	0x3ddfd89e	0.10929988
78	0x3d0981f6	0.033571206
79	0xbe5f206c	-0.21789712
80	0xbe23a76c	-0.15981835
81	0x3ea1babd	0.31587783
82	0x3e3ae9f2	0.18253306
83	0x3c0eb808	0.008710869
84	0xbdbd8a53	-0.09254899
85	0xbe0dcfb4	-0.13848764
86	0xbea0633b	-0.31325707
87	0x3e8b8e63	0.2725707
88	0xbe024a0c	-0.12723559
89	0xbf053b87	-0.52043957
90	0xbcc036fd	-0.02346372
91	0xbd30e1bf	-0.04318404
92	0xbc4657d1	-0.012105898
93	0x3d9933d3	0.07480588
94	0x3ef23fda	0.4731434
95	0xbe7b8d56	-0.24565634
96	0x3cc28edf	0.023749767
97	0xbe11e322	-0.142468
98	0xbd65635e	-0.056002967
99	0x3d475b0a	0.048670806
100	0x3e5a7c15	0.21336396
101	0xbde52492	-0.11188616
102	0x3edcb0ce	0.4310364
103	0xbe8526eb	-0.26006255
104	0xbd14b151	-0.036301915
105	0xbc8d9037	-0.017280681
106	0x3da973ff	0.082740776
107	0x3c436552	0.011926012
108	0x3ee8648e	0.45389217
109	0xbd086921	-0.033303384
110	0xbefb2107	-0.49048635
111	0x3dc93d15	0.098261036
112	0x3e5fafa7	0.2184435
113	0x3bd8ddef	0.0066182534
114	0x3f2c3f04	0.67283654
115	0xbe4276e0	-0.1899066
116	0x3e925f73	0.28588447
117	0xbd9a9726	-0.075483605
118	0xbd5008fb	-0.050789814
119	0x3e0579a2	0.1303468
120	0xbe0dbb75	-0.1384104
121	0x3ed9bf83	0.42528924
122	0xbe60a364	-0.21937329
123	0x3ecefc6c	0.40426958
124	0xbdd43078	-0.10360807
125	0x3ed664f1	0.41873887
126	0xbc737f81	-0.014861942
127	0x3d7c0e44	0.061537042
128	0xbef8d30a	-0.4859851
129	0x3eae299a	0.34016114
130	0xbd389843	-0.045067083
131	0xbd83f63e	-0.06443451
132	0x3d0e2f02	0.0347128
133	0xbe54f4ed	-0.20796557
134	0xbe428501	-0.1899605
135	0x3e93346b	0.2875093
136	0xbddb9dea	-0.10723479
137	0xbbfba754	-0.007679859
138	0xbd93eb33	-0.07222595
139	0x3dabe522	0.08393313
140	0x3f6a86c5	0.9161189
141	0x3f4844cc	0.78229976
142	0x3d1204f3	0.03564925
143	0x3d43859a	0.047734834
144	0x3e8bbcbc	0.2729243
145	0xbe7da1b6	-0.24768719
146	0xbd857f74	-0.065184504
147	0x3eb7b927	0.35883448
148	0x3de812f5	0.11331741
149	0x3dde4d6c	0.10854611
150	0x3d12072f	0.035651382
151	0x3d200e93	0.0390764
152	0xbf07ff42	-0.5312387
153	0x3ed79b45	0.4211065
154	0xbe8e05ec	-0.27738893
155	0x3cadb287	0.021203293
156	0xbe22fc76	-0.15916619
157	0x3ce466f3	0.027881121
158	0x3f309d66	0.6899017
159	0x3df425d5	0.119212784
160	0x3e0c3b3e	0.13694474
161	0xbe9911f4	-0.2989651
162	0xbdd5b470	-0.10434806
163	0x3cafca65	0.021458814
164	0x3e8c8ff8	0.2745359
165	0xbe26e916	-0.16299853
166	0x3c9f5601	0.01945019
167	0xbb5e19f3	-0.0033889979
168	0xbe7c9536	-0.24666294
169	0xbd2483e3	-0.04016484
170	0xbca6cd50	-0.020361573
171	0x3db7ae32	0.08968772
172	0x3dfd30e8	0.12362844
173	0x3c2c98bd	0.0105344625
174	0xbd3d23ee	-0.046176843
175	0x3af90dfc	0.001900136
176	0xbe1290ff	-0.14313124
177	0x3ee9e096	0.45679158
178	0xc00679e6	-2.10119
179	0xbe9a25be	-0.3010692
180	0x3e0b7cd8	0.13621843
181	0xbd2a1e2a	-0.041532673
182	0xbe158763	-0.14602427
183	0xbe8194df	-0.25308892
184	0x3dbe3994	0.09288326
185	0x3bd3673a	0.0064515145
186	0xbc9fb535	-0.019495586
187	0x3f292a64	0.6608031
188	0x3ea7eb9b	0.3279694
189	0xbeb47283	-0.35243616
190	0xbd4a570b	-0.049399417
191	0xbe8c111b	-0.273568
192	0xbc263e80	-0.010146737
193	0xbdaa3d2d	-0.083124496
194	0xbee32853	-0.44366702
195	0x3df30f95	0.118682064
196	0x3e08f44b	0.1337444
197	0xbc6f26a4	-0.014596615
198	0xbeefce6b	-0.46837172
199	0xbd357833	-0.044304084
200	0xbe430e63	-0.19048457
201	0x3e3e7b98	0.18601835
202	0xbdd111fa	-0.10208507
203	0x3ec8d06c	0.39221513
204	0x3f14c25c	0.5810907
205	0xbf05c670	-0.52255917
206	0x3e161fd4	0.14660579
207	0xbe99fa35	-0.30073705
208	0x3d38e3ac	0.045139
209	0x3ed648f0	0.41852522
210	0x3d122b9b	0.035686117
211	0xbdffa5ca	-0.12482794
212	0xbf1810c5	-0.5940059
213	0x3ea25b08	0.31710076
214	0xbed562f1	-0.4167705
215	0xbd3fd8ba	-0.046837546
216	0x3f155fed	0.58349496
217	0xbe3a707f	-0.18206976
218	0x3db6d588	0.089274466
219	0xbe625ece	-0.22106478
220	0x3dd36b0e	0.103231534
221	0xbd8410fb	-0.06448551
222	0xbe3e3e48	-0.18578446
223	0x3ec108af	0.37701938
224	0xbe17fe59	-0.1484312
225	0x3f0399f0	0.51406765
226	0xbd960c62	-0.073265806
227	0xbebe5cba	-0.3718012
228	0xbc06b5f5	-0.008222093
229	0xbe651f75	-0.22375281
230	0x3dea85a5	0.11451272
231	0xbd895146	-0.06704955
232	0xbe406324	-0.18787819
233	0xbe08f97e	-0.13376424
234	0xbeb5e0a5	-0.35522953
235	0x3d8284ac	0.063729614
236	0xbe9ca8cc	-0.30597532
237	0x3e4a43b2	0.19752386
238	0x3f1bee7c	0.60910773
239	0xbe317c9d	-0.17332692
240	0xbf0efcc8	-0.55854464
241	0xbe9e2c39	-0.30893114
242	0x3ee303df	0.4433889
243	0x3ec583db	0.3857716
244	0xbda3b0cd	-0.079927064
245	0xbe9b139e	-0.30288404
246	0x3ea107e7	0.31451342
247	0xbd3ceb23	-0.04612268
248	0xbd81eebb	-0.06344362
249	0xbe24b0e9	-0.16083111
250	0x3e83f99e	0.2577638
251	0xbdd7ee97	-0.10543554
252	0x3ca94975	0.02066491
253	0xbc66be2a	-0.014083425
254	0x3ec785e2	0.38969332
255	0xbd0cd8de	-0.03438651

l3.bias f4 [6]
0	0x3dc36c45	0.09542135
1	0x3ccc7322	0.024957243
2	0xbd5cee30	-0.05393809
3	0x3dfa0db2	0.122096434
4	0x3dc7e4a8	0.097604096
5	0xbdcbf57f	-0.09958934
