DDPG/local_checkpoint/Walker2d-v2(orginal)/('critic', 5).ckpt (torch, 720343 bytes, 5 tensors)

l1.weight f4 [800, 23]
0	0xbf4eab9d	-0.8073061
1	0xbeb10ad9	-0.3457859
2	0xbf6674e3	-0.90022105
3	0x3efffb5e	0.49996465
4	0xbece6770	-0.40313292
5	0x3f47d586	0.78060186
6	0xbe8969ae	-0.2683844
7	0xbf425969	-0.7591768
8	0xbf101f23	-0.5629751
9	0x3c6612aa	0.014042536
10	0x3e78cd41	0.24297048
11	0xbda85dc3	-0.08221009
12	0xbcf8ca8d	-0.030370021
13	0xbccb4809	-0.024814622
14	0xbac5f00c	-0.0015101447
15	0x3e13669e	0.14394614
16	0xbe00e5f5	-0.12587722
17	0xbe49b066	-0.19696197
18	0x3d84205b	0.06451484
19	0xbd37feea	-0.04492084
20	0xbd333371	-0.04375023
21	0xbec4b005	-0.38415542
22	0xbdca1dee	-0.0986899
23	0x3c359a30	0.011084124
24	0xbc09eb21	-0.0084178755
25	0x3f63f079	0.8903881
26	0xbc90b069	-0.017662244
27	0xbf4dc6aa	-0.8038126
28	0x3f1ed675	0.62045985
29	0x3e0e114d	0.13873787
30	0xbf753f88	-0.95800066
31	0xbd442bfc	-0.04789351
32	0xbe82647f	-0.25467297
33	0xbe895bf0	-0.26827955
34	0xbce9f73f	-0.028560279
35	0xbcf7316e	-0.030174937
36	0xbd83cc17	-0.064354114
37	0x3e9dc404	0.3081361
38	0x3db44efa	0.08804126
39	0x3d2f8fd5	0.04286178
40	0xbd87e719	-0.06635875
41	0xbc9d113b	-0.019173255
42	0xbc1854c2	-0.009297552
43	0xbe3021d5	-0.17200406
44	0xbeb94611	-0.3618627
45	0x3f317d15	0.69331485
46	0x3e904e63	0.28184804
47	0x3da17a26	0.07884626
48	0xbdee29a8	-0.11629039
49	0xbdfe618f	-0.124209516
50	0x3eb3b356	0.3509776
51	0xbd56b39e	-0.05241739
52	0xbdac8593	-0.08423915
53	0xbc8135b0	-0.01577267
54	0x3e9a2fe1	0.30114654
55	0x3d981166	0.074251935
56	0xbe1ab774	-0.15109044
57	0xbd8ec5f5	-0.06971351
58	0xbb3ead3f	-0.0029094962
59	0x3c2a77c1	0.010404528
60	0xbc021fa8	-0.007942118
61	0x3ddf46e0	0.1090219
62	0xbb14a987	-0.0022684054
63	0x3d2eff5a	0.04272399
64	0x3e6094bc	0.21931738
65	0x3c54ff2c	0.013000291
66	0x3da65f4e	0.08123647
67	0x3e9089d2	0.2823015
68	0x3c05ad8d	0.0081590535
69	0x3dee8135	0.11645738
70	0x3faa984d	1.3327729
71	0xbdd471c6	-0.10373263
72	0xbeb1dfa9	-0.34740952
73	0x3f4bb2b8	0.7956958
74	0xbf1ad6cb	-0.60484
75	0x3f8f6598	1.1202879
76	0x3efcae68	0.4935181
77	0x3db85e4d	0.090023614
78	0x3f401814	0.7503674
79	0xbe85ee08	-0.26158166
80	0xbe829d15	-0.2551047
81	0xbcfad84b	-0.030620715
82	0x3c5b1296	0.01337113
83	0x3e32aff3	0.17449932
84	0x3e0ed8af	0.13949846
85	0x3c1f69d8	0.009729825
86	0xbd168a5b	-0.03675304
87	0xbdbcd1cd	-0.09219704
88	0x3d01887e	0.03162431
89	0xbe328d89	-0.17436804
90	0xbd124aa0	-0.0357157
91	0xbe3a9a31	-0.18222882
92	0xbfaed727	-1.3659409
93	0xbf0273bf	-0.50957865
94	0x3f0c64dd	0.54841405
95	0x3f8a81da	1.0820878
96	0xbdce6792	-0.10078348
97	0x3f53ab00	0.826828
98	0x3f976f6b	1.1830877
99	0xbdf08c5f	-0.11745524
100	0xbd9eaf16	-0.07748239
101	0xbf3b0a19	-0.7306228
102	0x3e61d615	0.22054322
103	0x3e0c26a0	0.1368661
104	0x3d78b99e	0.060723893
105	0xbdf1ca08	-0.118061125
106	0xbdeaa1f4	-0.11456671
107	0xbe6864f7	-0.22694765
108	0x3d2fdaaa	0.042933144
109	0xba81cea7	-0.0009903506
110	0xbe8936b8	-0.2679956
111	0x3e6830d2	0.22674873
112	0x3e4b3ce0	0.1984744
113	0xbf6ec2e1	-0.9326611
114	0xbf543de6	-0.8290695
115	0x3da5d39a	0.080970004
116	0x3e7d6f23	0.24749427
117	0x3f9092c1	1.1294786
118	0x3f89065e	1.0705068
119	0x3d80fcaf	0.062981956
120	0xbf146a25	-0.57974464
121	0xbdc7eecf	-0.09762346
122	0xc0075e51	-2.1151316
123	0xbeee4289	-0.46535137
124	0x3ec51849	0.3849509
125	0x3dccdb0c	0.100027174
126	0xbd98ac7f	-0.07454776
127	0xbd4a37a5	-0.049369473
128	0xbcccc340	-0.024995446
129	0x3d7599d9	0.059961174
130	0x3d6652f9	0.056231473
131	0xbdb7706d	-0.089569904
132	0xbe46b3bc	-0.194045
133	0x3f008336	0.5020021
134	0xbe58390d	-0.21115513
135	0x3e87ce6b	0.26524672
136	0x3d4e578a	0.050376453
137	0x3d123960	0.03569925
138	0xbd3eaa4e	-0.046549134
139	0x3ec0c622	0.37651163
140	0xbe426613	-0.1898425
141	0xbe53d95d	-0.20688386
142	0xbe1c3496	-0.15254435
143	0xbef4dc74	-0.47824442
144	0xbe4d7a7e	-0.20066258
145	0x3dc470bf	0.09591817
146	0xbec80f6d	-0.3907427
147	0x3f25dc88	0.6478963
148	0x3e576b30	0.21036983
149	0x3d64402b	0.055725258
150	0x3ded28f6	0.11580078
151	0x3c8d436e	0.017244067
152	0xbe3627f6	-0.17788681
153	0xbc7a71ee	-0.015285952
154	0x3d37e646	0.04489734
155	0xbd142e8b	-0.0361772
156	0xbd433784	-0.047660366
157	0xbc06e3d8	-0.008233033
158	0xbd7089fa	-0.058725335
159	0x3d291a2c	0.041284725
160	0x3dc3ca12	0.09560026
161	0xbf4a1d3b	-0.7895085
162	0x3f73902f	0.9514188
163	0x3feab7af	1.8337306
164	0x3fa5cb40	1.2952652
165	0xbee0462e	-0.43803543
166	0x406820b6	3.6269965
167	0x3ef416ba	0.4767359
168	0xbfcfab4d	-1.6224152
169	0x3ef7184b	0.48260722
170	0x3ee7594a	0.4518531
171	0xbd616629	-0.05502907
172	0x3e1bcfd2	0.15215996
173	0x3d9d559b	0.076823436
174	0xbd31008c	-0.043213412
175	0x3ce87870	0.028377742
176	0x3dbe9a38	0.09306759
177	0x3b8a2cab	0.0042167506
178	0x3ebd65e4	0.369918
179	0xbe45390e	-0.19260046
180	0x3dbde55e	0.09272264
181	0xbbfc204c	-0.00769428
182	0xba55c963	-0.0008155314
183	0xbe5ebaeb	-0.21750991
184	0xbf15a64a	-0.5845686
185	0xc0202c24	-2.5026941
186	0x3f276fae	0.65404785
187	0x3f992773	1.1965164
188	0x3e0c5e70	0.137079
189	0x40301119	2.7510436
190	0x3f561ff8	0.8364253
191	0x3e3d31a1	0.18475963
192	0xbf76a3c6	-0.9634365
193	0x3e5f7a7c	0.21824068
194	0xbc962e51	-0.018332632
195	0x3d7ae40e	0.061252646
196	0x3d2abc21	0.04168332
197	0xb9cbbb47	-0.0003885871
198	0x3d2df21c	0.04246722
199	0x3d7e7cbf	0.062130686
200	0x3ca804f4	0.020510174
201	0x3c3d2ffc	0.011547085
202	0x3cedd383	0.02903152
203	0xbdb5741a	-0.08860035
204	0x3d4cc883	0.04999591
205	0x3ddd6466	0.10810165
206	0xbcab32c5	-0.020898232
207	0xbf296183	-0.66164416
208	0xbedb0084	-0.4277383
209	0x3ea86e8b	0.32896838
210	0x3fb148a0	1.3850288
211	0x3efa7766	0.4891922
212	0x4012cda0	2.2938004
213	0x400ad34f	2.1691473
214	0xbe30f0ba	-0.1727933
215	0x3ec3051a	0.3808983
216	0xbc0c0cd2	-0.0085479785
217	0x3dde18da	0.10844584
218	0xbe6e2809	-0.2325746
219	0xbdda50a4	-0.10659912
220	0x3e41e1ba	0.18933764
221	0x3e6e6dbc	0.23284048
222	0x3e47f4b0	0.19526935
223	0xbd9ecba6	-0.077536866
224	0xbe8ac005	-0.27099624
225	0x3c5d8e86	0.01352275
226	0x3e879aef	0.26485392
227	0xbe0cff45	-0.13769253
228	0xbe39c444	-0.18141276
229	0x3e2a5d72	0.16637209
230	0xbce181aa	-0.027527649
231	0xbee909a2	-0.45515162
232	0x3e0edb05	0.13950737
233	0x3d005ca7	0.03133836
234	0xbe9cec7d	-0.30649176
235	0xbeb7fcff	-0.35935208
236	0xbdb367b5	-0.08760015
237	0xbe690d18	-0.22758901
238	0x3e17c474	0.14821035
239	0x3e8ae100	0.27124786
240	0x3d188134	0.037232593
241	0xbd81ddc6	-0.06341128
242	0xbca46826	-0.020069193
243	0xbd8d9de9	-0.069148846
244	0xbba2e02c	-0.004970571
245	0x3d2c6ed2	0.042097874
246	0xbd3f044d	-0.04663496
247	0xbd927a9c	-0.07152292
248	0x3d8d360f	0.068950765
249	0xbc0435d4	-0.008069474
250	0xbe28dda7	-0.16490804
251	0x3d0131dd	0.031541694
252	0xbd79fe88	-0.061033756
253	0xbfcffceb	-1.624906
254	0xbf6efe18	-0.93356466
255	0xbf11c62d	-0.5694302

l1.bias f4 [800]
0	0xbf74da0d	-0.9564522
1	0x3e15917e	0.14606282
2	0x3fad8584	1.3556371
3	0x3e9fa834	0.31183016
4	0xbf11df28	-0.56981134
5	0xbed2ae27	-0.41148493
6	0x3fa77ffe	1.3085935
7	0xbe9806bd	-0.2969264
8	0xbe799102	-0.24371722
9	0xbe4df6bd	-0.20113654
10	0x3f7b5331	0.98173815
11	0xbddd90f3	-0.108186625
12	0xbcb9bad5	-0.022672096
13	0xbf84e8d7	-1.0383557
14	0xbecababf	-0.395956
15	0x3f8d973b	1.1061777
16	0xbf50d663	-0.8157713
17	0xbf39722e	-0.7243985
18	0xbcbcb642	-0.023036126
19	0xbe24ac27	-0.16081296
20	0x3e17915e	0.14801547
21	0xbead65b6	-0.33866662
22	0x3f824c26	1.0179489
23	0x3e248619	0.16066779
24	0xbb022391	-0.0019857625
25	0xbd1957e3	-0.03743733
26	0xbf1ca2b8	-0.6118579
27	0x3f892337	1.0713872
28	0xbf11655b	-0.5679528
29	0xbec905f9	-0.3926237
30	0xbf34f5b1	-0.70687395
31	0x3f27c714	0.65538144
32	0xbec0e585	-0.3767511
33	0x3f360219	0.7109695
34	0x3efaf962	0.4901839
35	0x3d95f821	0.073227175
36	0xbf54671c	-0.8296983
37	0xbebeea86	-0.37288302
38	0x3fae471a	1.3615448
39	0x3fa0c141	1.2558976
40	0xbf4e65e8	-0.80624247
41	0xbe44902c	-0.19195622
42	0x3e411270	0.1885469
43	0xbf1bdd8a	-0.60884917
44	0xbea93db2	-0.33054882
45	0xbf38fd99	-0.7226196
46	0xbf610e42	-0.8791238
47	0xbecaba29	-0.39595154
48	0xbf10b02c	-0.56518817
49	0x3eaa3e0b	0.3325046
50	0xbf25d503	-0.64778155
51	0xbe0a4ec1	-0.13506605
52	0xbfaf0974	-1.367476
53	0xbf84294c	-1.0325103
54	0xbf65d52d	-0.89778405
55	0xbf706f3e	-0.9391974
56	0xbf2d03c1	-0.67583853
57	0xbf193260	-0.5984249
58	0xbe2b63c2	-0.16737273
59	0xbe402b66	-0.18766555
60	0x3f063f49	0.52440315
61	0x3f8d739b	1.1050905
62	0x3f4de935	0.8043397
63	0x3dc80437	0.09766429
64	0xbf9bb2aa	-1.2163899
65	0xbf3bb852	-0.73328125
66	0xbeea5f4d	-0.45775834
67	0xbf35eaa7	-0.71061176
68	0xbf068446	-0.52545583
69	0x3da0fc2e	0.078605995
70	0xbe5d2013	-0.21594267
71	0xbda26cf7	-0.0793094
72	0xbdc0853b	-0.09400412
73	0xbf3c733a	-0.7361332
74	0xbf10b94d	-0.56532747
75	0x3f97311c	1.1811862
76	0xbe9bd784	-0.30437863
77	0x3f02a7cd	0.51037294
78	0x3db460cd	0.08807526
79	0xbe84e9f8	-0.25959754
80	0xbf18f126	-0.59742963
81	0xbf8a33b9	-1.0797035
82	0xbf2fc66a	-0.6866213
83	0xbf271b39	-0.65275913
84	0x3f6b867a	0.9200207
85	0xbe8e7d74	-0.27830088
86	0xbd37c6cd	-0.044867326
87	0xbf328804	-0.69738793
88	0x3f35fabf	0.71085733
89	0xbe7da671	-0.24770524
90	0xbf29c777	-0.66319984
91	0xbf95f473	-1.1715225
92	0xbea3a288	-0.3195994
93	0x3e819123	0.25306043
94	0x3bf4b833	0.0074682473
95	0x3e2e4a53	0.1702054
96	0xbef90e30	-0.48643637
97	0x3f8849f9	1.0647575
98	0xbe0e0ebd	-0.1387281
99	0x3e936e3d	0.28795043
100	0xbf81cf6b	-1.0141424
101	0xbe8f49a8	-0.27985883
102	0xbf2974c8	-0.6619382
103	0xbf0509f1	-0.51968294
104	0xbf62c92f	-0.8858823
105	0xbfa51a0e	-1.2898576
106	0xbf80ef32	-1.0072997
107	0xbea99a60	-0.3312559
108	0x3ee6d048	0.4508078
109	0xbe69c784	-0.22830015
110	0xbf055f05	-0.52098113
111	0xbf6d7a81	-0.9276505
112	0xbecbabbd	-0.39779463
113	0xbfb85c43	-1.4403156
114	0xbf133d01	-0.5751496
115	0xbfaac353	-1.3340858
116	0xbe89acdd	-0.26889697
117	0xbfd398a3	-1.6530956
118	0xbee6d07d	-0.4508094
119	0xbf849b0e	-1.0359819
120	0xbf81eb84	-1.0149999
121	0xbf835c7d	-1.02626
122	0x3e8f5f1d	0.28002253
123	0xbedfeb71	-0.43734315
124	0xbf3c8fd0	-0.7365694
125	0xbf5cb387	-0.86211437
126	0xbed9a90a	-0.4251178
127	0xbf3d5984	-0.73964715
128	0xbf1ffd72	-0.624961
129	0xbf129687	-0.57260936
130	0xbf82febb	-1.0233988
131	0xbdf856f3	-0.12125959
132	0xbdcbca3e	-0.09950684
133	0x3f8de2a4	1.108479
134	0xbf298e74	-0.6623299
135	0xbe059d09	-0.13048185
136	0xbf0d6f52	-0.55247986
137	0x3f06e256	0.5268911
138	0x3f568420	0.83795357
139	0xbf3c32bf	-0.7351493
140	0x3ef36123	0.47535047
141	0xbf5c9d8b	-0.8617789
142	0xbee8d3b9	-0.45474032
143	0xbed9479c	-0.42437446
144	0xbf603899	-0.8758636
145	0xbf06d48f	-0.5266809
146	0xbf0fc28c	-0.5615623
147	0xbf220bb0	-0.63299084
148	0xbf0a2426	-0.5396141
149	0xbfa16c95	-1.2611262
150	0x3ee39dee	0.44456428
151	0x3f00c264	0.50296617
152	0xbef2929d	-0.47377482
153	0xbf23063b	-0.6368138
154	0x3fb5373e	1.4157484
155	0xbf84f1be	-1.0386274
156	0xbe93feb2	-0.28905255
157	0xbf417b0b	-0.75578374
158	0xbf36fd1b	-0.7147996
159	0x3f65ad5d	0.89717656
160	0x3f03a158	0.51418066
161	0xbf6a6c08	-0.9157109
162	0xbf819ba7	-1.0125626
163	0x3fa79cc2	1.3094714
164	0xbf2f380c	-0.68444896
165	0xbfa11fba	-1.2587807
166	0x3f86c2e6	1.0528228
167	0xbd4e1ab3	-0.05031843
168	0x3e93b221	0.2884684
169	0xbe8c760b	-0.2743381
170	0xbe0aefc0	-0.1356802
171	0xbf67d06b	-0.90552396
172	0xbf7facea	-0.9987322
173	0xbf90d3a8	-1.1314592
174	0x3e3be560	0.18349218
175	0x3f7af33b	0.9802739
176	0x3e2c7dc4	0.16844851
177	0xbfdf878f	-1.7463244
178	0xbd1f917c	-0.038957104
179	0xbf104e0b	-0.56369084
180	0xbf17d164	-0.5930388
181	0x3d6d4af5	0.057932813
182	0x3faebeef	1.3652018
183	0xbf47b026	-0.78003156
184	0x3da85d08	0.08220869
185	0xbf9008e1	-1.125271
186	0xbeacc9fb	-0.3374785
187	0xbf4663e1	-0.77496153
188	0xbf14ff2b	-0.58201855
189	0xbf2d92b8	-0.67802
190	0x3fa6f50c	1.3043532
191	0x3f6fa95b	0.9361779
192	0xbf4f679d	-0.81017476
193	0xbdb51405	-0.08841709
194	0xbeb0a766	-0.34502715
195	0xbee7eecf	-0.45299384
196	0xbe36ade6	-0.17839774
197	0x3f0e17ef	0.5550527
198	0x3f8179f1	1.0115339
199	0x3e36f304	0.1786614
200	0x3e8b510c	0.2721027
201	0x3f83f87e	1.0310209
202	0xbf87fbc8	-1.0623713
203	0xbf712e1f	-0.94211
204	0x3f5c2d19	0.86006314
205	0xbeb1173a	-0.34588033
206	0x3fa80d06	1.3128974
207	0x3f99c36f	1.2012767
208	0x3f3bd411	0.7337046
209	0xbef799c9	-0.48359516
210	0xbfe1e7aa	-1.7648823
211	0xbea91bcc	-0.3302902
212	0xbf30267b	-0.68808717
213	0xbf5de342	-0.8667489
214	0xbe9c3a15	-0.30513063
215	0x3e1d2a42	0.15348151
216	0xbf99bff6	-1.2011707
217	0x3efd561e	0.49479765
218	0x3d527e98	0.05139026
219	0xbf6bb1f5	-0.92068416
220	0x3f58f786	0.8475269
221	0xbeb2003b	-0.347658
222	0x3eb2394e	0.34809345
223	0x3e848141	0.25879863
224	0xbd9f11aa	-0.07767041
225	0xbf949518	-1.1608
226	0xbe75788f	-0.2397177
227	0xbf2f1bf8	-0.6840205
228	0x3e95d6c3	0.29265413
229	0xbf9f1800	-1.2429199
230	0x3f3c3c62	0.73529637
231	0x3f37d215	0.71804935
232	0xbe9f9190	-0.31165743
233	0xbf39118c	-0.722924
234	0xbeedad43	-0.4642125
235	0xbf06a498	-0.525949
236	0xbf44f472	-0.76935494
237	0x3f9a9b89	1.2078716
238	0xbe9457a1	-0.28973106
239	0xbe862692	-0.26201302
240	0xbf302753	-0.68810004
241	0xbe9ffa36	-0.31245583
242	0xbf1c7c13	-0.6112682
243	0xbccbcd1f	-0.024878083
244	0xbf6e1424	-0.9299948
245	0xbf511761	-0.816763
246	0xbf008adc	-0.5021188
247	0xbda9b456	-0.082863495
248	0xbf0cc179	-0.54982716
249	0x3e47fdb2	0.19530371
250	0xbebc3346	-0.3675787
251	0x3ebaeeca	0.36510307
252	0xbf998cca	-1.199609
253	0xbe9ef614	-0.31047118
254	0xbed6c69c	-0.41948402
255	0x3f6349cb	0.88784474

l2.weight f4 [200, 800]
0	0x3cf33305	0.029687414
1	0x3c80da34	0.015729047
2	0xbd42922e	-0.04750269
3	0x3ca6582e	0.02030572
4	0xbd06cbbd	-0.032909144
5	0xbb839f92	-0.004016825
6	0xbcaade85	-0.020858059
7	0xbc86038b	-0.016359111
8	0xba69fcd8	-0.0008925921
9	0xbc26d036	-0.010181477
10	0xbc86c383	-0.01645065
11	0x3b602779	0.0034203215
12	0xbd512a53	-0.051065754
13	0xbca6ef4b	-0.020377776
14	0xbce06a57	-0.027394457
15	0xbc89463d	-0.016757125
16	0xbc59fd7a	-0.013305062
17	0xbcf3293e	-0.029682752
18	0xbd28ad18	-0.0411807
19	0x3d0752ed	0.03303807
20	0xbc9ac812	-0.01889423
21	0xbd256066	-0.040375136
22	0xbc6d4b63	-0.014483306
23	0xbc7d39c9	-0.015455672
24	0xbd0e9c35	-0.03481694
25	0x3be968c4	0.0071230847
26	0xbd363b9d	-0.044490445
27	0xbd162133	-0.036652755
28	0x3cd42423	0.025896138
29	0x3cee04de	0.029055055
30	0xbcf5c611	-0.030001672
31	0x39da8ee4	0.00041686662
32	0x3cb8e282	0.022568945
33	0x3c08d32f	0.008351131
34	0xbc8c66c4	-0.017138846
35	0xbcd9dbf1	-0.026594134
36	0x3c967672	0.018367026
37	0xbcb3929a	-0.021920491
38	0xbd0c3fcd	-0.034240533
39	0xbb67b631	-0.0035356397
40	0xbd0d8acb	-0.03455619
41	0x3ac83830	0.0015275534
42	0x3bbb3ddc	0.0057141613
43	0x3c0fb0e3	0.0087702
44	0xbccae722	-0.024768416
45	0xbd161d2d	-0.036648918
46	0x3a1cae50	0.00059769023
47	0xbce07f35	-0.027404407
48	0xbb0b97ee	-0.0021300274
49	0xbc05016b	-0.008118014
50	0xbcf37ae6	-0.029721688
51	0xbc9b19dd	-0.018933231
52	0xbca50105	-0.020142088
53	0xbd372375	-0.04471155
54	0xbc895a39	-0.016766654
55	0xbca38195	-0.01995925
56	0xbce33f80	-0.02774024
57	0x3c36c710	0.011155859
58	0xbd8a5cb7	-0.06755965
59	0xbd0343f5	-0.03204723
60	0xbd0314ac	-0.032002136
61	0xbb42a61a	-0.0029701055
62	0xbcf58c97	-0.029974265
63	0xbc1becfc	-0.009516951
64	0xbcd3809e	-0.025818165
65	0xbcd2a45b	-0.025713136
66	0x3b177043	0.0023107685
67	0xbc557acd	-0.013029766
68	0xbc272e77	-0.010203949
69	0xbc586b6e	-0.013209207
70	0xbcacb9f3	-0.021084761
71	0x3c4df32b	0.012570183
72	0xbbfe54c3	-0.007761569
73	0x3cce1835	0.025158027
74	0xbd05e2c2	-0.032686956
75	0xbd5adc82	-0.05343295
76	0xbc3b3aa4	-0.011427555
77	0xbd1a7b00	-0.03771496
78	0x3bee0055	0.007263223
79	0x3d020a58	0.031748146
80	0xbc684b20	-0.014178067
81	0xbc2bf73c	-0.010495957
82	0x3c1dea96	0.009638449
83	0xba019a0e	-0.00049439154
84	0xbcd6759c	-0.026179127
85	0x3cebc348	0.02877964
86	0xbd02415e	-0.03180062
87	0x3c95a311	0.018266233
88	0xbc3603b7	-0.011109284
89	0xbd17867a	-0.03699348
90	0x3d063f4f	0.03277522
91	0xbaccdd2a	-0.0015629877
92	0xbd035183	-0.032060158
93	0xbb7deb87	-0.0038745122
94	0xbc9d3b96	-0.019193452
95	0x3c786824	0.015161548
96	0x3c982b52	0.018575344
97	0x3a92d69e	0.0011202877
98	0xbc0dfdba	-0.00866645
99	0x3c54714f	0.012966468
100	0xbc698111	-0.014251963
101	0x394c2ab0	0.00019470858
102	0x3b70e1f1	0.0036755765
103	0xbcfa8ff6	-0.030586224
104	0xbd1f5f0d	-0.038909007
105	0x3acde7d6	0.0015709351
106	0xbce06bc4	-0.027395137
107	0xbc0213ba	-0.0079392735
108	0xbd8276a0	-0.06370282
109	0xbd1e6776	-0.038672887
110	0x3cb31a21	0.021863045
111	0xbc5a8eed	-0.01333974
112	0xba9fd801	-0.0012195111
113	0x3ca0efbd	0.019645566
114	0xbd313b0f	-0.043269213
115	0xbb524ff8	-0.0032091122
116	0xbc4d566c	-0.012532812
117	0x3cb6b098	0.022301003
118	0xbc837af5	-0.016049841
119	0xbd012b17	-0.031535234
120	0x3cec42f5	0.028840521
121	0x3b99c82d	0.0046930523
122	0xbc5dded8	-0.0135419
123	0xbce5bed0	-0.028045088
124	0xbd424022	-0.047424443
125	0xbd110378	-0.0354037
126	0xbd3eee18	-0.046613783
127	0xbd34d803	-0.044151317
128	0x3d094740	0.033515215
129	0xbc9b18ae	-0.018932667
130	0x3caf786e	0.02141973
131	0x3c68033f	0.01416093
132	0x3c9520f6	0.018204194
133	0xbd8abb1a	-0.06773968
134	0xbb2e099b	-0.0026556018
135	0xbc25d0cf	-0.010120585
136	0xbb6e129b	-0.0036327008
137	0xbd3b394b	-0.045708936
138	0xbc86f2b3	-0.01647315
139	0x3ca97eee	0.020690408
140	0xb9f8dd3b	-0.00047467076
141	0xbc4d0dfd	-0.012515542
142	0xbb05d42e	-0.0020420658
143	0x3c3764a5	0.011193429
144	0xbcb307b9	-0.021854268
145	0xbc2aaa45	-0.010416572
146	0xbd396d31	-0.04527015
147	0x3cb067aa	0.021533806
148	0xbb86ee18	-0.0041177385
149	0x3cce117f	0.025154827
150	0x3c2b5783	0.010457876
151	0x3bd01f29	0.006351371
152	0xbb636f0f	-0.0034703647
153	0xbc19a6e8	-0.009378172
154	0xbbd76a53	-0.006573954
155	0x3c99330d	0.0187011
156	0xbc9837aa	-0.01858123
157	0x3b89175a	0.004183692
158	0xbca5a1a7	-0.020218683
159	0xbd22f9b0	-0.0397889
160	0xbccd4ab7	-0.02506004
161	0xbd3bee57	-0.045881595
162	0xbc1d27f3	-0.009592044
163	0xbd0768ea	-0.03305904
164	0xbc2a992c	-0.010412496
165	0xbd1b1229	-0.037859116
166	0xbd265e2e	-0.04061716
167	0x3cc8fe2c	0.024535261
168	0x3c24489e	0.010027079
169	0x3c891fd1	0.016738804
170	0x3ca23dc9	0.019804852
171	0xbc342c35	-0.010996868
172	0xbd355df8	-0.04427907
173	0xbc144fc4	-0.009052221
174	0x3b86763d	0.0041034506
175	0xbc91b497	-0.017786307
176	0x3d13e250	0.0361045
177	0x3caaf889	0.020870464
178	0x3b69d3a5	0.0035679128
179	0x3bd16c59	0.00639109
180	0x3ce6c9c3	0.02817238
181	0xbca6e013	-0.020370519
182	0x3b3de0c9	0.0028973094
183	0xbd086cc7	-0.033306863
184	0xb9491d49	-0.00019179763
185	0xbce27793	-0.027644908
186	0x3b38c799	0.0028195141
187	0xbc25b45c	-0.010113802
188	0xbd7c27aa	-0.061561264
189	0x3b7817b5	0.0037855927
190	0x3bf2b2e9	0.0074065817
191	0xbcb0f4f8	-0.021601185
192	0xbcefb59b	-0.0292614
193	0x3cae5c7e	0.021284338
194	0xbc888d08	-0.016668811
195	0xbd240681	-0.040045265
196	0xbb8a7493	-0.0042253225
197	0xbc9bc30c	-0.019013904
198	0x3c0f133a	0.008732611
199	0xbd14494e	-0.03620272
200	0xbb0dee5a	-0.0021656961
201	0xbc6dc9f1	-0.014513479
202	0xbc9e80ce	-0.019348528
203	0x3c824787	0.015903248
204	0xbc13502f	-0.008991285
205	0xbc929c42	-0.017896775
206	0xbb66a8f5	-0.003519592
207	0xbb338b33	-0.0027396202
208	0x3b624eaa	0.003453175
209	0xbc9d79d7	-0.019223137
210	0x3c65e6e9	0.014032104
211	0x3c90f6d7	0.017695827
212	0xbc0a114d	-0.008426976
213	0x3c0e0372	0.008667814
214	0xbb7b208e	-0.0038318965
215	0xbd0ab1d7	-0.033861008
216	0xbbd0ce3f	-0.0063722427
217	0xbbc5c20b	-0.0060350946
218	0xbc08f47c	-0.008359071
219	0x3ce00177	0.027344448
220	0xbc771169	-0.0150798345
221	0xbc75a6e8	-0.014993407
222	0xbd45974e	-0.04824
223	0xbd31db9e	-0.043422334
224	0x3b1a9f56	0.0023593507
225	0xbd8fab6a	-0.070151165
226	0x3cc3a316	0.023881476
227	0x3cf47ee0	0.029845655
228	0xbc507ad4	-0.012724597
229	0x3ae59941	0.0017516987
230	0xba844a27	-0.00100929
231	0xbc9ad527	-0.018900467
232	0xbcb00e69	-0.021491246
233	0xbced9350	-0.029000908
234	0xbd68848d	-0.056767035
235	0x3cbe2f23	0.023215836
236	0xbd21081c	-0.039314374
237	0xbd1d0b2a	-0.038340725
238	0xbcb82a70	-0.022481173
239	0xbcf33029	-0.02968605
240	0xbca77679	-0.020442234
241	0xbcc6fb5a	-0.024289776
242	0xbc6b6de2	-0.01436946
243	0xbcc75ca2	-0.024336163
244	0xbd485c28	-0.048916012
245	0x3c276bcb	0.010218571
246	0xbce8076c	-0.028323852
247	0x3b428614	0.0029681968
248	0x3bfb958f	0.007677741
249	0xbc3f91fa	-0.011692518
250	0xbaa12c87	-0.0012296595
251	0x3c8512f3	0.016244387
252	0x3c5390d7	0.0129129505
253	0xbcfb8f35	-0.030707935
254	0xbc8fad3d	-0.017538661
255	0x3aa80230	0.0012818035

l2.bias f4 [200]
0	0xbd5adce0	-0.0534333
1	0xbd3f6ee3	-0.04673661
2	0xbd8665ba	-0.065623716
3	0xbd144ff1	-0.03620905
4	0xbd979215	-0.0740091
5	0x3fb51ec9	1.415002
6	0x3c51a7d0	0.012796357
7	0xbe16fe87	-0.14745532
8	0x3fac79c4	1.347466
9	0x3fb46f7d	1.4096524
10	0xbd02724f	-0.031847294
11	0x3fbd2fb6	1.4780185
12	0x3f44a6b7	0.76816887
13	0x3f954e33	1.166449
14	0xbcc8674c	-0.024463318
15	0x3c0d329e	0.008618025
16	0xbc6a5189	-0.014301666
17	0xbef487d1	-0.4775987
18	0x3c0e9589	0.008702644
19	0xbd528eb7	-0.051405635
20	0x3f7f3085	0.9968341
21	0x3fa1117d	1.2583462
22	0x3fa762e1	1.307705
23	0xbfa20d15	-1.2660242
24	0xbecd09a6	-0.40046424
25	0xbf9d22cc	-1.2276244
26	0xbc9a4e88	-0.018836275
27	0xbbed1474	-0.007235104
28	0x3fb97c5a	1.4491074
29	0xbd37e75c	-0.044898376
30	0xbbc8282f	-0.006108306
31	0x3f86df81	1.0536958
32	0x3f824e11	1.0180074
33	0xbd15aef1	-0.03654379
34	0x3c841871	0.016124936
35	0xbf5f5481	-0.8723832
36	0xbd03d685	-0.032187004
37	0x3f9097eb	1.1296362
38	0x3954794c	0.00020263082
39	0xbdd059f0	-0.10173404
40	0xbd3ab442	-0.045582063
41	0x3ca93084	0.020653017
42	0xbf0cafda	-0.5495583
43	0x3fc9b0ff	1.575714
44	0xbd624930	-0.05524558
45	0xbd62e7a4	-0.05539669
46	0x3f8a3f46	1.080056
47	0xbd53948a	-0.05165533
48	0xbe2ed430	-0.1707313
49	0x3fc4ba27	1.5369309
50	0xbd94a2c6	-0.07257609
51	0xbf05a324	-0.5220206
52	0xbcedc6ac	-0.029025398
53	0xbce0fb1c	-0.027463488
54	0x3f9c1b7a	1.2195885
55	0xbcea3674	-0.028590418
56	0xbd8ba5dd	-0.06818745
57	0x3ccd0953	0.02502886
58	0xbf15add5	-0.5846837
59	0xbfa59082	-1.2934725
60	0x3e6936cd	0.22774811
61	0xbecb79e5	-0.39741436
62	0xbcbb5655	-0.022868315
63	0xbcd64e40	-0.02616036
64	0xbc7bce4a	-0.015369007
65	0xbd776e1a	-0.060407735
66	0xbdabea68	-0.08394319
67	0xbca20e93	-0.01978234
68	0xbd8a6a16	-0.067585155
69	0xbdbbe314	-0.09174171
70	0x3fc8f877	1.5700825
71	0xbcb8af24	-0.022544451
72	0xbe5d4408	-0.21607983
73	0xbd05835a	-0.03259597
74	0x3c313b53	0.010817367
75	0xbe33d472	-0.1756151
76	0x3cb45fe9	0.02201839
77	0x3dcdea9b	0.10054513
78	0xbd7e7e6a	-0.062132277
79	0x3a368bd9	0.0006963588
80	0xbe6e522c	-0.23273534
81	0xbe9c4d54	-0.30527747
82	0x3f015286	0.50516546
83	0xbccbe61c	-0.024889998
84	0x3f944046	1.1582115
85	0x3c765ef4	0.015037287
86	0xbee2032f	-0.44143054
87	0xbd4c54f4	-0.049885705
88	0xbe85b8de	-0.26117605
89	0x3f926435	1.1436831
90	0x3f4d9ab2	0.8031417
91	0xbf9281e7	-1.1445893
92	0x3fbc472a	1.4709218
93	0x3fb8e07b	1.4443506
94	0xb8a886d2	-8.0359765e-05
95	0xbf3d7571	-0.74007326
96	0x3bd3a477	0.0064588147
97	0x3fb29c6f	1.395399
98	0x3fae3bfe	1.3612058
99	0xbd658bc5	-0.056041498
100	0xbf0810dc	-0.53150725
101	0x3ec595b9	0.38590792
102	0x3d43044f	0.04761153
103	0xbd0484aa	-0.03235308
104	0xbe6fd894	-0.23422462
105	0x3fc13832	1.5095274
106	0xbe83692e	-0.25666183
107	0x3b01732d	0.0019752488
108	0xbc95bf1c	-0.018279605
109	0xbd87a09c	-0.06622431
110	0xbe7f5c7c	-0.24937624
111	0x3f534717	0.8253035
112	0xbf047dba	-0.51754344
113	0xbf425916	-0.75917184
114	0xbd45d191	-0.04829556
115	0x3efe1c64	0.49631035
116	0x3fc39dbc	1.5282512
117	0x3fc3654f	1.5265292
118	0xbd3b3516	-0.045704924
119	0xbd99536a	-0.07486613
120	0x3f9ba8b7	1.2160863
121	0x3ae8c78d	0.0017759666
122	0xbd729ecb	-0.059233468
123	0xbc87cd9a	-0.01657753
124	0x3e6482ef	0.22315572
125	0xbd7c19f0	-0.061548173
126	0x3d1939c9	0.037408624
127	0xbdc62b17	-0.096761875
128	0xbe1d6fc3	-0.15374665
129	0xbd420797	-0.04737052
130	0x3fbcf352	1.4761755
131	0x3fc78be7	1.558957
132	0x3fc0017c	1.5000453
133	0xbf684fa6	-0.90746534
134	0x3fb1396a	1.3845646
135	0x3fb7c8f2	1.4358199
136	0x3d7e36c5	0.06206395
137	0x3fbfdefd	1.4989926
138	0xbf5fae2b	-0.87375134
139	0x3fcc9f2e	1.5986078
140	0xbdc444de	-0.09583448
141	0xbc5ce755	-0.013482888
142	0xbd0ccca0	-0.034374833
143	0xbc2118df	-0.00983259
144	0xbc0e6e5b	-0.008693303
145	0x3fb72ab6	1.4309909
146	0xbfa748d3	-1.3069099
147	0xbf7983b3	-0.9746658
148	0xbe92e87a	-0.2869299
149	0xbdc27379	-0.09494681
150	0xbf6a9ff3	-0.91650313
151	0xbd49edd8	-0.04929909
152	0xbe23b655	-0.15987523
153	0xbd605632	-0.054769702
154	0x3f45515a	0.7707726
155	0xbd96206a	-0.07330401
156	0xbd545860	-0.051842093
157	0x3b28ef1f	0.0025777293
158	0xbf50d6c4	-0.81577706
159	0x3f528a42	0.82242215
160	0xbcfa7c6e	-0.03057691
161	0xbed753a2	-0.42055994
162	0x3f2be237	0.6714205
163	0xbcd56164	-0.026047416
164	0x3f324879	0.69641834
165	0x3bd8fec5	0.006622168
166	0x3f9a05bc	1.2033
167	0x3fc63e94	1.5487847
168	0xbd51b73e	-0.051200144
169	0xbc3b5d51	-0.011435823
170	0xbd9202db	-0.07129451
171	0xbd0c6d62	-0.034284003
172	0xbfa0b0af	-1.255392
173	0xbfa64130	-1.2988644
174	0xbf643199	-0.8913818
175	0xbd667f6d	-0.056273866
176	0xbd3aa8b6	-0.04557105
177	0xbe0ec5e5	-0.13942678
178	0xbe33f4fe	-0.17573926
179	0xbecd1dcf	-0.40061805
180	0xbeb57254	-0.35438788
181	0x3fb60eb0	1.4223232
182	0xbd103bdc	-0.035213336
183	0xbd752d7c	-0.05985783
184	0xbd50b7d8	-0.050956577
185	0x3fc0b00b	1.5053724
186	0x3be13b5a	0.0068735303
187	0xbeddd527	-0.43326685
188	0xbda653e6	-0.08121471
189	0x3ecf63ad	0.40505734
190	0x3fa1305f	1.2592887
191	0x3fc6b967	1.552533
192	0xbd5e713e	-0.054307215
193	0x3fa80072	1.3125136
194	0xbebcedb7	-0.36900112
195	0xbcbbdc4b	-0.022932192
196	0xbfb1371e	-1.3844945
197	0xbcaefa6a	-0.021359641
198	0xbf76a1f2	-0.9634086
199	0xbce6f58b	-0.028193256

l3.weight f4 [1, 200]
0	0x3cddbc8f	0.02706745
1	0x3915026c	0.0001421065
2	0xbbfbbc9e	-0.007682397
3	0x3c4945bd	0.012284693
4	0xbb948407	-0.0045323404
5	0x3e4b2aa6	0.19840488
6	0x389bc6ad	7.427982e-05
7	0xbbf5fd44	-0.0075069983
8	0x3ee9e475	0.4568211
9	0x3e7f7d6c	0.24950188
10	0xbd7cb5d9	-0.06169686
11	0x3e93d0ae	0.28870147
12	0x3f060639	0.52353245
13	0x3ec9db96	0.39425343
14	0x3cbd68db	0.023121288
15	0x3ba13ec0	0.0049208105
16	0x3a9dae10	0.0012030024
17	0xbf15c53c	-0.5850408
18	0xbce43ae8	-0.02786012
19	0x3c36924f	0.011143281
20	0x3f493273	0.78592604
21	0x3ece7930	0.40326834
22	0x3e999b73	0.3000141
23	0xbf19accc	-0.6002929
24	0xbff5e6a7	-1.9211015
25	0xbe9d44fe	-0.307167
26	0xbd0173eb	-0.03160469
27	0xbca18198	-0.019715115
28	0x3e20478b	0.15652291
29	0xbd0b49b0	-0.03400582
30	0x3ad2bc11	0.0016077777
31	0x3ed2bb32	0.41158444
32	0x3f60e485	0.87848693
33	0x3b84db21	0.0040544425
34	0xbc84e876	-0.016224127
35	0xbf38097c	-0.7188947
36	0x3c889949	0.016674655
37	0x3ec73efe	0.38915247
38	0x3cbc66a2	0.022998158
39	0xbc7ffda8	-0.015624441
40	0xbb9063a5	-0.00440641
41	0xbd06ae54	-0.032881096
42	0xbf095dd7	-0.53658813
43	0x3e95e5dd	0.29276934
44	0x3af710c9	0.0018849607
45	0xbcac5251	-0.021035345
46	0x3ee19ddc	0.4406575
47	0xbcf7197d	-0.030163521
48	0xbfdc2846	-1.719979
49	0x3e908a63	0.2823058
50	0xbc65e06f	-0.01403056
51	0xbf50c86f	-0.8155584
52	0x3bd6bd51	0.00655333
53	0xbc91628b	-0.017747184
54	0x3f1957db	0.5989968
55	0x3bdfbe4a	0.006828104
56	0x3ca1a551	0.01973215
57	0x3b721552	0.0036938977
58	0xbed7d7bb	-0.42156777
59	0xbf1cbb8e	-0.61223686
60	0x3f36c1ca	0.7138945
61	0xbfb6ed85	-1.4291235
62	0x3d0c3134	0.03422661
63	0xbc6e3a56	-0.014540276
64	0xbb79e3e7	-0.0038130225
65	0xbccca034	-0.024978735
66	0x3af27636	0.0018498364
67	0x3aa79c80	0.001278773
68	0xbcddc935	-0.027073482
69	0x3cfa6be9	0.030569034
70	0x3e8b8fd0	0.27258158
71	0xbc33afff	-0.010967254
72	0x3bec5d68	0.0072132833
73	0x3c28f1e4	0.0103115775
74	0xbd04a906	-0.032387756
75	0xbf3844fd	-0.7198027
76	0xbd75c775	-0.06000467
77	0x3f5bd803	0.8587648
78	0x3c4061da	0.01174208
79	0x3b1d50e8	0.0024004523
80	0x3f245839	0.6419712
81	0xbf4156f0	-0.7552328
82	0x3f715a9c	0.94278884
83	0xbd06d3bb	-0.032916766
84	0x3ec4fdc1	0.3847485
85	0xbcf0bc25	-0.02938659
86	0xbf8ec48a	-1.1153729
87	0xbb28ea2a	-0.0025774338
88	0xbf0b70b1	-0.5446883
89	0x3f20c6db	0.6280343
90	0x3f133118	0.57496786
91	0xbefea8f6	-0.49738282
92	0x3e3b4337	0.18287359
93	0x3e1cfd9e	0.15331122
94	0x3b0e5db8	0.0021723341
95	0xbf51e0fb	-0.8198392
96	0xbcbb4b5e	-0.022863086
97	0x3e60cd31	0.21953274
98	0x3dd0a82c	0.10188326
99	0xc01edf58	-2.4823818
100	0xbfdf2f8b	-1.7436384
101	0x3f4e0d63	0.80489177
102	0xbf397b3d	-0.7245367
103	0x3966719e	0.00021976835
104	0x3f920ae4	1.1409574
105	0x3e590310	0.21192575
106	0xbeeccbd4	-0.4624926
107	0x3d6fda09	0.058557544
108	0x3cc1f988	0.023678556
109	0xbb5966f1	-0.003317293
110	0xbf71f809	-0.94519097
111	0x3f9f511c	1.2446628
112	0xbf238a67	-0.6388306
113	0xbf3b14fc	-0.73078895
114	0x3cbebc0a	0.023283023
115	0x3ea15fc9	0.3151839
116	0x3e738692	0.23781803
117	0x3e7f9c74	0.24962026
118	0x3d42a315	0.04751881
119	0x3d1306c2	0.035895117
120	0x3ed09dc2	0.4074536
121	0xbbd4fb45	-0.00649968
122	0xbb922cba	-0.004460898
123	0xbd789803	-0.060691845
124	0x3f27bde3	0.6552412
125	0x3cb9aff9	0.022666918
126	0xbb0a384b	-0.0021090682
127	0x3cd0a921	0.025471272
128	0xbf2b6b86	-0.6696094
129	0x3bb83a1a	0.0056221606
130	0x3e802e3d	0.25035277
131	0x3e92eab7	0.28694698
132	0x3e54066e	0.20705578
133	0xbed3bea9	-0.413564
134	0x3e3a4a25	0.18192346
135	0x3e3263ae	0.17420837
136	0xbfb8c6a4	-1.443562
137	0x3e39a27e	0.18128392
138	0xbf081fee	-0.5317372
139	0x3e87d97b	0.26533112
140	0x3c91ca17	0.01779656
141	0xbc8bb7ad	-0.017055357
142	0x3c3f149b	0.011662628
143	0x3cd5c12b	0.026093086
144	0x3b248883	0.0025105781
145	0x3e433c42	0.19065955
146	0xbecf7eb2	-0.40526348
147	0xbedd18f5	-0.43183103
148	0xbf055e85	-0.5209735
149	0x3c3bebe3	0.011469814
150	0xbee34e5d	-0.44395724
151	0xbae4f252	-0.0017467237
152	0x3cdeb1e6	0.027184438
153	0xbcdeef9b	-0.027213862
154	0x3f6b5bd9	0.91937023
155	0x3c6b5c29	0.014365234
156	0xbba5f448	-0.005064521
157	0x3c6f9e15	0.014625092
158	0xbf8523d7	-1.0401562
159	0x3eef80f3	0.46778068
160	0xbb4db621	-0.0031389075
161	0xbf102095	-0.56299716
162	0x3f7426eb	0.95371884
163	0xbc960705	-0.018313894
164	0x3f04ef42	0.5192758
165	0xbca1e8f0	-0.019764394
166	0x3f04d403	0.51886004
167	0x3e8ef8b7	0.2792413
168	0x3c558266	0.013031578
169	0xbba7f657	-0.0051258015
170	0xba0487c2	-0.000505563
171	0x398ddfea	0.00027060445
172	0xbf3d4a5b	-0.7394158
173	0xbed016a4	-0.40642273
174	0xbf784e8a	-0.9699484
175	0xbfa5335e	-1.2906301
176	0xbc3a622b	-0.011375944
177	0x3c8b055a	0.016970325
178	0xbfe07a17	-1.7537259
179	0xc040ef11	-3.0145915
180	0xbeff12fd	-0.49819174
181	0x3e580d5b	0.21098845
182	0xbf0769bf	-0.5289573
183	0xbabb4074	-0.0014286176
184	0x3d11197b	0.03542469
185	0x3e715cee	0.23570606
186	0xbd5213c4	-0.05128838
187	0xbf1a8d22	-0.603716
188	0x38529012	5.0202078e-05
189	0x3f59553a	0.8489567
190	0x3f09ace7	0.53779453
191	0x3e95ad3b	0.29233727
192	0x3cdc6b70	0.026906699
193	0x3e8006c7	0.2500517
194	0xbf140fc0	-0.5783653
195	0x3c06a8d8	0.008218966
196	0xbef827f0	-0.4846797
197	0x3ae855ab	0.0017725726
198	0xbfafd574	-1.3737016
199	0xbcf8529b	-0.030312827
