DDPG/local_checkpoint/Walker2d-v2(orginal)/('target_critic', 18).ckpt (torch, 720343 bytes, 5 tensors)

l1.weight f4 [800, 23]
0	0xbfb3e00a	-1.4052746
1	0xbf91ef40	-1.1401138
2	0xbfd16d0c	-1.6361403
3	0x3f1c0785	0.60948974
4	0xbe1860c0	-0.14880657
5	0x3fb10a1a	1.3831208
6	0xbfac05f8	-1.3439322
7	0xbf8209f9	-1.0159293
8	0xbf1eb964	-0.62001634
9	0xbe596233	-0.21228866
10	0x3dc197d1	0.09452785
11	0xbe911637	-0.2833726
12	0xbd8c2a87	-0.06844049
13	0xbe3161d8	-0.1732248
14	0x3ed12489	0.40848187
15	0x3dcbda41	0.09953738
16	0xbddbd7fd	-0.10734556
17	0xbd2c2dfc	-0.04203604
18	0xbdf19cfc	-0.117975205
19	0x3c3dc8ad	0.011583489
20	0x3e528af2	0.20560816
21	0xbc3182f5	-0.010834445
22	0xbddb3e05	-0.10705189
23	0xbc0e61be	-0.008690296
24	0x3f884d0b	1.0648512
25	0x403997d6	2.8998923
26	0x3e4e5d9c	0.20152897
27	0xbf55f366	-0.8357452
28	0x3f7ab097	0.97925705
29	0x3e64fcda	0.2236208
30	0xbfba10bd	-1.4536358
31	0xbf4e3e38	-0.8056369
32	0xbf4e79c6	-0.8065456
33	0xbeb9342c	-0.36172616
34	0x3db29338	0.08719486
35	0xbd115f81	-0.03549147
36	0xbe0d695d	-0.13809724
37	0x3ef46d5f	0.47739694
38	0x3e81fdbb	0.25388893
39	0xbdb4a640	-0.08820772
40	0x3da6c307	0.08142667
41	0x3dc6b9d8	0.09703416
42	0xbe4405fe	-0.19142911
43	0xbd286a83	-0.041117202
44	0x3d2fb06d	0.042892862
45	0x3ed05b2b	0.40694556
46	0x3ea97bf8	0.33102393
47	0x3dc80f38	0.09768528
48	0x3b17d2cb	0.0023166414
49	0xbdf577f0	-0.11985767
50	0x3e1e2256	0.15442786
51	0xbd03259d	-0.032018293
52	0xbed237e5	-0.4105827
53	0xbd1e12c6	-0.038592122
54	0x3e8b3e89	0.27196148
55	0x3e79355a	0.24336758
56	0xbe88368d	-0.2660412
57	0x3c24b832	0.010053681
58	0x3c4de3db	0.012566532
59	0xbc1a3be5	-0.009413694
60	0x3b2dbd20	0.0026510432
61	0x3e410f70	0.18853545
62	0xbc1f57ea	-0.00972555
63	0x3cd54091	0.026031764
64	0x3db33793	0.08750834
65	0x3cbcb79e	0.023036774
66	0x3ddc4275	0.10754863
67	0x3dcfb51d	0.101419665
68	0x3ddbd4ef	0.10733973
69	0xbf09fb74	-0.5389931
70	0x3fe60e09	1.7973033
71	0x3ec84d43	0.39121446
72	0x3f2aef32	0.66771233
73	0x3f787e90	0.9706812
74	0xbf826c73	-1.0189346
75	0x40113677	2.2689493
76	0x3f832352	1.0245154
77	0x3e2dc9e2	0.16971543
78	0x3f80d9a8	1.0066423
79	0xbefb25ef	-0.4905238
80	0x3dd32115	0.10309044
81	0x3cdeeca1	0.027212443
82	0xbcd90733	-0.02649269
83	0x3daf3c61	0.08556438
84	0xbe722cd5	-0.23649915
85	0x3cbda646	0.023150574
86	0xbef633e1	-0.48086455
87	0xbdfb6137	-0.12274402
88	0xbd7624aa	-0.06009356
89	0xbe1840d0	-0.14868474
90	0xbe8880fb	-0.26660904
91	0xbe957a19	-0.29194716
92	0xc0154bb9	-2.3327467
93	0xbf92c9cd	-1.1467835
94	0x3f7ee524	0.9956839
95	0x4019abe3	2.4011161
96	0xbf4f67a5	-0.81017524
97	0x3f00f552	0.5037433
98	0x409bfa97	4.8743396
99	0xbf5b62f9	-0.85697895
100	0x3d648e3f	0.05579972
101	0xbfbdad3c	-1.4818492
102	0x3e8e4289	0.27785137
103	0x3e4fb20e	0.20282766
104	0x3e21ace0	0.15788603
105	0xbd830759	-0.06397886
106	0xbe99fb15	-0.30074373
107	0xbe375bd9	-0.17906131
108	0xbc0eaa79	-0.008707636
109	0xbc3bc797	-0.01146116
110	0xbdfd2130	-0.12359846
111	0x3cfcb8e8	0.030849889
112	0x3ee9045e	0.45511144
113	0xbf41ce2a	-0.75705206
114	0xbf8cbe4d	-1.0995575
115	0xbdf0602a	-0.11737092
116	0x3f11623b	0.5679051
117	0x3efb3026	0.49060172
118	0x3f3144a4	0.6924536
119	0x3f325096	0.69654214
120	0xbf7e81cd	-0.9941681
121	0xbf22c5ec	-0.63583255
122	0xc06ad915	-3.6694996
123	0xbdad09b8	-0.08449119
124	0x3f12cefe	0.57347095
125	0x3d06fc49	0.03295544
126	0xbd85d625	-0.065349855
127	0x3e09bfe2	0.13452104
128	0x3cf65e35	0.030074218
129	0xbcffa2bb	-0.031205526
130	0xbd329770	-0.043601453
131	0xbe1b3e54	-0.15160495
132	0xbe85ecfa	-0.2615736
133	0x3eb35d91	0.35032323
134	0xbe447823	-0.19186454
135	0xbe6f6e7a	-0.23381987
136	0xbe12aad1	-0.14322974
137	0xbd4d56ef	-0.050131734
138	0xbe99a9ea	-0.30012447
139	0x3e4ced3f	0.20012377
140	0xbe5d3075	-0.21600516
141	0x3dab3a93	0.083607815
142	0xbdb8822c	-0.09009203
143	0xbecebb7a	-0.40377408
144	0x3ca5e637	0.020251377
145	0x3ed19e0c	0.40940893
146	0xbf246841	-0.6422158
147	0x3f299ea2	0.6625768
148	0x3e240432	0.16017225
149	0x3df44e8d	0.11929045
150	0x3d57997e	0.052636616
151	0x3c618b0c	0.0137660615
152	0xbe24e5d1	-0.16103293
153	0xbd40cf9a	-0.047072984
154	0xbc34a71c	-0.01102617
155	0x3d5168e2	0.051125415
156	0x3e6f056b	0.2334191
157	0xbd6dee49	-0.058088575
158	0xbc621e07	-0.013801104
159	0xbb0acb97	-0.0021178478
160	0x3cdd80a5	0.027038882
161	0xc009b373	-2.1515777
162	0x3f8f209a	1.1181824
163	0x400e6556	2.224935
164	0x4004f6ce	2.0775638
165	0xbebcf4e0	-0.36905575
166	0x40cec3f7	6.4614215
167	0x40185942	2.3804479
168	0xc02a9168	-2.665125
169	0x3eb9a731	0.3626037
170	0x3ec8cb09	0.39217404
171	0x3edb66fe	0.42852014
172	0x3e39020b	0.18067186
173	0x3ea96781	0.3308678
174	0x3de0e1d0	0.1098057
175	0xbdea315c	-0.11435196
176	0x3d60cfe7	0.05488577
177	0xbbfefee9	-0.0077818525
178	0x3dcf6067	0.10125809
179	0xbe9402fe	-0.28908533
180	0xbd4885b4	-0.048955634
181	0x3e2d9656	0.1695188
182	0xbe80c3d5	-0.25149408
183	0x3b83096d	0.0039989264
184	0xbe50c53b	-0.20387737
185	0xc0a4d19d	-5.1505876
186	0x3d3f47a4	0.04669918
187	0x3fba6460	1.4561882
188	0x3e776df4	0.24163038
189	0x408f3179	4.474789
190	0x3fc6758a	1.550462
191	0xbe7b210e	-0.24524328
192	0xbf896044	-1.0732503
193	0xbe8568f0	-0.26056623
194	0x3defe526	0.117136285
195	0xbd75cacf	-0.060007866
196	0x3cf393bc	0.029733531
197	0xba878711	-0.0010339936
198	0x3d31d328	0.043414265
199	0x3d80f26b	0.062962376
200	0xbc249352	-0.0100448895
201	0xbdbdf492	-0.09275164
202	0x3c50516c	0.012714725
203	0x3df343a8	0.11878139
204	0x3c2b6860	0.010461897
205	0xbd289ba5	-0.04116406
206	0xbd9ec5ba	-0.07752557
207	0xbf856c8f	-1.0423754
208	0xbf618359	-0.88091046
209	0xbdacda04	-0.08440021
210	0x40b69244	5.7053547
211	0x3f11d4c3	0.56965274
212	0x40988abd	4.766936
213	0x403c43b3	2.941632
214	0xbf82d000	-1.0219727
215	0x3ed55efe	0.41674036
216	0xbef6f76a	-0.48235637
217	0x3dc99e6b	0.09844669
218	0xbecb0d03	-0.39658365
219	0xbe70d102	-0.2351723
220	0x3e804818	0.25055003
221	0x3db7ee22	0.08980967
222	0x3d6803c9	0.056644235
223	0x3d85c771	0.06532181
224	0xbe0bbd4a	-0.13646427
225	0x3daa4d2b	0.083155
226	0x3da34707	0.07972532
227	0x3df9dd6d	0.12200437
228	0x3e5ce5a8	0.21571982
229	0x3ed06a45	0.40706077
230	0xbfd2bdf2	-1.6464217
231	0xbf6e5722	-0.93101704
232	0x3fea2b3d	1.8294445
233	0x3e537c9c	0.20653003
234	0x3ed6a1e4	0.41920388
235	0x3ea5b22d	0.323625
236	0xbf2b7042	-0.66968167
237	0xbd15364c	-0.036428735
238	0xbd250a0e	-0.040292792
239	0xbe00db83	-0.12583737
240	0x3e80b704	0.2513963
241	0xbe0ea887	-0.13931476
242	0xbd95e15a	-0.07318373
243	0x3cb6bd9f	0.022307215
244	0xbe315d9b	-0.17320864
245	0xbd5d3676	-0.054007016
246	0xbca41989	-0.020031707
247	0xbe6f6c54	-0.23381168
248	0x3d9b96fc	0.07597157
249	0xbf01a93a	-0.50648844
250	0xbe42d882	-0.19027904
251	0x3e81e859	0.2537258
252	0xbeedf7de	-0.4647817
253	0xc05f2d2e	-3.4871325
254	0xc011f779	-2.2807295
255	0xbf4f7dac	-0.81051135

l1.bias f4 [800]
0	0xbfedf677	-1.859084
1	0xbf626de4	-0.8844893
2	0x40245914	2.567937
3	0xbe20e254	-0.15711337
4	0xbf9bad0a	-1.2162182
5	0xbf6fe732	-0.9371215
6	0x4031c6fd	2.7777703
7	0xbf53282a	-0.8248316
8	0xbe8d1af9	-0.2755964
9	0xbf8716e4	-1.0553861
10	0x3fc5e9cd	1.5461975
11	0x3d8dc312	0.06921972
12	0xbdfdb1cc	-0.12387428
13	0xbff54fe5	-1.9165007
14	0xbf49ff0d	-0.789048
15	0x402bc5f4	2.683957
16	0xbfeb3a77	-1.8377217
17	0xc055a9ed	-3.3384964
18	0xbf0a851c	-0.5410936
19	0xbf4b1691	-0.7933131
20	0x3e5f56c4	0.21810442
21	0xbf9a8235	-1.2070986
22	0x3fd8cade	1.693691
23	0x3f4fdc82	0.81195843
24	0xbef6d9ef	-0.48213145
25	0xbecd8664	-0.40141594
26	0xbfcc2b6e	-1.5950754
27	0x3fe5e027	1.7959031
28	0xbf47515b	-0.77858514
29	0xbf71d976	-0.94472444
30	0xbf87283c	-1.0559154
31	0x3f8a65e6	1.0812347
32	0xbf839b7d	-1.0281826
33	0x3fc58afa	1.5433037
34	0xbe35965f	-0.17733143
35	0xbfb15362	-1.3853571
36	0xbfa133ed	-1.2593971
37	0xbf29fa09	-0.6639715
38	0x40267da1	2.6014178
39	0x401c9a73	2.4469268
40	0xbfce0ce7	-1.6097687
41	0xbeebfb87	-0.46090338
42	0xbeebfc73	-0.4609104
43	0xbfc94b60	-1.5726128
44	0xbef0b8ea	-0.47016078
45	0xbf9dbe11	-1.2323629
46	0xc00cf178	-2.202238
47	0xbfcd43b3	-1.6036285
48	0xbf46a368	-0.7759309
49	0x3bbaf681	0.005705655
50	0xbf8d01fb	-1.1016229
51	0xbf7e2d14	-0.99287534
52	0xc0619324	-3.5246058
53	0xc015ebca	-2.3425164
54	0xbfadae69	-1.3568851
55	0xbf92628f	-1.1436328
56	0xbf330841	-0.6993447
57	0xc00d6ae1	-2.2096484
58	0xbf555b5f	-0.83342546
59	0xbf69b772	-0.9129554
60	0x3eb97e9f	0.36229417
61	0x3fe6b302	1.8023379
62	0x3fad2075	1.352553
63	0x3f418726	0.75596845
64	0xc00cfb0f	-2.2028234
65	0xbf202962	-0.62563145
66	0xbf3cddb2	-0.7377578
67	0xc0118237	-2.2735727
68	0xbfda5af8	-1.7059011
69	0x3f55ec08	0.8356328
70	0xbf730432	-0.94928277
71	0xbf4b1c4b	-0.79340047
72	0xbef99870	-0.48749113
73	0xbfa9d6cb	-1.3268675
74	0xbf4a651c	-0.7906053
75	0x400f4499	2.2385619
76	0xbf4f68b3	-0.81019133
77	0x3f22d2ef	0.6360311
78	0xbf1ba210	-0.6079416
79	0xbda5790f	-0.08079731
80	0xbf8b37a2	-1.0876353
81	0xbfffba28	-1.9978685
82	0xbfdd27f1	-1.7277814
83	0xbf899056	-1.0747173
84	0x3fc09ede	1.5048482
85	0xbf49d9ef	-0.78848165
86	0xbf498c89	-0.78730065
87	0xbf444e38	-0.7668185
88	0x3f828856	1.0197856
89	0xbf8ed271	-1.1157972
90	0xbfcd3e71	-1.6034681
91	0xc0133142	-2.2998815
92	0xbf84e80d	-1.0383316
93	0x3f5e968e	0.8694848
94	0x3f09cf0b	0.5383155
95	0x3ee8f0da	0.45496255
96	0xbf166b84	-0.58757806
97	0x4012a56e	2.291347
98	0xbed54f64	-0.41662133
99	0xbe912f0c	-0.28356206
100	0xbfc8de94	-1.5692925
101	0xbf54e7a2	-0.83165944
102	0xbfee523f	-1.861885
103	0xbfa15554	-1.2604165
104	0xc0142332	-2.3146482
105	0xc0530ed2	-3.2977796
106	0xbfd69217	-1.6763333
107	0xbf8f554f	-1.1197909
108	0xbde42c13	-0.11141219
109	0xbf893150	-1.0718174
110	0xbf968a93	-1.176104
111	0xbfc91a34	-1.5711122
112	0xbf4493c1	-0.76787955
113	0xc04a4bf3	-3.1608856
114	0xbfade4bc	-1.3585429
115	0xc005499a	-2.0826173
116	0xbf57e0e3	-0.84327525
117	0xc094ea88	-4.6536293
118	0xbf50624f	-0.81400007
119	0xbff2040d	-1.8907486
120	0xc01f4c2a	-2.4890237
121	0xc029d118	-2.653387
122	0x3f3955e2	0.7239667
123	0xbf007253	-0.50174445
124	0xc01e537d	-2.4738457
125	0xc001aaf3	-2.026059
126	0xbfcb19c0	-1.5867233
127	0xbef4d8c9	-0.47821644
128	0xbfec2591	-1.8448964
129	0xbfb0b7bd	-1.3806072
130	0xbfe9b947	-1.8259667
131	0xbef01abd	-0.468954
132	0xbe244027	-0.16040097
133	0x4008f0b9	2.1396925
134	0xbf6ccba7	-0.9249825
135	0xbebc5ce1	-0.3678961
136	0xbf4393b3	-0.76397246
137	0x3d0db23d	0.03459381
138	0x3fc02d36	1.5013797
139	0xbfc419e0	-1.5320396
140	0x3f349070	0.70532894
141	0xbff5b175	-1.919478
142	0xbfe08567	-1.7540711
143	0xbf0ba7b0	-0.54552746
144	0xbfc802a5	-1.5625807
145	0xbf4d95ae	-0.8030652
146	0xbf6f9663	-0.93588847
147	0xbfd1af15	-1.6381556
148	0xbfea6d27	-1.8314561
149	0xc04cab1e	-3.1979442
150	0x3f2eaafd	0.6822966
151	0x3eaaa63b	0.3332995
152	0xbf741d18	-0.95356894
153	0xbf693056	-0.9108938
154	0x402bc868	2.6841068
155	0xc0085305	-2.130067
156	0xbf94294f	-1.1575106
157	0xc00a4886	-2.1606765
158	0xbfd64593	-1.6739982
159	0x3ff07fcf	1.8789004
160	0x3f89bf5e	1.0761526
161	0xbfe54929	-1.7912952
162	0xbfea0a4d	-1.8284394
163	0x401f8503	2.4924934
164	0xbfb61338	-1.4224615
165	0xbffe58e0	-1.9870872
166	0x3f91befb	1.1386408
167	0xbec7d60c	-0.39030492
168	0x3f2314c0	0.63703537
169	0xbfa9e2d0	-1.3272343
170	0xbfa6ac4e	-1.3021333
171	0xbfeb6c3a	-1.8392403
172	0xbfce328d	-1.6109177
173	0xc00d4ab0	-2.2076836
174	0xbd0d266b	-0.034460466
175	0x3f56a640	0.8384743
176	0xbe16348b	-0.14668481
177	0xc05328a3	-3.2993553
178	0xbd3a4a31	-0.04548091
179	0xbfa0bb01	-1.2557069
180	0xbf9d45b2	-1.2286894
181	0xbfa35619	-1.276065
182	0x4024831a	2.5705018
183	0xbfb2d8d9	-1.3972427
184	0xbf058d6f	-0.52168936
185	0xc000c0e4	-2.011773
186	0xbf4136ba	-0.7547413
187	0xbf7418cd	-0.95350343
188	0xbfa04b9a	-1.2523072
189	0xc0088102	-2.132874
190	0x401d8536	2.4612556
191	0x3ff46009	1.9091808
192	0xbfba8eb4	-1.45748
193	0xbd48ccad	-0.04902332
194	0xbf98d984	-1.194138
195	0xbf8c552c	-1.0963492
196	0xbec46736	-0.38359994
197	0x3f1fa74c	0.6236465
198	0x40064cb8	2.0984325
199	0xbf45d085	-0.772713
200	0xbf161577	-0.586265
201	0x3fd590ba	1.6684792
202	0xc00c5d78	-2.1932049
203	0xbfdcc9c3	-1.7249073
204	0x3e341d20	0.17589235
205	0xbf9dd71a	-1.2331269
206	0x402166fd	2.521911
207	0x3fed7f4d	1.8554474
208	0x3fc6148b	1.5475019
209	0xbf8b90a7	-1.0903519
210	0xc079d20a	-3.9034448
211	0xbf8ae077	-1.0849751
212	0xbfafbba5	-1.372914
213	0xbf9ef4f1	-1.24185
214	0xbf9b9cd9	-1.2157241
215	0xbe00ce62	-0.12578729
216	0xc00e6dc0	-2.2254486
217	0x3f8cd94c	1.1003814
218	0xbeaf4660	-0.3423338
219	0xbfeaee87	-1.8354043
220	0x3fb34d2d	1.4007927
221	0xbf87c789	-1.0607768
222	0xbee808d5	-0.45319238
223	0xbd525a9d	-0.051355947
224	0xbfa8daf2	-1.3191817
225	0xc01b85ec	-2.430049
226	0xbfb3396f	-1.4001902
227	0xbff7b90d	-1.9353348
228	0x3d24a63f	0.040197607
229	0xc027ac0a	-2.6198754
230	0x3e7fd553	0.2498372
231	0x3f5e3408	0.86798143
232	0xbf829d0d	-1.0204178
233	0xbf8c177f	-1.094467
234	0xbe01501f	-0.1262822
235	0xbf830263	-1.0235103
236	0xbfc519ec	-1.5398536
237	0x4006e90d	2.1079743
238	0xbf9607ad	-1.1721092
239	0xbf08d096	-0.53443277
240	0xc00d40ae	-2.2070727
241	0xbf8d6e46	-1.1049278
242	0xbf90924e	-1.1294649
243	0x3e972cac	0.2952627
244	0xc0037abd	-2.0543664
245	0xbfe2fe2c	-1.7733817
246	0xbfc5f60a	-1.546571
247	0xbfba38cc	-1.4548583
248	0xbf00a242	-0.50247586
249	0xbe0fc183	-0.14038663
250	0xbf2b2f4f	-0.6686906
251	0x3e8de3f8	0.2771299
252	0xc03579d4	-2.8355608
253	0xbf26d1c9	-0.65163857
254	0xbfa39ae2	-1.2781641
255	0x3f896b23	1.073582

l2.weight f4 [200, 800]
0	0x3cf330aa	0.02968629
1	0x3c80dac0	0.015729308
2	0xbd428f49	-0.04749993
3	0x3ca65c70	0.02030775
4	0xbd06ca4e	-0.032907777
5	0xbb839dcc	-0.0040166136
6	0xbcaadccd	-0.02085724
7	0xbc860316	-0.016358893
8	0xba69fd2a	-0.0008925969
9	0xbc26cdb9	-0.010180884
10	0xbc86c27e	-0.016450163
11	0x3b60259a	0.00342021
12	0xbd51299d	-0.051065076
13	0xbca6f0e0	-0.02037853
14	0xbce06802	-0.027393345
15	0xbc894320	-0.01675564
16	0xbc59fb74	-0.01330458
17	0xbcf328da	-0.029682565
18	0xbd28aa4b	-0.04117803
19	0x3d0756ee	0.033041887
20	0xbc9ac78f	-0.018893985
21	0xbd255e88	-0.040373355
22	0xbc6d48ed	-0.014482719
23	0xbc7d371a	-0.015455032
24	0xbd0e9a55	-0.03481515
25	0x3be96ca0	0.007123545
26	0xbd363afe	-0.044489853
27	0xbd162023	-0.03665174
28	0x3cd42357	0.025895758
29	0x3cee046d	0.029054845
30	0xbcf5c4d4	-0.030001082
31	0x39da8fe4	0.00041687407
32	0x3cb8e698	0.022570893
33	0x3c08d1d8	0.008350812
34	0xbc8c63eb	-0.017137488
35	0xbcd9dc34	-0.026594259
36	0x3c967613	0.018366849
37	0xbcb38f64	-0.02191896
38	0xbd0c3cdb	-0.034237724
39	0xbb67b338	-0.0035354625
40	0xbd0d88e4	-0.034554377
41	0x3ac83c6c	0.0015276796
42	0x3bbb4029	0.0057144356
43	0x3c0fb395	0.008770843
44	0xbccae420	-0.024766982
45	0xbd161c3b	-0.036648016
46	0x3a1cafd8	0.00059771305
47	0xbce07f72	-0.02740452
48	0xbb0b98c9	-0.0021300784
49	0xbc050145	-0.008117978
50	0xbcf37ec9	-0.029723542
51	0xbc9b1997	-0.0189331
52	0xbca500c8	-0.020141974
53	0xbd372177	-0.04470965
54	0xbc895a90	-0.016766816
55	0xbca381f6	-0.019959431
56	0xbce33e94	-0.0277398
57	0x3c36c79f	0.011155992
58	0xbd8a5c61	-0.06755901
59	0xbd0343f3	-0.032047223
60	0xbd031513	-0.03200252
61	0xbb42a6b9	-0.0029701425
62	0xbcf58a3c	-0.029973142
63	0xbc1bec88	-0.009516843
64	0xbcd37f47	-0.025817527
65	0xbcd2a486	-0.025713217
66	0x3b1773fb	0.0023109901
67	0xbc557b19	-0.013029837
68	0xbc272b7a	-0.010203237
69	0xbc58691b	-0.013208653
70	0xbcacb95e	-0.021084484
71	0x3c4df162	0.012569757
72	0xbbfe5443	-0.0077615096
73	0x3cce1872	0.02515814
74	0xbd05dfed	-0.032684255
75	0xbd5ada1d	-0.053430665
76	0xbc3b3c41	-0.01142794
77	0xbd1a796f	-0.037713464
78	0x3bee0085	0.0072632455
79	0x3d02078a	0.03174547
80	0xbc684b90	-0.014178172
81	0xbc2bf60e	-0.010495676
82	0x3c1dec41	0.009638847
83	0xba019a2a	-0.00049439317
84	0xbcd67519	-0.026178883
85	0x3cebc632	0.02878103
86	0xbd023e3a	-0.031797625
87	0x3c95a323	0.018266266
88	0xbc36044e	-0.011109425
89	0xbd17839c	-0.036990747
90	0x3d063dae	0.032773666
91	0xbaccdff0	-0.0015630703
92	0xbd034fab	-0.0320584
93	0xbb7deacb	-0.0038744684
94	0xbc9d3891	-0.019192012
95	0x3c78689e	0.015161661
96	0x3c982b95	0.018575469
97	0x3a92d847	0.0011203372
98	0xbc0dfe14	-0.008666534
99	0x3c547178	0.012966506
100	0xbc69802a	-0.014251748
101	0x394c2859	0.00019469987
102	0x3b70e2cf	0.0036756282
103	0xbcfa8f68	-0.03058596
104	0xbd1f5f5b	-0.038909297
105	0x3acde5aa	0.0015708704
106	0xbce06bea	-0.027395207
107	0xbc021342	-0.007939162
108	0xbd8274eb	-0.063699566
109	0xbd1e655a	-0.038670875
110	0x3cb31a34	0.02186308
111	0xbc5a8fe4	-0.01333997
112	0xba9fd873	-0.0012195244
113	0x3ca0edcc	0.01964464
114	0xbd3139ba	-0.043267943
115	0xbb52527d	-0.0032092624
116	0xbc4d5522	-0.012532504
117	0x3cb6b02f	0.022300808
118	0xbc837e8a	-0.01605155
119	0xbd0128e1	-0.031533126
120	0x3cec4334	0.028840639
121	0x3b99c9a5	0.0046932274
122	0xbc5ddf90	-0.013542071
123	0xbce5bf36	-0.028045278
124	0xbd423d40	-0.047421694
125	0xbd110387	-0.035403755
126	0xbd3eed96	-0.0466133
127	0xbd34d785	-0.044150848
128	0x3d094708	0.033515006
129	0xbc9b15af	-0.018931238
130	0x3caf7881	0.021419765
131	0x3c68053f	0.014161407
132	0x3c952239	0.018204795
133	0xbd8aba22	-0.06773783
134	0xbb2e0d36	-0.0026558167
135	0xbc25d3b7	-0.0101212775
136	0xbb6e140c	-0.0036327867
137	0xbd3b385a	-0.045708038
138	0xbc86f15e	-0.016472515
139	0x3ca97d3c	0.0206896
140	0xb9f8ddce	-0.00047467503
141	0xbc4d0aea	-0.012514809
142	0xbb05d81c	-0.0020423
143	0x3c3763df	0.011193245
144	0xbcb306ac	-0.021853767
145	0xbc2aaa04	-0.010416511
146	0xbd396b69	-0.04526845
147	0x3cb06ab0	0.021535248
148	0xbb86f15d	-0.004118128
149	0x3cce1489	0.025156276
150	0x3c2b59cc	0.010458421
151	0x3bd01c14	0.0063510034
152	0xbb636d74	-0.003470269
153	0xbc19aa65	-0.009379004
154	0xbbd7674a	-0.0065735923
155	0x3c993535	0.018702129
156	0xbc98374d	-0.018581057
157	0x3b891827	0.0041837874
158	0xbca5a0f0	-0.020218343
159	0xbd22f93e	-0.039788477
160	0xbccd496a	-0.02505942
161	0xbd3bec0b	-0.045879405
162	0xbc1d28f0	-0.00959228
163	0xbd07668f	-0.033056792
164	0xbc2a967c	-0.010411855
165	0xbd1b11c7	-0.03785875
166	0xbd265c71	-0.040615503
167	0x3cc8ffbd	0.024536008
168	0x3c244547	0.010026283
169	0x3c891ff8	0.016738877
170	0x3ca23dbd	0.01980483
171	0xbc342ba5	-0.010996734
172	0xbd355c56	-0.04427751
173	0xbc144f4a	-0.009052107
174	0x3b867845	0.0041036927
175	0xbc91b34f	-0.017785696
176	0x3d13e5d0	0.03610784
177	0x3caaf825	0.020870278
178	0x3b69d619	0.003568059
179	0x3bd16c05	0.0063910508
180	0x3ce6c8d7	0.02817194
181	0xbca6dd59	-0.020369219
182	0x3b3de3f4	0.0028974982
183	0xbd086c48	-0.03330639
184	0xb9491b16	-0.00019178944
185	0xbce2775c	-0.027644806
186	0x3b38c758	0.002819499
187	0xbc25b478	-0.010113828
188	0xbd7c25a9	-0.061559353
189	0x3b781696	0.003785526
190	0x3bf2b790	0.0074071363
191	0xbcb0f36a	-0.021600444
192	0xbcefb607	-0.029261602
193	0x3cae5f3f	0.021285651
194	0xbc888b88	-0.016668096
195	0xbd2406c7	-0.040045526
196	0xbb8a73d1	-0.004225232
197	0xbc9bc577	-0.019015057
198	0x3c0f1754	0.008733589
199	0xbd14477a	-0.036200978
200	0xbb0df25b	-0.0021659348
201	0xbc6dc9d5	-0.014513453
202	0xbc9e80b2	-0.019348476
203	0x3c82460a	0.015902538
204	0xbc134d79	-0.008990639
205	0xbc929daf	-0.017897455
206	0xbb66a997	-0.0035196298
207	0xbb338b7c	-0.0027396372
208	0x3b624c63	0.0034530393
209	0xbc9d7711	-0.019221814
210	0x3c65ea2d	0.014032883
211	0x3c90f3e7	0.017694427
212	0xbc0a0e41	-0.00842625
213	0x3c0e05e3	0.008668396
214	0xbb7b1ff0	-0.0038318597
215	0xbd0aae6a	-0.03385774
216	0xbbd0cbdd	-0.0063719586
217	0xbbc5c39a	-0.0060352804
218	0xbc08f118	-0.0083582625
219	0x3cdffe89	0.027343052
220	0xbc7710dd	-0.015079704
221	0xbc75a594	-0.01499309
222	0xbd4594bb	-0.048237544
223	0xbd31d9e3	-0.043420684
224	0x3b1aa07e	0.0023594196
225	0xbd8fabc6	-0.07015185
226	0x3cc3a0ba	0.023880351
227	0x3cf4809a	0.029846478
228	0xbc5079d4	-0.012724359
229	0x3ae59c0d	0.001751782
230	0xba8449ac	-0.0010092757
231	0xbc9ad347	-0.018899573
232	0xbcb00cf1	-0.021490546
233	0xbced9325	-0.029000828
234	0xbd688241	-0.056764845
235	0x3cbe2e2d	0.023215378
236	0xbd21053c	-0.039311633
237	0xbd1d09b1	-0.03833932
238	0xbcb82730	-0.022479624
239	0xbcf330aa	-0.02968629
240	0xbca775b2	-0.020441864
241	0xbcc6f834	-0.024288274
242	0xbc6b6c5b	-0.014369096
243	0xbcc759dd	-0.024334842
244	0xbd485bae	-0.048915558
245	0x3c276de1	0.010219068
246	0xbce80540	-0.028322816
247	0x3b428778	0.0029682796
248	0x3bfb9908	0.007678155
249	0xbc3f91a6	-0.01169244
250	0xbaa12c4c	-0.0012296527
251	0x3c8510e5	0.016243408
252	0x3c538ee7	0.012912489
253	0xbcfb8d51	-0.030707033
254	0xbc8fabc6	-0.017537963
255	0x3aa80639	0.0012819237

l2.bias f4 [200]
0	0xbd5ada1d	-0.053430665
1	0xbd3f6e7e	-0.046736233
2	0xbd8664be	-0.06562184
3	0xbd144f4a	-0.03620843
4	0xbd978f54	-0.074003845
5	0x403e9f43	2.9784706
6	0x3c51aa84	0.012797002
7	0xbe16fecc	-0.14745635
8	0x403ce4b6	2.9514594
9	0x4039202e	2.892589
10	0xbd027103	-0.031846058
11	0x4047eb63	3.1237419
12	0x3fd24817	1.642825
13	0x4003ffe5	2.0624936
14	0xbcc86766	-0.024463367
15	0x3c0d36db	0.008619036
16	0xbc6a4f32	-0.014301108
17	0xbf21e8f5	-0.6324609
18	0xbe0aeb49	-0.13566317
19	0xbd528d16	-0.05140408
20	0x400665e8	2.0999699
21	0x4040d69d	3.013099
22	0x4028d519	2.6380064
23	0xc0149c41	-2.322037
24	0xbf71c5bb	-0.9444234
25	0xc01d9221	-2.462044
26	0xbc9a4e77	-0.018836243
27	0xbbed123d	-0.00723484
28	0x4046ceee	3.10638
29	0xbd37e4c8	-0.044895917
30	0xbbc824fd	-0.006107925
31	0x401a44bb	2.410445
32	0x3ff06c90	1.8783131
33	0xbd15aedb	-0.03654371
34	0x3c841acb	0.016126057
35	0xbff2a878	-1.8957663
36	0xbd03d47c	-0.032185063
37	0x4017ca27	2.3717134
38	0x39547d2f	0.0002026453
39	0xbdd05a94	-0.101735264
40	0xbd3ab38a	-0.045581378
41	0x3ca92f1b	0.020652344
42	0xbfd24260	-1.6426506
43	0x404ce10f	3.2012365
44	0xbd62487b	-0.055244904
45	0xbd62e4bc	-0.05539392
46	0x40152fc4	2.3310404
47	0xbd5392cf	-0.05165368
48	0xbf11a5be	-0.5689353
49	0x4049009a	3.1406617
50	0xbd94a152	-0.07257332
51	0xbf6195d2	-0.8811923
52	0xbcedc5ed	-0.029025042
53	0xbce0f88a	-0.027462263
54	0x4028f80d	2.6401398
55	0xbcea33da	-0.028589178
56	0xbd8ba482	-0.06818487
57	0xbbdbad0e	-0.0067039793
58	0xbf98e503	-1.1944889
59	0xc020c26e	-2.511867
60	0xbc67dfe4	-0.014152501
61	0xbf253c30	-0.64544964
62	0xbcbb53b3	-0.02286706
63	0xbcd64e09	-0.026160257
64	0xbd31224a	-0.04324559
65	0xbd776e9d	-0.060408223
66	0xbdabea56	-0.083943054
67	0xbca20edd	-0.019782478
68	0xbd8a6819	-0.06758136
69	0xbdbbe053	-0.09173646
70	0x4051a1fd	3.275512
71	0xbd975c8c	-0.07390699
72	0xbe7dc7a3	-0.24783187
73	0xbd05822d	-0.03259485
74	0x3c3139ba	0.010816986
75	0xbf639b97	-0.88909286
76	0x3cb46254	0.022019543
77	0x3e236ff6	0.15960678
78	0xbd7e7f3b	-0.062133055
79	0x3a368d06	0.0006963763
80	0xbeb2a67e	-0.34892648
81	0xbf51b989	-0.8192373
82	0x3f2ded7c	0.679405
83	0xbccbe5f1	-0.024889918
84	0x400d2939	2.205641
85	0x3c766113	0.015037793
86	0xbf63fa6d	-0.89053994
87	0xbd4c5351	-0.049884144
88	0xbe90a60a	-0.28251678
89	0x401d319b	2.4561527
90	0x3fad1282	1.3521273
91	0xbfede620	-1.8585854
92	0x4044eb01	3.0768435
93	0x40461e53	3.0956008
94	0xb8a88723	-8.0360354e-05
95	0xbfad824f	-1.3555392
96	0x3bd3a656	0.006459038
97	0x4037741b	2.8664615
98	0x4033f022	2.8115315
99	0xbed07320	-0.40712833
100	0xbf860433	-1.0470031
101	0x3f253d4a	0.64546645
102	0xbe9328da	-0.28742105
103	0xbd048444	-0.0323527
104	0xbebe6ed9	-0.37193945
105	0x404c87ae	3.1957812
106	0xbf8cc96d	-1.099897
107	0xbcf4039a	-0.029786874
108	0xbc95be7b	-0.018279305
109	0xbd879d3f	-0.06621789
110	0xbf471d4c	-0.7777908
111	0x3fc37385	1.5269629
112	0xbf6e75d8	-0.93148565
113	0xbf7cf88b	-0.98816746
114	0xbd45cf53	-0.048293423
115	0x3fa72e30	1.306097
116	0x404e6332	3.2248044
117	0x40483ca1	3.1287005
118	0xbd3b3472	-0.045704313
119	0xbd99508e	-0.07486068
120	0x402b4bd1	2.6765025
121	0x3ae8c890	0.0017759968
122	0xbd729c39	-0.059231017
123	0xbc87cc1f	-0.016576825
124	0x3f265ec8	0.64988375
125	0xbd7c19f1	-0.061548177
126	0x3d193d05	0.03741171
127	0xbdc6292c	-0.09675822
128	0xbe5cb88f	-0.21554779
129	0xbd420690	-0.04736954
130	0x404999ed	3.15002
131	0x4052ef5a	3.2958589
132	0x403d86cd	2.9613526
133	0xc018cfe8	-2.3876896
134	0x4043d7c9	3.0600455
135	0x4040acf7	3.010557
136	0x3e01b37f	0.12666129
137	0x404506e5	3.0785458
138	0xc00f21a2	-2.2364278
139	0x404c2998	3.1900387
140	0xbdc444ca	-0.09583433
141	0xbc5ce58f	-0.013482465
142	0xbd0cc97b	-0.034371834
143	0xbc2118c4	-0.009832565
144	0xbd24127f	-0.0400567
145	0x404453f5	3.0676243
146	0xc027d7a6	-2.6225371
147	0xbff5c051	-1.9199315
148	0xbeb060ed	-0.34448949
149	0xbdc273f1	-0.0949477
150	0xbff0e4a5	-1.8819777
151	0xbd49ee07	-0.049299266
152	0xbe23b4bf	-0.15986918
153	0xbd60547a	-0.054768063
154	0x3fcac310	1.5840778
155	0xbd962023	-0.07330348
156	0xbd545620	-0.051839948
157	0x3b28f09a	0.0025778175
158	0xbfc1ec9a	-1.515033
159	0x3fc4edf5	1.5385119
160	0xbcfa7be0	-0.030576646
161	0xbfb82ad8	-1.4388075
162	0x3faae22e	1.3350275
163	0xbcd55fc1	-0.026046636
164	0x3fd05630	1.6276302
165	0xbccde992	-0.025135789
166	0x40169788	2.3529987
167	0x404cf4b8	3.2024364
168	0xbd51b63d	-0.051199187
169	0xbc3b5b83	-0.011435392
170	0xbd920170	-0.071291804
171	0xbdbf2c16	-0.093345806
172	0xc01d66bc	-2.4593954
173	0xc0196887	-2.3970048
174	0xbfecba5a	-1.849437
175	0xbd20c5ec	-0.039251253
176	0xbd3aa7d2	-0.045570202
177	0xbe0ec54d	-0.13942452
178	0xbed918e4	-0.42401803
179	0xbf423abb	-0.75870866
180	0xbf39e817	-0.72619766
181	0x403f0f91	2.985325
182	0x3ce9e1c7	0.028550042
183	0xbd752c7b	-0.059856873
184	0xbd50b855	-0.050957043
185	0x4044f0e8	3.0772038
186	0xbd0ce8bb	-0.034401637
187	0xbf7ceef5	-0.9880212
188	0xbda650b9	-0.081208654
189	0x3f82dec0	1.0224228
190	0x40338915	2.8052418
191	0x404ecf46	3.231401
192	0xbd5e7018	-0.05430612
193	0x40297320	2.6476517
194	0xbf0f03e0	-0.5586529
195	0xbcbbdc6b	-0.022932252
196	0xc02fe08d	-2.7480805
197	0xbcaef798	-0.021358296
198	0xbfc72217	-1.5557278
199	0xbd2d3277	-0.042284455

l3.weight f4 [1, 200]
0	0x3cddc04f	0.027069239
1	0x3914ff12	0.00014209401
2	0xbbfbc018	-0.0076828115
3	0x3c4949f5	0.012285699
4	0xbb948212	-0.004532107
5	0x3ee811ba	0.45326024
6	0x389bc95f	7.428484e-05
7	0xbbf5fb84	-0.0075067896
8	0x3eb3d28a	0.35121566
9	0x3eb155cd	0.34635773
10	0xbd7cb632	-0.061697192
11	0x3ec3b596	0.38224477
12	0x3f580e68	0.8439698
13	0x3f208ed0	0.62717915
14	0x3cbd66f4	0.023120381
15	0x3ba13bed	0.004920474
16	0x3a9db1a9	0.0012031096
17	0xbfa75eb9	-1.3075782
18	0xbd6be6af	-0.057593044
19	0x3c3690ef	0.011142953
20	0x3f0a291e	0.5396899
21	0x3f2a91ef	0.66628927
22	0x3ea3efba	0.32018834
23	0xbf9fca07	-1.2483529
24	0xc03d5673	-2.9584014
25	0xbecc7d17	-0.39939186
26	0xbd01731a	-0.03160391
27	0xbca1823c	-0.01971542
28	0x3f122b44	0.5709727
29	0xbd0b46c2	-0.034003027
30	0x3ad2bbf6	0.0016077745
31	0x3f1ef398	0.62090445
32	0x3f3ea287	0.7446675
33	0x3b84de1c	0.004054798
34	0xbc84e5ed	-0.016222918
35	0xbf5c8b1e	-0.86149776
36	0x3c889740	0.016673684
37	0x3f095862	0.53650486
38	0x3cbc6523	0.022997444
39	0xbc7ffe0c	-0.015624534
40	0xbb90635e	-0.0044063767
41	0xbd06ab0e	-0.032877974
42	0xbf2d53c6	-0.67705953
43	0x3eb28dcc	0.34873807
44	0x3af710dd	0.001884963
45	0xbcac4fe6	-0.021034192
46	0x3f385dc0	0.7201805
47	0xbcf718ad	-0.030163134
48	0xc056f456	-3.358663
49	0x3ea7cfdc	0.32775772
50	0xbc65e25d	-0.01403102
51	0xc03db4d3	-2.9641616
52	0x3bd6bf51	0.0065535684
53	0xbc916147	-0.01774658
54	0x3f589402	0.8460084
55	0x3bdfbc21	0.0068278466
56	0x3ca1a94c	0.019734047
57	0xbce5c31e	-0.02804714
58	0xbf9b5997	-1.2136716
59	0xbf1903ca	-0.59771407
60	0x40259dba	2.5877519
61	0xc05c2eb2	-3.44035
62	0x3d0c350a	0.03423027
63	0xbc6e3b1e	-0.014540462
64	0x3d03f3bb	0.03221486
65	0xbccc9d89	-0.024977462
66	0x3af27910	0.0018499214
67	0x3aa79cc2	0.0012787806
68	0xbcddc820	-0.027072966
69	0x3cfa6c40	0.030569196
70	0x3eb43588	0.3519709
71	0xbbd77eba	-0.0065763863
72	0xbcc91efe	-0.024550911
73	0x3c28f09b	0.010311271
74	0xbd04a76c	-0.03238623
75	0xc009ea6d	-2.1549332
76	0xbd75c8bb	-0.060005885
77	0x401c3111	2.4404948
78	0x3c406496	0.011742732
79	0x3b1d5001	0.0024003985
80	0x3f145412	0.5794078
81	0xbfab17a8	-1.3366594
82	0x3fab6696	1.3390682
83	0xbd06d21e	-0.032915227
84	0x3f114dff	0.5675964
85	0xbcf0bbc0	-0.029386401
86	0xc0674459	-3.6135466
87	0xbb28ecb2	-0.0025775847
88	0xc01c2b7c	-2.440154
89	0x3f273c19	0.65326077
90	0x4003af46	2.0575728
91	0xbf94a344	-1.1612325
92	0x3e68d58b	0.2273771
93	0x3eacd631	0.33757165
94	0x3b0e5fbc	0.0021724543
95	0xc000488c	-2.004428
96	0xbcbb4be3	-0.022863334
97	0x3e5edf23	0.21764807
98	0x3e783d2b	0.24242084
99	0xc005a278	-2.0880413
100	0xc004a541	-2.0725863
101	0x3f919729	1.1374255
102	0xbf3a328b	-0.7273337
103	0x396672e6	0.00021977312
104	0x3f98fe57	1.1952618
105	0x3ea42502	0.32059485
106	0xbf1a3357	-0.6023459
107	0x3cdb85fd	0.026797289
108	0x3cc1f6f0	0.02367732
109	0xbb596aeb	-0.00331753
110	0xc02f810e	-2.7422519
111	0x3f8b72fc	1.0894465
112	0xbfc43ed3	-1.5331672
113	0xbfb52334	-1.4151368
114	0x3cbebeb4	0.023284294
115	0x3ee45d90	0.44602633
116	0x3ec4a627	0.38408014
117	0x3e89eedc	0.26940048
118	0x3d42a2d1	0.047518555
119	0x3d130729	0.0358955
120	0x3f00a84b	0.50256795
121	0xbbd4fe17	-0.0065000164
122	0xbb92304f	-0.0044613252
123	0xbd78977e	-0.06069135
124	0x3f3e1247	0.7424664
125	0x3cb9b1b8	0.02266775
126	0xbb0a3551	-0.0021088908
127	0x3cd0a8b5	0.02547107
128	0xbfce62a8	-1.6123857
129	0x3bb836d0	0.0056217685
130	0x3ebbcaba	0.36678106
131	0x3ec1499b	0.3775147
132	0x3e554341	0.20826437
133	0xbef1847e	-0.47171396
134	0x3ecea264	0.4035827
135	0x3e3e21ba	0.18567553
136	0xbf69c616	-0.9131788
137	0x3e19f231	0.15033795
138	0xbf295862	-0.66150486
139	0x3e97c98b	0.29645953
140	0x3c91c6d7	0.01779501
141	0xbc8bbbf1	-0.01705739
142	0x3c3f188d	0.011663568
143	0x3cd5c550	0.026095062
144	0xbcef7f57	-0.029235525
145	0x3e7222a6	0.2364603
146	0xbf1683b8	-0.58794737
147	0xbf99be56	-1.2011211
148	0xbfbe210b	-1.4853834
149	0x3c3bec0b	0.011469851
150	0xbf3eeda5	-0.74581367
151	0xbae4f415	-0.0017467762
152	0x3cdeb667	0.027186586
153	0xbcdeed19	-0.027212666
154	0x3f1401ef	0.5781545
155	0x3c6b5cbb	0.01436537
156	0xbba5f2f9	-0.005064365
157	0x3c6fa27e	0.0146261435
158	0xbf44a93c	-0.7682073
159	0x3f185d81	0.59517676
160	0xbb4dbab1	-0.0031391794
161	0xbf72af88	-0.9479909
162	0x3f394849	0.72375923
163	0xbc9604cb	-0.018312832
164	0x3f21ec82	0.6325151
165	0x3c446bda	0.011988604
166	0x3ef6e496	0.48221272
167	0x3eb4c210	0.35304308
168	0x3c5582e9	0.0130317
169	0xbba7f69a	-0.0051258327
170	0xba04882c	-0.00050556916
171	0x3c8fabc6	0.017537963
172	0xbf53b1a4	-0.82692933
173	0xbf3b10b4	-0.7307236
174	0xbfb3fdc3	-1.4061817
175	0xc002fb50	-2.046589
176	0xbc3a6182	-0.011375787
177	0x3c8b0841	0.01697171
178	0xc050d3ac	-3.2629194
179	0xc09a5917	-4.823375
180	0xbfaa4910	-1.3303547
181	0x3f12da13	0.57364005
182	0xc058b3e5	-3.38598
183	0xbabb4412	-0.0014287254
184	0x3d11170f	0.03542238
185	0x3e564e6c	0.20928353
186	0xb93237a2	-0.00016996128
187	0xc080f796	-4.030223
188	0x385290fd	5.0202932e-05
189	0x3f641e69	0.891089
190	0x3ec5e5b5	0.38651815
191	0x3ea4b585	0.32169738
192	0x3cdc688e	0.026905324
193	0x3ed6168e	0.41814083
194	0xbfa617e3	-1.297604
195	0x3c06a726	0.008218562
196	0xbf5b1d1c	-0.8559129
197	0x3ae85361	0.0017725044
198	0xc014adf0	-2.3231163
199	0x3cdf1bf9	0.027235018
