DDPG/local_checkpoint/Walker2d-v2(orginal)/('target_actor', 3).ckpt (torch, 705111 bytes, 6 tensors)

l1.weight f4 [800, 17]
0.11120932 0.37104854 -0.34843704 0.17060056 0.06607675 0.42448375 -0.183973 0.14700833
-0.41359314 -0.12316725 -0.12406732 -0.013047018 -0.02135237 -0.14596143 -0.11742227 0.050167643
-0.10264605 -0.09543244 -0.717244 0.58610725 0.8215399 0.32622966 -0.07786384 -0.06510412
0.5565389 -0.42571378 0.009200646 -0.12787779 -0.10022933 -0.07897118 -0.0062799985 -0.15931314
0.068110734 -0.039645072 -0.15876454 -0.20852682 -0.11552718 0.038432002 0.3479141 0.78227484
0.51564515 -0.20038573 -0.2067817 0.29940018 0.031950448 0.1088796 -0.13402444 -0.031899296
0.28820774 0.2658855 0.06321714 0.3750476 0.04879516 0.11741345 -0.4200674 -0.13788077
0.1836826 0.29671565 -0.1402322 0.15962254 0.019225093 -0.15585971 -0.16207586 0.10435324
-0.16196395 0.15105852 0.07071808 0.062083285 0.109599024 -0.5441697 0.4444432 -0.008598234
0.44172814 0.49719357 -0.9255882 0.053077474 -0.55778515 -0.10556175 -0.22204447 0.10746262
-0.16424175 -0.05232003 0.0844574 0.12982677 -0.025619892 -0.26016414 0.08545439 -0.39098784
-0.05642043 -0.31382772 -0.2592035 -0.2352575 -0.04098204 0.40696836 -0.037268136 0.12667781
-0.20599024 0.08281381 -0.10125727 0.0671622 0.25298795 0.04273088 -0.27096495 0.23064837
-0.007096631 -0.6004096 -0.17997311 -0.57360464 -0.5756089 -0.1714684 0.33829972 -0.15976207
0.2264498 -0.17792407 -0.15037401 -0.058981482 -0.10906947 -0.27579305 0.13658325 0.048786968
-0.23540042 0.7953544 0.26965377 -0.23428276 0.5397472 -0.1179983 0.12903073 0.021126704
-0.23298514 0.14623377 0.2291886 0.059179947 -0.20324367 -0.02314554 0.21746653 0.16487852
-0.34804866 0.38908032 -0.2523487 0.020059204 -0.40361947 0.42249528 -0.081389256 -0.16827354
-0.20515278 -0.31528383 0.03256142 0.12847954 -0.20414358 -0.024756335 0.010757276 -0.21688798
0.19450276 -0.420182 0.22857699 -0.41440657 -0.2407265 0.2534804 -0.40736473 0.1100101
0.0674067 0.010661431 0.012588995 0.26169252 0.032043185 -0.019974664 -0.09428775 -0.001757211
-0.25934795 -0.02039452 0.1486108 0.103035085 -0.5783487 0.22134425 0.08161187 -0.29338008
0.29842982 0.13203041 -0.044631656 0.08594466 -0.14382888 -0.014277664 -0.21595968 -0.1958723
-0.05694606 0.18240054 -0.13081826 0.30532885 -0.23614082 -0.020764982 0.3475588 -0.059500657
0.13693817 -0.67657053 0.15283452 -0.0528018 1.0384895 -0.16866039 0.11294903 0.05147809
0.008597709 -0.038121924 0.07142704 0.035414837 -0.27213553 0.0914476 -0.2748515 0.2942506
0.014792607 0.8728691 -0.05299736 -0.34641632 -0.25817403 0.102208965 -0.16668372 -0.17760189
0.25682163 -0.029578878 0.051621947 -0.10300225 0.007972633 -0.0738262 -0.23523575 -0.46599472
-0.33197525 -0.108924024 -0.01625058 -0.47287875 -0.05021304 -0.41158178 -0.026099531 -0.15691265
0.18621758 0.16582985 0.007982687 0.2689707 -0.018082563 -0.017656676 -0.14166589 0.22426486
0.15045127 -0.16702573 -0.16581005 0.6640636 0.020184798 -0.51841843 -0.18947437 -0.20781326
-0.060743723 -0.09944688 0.28072888 -0.0064793034 0.076557316 0.10707694 0.019413672 0.116341956
00000000: b6c1 e33d 13fa bd3e 5766 b2be eab1 2e3e
00000010: 3f53 873d ef55 d93e 6b63 3cbe 5a89 163e
00000020: 7bc2 d3be 1c3f fcbd 0217 febd 29c3 55bc
00000030: 2aeb aebc ea76 15be 167b f0bd 967c 4d3d
00000040: 1838 d2bd 1572 c3bd 4e9d 37bf 200b 163f
00000050: 7050 523f 9307 a73e 1477 9fbd 4f55 85bd
00000060: 5579 0e3f 28f7 d9be 4ebe 163c 65f2 02be
00000070: 0945 cdbd a4bb a1bd 72c8 cdbb fc22 23be
00000080: a47d 8b3d df62 22bd 2c93 22be 0e88 55be
00000090: 8499 ecbd e06a 1d3d cc21 b23e 2a43 483f
000000a0: 5201 043f eb31 4dbe 95be 53be fb4a 993e
000000b0: 79de 023d 45fc de3d b43d 09be d6a8 02bd
000000c0: f78f 933e 2522 883e fd77 813d 3d06 c03e
000000d0: 6fdd 473d 7676 f03d 1313 d7be 9e30 0dbe
000000e0: 4b17 3c3e 1deb 973e 0899 0fbe 1774 233e
000000f0: f17d 9d3c b099 1fbe 37f7 25be 27b7 d53d
00000100: e1d9 25be 16af 1a3e a4d4 903d 0b4b 7e3d
00000110: 7475 e03d b54e 0bbf 0f8e e33e 9bdf 0cbc
00000120: 312a e23e 2890 fe3e 59f3 6cbf c467 593d
00000130: 02cb 0ebf c230 d8bd a05f 63be 5d15 dc3d
00000140: fd2e 28be 874d 56bd 00f8 ac3d 4ff1 043e
00000150: cfe0 d1bc 3c34 85be b602 af3d 8f2f c8be
00000160: 1c19 67bd 07ae a0be 52b6 84be 58e7 70be
00000170: c9dc 27bd 285e d03e 79a6 18bd d4b7 013e
00000180: 1bef 52be 499a a93d f95f cfbd 568c 893d
00000190: a387 813e 9306 2f3d ebbb 8abe 162f 6c3e
000001a0: db8a e8bb 72b4 19bf df4a 38be c1d7 12bf
000001b0: 1b5b 13bf 6a95 2fbe 9f35 ad3e ab98 23be
000001c0: 75e2 673e ba31 36be a5fb 19be 9196 71bd
000001d0: d05f dfbd bf34 8dbe 7bdc 0b3e d8d4 473d
000001e0: cf0c 71be 599c 4b3f 0f10 8a3e d2e7 6fbe
000001f0: df2c 0a3f 18a9 f1bd a220 043e e911 ad3c
00000200: a893 6ebe 4ebe 153e 6bb0 6a3e ac66 723d
00000210: 1c1f 50be b79b bdbc 8caf 5e3e ead5 283e
00000220: 6f33 b2be 8935 c73e d933 81be 3353 a43c
00000230: 36a7 cebe 4d51 d83e 69af a6bd e64f 2cbe
00000240: 9213 52be e26c a1be 205f 053d 2490 033e
00000250: 040b 51be cccd cabc 493f 303c e217 5ebe
00000260: bb2b 473e 1822 d7be 1610 6a3e 192d d4be
00000270: 0281 76be 2fc8 813e 1c92 d0be fa4c e13d
00000280: 860c 8a3d 48ad 2e3c 1242 4e3c 90fc 853e
00000290: b73f 033d e8a1 a3bc f019 c1bd 3852 e6ba
000002a0: 41c9 84be 6912 a7bc 6e2d 183e 0f04 d33d
000002b0: a90e 14bf 11a8 623e 2024 a73d ea35 96be
000002c0: cbcb 983e fb32 073e afcf 36bd c103 b03d
000002d0: e147 13be ddec 69bc 8924 5dbe c092 48be
000002e0: 4640 69bd 35c7 3a3e 39f5 05be 1054 9c3e
000002f0: e6ce 71be 531b aabc 3af3 b13e f6b6 73bd
00000300: 8539 0c3e ba33 2dbf a780 1c3e b346 58bd
00000310: 39ed 843f 4fb5 2cbe d251 e73d b1da 523d
00000320: 68dd 0c3c bc25 1cbd 5748 923d 260f 113d
00000330: 5955 8bbe e148 bb3d 56b9 8cbe 04a8 963e
00000340: b15c 723c 5974 5f3f c213 59bd 7b5d b1be
00000350: 632f 84be ef52 d13d 23af 2abe 45dd 35be
00000360: 207e 833e 674f f2bc 8971 533d d8f2 d2bd
00000370: a59f 023c 3132 97bd a4e1 70be dc96 eebe
00000380: a9f8 a9be 8f13 dfbd f01f 85bc 2a1d f2be
00000390: 30ac 4dbd d9ba d2be afce d5bc b6ad 20be
000003a0: d2af 3e3e 4dcf 293e d1c9 023c 87b6 893e
000003b0: e221 94bc bca4 90bc dd10 11be b0a5 653e
000003c0: e60f 1a3e cb08 2bbe 1cca 29be 1200 2a3f
000003d0: 975a a53c 12b7 04bf 9205 42be 00cd 54be
000003e0: 69ce 78bd ceaa cbbd b2bb 8f3e 5650 d4bb
000003f0: 15ca 9c3d 284b db3d 6c09 9f3c b144 ee3d

l1.bias f4 [800]
0.05908956 0.18803497 0.0010552559 0.05256081 0.1801298 -0.24526763 -0.19588976 -0.20438111
0.11782018 -0.33904767 -0.3351682 0.025375273 0.023784215 0.01553133 0.10041183 0.1616367
-0.06624672 -0.06857362 0.23626599 -0.34483147 0.065711774 0.030355671 -0.13282426 0.1868325
0.07087811 -0.22166955 0.12606068 -0.026361644 0.005313796 0.082136594 0.1185883 0.18404949
-0.19617982 0.3470707 0.22398894 -0.2676554 0.339112 0.054836527 -0.21357164 -0.118008316
-0.16587907 -0.13635123 -0.5082857 -0.12379703 0.030662853 -0.09445278 0.24694219 -0.017579753
0.16677868 -0.15934336 0.19224036 0.1701344 -0.21624365 0.04598929 0.053080294 0.13996162
-0.1206944 0.18987964 -0.040968664 -0.13736516 -0.2793653 0.08791866 -0.1418403 0.13474406
-0.22545429 0.12280468 0.2814892 0.34577346 -0.10479585 -0.12315627 -0.037638593 -0.035473306
0.22367358 0.009766879 0.2792129 0.22047468 0.040401205 0.10304794 0.012224555 0.1071603
0.08426966 -0.3656223 -0.30173457 0.09826448 0.07522731 0.16152413 0.059401985 0.29721555
0.13751255 -0.052802138 0.04388439 0.30989653 -0.0061565726 -0.3629324 0.056488693 0.2455538
-0.10330322 -0.14898635 0.10157502 0.076705985 0.2255385 0.09703535 -0.21645775 0.090047255
-0.04996735 -0.17112097 -0.15781687 -0.241755 0.17329235 -0.11616077 -0.31790698 -0.026914246
-0.27273303 -0.11740979 -0.043926805 -0.31168142 0.17002277 -0.31334937 0.13913979 0.10343256
0.11518913 -0.15189083 -0.3292228 0.10293747 0.11970259 0.19594482 -0.00030037004 -0.13150828
-0.20059411 0.08262182 0.11122197 0.17821285 0.012196133 -0.2065667 0.19472422 -0.1182744
-0.021287482 0.093327045 0.1507872 0.23043238 0.13028927 0.3591383 0.044888582 -0.12006077
-0.070942186 -0.32612148 0.17253458 -0.059690066 -0.17688999 0.16688961 0.20386605 -0.082993746
-0.117333956 -0.24424765 0.05731171 0.16591266 -0.053029932 -0.1631937 -0.00010692991 0.17000896
0.08812163 -0.052150723 -0.0127901705 -0.0014647343 -0.16166362 0.3095636 -0.21447623 -0.011429163
0.14059797 -0.033111744 0.18125565 -0.26098004 0.012371128 0.06561962 -0.06678062 -0.15494907
0.20408784 0.06848349 0.18667944 0.21080549 -0.22166535 0.14154081 -0.2256625 -0.09890263
0.24134682 -0.1254454 0.10841274 0.21986508 -0.033288423 0.16361275 0.14837293 -0.08405534
-0.1142989 0.076477446 -0.050860852 -0.23643157 0.061208174 0.15567464 0.14370811 -0.16155319
0.009840343 0.1812577 0.19517325 -0.2846413 -0.34876266 -0.112114936 0.16695598 -0.0004801097
-0.13344134 -0.2133005 -0.32318863 -0.03905653 0.058277715 -0.26322976 -0.12521034 0.084652446
0.23039302 -0.027516576 -0.16661511 -0.002253371 -0.041565157 -0.1135863 -0.11634009 0.030029556
-0.17536049 0.085545264 -0.071421154 0.0061616465 0.18090233 0.39127794 0.037616298 0.15903266
0.17914775 0.006447054 0.015061833 -0.061203614 -0.07763339 0.0725453 -0.04641263 -0.14672908
-0.026314655 -0.07968555 -0.1567541 0.046151116 -0.09499335 0.028841048 -0.17925642 -0.101601586
0.2374461 0.14344846 -0.18758999 0.27402538 0.031270124 0.08546572 0.19004865 -0.16792352
00000000: e507 723d 3d8c 403e 8350 8a3a 014a 573d
00000010: f273 383e 7027 7bbe 5397 48be 4849 51be
00000020: b54b f13d a897 adbe 2b9b abbe cedf cf3c
00000030: 1dd7 c23c 1f77 7e3c b8a4 cd3d 1784 253e
00000040: 5cac 87bd 5370 8cbd b6ef 713e c08d b0be
00000050: e593 863d 75ac f83c 1503 08be 0551 3f3e
00000060: 8b28 913d 58fd 62be 0d16 013e 60f4 d7bc
00000070: 5a1f ae3b 3b37 a83d 6cde f23d 7877 3c3e
00000080: 5de3 48be 40b3 b13e 5b5d 653e 210a 89be
00000090: 17a0 ad3e 449c 603d 86b2 5abe 58ae f1bd
000000a0: 34dc 29be a89f 0bbe 031f 02bf 4c89 fdbd
000000b0: aa30 fb3c 7670 c1bd 6ade 7c3e 6a03 90bc
000000c0: 08c8 2a3e e82a 23be a8da 443e b637 2e3e
000000d0: fa6e 5dbe 445f 3c3d b96a 593d 1952 0f3e
000000e0: a02e f7bd cf6f 423e c2ce 27bd 74a9 0cbe
000000f0: f808 8fbe b30e b43d 953e 11be 59fa 093e
00000100: 7ddd 66be 0581 fb3d 5a1f 903e 3809 b13e
00000110: 359f d6bd 5b39 fcbd ed2a 1abd 754c 11bd
00000120: b00a 653e 4205 203c fef4 8e3e 1dc4 613e
00000130: bc7b 253d cc0a d33d 8049 483c dc76 db3d
00000140: 9295 ac3d d932 bbbe f47c 9abe e33e c93d
00000150: c710 9a3d 9566 253e 7f4f 733d a32c 983e
00000160: 17d0 0c3e 0e47 58bd 1ec0 333d c2aa 9e3e
00000170: 13bd c9bb 47d2 b9be b060 673d 7572 7b3e
00000180: a390 d3bd e18f 18be 9006 d03d 0718 9d3d
00000190: 91f3 663e 78ba c63d 1aa7 5dbe b26a b83d
000001a0: 90aa 4cbd 563a 2fbe bf9a 21be 9f8e 77be
000001b0: 8d73 313e b3e5 edbd b4c4 a2be 447b dcbc
000001c0: aaa3 8bbe 8b74 f0bd 98ec 33bd b594 9fbe
000001d0: 731a 2e3e 546f a0be a97a 0e3e 73d4 d33d
000001e0: 47e8 eb3d 4589 1bbe e48f a8be e1d0 d23d
000001f0: a226 f53d c2a5 483e fc7a 9db9 1baa 06be
00000200: 8b68 4dbe a135 a93d 58c8 e33d 6e7d 363e
00000210: 4ad2 473c 3986 53be c965 473e d939 f2bd
00000220: 1663 aebc 4022 bf3d f667 1a3e 77f6 6b3e
00000230: 8d6a 053e fae0 b73e 17dd 373d 6ce2 f5bd
00000240: 234a 91bd 65f9 a6be e8ac 303e 927d 74bd
00000250: a622 35be 1ce5 2a3e 43c2 503e a0f8 a9bd
00000260: c94c f0bd 0e1c 7abe afbf 6a3d 02e5 293e
00000270: ea35 59bd 401c 27be 8f3f e0b8 d416 2e3e
00000280: 1d79 b43d ff9b 55bd dd8d 51bc 54fc bfba
00000290: 268b 25be 1f7f 9e3e a89f 5bbe 6241 3bbc
000002a0: eaf8 0f3e 2ea0 07bd 159b 393e 2d9f 85be
000002b0: 46b0 4a3c 9463 863d 47c4 88bd f8aa 1ebe
000002c0: 67fc 503e 1241 8c3d e528 3f3e 65dd 573e
000002d0: 3efc 62be 13f0 103e 1214 67be 768d cabd
000002e0: 9f23 773e c274 00be 8007 de3d 5024 613e
000002f0: 7159 08bd 1a8a 273e 13ef 173e 3525 acbd
00000300: 8b15 eabd 35a0 9c3d 7853 50bd 1e1b 72be
00000310: 6cb5 7a3d 2c69 1f3e 3828 133e 336e 25be
00000320: 6439 213c 9e9b 393e 7fdb 473e 81bc 91be
00000330: 0591 b2be 849c e5bd 82f6 2a3e 3cb7 fbb9
00000340: d9a4 08be 726b 5abe fb78 a5be bdf9 1fbd
00000350: 9db4 6e3d 0dc6 86be 2437 00be 435e ad3d
00000360: 26ec 6b3e 716a e1bc 279d 2abe 4bad 13bb
00000370: 3a40 2abd ef9f e8bd b743 eebd 8b00 f63c
00000380: b391 33be 5b32 af3d 4145 92bd a3e7 c93b
00000390: 763e 393e 9555 c83e 8c13 1a3d 75d9 223e
000003a0: 8272 373e cf41 d33b e8c5 763c a4b0 7abd
000003b0: 41fe 9ebd a192 943d 2b1b 3ebd 2640 16be
000003c0: d591 d7bc 2d32 a3bd 2684 20be f408 3d3d
000003d0: e08b c2bd 1044 ec3c ff8e 37be 7e14 d0bd
000003e0: 1225 733e 27e4 123e 9717 40be 0e4d 8c3e
000003f0: 1a15 003d a708 af3d 1d9c 423e 25f4 2bbe

l2.weight f4 [200, 800]
0.028225766 0.09001208 0.0015796464 -0.14096062 0.027526084 -0.05817575 0.02256162 0.036737613
0.03127947 -0.013396876 0.03946696 0.0014535873 -0.14260595 0.05363896 -0.07797746 0.009354833
-0.022561332 0.041769795 -0.030383395 -0.17641273 0.057202388 6.3969375e-05 0.060001045 0.04543861
-0.04706879 -0.105472244 0.02992339 0.070528015 -0.032923393 -0.056561388 -0.040312707 0.042921364
0.061580125 0.055219334 0.011288358 -0.049552348 0.08949236 0.012408346 0.01644873 0.06622607
-0.08657748 0.01881461 -0.011931382 0.0023129017 0.062248167 -0.059734862 -0.12587062 -0.063021526
-0.0123541225 0.032675017 -0.18020563 0.026794877 -0.113381065 0.0005738704 0.0026015732 -0.037781596
-0.05019604 -0.04561746 0.036275614 0.07572907 0.06944962 -0.03433092 -0.0008095583 0.04786059
-0.0028616043 -0.014466003 0.022623532 -0.17954075 0.021765687 -0.00510719 -0.092482895 0.03495348
-0.05077084 -0.061662465 -0.082475886 -0.0697496 0.0022760334 -0.09018254 0.005192735 0.038018912
-0.035575155 -0.035996202 -0.07018287 0.034628715 0.013751014 -0.107690506 0.05707674 -0.11920448
0.06725202 -0.04457322 -0.018966794 0.024052639 -0.025602026 0.002382991 -0.0280177 -0.18851735
-0.009517835 0.040562868 -0.019303294 0.017157588 -0.084883876 -0.06840375 -0.0041631674 -0.020839283
0.08862893 0.08452059 -0.003717604 -0.08190492 -0.037988994 -0.014112246 0.09385794 0.0047866027
0.13105205 -0.018957065 0.005699521 -0.019286118 -0.038822975 0.03821889 -0.013577439 -0.12625773
-0.027666025 0.029176747 0.01098602 -0.002398872 0.035313047 0.043148357 0.029617723 0.07260021
0.13156885 0.024491988 -0.056646112 0.05158466 0.004777231 0.02467138 0.017268268 0.036715925
-0.034335542 -0.11475653 -0.103668295 0.01055989 -0.088870674 0.07479815 0.0374652 -0.000103667015
-0.11881812 -0.014954494 0.053532723 -0.073464185 -0.021980578 -0.14211051 -0.013382799 -0.016598444
-0.0095196115 0.06879277 -0.02486969 0.102622345 0.012552897 0.06448325 0.05205838 0.039270174
0.06900795 0.023575751 0.023274504 0.016264237 -0.050039098 -0.012677311 0.05175335 0.09470226
0.07124708 -0.025015458 -0.06818747 0.038403578 0.081198394 0.027764866 -0.008948985 0.00823502
-0.061813794 0.101188086 -0.20506129 -0.0193275 0.05890552 0.018883174 0.03333447 -0.0123426635
0.00843645 -0.024967711 -0.05548934 -0.012062657 -0.028365651 0.06556797 0.07340652 -0.058743168
-0.0360742 -0.039234303 0.026017696 -0.061756983 0.049461756 0.026608288 -0.027188057 -0.044475764
-0.0024693978 0.04792457 -0.043372925 -0.14600456 0.0026529063 0.02150836 0.06506008 -0.06910447
0.04733311 0.02668051 0.06937595 0.07169302 0.010675421 -0.078255184 -0.02203885 -0.06563326
0.055916477 -0.055692773 -0.053491376 -0.14442983 -0.008943514 0.006432024 -0.07009286 0.08584098
-0.019742014 0.06486622 0.0070021683 0.025785886 -0.08544669 0.066981375 -0.0046135657 -0.051121633
0.014607989 -0.11924908 -0.0016100117 0.031319153 0.033780538 0.042945303 -0.039102975 -0.033036187
0.029410249 -0.013258031 0.07777714 -0.021433735 -0.052535553 -0.120199904 0.027610313 0.013301491
-0.027891532 -0.2637632 -0.041637156 -0.041656546 0.08723426 -0.0791551 -0.07351382 -0.027460122
00000000: b939 e73c 4158 b83d 230c cf3a fb57 10be
00000010: 627e e13c b249 6ebd 26d3 b83c 2e7a 163d
00000020: e71e 003d 927e 5bbc 1ba8 213d 4c86 be3a
00000030: 4b07 12be 87b4 5b3d a6b2 9fbd 0345 193c
00000040: 8bd2 b8bc ce16 2b3d 99e6 f8bc 8aa5 34be
00000050: 0d4d 6a3d 4c27 8638 a8c3 753d d61d 3a3d
00000060: 34cb 40bd d501 d8bd e621 f53c fe70 903d
00000070: aeda 06bd eaac 67bd f01e 25bd 50ce 2f3d
00000080: 713b 7c3d ab2d 623d cef2 383c 67f7 4abd
00000090: c547 b73d 604c 4b3c 7dbf 863c 89a1 873d
000000a0: 894f b1bd 1921 9a3c d87b 43bc 0d94 173b
000000b0: eff7 7e3d 8bac 74bd 3ae4 00be 6e11 81bd
000000c0: f268 4abc 3dd6 053d d387 38be ee80 db3c
000000d0: 5534 e8bd ca6f 163a 287f 2a3b e0c0 1abd
000000e0: 5d9a 4dbd 60d9 3abd bd95 143d d817 9b3d
000000f0: 9a3b 8e3d 949e 0cbd 8a38 54ba 7709 443d
00000100: c189 3bbb d002 6dbc fc54 b93c 88d9 37be
00000110: f44d b23c 375a a7bb ac67 bdbd 612b 0f3d
00000120: 16f5 4fbd c891 7cbd 1ee9 a8bd e1d8 8ebd
00000130: 8129 153b a0b1 b8bd d227 aa3b b8b9 1b3d
00000140: 41b7 11bd c170 13bd 09bc 8fbd d7d6 0d3d
00000150: ef4b 613c d78c dcbd 4dc9 693d 7a21 f4bd
00000160: 6dbb 893d 6992 36bd 4060 9bbc 0a0a c53c
00000170: 57bb d1bc f42b 1c3b 6085 e5bc b10a 41be
00000180: b2f0 1bbc 4025 263d f121 9ebc 128e 8c3c
00000190: 99d7 adbd 4417 8cbd 2e6b 88bb 25b7 aabc
000001a0: 1683 b53d 2219 ad3d 0ca3 73bb c4bd a7bd
000001b0: 599a 1bbd 0d37 67bc 9738 c03d efd8 9c3b
000001c0: 8232 063e d94b 9bbc 0cc3 ba3b ecfd 9dbc
000001d0: d704 1fbd 698b 1c3d e873 5ebc b549 01be
000001e0: dca3 e2bc 1304 ef3c b5fe 333c 6536 1dbb
000001f0: 6aa4 103d 55bc 303d dea0 f23c 6baf 943d
00000200: fcb9 063e 6ca3 c83c c105 68bd 704a 533d
00000210: 518a 9c3b a21b ca3c 2f76 8d3c 7063 163d
00000220: 6da3 0cbd 7905 ebbd 0b50 d4bd 6403 2d3c
00000230: d401 b6bd c62f 993d 1c75 193d ce67 d9b8
00000240: ea56 f3bd b203 75bc 2145 5b3d 6474 96bd
00000250: 9d10 b4bc 6b85 11be 8743 5bbc 76f9 87bc
00000260: 25f8 1bbc 39e3 8c3d 85bb cbbc aa2b d23d
00000270: abaa 4d3c cb0f 843d 2b3b 553d c3d9 203d
00000280: 0a54 8d3d ef21 c13c 2caa be3c 943c 853c
00000290: ccf5 4cbd 7fb4 4fbc 52fb 533d 42f3 c13d
000002a0: fde9 913d 38ed ccbc dfa5 8bbd 124d 1d3d
000002b0: 584b a63d 2573 e33c c39e 12bc 2dec 063c
000002c0: 7630 7dbd b33b cf3d 96fb 51be b554 9ebc
000002d0: ea46 713d e3b0 9a3c ba89 083d e238 4abc
000002e0: 0939 0a3c 1689 ccbc ca48 63bd 73a2 45bc
000002f0: 155f e8bc 8048 863d 2856 963d ad9c 70bd
00000300: 8ac2 13bd 26b4 20bd 1023 d53c e4f4 7cbd
00000310: 6998 4a3d a0f9 d93c 7db9 debc 382c 36bd
00000320: 9fd5 21bb 8e4c 443d cfa7 31bd 3882 15be
00000330: 62dc 2d3b 4d32 b03c 383e 853d a586 8dbd
00000340: 5de0 413d 1691 da3c fa14 8e3d cad3 923d
00000350: f6e7 2e3c 4144 a0bd d18a b4bc bb6a 86bd
00000360: ad08 653d 1b1e 64bd c619 5bbd 6ae5 13be
00000370: d187 12bc bac3 d23b d88c 8fbd 65cd af3d
00000380: 01ba a1bc 95d8 843d 7272 e53b ec3c d33c
00000390: adfe aebd 882d 893d 652d 97bb eb64 51bd
000003a0: 5956 6f3c dd38 f4bd 0707 d3ba 8348 003d
000003b0: 765d 0a3d 6ae7 2f3d 712a 20bd f450 07bd
000003c0: c3ed f03c 3638 59bc 9f49 9f3d cd95 afbc
000003d0: 852f 57bd 5e2b f6bd 062f e23c 7fee 593c
000003e0: c87c e4bc f80b 87be b98b 2abd 0ea0 2abd
000003f0: e0a7 b23d 121c a2bd 6a8e 96bd 0df4 e0bc

l2.bias f4 [200]
-0.03442764 0.08552982 -0.011408609 -0.013820985 -0.07969264 -0.058272302 -0.00728164 0.014451392
0.05004624 0.049706005 -0.036729414 0.054096017 -0.11083945 -0.037545823 -0.03456895 0.017320028
-0.09195713 -0.014838178 -0.026066018 0.01074845 -0.018421182 0.049311288 0.06085759 -0.06553708
0.08241856 -0.03501762 -0.0010613733 -0.034856923 -0.03879009 0.009984765 0.0054359213 -0.018156368
-0.021729004 -0.063467875 0.002104949 0.024850234 -0.023979072 -0.089507446 -0.020106914 -0.030479118
-0.110859424 -0.045696817 0.03054911 0.06731591 -0.031066528 -0.003600574 0.04760986 -0.0216824
0.019231126 -0.017573316 -0.08001279 0.08187297 -0.007465811 -0.009826045 -0.04792263 -0.035490792
-0.087378226 0.02542222 -0.09224497 -0.075748 0.039551828 -0.032862432 -0.0146663515 -0.05492843
-0.02842061 -0.022252232 0.019236669 -0.07984303 0.0050420403 -0.041096486 0.00593063 -0.021354571
-0.050794702 0.016235767 -0.017797165 -0.019905247 0.023944642 -0.026882371 -0.0638956 0.019416189
0.03191966 0.016934961 0.0009888221 -0.07814425 0.012644035 0.0019443147 0.0666562 0.012646741
-0.047677845 0.06617718 0.009716148 -0.029357113 0.017327478 -0.13698015 -0.059882484 0.054920495
0.016342098 -0.016583344 -0.007901035 0.004577742 -0.03769632 -0.025527742 -0.004134477 0.017770793
-0.032665104 -0.04269845 -0.009589885 -0.009191452 -0.016779881 0.04223204 0.07258732 -0.13269866
-0.034957655 -0.03355226 -0.13340394 -0.014918734 -0.045682397 -0.012259614 0.012664232 0.037665255
0.05741103 0.022501377 -0.0936124 0.023552304 0.029240048 -0.07486854 0.027406381 -0.008145918
0.0020139816 0.006374152 0.016088804 0.01299072 -0.019290779 -0.023306036 0.006213352 0.0059224637
-0.060025033 0.0025033108 0.03189171 -0.0051388717 -0.046294633 -0.07669708 0.021393685 0.016205763
-0.041797396 -0.09325391 0.020444147 -0.09697883 -0.032358218 -0.042465325 -0.023936294 0.0077852583
-0.08057129 -0.020000556 0.033699602 -0.02674886 -0.08378359 -0.08636672 -0.0430254 0.019148972
0.003611403 -0.023725148 -0.030983908 0.04875555 -0.061137237 -0.09402714 0.013467563 0.010891492
0.0010544593 -0.034092434 -0.034231137 0.024832487 0.022100098 0.0094032185 0.070620395 -0.022846041
-0.046112575 -0.09464829 -0.13480926 0.019659238 0.0051590656 -0.104891755 0.011692032 -0.015318997
-0.030968262 -0.11632881 -0.0087561095 -0.006556949 0.012594043 -0.021684377 0.080742575 -0.037215162
0.048784573 -0.02725522 0.048517205 0.05493353 0.06284023 0.080429025 0.010035898 0.002554767
00000000: ff03 0dbd 422a af3d 2deb 3abc 6a71 62bc
00000010: e535 a3bd f0ae 6ebd d39a eebb 88c5 6c3c
00000020: 49fd 4c3d 8698 4b3d 9571 16bd c993 5d3d
00000030: cbff e2bd a6c9 19bd 2c98 0dbd bbe2 8d3c
00000040: 0554 bcbd d41b 73bc 6788 d5bc 441a 303c
00000050: 05e8 96bc a2fa 493d cf45 793d 4e38 86bd
00000060: 10cb a83d a36e 0fbd c71d 8bba 22c6 0ebd
00000070: 5be2 1ebd 2497 233c d01f b23b aabc 94bc
00000080: 0601 b2bc 72fb 81bd 2ff3 093b b892 cb3c
00000090: c26f c4bc ae4f b7bd 41b7 a4bc 58af f9bc
000000a0: 440a e3bd 962c 3bbd 2142 fa3c ecdc 893d
000000b0: 3b7f febc 9cf7 6bbb 8e02 433d 4a9f b1bc
000000c0: 988a 9d3c eaf5 8fbc bfdd a3bd 04ad a73d
000000d0: c3a3 f4bb 6bfd 20bc 854a 44bd cb5e 11bd
000000e0: 5bf3 b2bd 4242 d03c eeea bcbd c421 9bbd
000000f0: 1901 223d c29a 06bd 234b 70bc a2fc 60bd
00000100: 57d2 e8bc 504a b6bc 3896 9d3c be84 a3bd
00000110: b337 a53b ca54 28bd bb55 c23b c8ef aebc
00000120: 1b0e 50bd df00 853c 5ccb 91bc 5410 a3bc
00000130: 8e27 c43c 6b38 dcbc b2db 82bd b30e 9f3c
00000140: 30be 023d 30bb 8a3c 5d9b 813a 180a a0bd
00000150: ed28 4f3c 60d8 fe3a 0c83 883d 4734 4f3c
00000160: d849 43bd e787 873d 7a30 1f3c 547e f0bc
00000170: 5bf2 8d3c 8644 0cbe 5647 75bd 50f4 603d
00000180: dddf 853c cbd9 87bc 5873 01bc e200 963b
00000190: 7567 1abd 8e1f d1bc 827a 87bb 0e94 913c
000001a0: d8cb 05bd 92e4 2ebd e51e 1dbc be97 16bc
000001b0: f675 89bc 81fb 2c3d a9a8 943d 28e2 07be
000001c0: c22f 0fbd 186e 09bd 0b9b 08be b56d 74bc
000001d0: 771d 3bbd 8cdc 48bc a47d 4f3c e246 1a3d
000001e0: d427 6b3d cf54 b83c dcb7 bfbd c3f0 c03c
000001f0: d388 ef3c ad54 99bd 5983 e03c 7576 05bc
00000200: 01fd 033b 43de d03b abcc 833c 07d7 543c
00000210: b207 9ebc 4dec bebc 6099 cb3b 3a11 c23b
00000220: cfdc 75bd 960e 243b e2a0 023d fb63 a8bb
00000230: 719f 3dbd 5c13 9dbd cf41 af3c f3c1 843c
00000240: bf33 2bbd e8fb bebd 7c7a a73c d69c c6bd
00000250: 0d8a 04bd 1ff0 2dbd 0c16 c4bc 7b1b ff3b
00000260: 8f02 a5bd 35d8 a3bc 9808 0a3d 6d20 dbbc
00000270: bb96 abbd 09e1 b0bd 673b 30bd 4ede 9c3c
00000280: 4aad 6c3b 3e5b c2bc f7d1 fdbc e6b3 473d
00000290: 0a6b 7abd 4d91 c0bd 0ea7 5c3c 3a72 323c
000002a0: c835 8a3a 82a4 0bbd f335 0cbd 806d cb3c
000002b0: 440b b53c f50f 1a3c 6da1 903d 9f27 bbbc
000002c0: 8ae0 3cbd f6d6 c1bd 700b 0abe 690c a13c
000002d0: 610d a93b 7dd1 d6bd f08f 3f3c 88fc 7abc
000002e0: 27b1 fdbc cd3d eebd c975 0fbc addb d6bb
000002f0: 3f57 4e3c 6fa3 b1bc 5d5c a53d ed6e 18bd
00000300: 55d2 473d 5746 dfbc fab9 463d fb01 613d
00000310: 61b2 803d f9b7 a43d 9b6d 243c e16d 273b

l3.weight f4 [6, 200]
0.03742756 -0.042678513 0.042520635 0.15702888 -0.04548402 0.079502635 -0.11531738 -0.11009819
0.17631203 -0.026376495 -0.06972728 -0.14760548 -0.17387496 -0.022148067 0.1520572 0.024603067
0.16986215 -0.052605968 0.124029554 0.086699136 0.35473 -0.085676 0.04363838 0.05755526
-0.0069905957 0.0015023837 -0.18181594 0.100313134 -0.043398324 -0.10879923 0.24668735 0.010002999
0.11842614 0.31055182 -0.12980852 0.0245996 0.012608874 0.14763646 -0.12746298 -0.08251693
-0.08076752 -0.006802566 0.027228229 -0.023703698 -0.049791012 0.1789001 0.14532292 0.01840783
-0.012433781 -0.10766762 -0.076842405 0.03440285 -0.0058965124 0.031749196 -0.42580882 0.18557277
-0.35081044 0.01530956 0.055802338 -0.028739229 -0.033600688 -0.11822225 -0.0661556 -0.04562969
-0.11323601 -0.039170463 -0.09253687 0.13365129 0.076263964 0.050063353 0.119861804 0.103769295
0.056032456 -0.029686289 -0.07952341 0.39358222 0.12942381 0.09748018 0.07993489 -0.16421351
-0.057051677 0.048273023 0.15141141 0.014737296 -0.11246737 -0.00767205 -0.21305281 0.080109194
-0.06860292 -0.13954341 -0.023464974 0.011236888 -0.012106883 0.16507463 0.28976566 -0.041787013
0.064921506 0.06015236 -0.010532951 0.051839944 0.1195014 0.025330363 0.042426754 -0.056992084
0.024955098 0.015661677 0.03845044 0.07061434 0.19699939 -0.0009790759 -0.049383312 0.10918813
0.17660429 0.0075957323 0.11572359 0.074948415 0.09138001 -0.022282943 -0.09470679 0.094614014
-0.06764099 0.08980464 -0.020787839 0.012829346 0.016436465 0.3415573 -0.014861772 0.061537
-0.21976365 0.12729403 -0.04506728 -0.059353955 0.096864246 -0.10557578 -0.09828765 0.15184654
0.02702649 -0.0076800175 0.014223989 0.08392815 0.39997113 0.39156178 0.038275987 0.0477387
0.01604411 -0.07388588 -0.07354791 0.24764405 0.062922895 0.15712926 0.030036777 0.039076935
-0.09276672 0.079076685 -0.027790854 0.021203693 0.00029363713 0.1322789 0.26352412 0.102658115
0.11092375 0.005789286 -0.05298014 -0.0053538717 0.2602897 -0.009158288 0.025648024 -0.0033890102
-0.12786858 -0.040168457 0.02549943 0.109219916 -0.0031511935 0.01053386 -0.050974187 -0.110628344
-0.017770443 0.18078049 -0.20366491 -0.041320935 -0.038461648 -0.011960423 -0.041372668 -0.15269531
0.043147076 0.13176422 0.09341495 0.11979786 0.008996787 -0.01466739 0.019182477 -0.14633134
-0.03714991 0.050658666 0.09474102 0.05627678 -0.048123498 0.031636417 -0.08977363 -0.0474813
0.15732934 0.07789496 -0.10791647 0.23232879 0.61630267 -0.16007909 0.059637927 -0.15400787
0.061448045 0.25431722 0.03516281 -0.06547633 -0.36784542 0.05961473 -0.05561845 -0.0469374
0.020819712 -0.14982326 0.060216635 0.00015849622 0.101484716 -0.06578803 0.12727717 0.19913484
0.11575252 0.4976121 -0.119855605 -0.12221535 -0.006710964 -0.31778258 0.17845713 -0.067044914
-0.058896776 -0.046173044 -0.1552739 -0.09242034 -0.06410934 0.021596126 0.3917774 -0.08709448
-0.23416029 -0.17451453 0.23968635 0.15471168 -0.07963656 0.0024798994 -0.03287385 -0.046125274
-0.06344623 -0.13580559 0.10906762 -0.03154605 0.02066352 -0.014084106 0.57670325 -0.042839527
00000000: a44d 193d aacf 2ebd 1e2a 2e3d 2ecc 203e
00000010: 744d 3abd 47d2 a23d 852b ecbd 297b e1bd
00000020: 248b 343e 8513 d8bc 2dcd 8ebd e425 17be
00000030: 470c 32be dd6f b5bc e2b4 1b3e 5f8c c93c
00000040: 58f0 2d3e 5b79 57bd 3503 fe3d 518f b13d
00000050: 2c9f b53e e676 afbd 28be 323d 10bf 6b3d
00000060: 5e11 e5bb a2eb c43a f52d 3abe f970 cd3d
00000070: 71c2 31bd 21d2 debd 9c9b 7c3e 9ee3 233c
00000080: 6789 f23d a600 9f3e 86ec 04be 1a85 c93c
00000090: 7395 4e3c 032e 173e a885 02be a3fe a8bd
000000a0: 7169 a5bd 0fe8 debb bc0d df3c 422e c2bc
000000b0: a9f1 4bbd 9631 373e 88cf 143e 04cc 963c
000000c0: 0fb7 4bbc d780 dcbd 8d5f 9dbd 01ea 0c3d
000000d0: 8837 c1bb 720b 023d 9d03 dabe ca06 3e3e
000000e0: 6d9d b3be f3d4 7a3c fe90 643d 886e ebbc
000000f0: e0a0 09bd 821e f2bd 967c 87bd 33e6 3abd
00000100: 48e8 e7bd 3571 20bd f883 bdbd e2db 083e
00000110: 4830 9c3d 3b0f 4d3d 1b7a f53d ff84 d43d
00000120: 4a82 653d a930 f3bc 2bdd a2bd 9c83 c93e
00000130: ad87 043e b0a3 c73d e7b4 a33d 9627 28be
00000140: 05af 69bd efb9 453d 980b 1b3e b374 713c
00000150: 4b55 e6bd d265 fbbb 842a 5abe 4a10 a43d
00000160: b07f 8cbd 78e4 0ebe 9e39 c0bc ed1a 383c
00000170: f35b 46bc 5309 293e 2a5c 943e dc28 2bbd
00000180: 91f5 843d 5262 763d 6692 2cbc 1f56 543d
00000190: 26bd f43d 9f81 cf3c adc7 2d3d 8870 69bd
000001a0: a26e cc3c eb4c 803c 357e 1d3d 409e 903d
000001b0: 35ba 493e 5654 80ba 2846 4abd 079e df3d
000001c0: c1d7 343e 9fe5 f83b 7d00 ed3d 8e7e 993d
000001d0: 7125 bb3d b88a b6bc a2f5 c1bd fec4 c13d
000001e0: 5c87 8abd 7feb b73d 424b aabc 2d32 523c
000001f0: c4a5 863c 99e0 ae3e ca7e 73bc 390e 7c3d
00000200: b909 61be 5e59 023e 7898 38bd 221d 73bd
00000210: c360 c63d 1d38 d8bd 094b c9bd a97d 1b3e
00000220: a866 dd3c a8a8 fbbb bc0b 693c 86e2 ab3d
00000230: 04c9 cc3e c97a c83e 48c7 1c3d a889 433d
00000240: f06e 833c 7b51 97bd 49a0 96bd 6796 7d3e
00000250: b8dd 803d 7ee6 203e b00f f63c 230f 203d
00000260: 7afc bdbd f5f2 a13d a5a9 e3bc 5eb3 ad3c
00000270: 4ff3 9939 1f74 073e a2ec 863e 6b3e d23d
00000280: fe2b e33d 0db4 bd3b b401 59bd 886f afbb
00000290: b144 853e a50c 16bc ce1b d23c 281a 5ebb
000002a0: fbef 02be ae87 24bd 2ee4 d03c b1ae df3d
000002b0: 4184 4ebb 3696 2c3c 4fca 50bd 1d91 e2bd
000002c0: 5293 91bc 851e 393e 898d 50be 2440 29bd
000002d0: f689 1dbd a6f5 43bc 6376 29bd 295c 1cbe
000002e0: fdba 303d 33ed 063e 5650 bf3d 9558 f53d
000002f0: 4267 133c 7e4f 70bc 9224 9d3c e2d7 15be
00000300: 812a 18bd 767f 4f3d 9407 c23d 7b82 663d
00000310: 251d 45bd 3095 013d 3ddb b7bd c07b 42bd
00000320: f11a 213e 6587 9f3d 4f03 ddbd 99e7 6d3e
00000330: 03c6 1d3f c6eb 23be e646 743d 3db4 1dbe
00000340: f2b0 7b3d de35 823e e106 103d 7418 86bd
00000350: 3c56 bcbe 932e 743d 2cd0 63bd 6e41 40bd
00000360: 1a8e aa3c 456b 19be b8a5 763d 0132 2639
00000370: 38d7 cf3d e0bb 86bd f254 023e 01ea 4b3e
00000380: a80f ed3d 03c7 fe3e db76 f5bd 0b4c fabd
00000390: a5e7 dbbb 66b4 a2be 77bd 363e d84e 89bd
000003a0: bf3d 71bd f21f 3dbd 1f00 1fbe e046 bdbd
000003b0: c24b 83bd 5cea b03c 0c97 c83e 975e b2bd
000003c0: b7c7 6fbe f0b3 32be 5770 753e bd6c 1e3e
000003d0: 7e18 a3bd cf85 223b bba6 06bd dbed 3cbd
000003e0: 19f0 81bd 9f10 0bbe d85e df3d 6e36 01bd
000003f0: 8b46 a93c 06c1 66bc d3a2 133f 8078 2fbd

l3.bias f4 [6]
-0.010914623 0.022734359 0.06502722 -0.024997804 0.00010447924 -0.052438598
00000000: 3fd3 32bc 683d ba3c fe2c 853d 32c8 ccbc
00000010: dd1b db38 dbc9 56bd
