DDPG/local_checkpoint/Walker2d-v2(orginal)/('target_critic', 8).ckpt (torch, 720343 bytes, 5 tensors)

l1.weight f4 [800, 23]
-1.1006522 -0.9633913 -1.2118471 -0.09881063 -0.4300327 0.7300544 -0.55949724 -1.0397376
-0.742951 0.119672336 0.29831564 -0.18538962 -0.04430186 -0.04689098 0.060726978 0.20787963
-0.18374841 -0.085025646 -0.03670969 0.011681679 0.21536739 -0.19030797 -0.15669681 0.17111963
0.44899967 2.0251749 0.22280417 -0.6410259 0.9037416 0.994179 -1.3240645 -0.2167366
-0.56581765 -0.52699417 0.002109312 0.0055212313 -0.082545735 0.42745692 0.14385317 0.031489506
-0.08227837 -0.0074975975 -0.1395965 -0.08420017 -0.22866228 0.5262117 0.22573383 0.075288065
-0.068913065 -0.17493042 0.2953225 -0.14523907 -0.17151721 0.0018732818 0.25948578 0.13909788
-0.16977187 -0.039549664 -0.03288796 -0.0058818 -0.023587778 0.13623229 -0.015482089 0.10351353
0.1583267 0.060438626 0.09795552 0.21647692 0.027131107 -0.043571297 1.6203821 0.07469512
0.06618784 0.95813006 -0.66502935 1.3313664 0.69272506 -0.028036008 0.788961 -0.28033754
-0.13421617 -0.073597595 -0.035084877 0.11829977 0.10741928 -0.008814656 -0.1355031 0.028727487
-0.1702097 -0.2517472 0.013191991 -0.15074275 -1.6012043 -0.98514044 0.51107025 1.3906267
-0.4415767 0.650361 2.1310573 -0.124031544 -0.15557241 -1.159894 0.27646643 0.08413182
0.074352466 -0.06330857 -0.12188803 -0.24675462 0.030347489 0.022598483 -0.39973667 0.3377295
0.058682688 -0.7120906 -0.72485936 0.02418772 0.28783748 0.8743226 1.0072693 0.108367056
-0.85786337 -0.86054844 -2.8766332 -0.33111408 0.66995895 0.18418197 -0.100182 0.079955466
-0.049999036 -0.08449511 -0.10861587 -0.07348924 0.024312792 0.31791 -0.18612331 -0.028750608
-0.32144764 -0.06419878 -0.20825285 0.40050718 -0.22860368 -0.22909032 -0.058854952 -0.45562297
0.07061703 0.22798263 -0.45838183 0.63482744 0.19792844 0.05584813 0.060634635 0.009131446
-0.1849297 -0.062162925 0.03318751 -0.015430961 -0.02953564 0.043641485 -0.11310277 -0.00602225
0.038123563 -1.1879914 1.2102062 1.9660147 2.1828835 -0.41170368 5.071831 0.9659518
-1.9402097 0.4536986 0.35227856 -0.026414888 0.2313372 0.15371451 -0.06781266 -0.014152126
0.16393657 -0.024768751 0.19300507 -0.15099089 0.16431049 0.11624648 -0.07747832 -0.013871258
-0.5909509 -3.599863 0.5240732 1.4634916 0.14841911 2.525945 1.3231192 0.3323115
-0.96997863 0.180341 0.045093637 -0.05145489 0.055362027 0.014908995 0.048745446 0.078736626
0.0051299306 -0.02066078 -0.00011698889 -0.08527412 0.037298825 0.018130222 0.020687252 -1.1321831
-0.6009385 0.37515354 1.7872329 0.69704145 2.587861 2.605278 -0.4032399 0.5667147
-0.16038929 0.0147318775 -0.21777663 -0.11179032 0.27207506 0.15881632 0.063246764 0.004270898
-0.064904004 0.093089245 0.039730895 -0.04512801 -0.19625762 0.011969977 -0.33150092 -0.5919933
0.24520323 -0.08473979 -0.22884358 -0.34572768 -0.1404864 -0.3704535 0.043345723 0.285561
0.07099742 -0.043460067 0.038631387 -0.06551185 -0.008111251 0.041714765 -0.042721797 -0.15903753
0.037455678 0.016497994 -0.18867213 0.047362305 0.026221441 -1.9529579 -1.2316573 -0.5014246
00000000: 2ce2 8cbf d0a0 76bf ce1d 9bbf 3a5d cabd
00000010: 3f2d dcbe d8e4 3a3f 363b 0fbf 1f16 85bf
00000020: 0932 3ebf c516 f53d d4bc 983e c7d6 3dbe
00000030: de75 35bd c210 40bd dabc 783d 66de 543e
00000040: 8b28 3cbe ed21 aebd e65c 16bd 8364 3f3c
00000050: 4589 5c3e 18e0 42be 2175 20be fc39 2f3e
00000060: 49e3 e53e 779c 0140 c726 643e 461a 24bf
00000070: 9c5b 673f 8482 7e3f f27a a9bf 33f0 5dbe
00000080: 6dd9 10bf 17e9 06bf 623c 0a3b 72eb b43b
00000090: bd0d a9bd a2db da3e 3f4e 133e 24fb 003d
000000a0: 9081 a8bd 68ae f5bb 63f2 0ebe 2471 acbd
000000b0: 7226 6abe cfb5 063f c526 673e a130 9a3d
000000c0: 4b22 8dbd f620 33be 8334 973e 8db9 14be
000000d0: 35a2 2fbe e888 f53a 52db 843e ad6f 0e3e
000000e0: add8 2dbe d4fe 21bd 87b5 06bd 1dbc c0bb
000000f0: 283b c1bc 7a80 0b3e 96a8 7dbc e7fe d33d
00000100: 6520 223e 7e8e 773d e79c c83d 20ac 5d3e
00000110: 0e42 de3c d177 32bd ae68 cf3f c1f9 983d
00000120: 7e8d 873d 0348 753f 5d3f 2abf 376a aa3f
00000130: 6e56 313f c5ab e5bc 59f9 493f 6788 8fbe
00000140: f76f 09be 56ba 96bd 29b5 0fbd 2647 f23d
00000150: a4fe db3d 596b 10bc 53c1 0abe e855 eb3c
00000160: 744b 2ebe 02e5 80be 3823 583c 4f5c 1abe
00000170: 43f4 ccbf 2a32 7cbf 80d5 023f 0e00 b23f
00000180: 5716 e2be 0f7e 263f 3e63 0840 4004 febd
00000190: 604e 1fbe 6877 94bf 028d 8d3e 4e4d ac3d
000001a0: 1b46 983d eca7 81bd 6ea0 f9bd 3ead 7cbe
000001b0: 4c9b f83c 7420 b93c 49aa ccbe e2ea ac3e
000001c0: 425d 703d 924b 36bf 6290 39bf 5325 c63c
000001d0: 6f5f 933e 9bd3 5f3f 33ee 803f 8cef dd3d
000001e0: ef9c 5bbf e74c 5cbf c21a 38c0 c987 a9be
000001f0: 6e82 2b3f 339a 3c3e 382c cdbd b1bf a33d
00000200: cacb 4cbd c60b adbd ff71 debd 8781 96bd
00000210: 9f2b c73c 19c5 a23e 1c97 3ebe 6586 ebbc
00000220: c994 a4be a67a 83bd 3c40 55be 470f cd3e
00000230: 1517 6abe a796 6abe e411 71bd 6a47 e9be
00000240: a99f 903d 4774 693e 06b1 eabe 0d84 223f
00000250: c1ad 4a3e 02c1 643d 065c 783d 0f9c 153c
00000260: 365e 3dbe 8d9e 7ebd a0ef 073d 24d2 7cbc
00000270: baf4 f1bc 6ac1 323d 6da2 e7bd 4b56 c5bb
00000280: 7427 1c3d 1a10 98bf 09e8 9a3f 5fa6 fb3f
00000290: 5db4 0b40 d3ca d2be 714c a240 9e48 773f
000002a0: cb58 f8bf 2f4b e83e db5d b43e 0964 d8bc
000002b0: a9e3 6c3e 5667 1d3e 5de1 8abd 52de 67bc
000002c0: fdde 273e d6e7 cabc 1fa3 453e 5b9d 1abe
000002d0: 0241 283e a212 ee3d f4ac 9ebd 4644 63bc
000002e0: 8f48 17bf 2864 66c0 a929 063f b153 bb3f
000002f0: 2efb 173e 15a9 2140 f85b a93f bc24 aa3e
00000300: 8550 78bf 50ab 383e 1bb4 383d 5dc2 52bd
00000310: 4bc3 623d db44 743c 4ea9 473d ab40 a13d
00000320: fa18 a83b cc40 a9bc ef57 f5b8 33a4 aebd
00000330: a7c6 183d d585 943c 5078 a93c 60eb 90bf
00000340: 1bd7 19bf 2014 c03e 0cc4 e43f 4f71 323f
00000350: 849f 2540 e0bc 2640 7675 cebe 3714 113f
00000360: 173d 24be f95d 713c d600 5fbe 53f2 e4bd
00000370: 6c4d 8b3e bfa0 223e 8587 813d e4f2 8b3b
00000380: 64ec 84bd 93a5 be3d ddbc 223d 26d8 38bd
00000390: c2f7 48be b91d 443c 7dba a9be df8c 17bf
000003a0: 8e16 7b3e 0e8c adbd f955 6abe 3803 b1be
000003b0: abdb 0fbe 15ac bdbe 498b 313d 0d35 923e
000003c0: 1867 913d 2f03 32bd f23b 1e3d 142b 86bd
000003d0: 0de5 04bc 1add 2a3d 0dfd 2ebd bcda 22be
000003e0: 206b 193d cd26 873c 4433 41be fafe 413d
000003f0: 59ce d63c 86fa f9bf f2a6 9dbf 5d5d 00bf

l1.bias f4 [800]
-1.1896145 -0.031930953 1.7293506 0.23747641 -0.7389133 -0.45144388 1.6996516 -0.318308
-0.19109301 -0.55839205 1.2267661 0.14774388 0.112565674 -1.1827769 -0.6517704 1.4527886
-0.98623234 -1.5268424 -0.12359129 -0.4155253 0.23664358 -0.90647864 1.3173294 0.5483735
-0.102144286 -0.29152736 -0.7614242 1.3233627 -0.5400539 -0.6796577 -0.798034 0.7800361
-0.38944203 0.99184406 0.304348 -0.41490725 -0.9628581 -0.23164508 1.7317262 1.6189957
-1.1527896 -0.18456522 -0.006725116 -0.7248849 -0.46441686 -0.7537789 -1.3794007 -0.7279617
-0.4630315 0.08891656 -0.8908952 -0.3381776 -1.9884071 -1.3213092 -0.97272044 -1.0258278
-0.61394995 -1.0970925 -0.42770275 -0.31429338 0.54001653 1.34684 0.9797028 0.32843468
-1.5331887 -0.5560665 -0.7690986 -1.1756488 -0.83331317 0.32845792 -0.3597539 -0.057020385
-0.15142065 -0.9430646 -0.52973676 1.5181491 -0.26845005 0.62777007 0.045873053 -0.15453243
-0.68043286 -1.3307822 -0.96099347 -0.7745299 1.1379488 -0.4115017 -0.16819029 -0.5521904
0.86481845 -0.40603498 -0.8186044 -1.3877039 -0.5377417 0.5617027 0.16842377 0.589114
-0.5745563 1.3866435 -0.22510263 0.281704 -1.2049167 -0.33445194 -1.0659541 -0.6530154
-1.2045058 -1.7637583 -1.2222474 -0.5121647 0.2180237 -0.43113706 -0.6997419 -1.076995
-0.55893844 -2.2425706 -0.6706614 -1.5392394 -0.42743453 -2.6059582 -0.47061813 -1.2425283
-1.5409223 -1.4863071 0.41310215 -0.44233382 -1.2921319 -1.2259829 -0.6936238 -0.71334195
-1.183828 -0.77793306 -1.2425694 -0.1283338 -0.08570578 1.4372233 -0.48973772 -0.19673201
-0.42686906 0.41713965 0.9974555 -0.956936 0.69723684 -1.284478 -0.776822 -0.36516914
-1.058651 -0.6489699 -0.58374566 -0.7945293 -0.89357764 -1.896059 0.569408 0.62054735
-0.56902456 -0.6772727 1.8084449 -1.3166844 -0.56204903 -1.1067609 -0.93668866 1.0848955
0.6537066 -1.099153 -1.1782583 1.676741 -0.90307 -1.4871522 1.2762072 -0.22783497
0.6211049 -0.5410427 -0.46448773 -1.0201796 -1.1154308 -1.4104501 0.13647531 1.1806763
0.20982319 -2.3356671 -0.09388856 -0.74447024 -0.71709603 -0.46921912 1.741772 -0.940544
-0.2032884 -1.3562304 -0.23492233 -0.7851199 -0.8543153 -1.0547773 1.6898828 1.3247586
-1.0316453 -0.018168533 -0.630517 -0.65875715 -0.083856724 0.78112596 1.2956892 -0.03631993
0.19430315 1.2647133 -1.3924809 -1.1363808 0.8380401 -0.54746854 1.68769 1.4935702
1.0608582 -0.70834535 -2.4788306 -0.30212128 -0.8169235 -0.9805057 -0.6976335 0.14550617
-1.5350574 0.68224025 -0.22072971 -1.2792311 1.0721499 -0.51511997 0.093472764 0.20520289
-0.5297752 -1.5298944 -0.66087335 -0.8705876 0.2626115 -1.7028924 0.7309512 0.7279299
-0.62325186 -0.80452645 -0.1967243 -0.64409673 -0.9417476 1.5312208 -0.6104994 -0.22267766
-1.1967071 -0.5730476 -0.6383495 0.15205805 -1.1932825 -1.206164 -0.52188563 -0.49910626
-0.51054823 0.0985935 -0.38793048 0.60987234 -1.696074 -0.42714465 -0.5396504 1.1165384
00000000: 4a45 98bf 08ca 02bd 5c5b dd3f 042d 733e
00000010: 6c29 3dbf a723 e7be 2f8e d93f 44f9 a2be
00000020: e3ad 43be c8f2 0ebf ac06 9d3f 2c4a 173e
00000030: d588 e63d 3c65 97bf 6dda 26bf faf4 b93f
00000040: b979 7cbf 926f c3bf 6e1d fdbd bbbf d4be
00000050: b252 723e fc0e 68bf 409e a83f 3562 0c3f
00000060: 0631 d1bd 1343 95be b2ec 42bf f363 a93f
00000070: f940 0abf 0cfe 2dbf f54b 4cbf 72b0 473f
00000080: f264 c7be 7ee9 7d3f 80d3 9b3e b96e d4be
00000090: de7d 76bf 5e34 6dbe 34a9 dd3f 403b cf3f
000000a0: 9c8e 93bf aafe 3cbe 5d5e dcbb 0f92 39bf
000000b0: 0cc8 edbe a7f7 40bf 3490 b0bf b35b 3abf
000000c0: 7712 edbe e319 b63d b511 64bf 9d25 adbe
000000d0: 2084 febf a920 a9bf 3504 79bf 534e 83bf
000000e0: d32b 1dbf 876d 8cbf dbfb dabe 10eb a0be
000000f0: 863e 0a3f 4165 ac3f cdcd 7a3f 9728 a83e
00000100: 873f c4bf 605a 0ebf a5e3 44bf a97b 96bf
00000110: 0354 55bf a32b a83e aa31 b8be 358e 69bd
00000120: 040e 1bbe ae6c 71bf d49c 07bf b652 c23f
00000130: 4972 89be 8ab5 203f 62e5 3b3d c03d 1ebe
00000140: d930 2ebf 1257 aabf ab03 76bf 9747 46bf
00000150: 4ea8 913f 5ab0 d2be 133a 2cbe 5a5c 0dbf
00000160: be64 5d3f d1e3 cfbe 0f90 51bf 48a0 b1bf
00000170: 71a9 09bf c0cb 0f3f 4877 2c3e 2dd0 163f
00000180: 1f16 13bf 897d b13f 4e81 66be 823b 903e
00000190: b63a 9abf 493d abbe 2f71 88bf 042c 27bf
000001a0: 3f2d 9abf d5c2 e1bf 9a72 9cbf 3a1d 03bf
000001b0: 9b41 5f3e ffbd dcbe 4922 33bf f9da 89bf
000001c0: 9716 0fbf 4786 0fc0 77b0 2bbf cc05 c5bf
000001d0: b3d8 dabe 05c8 26c0 dcf4 f0be 2b0b 9fbf
000001e0: f13c c5bf 503f bebf 2082 d33e 9479 e2be
000001f0: 9464 a5bf 02ed 9cbf 5491 31bf 949d 36bf
00000200: ad87 97bf 9f26 47bf 840c 9fbf f069 03be
00000210: 8386 afbd eff6 b73f e7be fabe 1e74 49be
00000220: 958e dabe 5493 d53e 3e59 7f3f c2f9 74bf
00000230: 1d7e 323f c669 a4bf cedd 46bf 73f7 babe
00000240: e081 87bf e422 26bf 5b70 15bf 4666 4bbf
00000250: 81c1 64bf 10b2 f2bf b9c4 113f 31dc 1e3f
00000260: 98ab 11bf be61 2dbf 1f7b e73f 1d89 a8bf
00000270: 72e2 0fbf 57aa 8dbf d4ca 6fbf dbdd 8a3f
00000280: 5159 273f 0cb1 8cbf 2bd1 96bf 739f d63f
00000290: 982f 67bf 015b bebf c25a a33f 924d 69be
000002a0: bb00 1f3f c681 0abf 56d1 edbe 3f95 82bf
000002b0: 70c6 8ebf a189 b4bf 2fc0 0b3e 6720 973f
000002c0: e4db 563e 927b 15c0 a548 c0bd 9a95 3ebf
000002d0: 9b93 37bf 7d3d f0be 63f2 de3f 7ec7 70bf
000002e0: d62a 50be f598 adbf 7b8f 70be 9efd 48bf
000002f0: 68b4 5abf f102 87bf 144e d83f b191 a93f
00000300: f40c 84bf 2dd6 94bc 9069 21bf 4fa4 28bf
00000310: 13bd abbd dff7 473f 25d9 a53f 35c4 14bd
00000320: 68f7 463e 20e2 a13f d03c b2bf ed74 91bf
00000330: cc89 563f e626 0cbf 3a06 d83f 4f2d bf3f
00000340: 34ca 873f 1f56 35bf 29a5 1ec0 a4af 9abe
00000350: e621 51bf 6c02 7bbf 1c98 32bf 92ff 143e
00000360: c37c c4bf 4ca7 2e3f f806 62be d8bd a3bf
00000370: 353c 893f e7de 03bf a66e bf3d b520 523e
00000380: 599f 07bf 94d3 c3bf ff2e 29bf d4de 5ebf
00000390: 0475 863e 61f8 d9bf 9e1f 3b3f 9d59 3a3f
000003a0: 6f8d 1fbf 72f5 4dbf 1872 49be 86e3 24bf
000003b0: 5f16 71bf 0bff c33f b049 1cbf 9d05 64be
000003c0: b32d 99bf 3fb3 12bf df6a 23bf 1bb5 1b3e
000003d0: 7bbd 98bf 9563 9abf 4c9a 05bf db8a ffbe
000003e0: 4ab3 02bf 64eb c93d d39e c6be 9820 1c3f
000003f0: f418 d9bf b4b2 dabe 8726 0abf bbea 8e3f

l2.weight f4 [200, 800]
0.02968629 0.015729308 -0.04749993 0.02030775 -0.032907777 -0.0040166136 -0.02085724 -0.016358893
-0.0008925969 -0.010180884 -0.016450163 0.00342021 -0.051065076 -0.02037853 -0.027393345 -0.01675564
-0.01330458 -0.029682565 -0.04117803 0.033041887 -0.018893985 -0.040373355 -0.014482719 -0.015455032
-0.03481515 0.007123545 -0.044489853 -0.03665174 0.025895758 0.029054845 -0.030001082 0.00041687407
0.022570893 0.008350812 -0.017137488 -0.026594259 0.018366849 -0.02191896 -0.034237724 -0.0035354625
-0.034554377 0.0015276796 0.0057144356 0.008770843 -0.024766982 -0.036648016 0.00059771305 -0.02740452
-0.0021300784 -0.008117978 -0.029723542 -0.0189331 -0.020141974 -0.04470965 -0.016766816 -0.019959431
-0.0277398 0.011155992 -0.06755901 -0.032047223 -0.03200252 -0.0029701425 -0.029973142 -0.009516843
-0.025817527 -0.025713217 0.0023109901 -0.013029837 -0.010203237 -0.013208653 -0.021084484 0.012569757
-0.0077615096 0.02515814 -0.032684255 -0.053430665 -0.01142794 -0.037713464 0.0072632455 0.03174547
-0.014178172 -0.010495676 0.009638847 -0.00049439317 -0.026178883 0.02878103 -0.031797625 0.018266266
-0.011109425 -0.036990747 0.032773666 -0.0015630703 -0.0320584 -0.0038744684 -0.019192012 0.015161661
0.018575469 0.0011203372 -0.008666534 0.012966506 -0.014251748 0.00019469987 0.0036756282 -0.03058596
-0.038909297 0.0015708704 -0.027395207 -0.007939162 -0.063699566 -0.038670875 0.02186308 -0.01333997
-0.0012195244 0.01964464 -0.043267943 -0.0032092624 -0.012532504 0.022300808 -0.01605155 -0.031533126
0.028840639 0.0046932274 -0.013542071 -0.028045278 -0.047421694 -0.035403755 -0.0466133 -0.044150848
0.033515006 -0.018931238 0.021419765 0.014161407 0.018204795 -0.06773783 -0.0026558167 -0.0101212775
-0.0036327867 -0.045708038 -0.016472515 0.0206896 -0.00047467503 -0.012514809 -0.0020423 0.011193245
-0.021853767 -0.010416511 -0.04526845 0.021535248 -0.004118128 0.025156276 0.010458421 0.0063510034
-0.003470269 -0.009379004 -0.0065735923 0.018702129 -0.018581057 0.0041837874 -0.020218343 -0.039788477
-0.02505942 -0.045879405 -0.00959228 -0.033056792 -0.010411855 -0.03785875 -0.040615503 0.024536008
0.010026283 0.016738877 0.01980483 -0.010996734 -0.04427751 -0.009052107 0.0041036927 -0.017785696
0.03610784 0.020870278 0.003568059 0.0063910508 0.02817194 -0.020369219 0.0028974982 -0.03330639
-0.00019178944 -0.027644806 0.002819499 -0.010113828 -0.061559353 0.003785526 0.0074071363 -0.021600444
-0.029261602 0.021285651 -0.016668096 -0.040045526 -0.004225232 -0.019015057 0.008733589 -0.036200978
-0.0021659348 -0.014513453 -0.019348476 0.015902538 -0.008990639 -0.017897455 -0.0035196298 -0.0027396372
0.0034530393 -0.019221814 0.014032883 0.017694427 -0.00842625 0.008668396 -0.0038318597 -0.03385774
-0.0063719586 -0.0060352804 -0.0083582625 0.027343052 -0.015079704 -0.01499309 -0.048237544 -0.043420684
0.0023594196 -0.07015185 0.023880351 0.029846478 -0.012724359 0.001751782 -0.0010092757 -0.018899573
-0.021490546 -0.029000828 -0.056764845 0.023215378 -0.039311633 -0.03833932 -0.022479624 -0.02968629
-0.020441864 -0.024288274 -0.014369096 -0.024334842 -0.048915558 0.010219068 -0.028322816 0.0029682796
0.007678155 -0.01169244 -0.0012296527 0.016243408 0.012912489 -0.030707033 -0.017537963 0.0012819237
00000000: aa30 f33c c0da 803c 498f 42bd 705c a63c
00000010: 4eca 06bd cc9d 83bb cddc aabc 1603 86bc
00000020: 2afd 69ba b9cd 26bc 7ec2 86bc 9a25 603b
00000030: 9d29 51bd e0f0 a6bc 0268 e0bc 2043 89bc
00000040: 74fb 59bc da28 f3bc 4baa 28bd ee56 073d
00000050: 8fc7 9abc 885e 25bd ed48 6dbc 1a37 7dbc
00000060: 559a 0ebd a06c e93b fe3a 36bd 2320 16bd
00000070: 5723 d43c 6d04 ee3c d4c4 f5bc e48f da39
00000080: 98e6 b83c d8d1 083c eb63 8cbc 34dc d9bc
00000090: 1376 963c 648f b3bc db3c 0cbd 38b3 67bb
000000a0: e488 0dbd 6c3c c83a 2940 bb3b 95b3 0f3c
000000b0: 20e4 cabc 3b1c 16bd d8af 1c3a 727f e0bc
000000c0: c998 0bbb 4501 05bc c97e f3bc 9719 9bbc
000000d0: c800 a5bc 7721 37bd 905a 89bc f681 a3bc
000000e0: 943e e3bc 9fc7 363c 615c 8abd f343 03bd
000000f0: 1315 03bd b9a6 42bb 3c8a f5bc 88ec 1bbc
00000100: 477f d3bc 86a4 d2bc fb73 173b 197b 55bc
00000110: 7a2b 27bc 1b69 58bc 5eb9 acbc 62f1 4d3c
00000120: 4354 febb 7218 ce3c eddf 05bd 1dda 5abd
00000130: 413c 3bbc 6f79 1abd 8500 ee3b 8a07 023d
00000140: 904b 68bc 0ef6 2bbc 41ec 1d3c 2a9a 01ba
00000150: 1975 d6bc 32c6 eb3c 3a3e 02bd 23a3 953c
00000160: 4e04 36bc 9c83 17bd ae3d 063d f0df ccba
00000170: ab4f 03bd cbea 7dbb 9138 9dbc 9e68 783c
00000180: 952b 983c 47d8 923a 14fe 0dbc 7871 543c
00000190: 2a80 69bc 5928 4c39 cfe2 703b 688f fabc
000001a0: 5b5f 1fbd aae5 cd3a ea6b e0bc 4213 02bc
000001b0: eb74 82bd 5a65 1ebd 341a b33c e48f 5abc
000001c0: 73d8 9fba cced a03c ba39 31bd 7d52 52bb
000001d0: 2255 4dbc 2fb0 b63c 8a7e 83bc e128 01bd
000001e0: 3443 ec3c a5c9 993b 90df 5dbc 36bf e5bc
000001f0: 403d 42bd 8703 11bd 96ed 3ebd 85d7 34bd
00000200: 0847 093d af15 9bbc 8178 af3c 3f05 683c
00000210: 3922 953c 22ba 8abd 360d 2ebb b7d3 25bc
00000220: 0c14 6ebb 5a38 3bbd 5ef1 86bc 3c7d a93c
00000230: cedd f8b9 ea0a 4dbc 1cd8 05bb df63 373c
00000240: ac06 b3bc 04aa 2abc 696b 39bd b06a b03c
00000250: 5df1 86bb 8914 ce3c cc59 2b3c 141c d03b
00000260: 746d 63bb 65aa 19bc 4a67 d7bb 3535 993c
00000270: 4d37 98bc 2718 893b f0a0 a5bc 3ef9 22bd
00000280: 6a49 cdbc 0bec 3bbd f028 1dbc 8f66 07bd
00000290: 7c96 2abc c711 1bbd 715c 26bd bdff c83c
000002a0: 4745 243c f81f 893c bd3d a23c a52b 34bc
000002b0: 565c 35bd 4a4f 14bc 4578 863b 4fb3 91bc
000002c0: d0e5 133d 25f8 aa3c 19d6 693b 056c d13b
000002d0: d7c8 e63c 59dd a6bc f4e3 3d3b 486c 08bd
000002e0: 161b 49b9 5c77 e2bc 58c7 383b 78b4 25bc
000002f0: a925 7cbd 9616 783b 90b7 f23b 6af3 b0bc
00000300: 07b6 efbc 3f5f ae3c 888b 88bc c706 24bd
00000310: d173 8abb 77c5 9bbc 5417 0f3c 7a47 14bd
00000320: 5bf2 0dbb d5c9 6dbc b280 9ebc 0a46 823c
00000330: 794d 13bc af9d 92bc 97a9 66bb 7c8b 33bb
00000340: 634c 623b 1177 9dbc 2dea 653c e7f3 903c
00000350: 410e 0abc e305 0e3c f01f 7bbb 6aae 0abd
00000360: ddcb d0bb 9ac3 c5bb 18f1 08bc 89fe df3c
00000370: dd10 77bc 94a5 75bc bb94 45bd e3d9 31bd
00000380: 7ea0 1a3b c6ab 8fbd baa0 c33c 9a80 f43c
00000390: d479 50bc 0d9c e53a ac49 84ba 47d3 9abc
000003a0: f10c b0bc 2593 edbc 4182 68bd 2d2e be3c
000003b0: 3c05 21bd b109 1dbd 3027 b8bc aa30 f3bc
000003c0: b275 a7bc 34f8 c6bc 5b6c 6bbc dd59 c7bc
000003d0: ae5b 48bd e16d 273c 4005 e8bc 7887 423b
000003e0: 0899 fb3b a691 3fbc 4c2c a1ba e510 853c
000003f0: e78e 533c 518d fbbc c6ab 8fbc 3906 a83a

l2.bias f4 [200]
-0.053430665 -0.046736233 -0.06562184 -0.03620843 -0.074003845 1.8697612 0.012797002 -0.14745635
1.8101737 1.8251771 -0.031846058 1.94375 1.0259686 1.4391146 -0.024463367 0.008619036
-0.014301108 -0.45215544 0.008701925 -0.05140408 1.3750961 1.7396376 1.6979712 -1.7122904
-0.5538514 -1.5942799 -0.018836243 -0.00723484 1.9326779 -0.044895917 -0.006107925 1.436106
1.2965592 -0.03654371 0.016126057 -1.1532017 -0.032185063 1.517003 0.0002026453 -0.101735264
-0.045581378 0.020652344 -0.8746205 2.0661159 -0.055244904 -0.05539392 1.4532336 -0.05165368
-0.25005028 2.020208 -0.07257332 -0.6948247 -0.029025042 -0.027462263 1.6709867 -0.028589178
-0.06818487 0.025029616 -0.7566573 -1.6546797 0.12408501 -0.4849096 -0.02286706 -0.026160257
-0.015368418 -0.060408223 -0.083943054 -0.019782478 -0.06758136 -0.09173646 2.0538347 -0.022542953
-0.24783187 -0.03259485 0.010816986 -0.3426299 0.022019543 0.08488735 -0.062133055 0.0006963763
-0.2624562 -0.52050745 0.5852942 -0.024889918 1.465697 0.015037793 -0.6451325 -0.049884144
-0.3469389 1.5487697 0.9555892 -1.3849865 1.9663638 1.8974226 -8.0360354e-05 -1.0643008
0.006459038 1.8214105 1.8051959 -0.14857085 -0.6367118 0.36421007 -0.0700928 -0.0323527
-0.36511144 1.9954398 -0.61033356 0.001975477 -0.018279305 -0.06621789 -0.43043768 1.0329762
-0.7216068 -0.85189664 -0.048293423 0.7362123 1.9893451 1.995409 -0.045704313 -0.07486068
1.6677845 0.0017759968 -0.059231017 -0.016576825 0.3173563 -0.061548177 0.03741171 -0.09675822
-0.16909286 -0.04736954 1.9516021 2.0440018 1.9548823 -1.3109082 1.8798887 1.8874764
-0.0017330289 1.9854757 -1.3955051 2.0822313 -0.09583433 -0.013482465 -0.034371834 -0.009832565
-0.008692612 1.9014324 -1.6867876 -1.3339157 -0.3142192 -0.0949477 -1.257086 -0.049299266
-0.15986918 -0.054768063 1.0672777 -0.07330348 -0.051839948 0.0025778175 -1.0256793 1.0863956
-0.030576646 -0.7815198 0.8427933 -0.026046636 0.9982861 0.006622022 1.5665584 2.0336761
-0.051199187 -0.011435392 -0.071291804 -0.061581705 -1.5957041 -1.6227117 -1.0946513 -0.09673934
-0.045570202 -0.13942452 -0.23037505 -0.552032 -0.5516244 1.8987683 -0.016308252 -0.059856873
-0.050957043 1.9571836 -0.034401637 -0.5941541 -0.081208654 0.62849295 1.6845396 2.0468159
-0.05430612 1.7434297 -0.43786478 -0.022932252 -1.7835187 -0.021358296 -1.2122146 -0.028192429
00000000: 1dda 5abd 7e6e 3fbd be64 86bd 4a4f 14bd
00000010: 548f 97bd 5654 ef3f 84aa 513c ccfe 16be
00000020: c6b3 e73f 679f e93f 0371 02bd cdcc f83f
00000030: f052 833f e834 b83f 6667 c8bc db36 0d3c
00000040: 324f 6abc eb80 e7be 8592 0e3c 168d 52bd
00000050: 2603 b03f 72ac de3f 1f57 d93f 552c dbbf
00000060: 35c9 0dbf 5d11 ccbf 774e 9abc 3d12 edbb
00000070: fd61 f73f c8e4 37bd fd24 c8bb 52d2 b73f
00000080: a7f5 a53f dbae 15bd cb1a 843c 1d9c 93bf
00000090: 7cd4 03bd 282d c23f 2f7d 5439 945a d0bd
000000a0: 8ab3 3abd 1b2f a93c 21e7 5fbf 3e3b 0440
000000b0: 7b48 62bd bce4 62bd 8f03 ba3f cf92 53bd
000000c0: 9706 80be 164b 0140 52a1 94bd 08e0 31bf
000000d0: edc5 edbc 8af8 e0bc e4e2 d53f da33 eabc
000000e0: 82a4 8bbd e90a cd3c 4bb4 41bf 8bcc d3bf
000000f0: 4820 fe3d 1246 f8be b353 bbbc 094e d6bc
00000100: d1cb 7bbc 9d6e 77bd 56ea abbd dd0e a2bc
00000110: 1968 8abd 53e0 bbbd 0772 0340 00ac b8bc
00000120: a3c7 7dbe 2d82 05bd ba39 313c 306d afbe
00000130: 5462 b43c 6bd9 ad3d 3b7f 7ebd 068d 363a
00000140: a960 86be fa3f 05bf d7d5 153f f1e5 cbbc
00000150: f69b bb3f 1361 763c 6727 25bf 5153 4cbd
00000160: faa1 b1be 163e c63f 7ea1 743f 3d47 b1bf
00000170: cfb1 fb3f bede f23f 2387 a8b8 023b 88bf
00000180: 56a6 d33b fb23 e93f a910 e73f f522 18be
00000190: 8bff 22bf be79 ba3e d08c 8fbd 4484 04bd
000001a0: e3ef babe 926a ff3f d23e 1cbf 0177 013b
000001b0: 7bbe 95bc 3f9d 87bd 5462 dcbe 9038 843f
000001c0: 39bb 38bf e615 5abf 53cf 45bd 6978 3c3f
000001d0: dca2 fe3f 9069 ff3f 7234 3bbd 8e50 99bd
000001e0: f679 d53f 90c8 e83a 399c 72bd 1fcc 87bc
000001f0: 867c a23e f119 7cbd 053d 193d 2c29 c6bd
00000200: ae26 2dbe 9006 42bd 19ce f93f edd0 0240
00000210: 9539 fa3f d7cb a7bf 31a0 f03f d498 f13f
00000220: cd26 e3ba 1124 fe3f e99f b2bf 4743 0540
00000230: ca44 c4bd 8fe5 5cbc 7bc9 0cbd c418 21bc
00000240: 756b 0ebc 2362 f33f a8e8 d7bf c0bd aabf
00000250: 57e1 a0be f173 c2bd 32e8 a0bf 07ee 49bd
00000260: bfb4 23be 7a54 60bd 8e9c 883f 2320 96bd
00000270: 2056 54bd 9af0 283b 7649 83bf 030f 8b3f
00000280: e07b fabc ae11 48bf 4dc1 573f c15f d5bc
00000290: ae8f 7f3f 8cfd d83b fc84 c83f c027 0240
000002a0: 3db6 51bd 835b 3bbc 7001 92bd 193d 7cbd
000002b0: 0840 ccbf 04b5 cfbf 891d 8cbf 461f c6bd
000002c0: d2a7 3abd 4dc5 0ebe 70e7 6bbe f851 0dbf
000002d0: 4237 0dbf d70a f33f e298 85bc 7b2c 75bd
000002e0: 55b8 50bd fe84 fa3f bbe8 0cbd 7c1a 18bf
000002f0: b950 a6bd eae4 203f fe9e d73f 08ff 0240
00000300: 1870 5ebd b428 df3f d02f e0be 6bdc bbbc
00000310: 574a e4bf 98f7 aebc d929 9bbf cff3 e6bc

l3.weight f4 [1, 200]
0.027069239 0.00014209401 -0.0076828115 0.012285699 -0.004532107 0.35910565 7.428484e-05 -0.0075067896
0.38205716 0.24040538 -0.061697192 0.30429474 0.65400136 0.45038995 0.023120381 0.004920474
0.0012031096 -0.9056627 -0.027859012 0.011142953 0.840718 0.6601062 0.35606015 -0.74978286
-2.225019 -0.45494193 -0.03160391 -0.01971542 0.26227564 -0.034003027 0.0016077745 0.48769394
0.7755853 0.004054798 -0.016222918 -0.8161748 0.016673684 0.43632576 0.022997444 -0.015624534
-0.0044063767 -0.032877974 -0.6619102 0.33143342 0.001884963 -0.021034192 0.4529264 -0.030163134
-2.4342415 0.3298971 -0.01403102 -1.5967553 0.0065535684 -0.01774658 0.88197947 0.0068278466
0.019734047 0.003694022 -0.70254767 -0.67399925 1.6809796 -2.2177742 0.03423027 -0.014540462
-0.0038130002 -0.024977462 0.0018499214 0.0012787806 -0.027072966 0.030569196 0.3165913 -0.010966931
-0.024550911 0.010311271 -0.03238623 -1.2600076 -0.060005885 0.9396905 0.011742732 0.0024003985
1.2725886 -0.61230934 1.2104715 -0.032915227 0.42773846 -0.029386401 -2.0473607 -0.0025775847
-0.88889015 0.682003 0.8807753 -0.59741926 0.21758835 0.18942879 0.0021724543 -1.7286416
-0.022863334 0.23743683 0.12715887 -2.9923024 -1.6825166 1.1262511 -0.8900213 0.00021977312
1.3514421 0.22895919 -0.76899976 0.058560453 0.02367732 -0.00331753 -1.3058681 1.5687582
-1.1309818 -0.5443755 0.023284294 0.36560467 0.23666267 0.2982388 0.047518555 0.0358955
0.48822868 -0.0065000164 -0.0044613252 -0.06069135 0.8331572 0.02266775 -0.0021088908 0.02547107
-1.1632222 0.0056217685 0.25871113 0.31975254 0.18373191 -0.4866002 0.2631539 0.17193313
-1.710879 0.22074196 -0.8262639 0.30451894 0.01779501 -0.01705739 0.011663568 0.026095062
0.0025105288 0.20122506 -0.37570253 -0.5267306 -0.78265816 0.011469851 -0.56963295 -0.0017467762
0.027186586 -0.027212666 1.0073066 0.01436537 -0.005064365 0.0146261435 -0.98780316 0.7131308
-0.0031391794 -0.6711014 0.70338964 -0.018312832 0.80761486 -0.019763852 0.66089773 0.3361207
0.0130317 -0.0051258327 -0.00050556916 -0.014226601 -0.8253885 -0.6561504 -0.79134977 -1.9989192
-0.011375787 0.01697171 -2.6323278 -3.7729115 -1.0071038 0.35853004 -1.017958 -0.0014287254
0.03542238 0.21868563 -0.00016996128 -1.8082138 5.0202932e-05 0.99170727 0.48640266 0.32365048
0.026905324 0.32574734 -0.81501704 0.008218562 -0.58045316 0.0017725044 -1.8920819 -0.030314008
00000000: 4fc0 dd3c 12ff 1439 18c0 fbbb f549 493c
00000010: 1282 94bb b2dc b73e 5fc9 9b38 84fb f5bb
00000020: ff9c c33e d42c 763e 32b6 7cbd 85cc 9b3e
00000030: a26c 273f 8399 e63e f466 bd3c ed3b a13b
00000040: a9b1 9d3a 83d9 67bf 9538 e4bc ef90 363c
00000050: 4b39 573f b8fc 283f 844d b63e c5f1 3fbf
00000060: b666 0ec0 26ee e8be 1a73 01bd 3c82 a1bc
00000070: fe48 863e c246 0bbd f6bb d23a 05b3 f93e
00000080: c28c 463f 1cde 843b ede5 84bc d5f0 50bf
00000090: 4097 883c 1766 df3e 2365 bc3c 0cfe 7fbc
000000a0: 5e63 90bb 0eab 06bd f272 29bf a4b1 a93e
000000b0: dd10 f73a e64f acbc f8e5 e73e ad18 f7bc
000000c0: 9dca 1bc0 46e8 a83e 5de2 65bc 7a62 ccbf
000000d0: 51bf d63b 4761 91bc 68c9 613f 21bc df3b
000000e0: 4ca9 a13c 6817 723b 2ada 33bf 378b 2cbf
000000f0: 572a d73f 03f0 0dc0 0a35 0c3d 1e3b 6ebc
00000100: 87e3 79bb 899d ccbc 1079 f23a c29c a73a
00000110: 20c8 ddbc 406c fa3c 4118 a23e a4ae 33bc
00000120: fe1e c9bc 9bf0 283c 6ca7 04bd ee47 a1bf
00000130: bbc8 75bd 8e8f 703f 9664 403c 0150 1d3b
00000140: 2fe4 a23f 4ec0 1cbf bbf0 9a3f 1ed2 06bd
00000150: 8900 db3e c0bb f0bc f507 03c0 b2ec 28bb
00000160: 4e8e 63bf c097 2e3f 7d7a 613f 78f0 18bf
00000170: 7bcf 5e3e 9ff9 413e bc5f 0e3b 2144 ddbf
00000180: e34b bbbc a422 733e ef35 023e e281 3fc0
00000190: b45c d7bf ff28 903f 70d8 63bf e672 6639
000001a0: 0efc ac3f 4774 6a3e 2bdd 44bf 16dd 6f3d
000001b0: f0f6 c13c eb6a 59bb b026 a7bf 12cd c83f
000001c0: 03c4 90bf 315c 0bbf b4be be3c 8930 bb3e
000001d0: b357 723e c2b2 983e d1a2 423d 2907 133d
000001e0: 1cf9 f93e 17fe d4bb 4f30 92bb 7e97 78bd
000001f0: ca49 553f b8b1 b93c 5135 0abb b5a8 d03c
00000200: 77e4 94bf d036 b83b c975 843e 9bb6 a33e
00000210: 3824 3c3e a923 f9be 1cbc 863e 3d0f 303e
00000220: 15fe dabf 2e0a 623e 0886 53bf e8e9 9b3e
00000230: d7c6 913c f1bb 8bbc 8d18 3f3c 50c5 d53c
00000240: af87 243b f10d 4e3e 155c c0be d1d7 06bf
00000250: 495c 48bf 0bec 3b3c 77d3 11bf 15f4 e4ba
00000260: 67b6 de3c 19ed debc 6cef 803f bb5c 6b3c
00000270: f9f2 a5bb 7ea2 6f3c abe0 7cbf bd8f 363f
00000280: b1ba 4dbb 4dcd 2bbf 5811 343f cb04 96bc
00000290: d9bf 4e3f cde7 a1bc 9830 293f 0318 ac3e
000002a0: e982 553c 9af6 a7bb 2c88 04ba b116 69bc
000002b0: a94c 53bf 79f9 27bf e695 4abf 96dc ffbf
000002c0: 8261 3abc 4108 8b3c 0f78 28c0 6277 71c0
000002d0: c7e8 80bf 4091 b73e 734c 82bf 1244 bbba
000002e0: 0f17 113d 20ef 5f3e a237 32b9 8d73 e7bf
000002f0: fd90 5238 87e0 7d3f c509 f93e 84b5 a53e
00000300: 8e68 dc3c 5bc8 a63e f5a4 50bf 26a7 063c
00000310: 9498 14bf 6153 e83a bd2f f2bf 1555 f8bc
