DDPG/local_checkpoint/Walker2d-v2(orginal)/('target_actor', 24).ckpt (torch, 705111 bytes, 6 tensors)

l1.weight f4 [800, 17]
0	0x3deb3f53	0.114866875
1	0x3edebee5	0.43505016
2	0xbebe302d	-0.3714613
3	0x3ebe6813	0.37188777
4	0xbe2f7b81	-0.17136957
5	0x3f4f912a	0.8108088
6	0xbd8bbac8	-0.06822735
7	0x3dba2f52	0.09091057
8	0xbf275092	-0.65357316
9	0xbc888af8	-0.016667828
10	0x3d62c1ac	0.05536048
11	0x3e10662d	0.14101477
12	0x3d76de06	0.06027033
13	0x3c08f136	0.00835829
14	0xbe151c1e	-0.14561507
15	0x3de14f44	0.11001447
16	0xbddcb913	-0.107774876
17	0xbe69b82f	-0.22824167
18	0xbfffb43c	-1.9976878
19	0x3f9025b3	1.1261505
20	0x3f71352f	0.94221777
21	0x3ed2a4b8	0.41141295
22	0xbdc97db3	-0.09838428
23	0x3e1bcb3f	0.15214251
24	0x3e2562ec	0.16151017
25	0xbdeb5596	-0.114909336
26	0x3e0dd5a7	0.13851033
27	0xbd2b2cd2	-0.04179079
28	0x3ca3145d	0.01990717
29	0x3c3e6e36	0.011622956
30	0x3c73c39d	0.014878181
31	0xbe120a45	-0.1426173
32	0x3a6ee75e	0.0009113456
33	0x3cbb021f	0.02282816
34	0xbe117c2a	-0.14207521
35	0xbeddfc49	-0.4335654
36	0x3e96f3d2	0.29482895
37	0xbe2f82e0	-0.17139769
38	0x3f48f19d	0.7849367
39	0x3f9b47e0	1.213131
40	0x3f858e1d	1.0433995
41	0xbd35e97a	-0.044412114
42	0xbe7590d1	-0.23981024
43	0x3f27ada4	0.6549933
44	0x3d8f2c3c	0.06990859
45	0x3d82c013	0.063842915
46	0xbe0bf219	-0.13666572
47	0x3da36e84	0.079800636
48	0x3e3d30cc	0.18475646
49	0x3e3364ef	0.17518972
50	0x3bf0aa58	0.0073445253
51	0x3f1712f9	0.59013325
52	0x3c61d508	0.013783701
53	0x3db36a95	0.08760563
54	0xbef8837d	-0.48537818
55	0xbd8fb851	-0.070175774
56	0x3e4135ba	0.18868151
57	0x3cc6e2c8	0.02427806
58	0xbe0ddf4f	-0.13854717
59	0x3d894c8c	0.06704053
60	0x3cd84871	0.02640173
61	0xbdc97c15	-0.0983812
62	0xbd937743	-0.07200482
63	0x3d6cdce6	0.057827853
64	0xbba7bddc	-0.0051190685
65	0x3e5d8612	0.21633175
66	0x3e10a6f6	0.1412619
67	0xbc84c6d9	-0.0162081
68	0x3f16c370	0.58891964
69	0xbf89ec23	-1.0775188
70	0x3f43a7e9	0.76428086
71	0xbc8bb637	-0.01705466
72	0x3e378278	0.17920864
73	0x3d90a6d7	0.07063072
74	0xbf786a50	-0.9703722
75	0x3e231b69	0.15928425
76	0xbed3a113	-0.41333827
77	0xbf099e9b	-0.5375764
78	0xbe3d2e56	-0.18474707
79	0x3d8d65b7	0.06904166
80	0xbd7f54e8	-0.062336832
81	0xbbacf0e8	-0.0052777417
82	0x3e4fede6	0.20305595
83	0xbd347ec3	-0.044066202
84	0x3b7af671	0.0038293863
85	0xbf2795cf	-0.65462965
86	0x3e162519	0.14662589
87	0xbecbb012	-0.39782768
88	0xbe258813	-0.1616519
89	0x3d57c668	0.05267945
90	0xbe44305f	-0.19159077
91	0xbe850bb9	-0.25985506
92	0x3eb2eb32	0.34945065
93	0x3ed21b05	0.4103624
94	0xbe1a3020	-0.1505742
95	0x3cfc0431	0.030763717
96	0xbdb4f599	-0.088359065
97	0xbd13981b	-0.03603373
98	0x3be4480a	0.0069665955
99	0x3dbedd1a	0.093195155
100	0x3dbd837c	0.09253594
101	0x3d2b7cc1	0.04186702
102	0xbf55074b	-0.83214253
103	0x3f804906	1.0022285
104	0x3df23e7d	0.11828325
105	0xbf40067d	-0.750099
106	0xbeae0be6	-0.33993453
107	0xbf77249c	-0.96540236
108	0xbf5aa676	-0.8541025
109	0x3db46171	0.08807648
110	0x3e777efb	0.24169533
111	0xbe69a808	-0.22818005
112	0x3e4118af	0.18857072
113	0xbd59b75b	-0.053153377
114	0xbdc95af3	-0.098318
115	0x3ba9bf13	0.0051802485
116	0xbd9f9238	-0.07791561
117	0x3b7940f9	0.0038033111
118	0x3a82c32a	0.0009976376
119	0xbdc021db	-0.093814574
120	0xbf15300c	-0.5827644
121	0x3fa66522	1.2999613
122	0x3d99c744	0.0750871
123	0x3eaf2ea1	0.34215263
124	0x3f44b995	0.76845676
125	0x3bff04a8	0.0077825375
126	0x3e9178c4	0.2841245
127	0x3da082a7	0.0783742
128	0xbe2474c2	-0.16060165
129	0x3e299562	0.16560891
130	0xbd03fc0a	-0.032222785
131	0xbc931e7c	-0.017958872
132	0xbe3222bc	-0.17396063
133	0xbd963b5b	-0.0733554
134	0x3e265249	0.16242327
135	0x3c6f8a53	0.014620381
136	0xbf165be0	-0.5873394
137	0x3f11c2b9	0.5693775
138	0xbf167101	-0.5876618
139	0x3ec9d3a9	0.39419296
140	0xbf364520	-0.71199226
141	0x3f385f3e	0.7202033
142	0xbe0f64c4	-0.14003283
143	0xbe956c2b	-0.29184088
144	0xbd91ba0e	-0.07115565
145	0xbe34dd49	-0.17662539
146	0x3d54ad70	0.051923215
147	0xbc208b85	-0.009798889
148	0xbc46c9e8	-0.012133099
149	0xbdac9604	-0.08427051
150	0xbdc85c44	-0.09783223
151	0x3cfe8b01	0.031072142
152	0x3d08b928	0.033379704
153	0xbf204ef1	-0.62620455
154	0x3f04f2be	0.51932895
155	0xbef6feec	-0.48241365
156	0xbf1adeae	-0.6049603
157	0x3f0a33db	0.53985375
158	0xbf38a738	-0.72130156
159	0x3cc414ff	0.023935793
160	0x3ec83cbc	0.39108837
161	0xba7e8fbf	-0.0009710751
162	0x3e3bac81	0.18327524
163	0x3e8e648d	0.2781109
164	0xbe0df45b	-0.13862745
165	0xbc5b3d10	-0.013381258
166	0xbd90149d	-0.07035182
167	0xbe0e3ccc	-0.1389038
168	0xbe290b8e	-0.16508314
169	0x3d532474	0.051548436
170	0x3e4aeeae	0.19817612
171	0x3ec6e4d6	0.38846463
172	0xbeca375b	-0.39495358
173	0x3f16cfe6	0.5891098
174	0x3ea7a9b3	0.32746658
175	0xbd8bc255	-0.06824175
176	0x3ea8c971	0.32966188
177	0x3f101a80	0.56290436
178	0x3c95959c	0.018259816
179	0x3d04298c	0.032266185
180	0x3c20c0f4	0.009811629
181	0xbc568bb7	-0.013094834
182	0xbd3e0f10	-0.046401083
183	0x3bbadf95	0.0057029226
184	0x3d5a2b79	0.053264115
185	0x3e5e37c8	0.21700966
186	0xbdbe97b6	-0.0930628
187	0x3f138fa8	0.5764108
188	0xbf3d5e7e	-0.7397231
189	0xbd42adea	-0.04752914
190	0x3f0cd727	0.55015796
191	0xbd00c412	-0.031436987
192	0x3f06ca74	0.5265267
193	0xbf4efa5e	-0.8085078
194	0x3e9e0c45	0.30868736
195	0xbe375d30	-0.17906642
196	0x3f8a78ba	1.0818093
197	0xbb202f97	-0.0024442428
198	0x3d35ec2a	0.044414677
199	0x3de64ed0	0.11245501
200	0xbc46bc96	-0.012129923
201	0x3d8bde06	0.06829457
202	0x3b39d536	0.0028355843
203	0xbd6a4587	-0.057195213
204	0xbe8e2339	-0.27761248
205	0x3d92f36f	0.071753375
206	0xbf20cac7	-0.62809414
207	0x3f3fd0a9	0.74927765
208	0xbeace1e9	-0.33766106
209	0x40110e73	2.266507
210	0x3f037558	0.5135093
211	0xbebfe8a4	-0.37482178
212	0xbdd76b65	-0.10518531
213	0x3e8bf3c4	0.27334416
214	0x3d46afe0	0.04850757
215	0xbdca5d05	-0.09881023
216	0x3dabb41f	0.08383965
217	0x3c83bde2	0.016081754
218	0x3dfab1b0	0.122409225
219	0xbe1ecc07	-0.15507518
220	0xbcc01a8d	-0.02345016
221	0xbe44e7d8	-0.19229066
222	0xbed78d5c	-0.42100036
223	0xbec1c3a4	-0.37844574
224	0xbf0379fd	-0.51358014
225	0xbd54913c	-0.05189632
226	0x3cf67847	0.03008665
227	0x3d9b9ca1	0.07598234
228	0xbd6ac601	-0.057317737
229	0xbf5baa46	-0.8580669
230	0x3e8ebce2	0.2787848
231	0xbd8f3b58	-0.06993741
232	0x3dc39ff6	0.095519945
233	0x3d7f19df	0.062280532
234	0x3c66759f	0.014066129
235	0x3ea3e630	0.32011557
236	0x3e41e38f	0.18934463
237	0xbce1b3df	-0.02755159
238	0xbddd5189	-0.10806567
239	0x3eafd066	0.34338683
240	0x3df3ed63	0.11910512
241	0xbe5cd0b8	-0.21563995
242	0xbed8e087	-0.423588
243	0x3f8c477c	1.0959315
244	0x3dd5a60f	0.10432064
245	0xbf15f3f9	-0.585754
246	0xbe1706f9	-0.14748754
247	0xbec807e7	-0.3906853
248	0x3d0fdcbc	0.035122618
249	0xbc76f50a	-0.01507307
250	0x3e04f669	0.12984623
251	0xbd006c92	-0.03135354
252	0x3d7054a3	0.058674466
253	0x3dbc7b5b	0.09203216
254	0x3da08a61	0.07838894
255	0xbdd27996	-0.10277097

l1.bias f4 [800]
0	0xbe1157da	-0.14193669
1	0xbcefc01b	-0.029266408
2	0xbdd03a79	-0.10167403
3	0xbe7b4f8a	-0.2454206
4	0x3f0f36c8	0.55942965
5	0xbe216ced	-0.15764208
6	0xbf0340b4	-0.51270604
7	0xbf0e28af	-0.5553083
8	0x3e9f7b08	0.31148553
9	0xbecf0168	-0.4043076
10	0xbf456731	-0.7711058
11	0xbc71b47e	-0.014752505
12	0x3d2a46c5	0.041571397
13	0xbcaae7f7	-0.020862563
14	0xbda8e83c	-0.0824742
15	0x3e7735c0	0.24141598
16	0xbe02d3d1	-0.12776114
17	0xbe390dc1	-0.18071653
18	0x3ee818f4	0.45331538
19	0xbeb3e666	-0.35136718
20	0xbdd85c3a	-0.10564466
21	0xbe670bd4	-0.22563106
22	0xbeac0eeb	-0.33605132
23	0x3efe317a	0.49647123
24	0x3e3f9f88	0.187132
25	0xbe90b9eb	-0.28266844
26	0x3e122fee	0.14276096
27	0xbeb026e4	-0.3440467
28	0x3da82aba	0.082112744
29	0xbebf8aad	-0.3741049
30	0xbdca0a1a	-0.09865208
31	0x3e46c44e	0.19410822
32	0xbf10711e	-0.56422603
33	0x3e724d89	0.2366239
34	0x3eb901b8	0.36134124
35	0xbf1b599f	-0.60683626
36	0x3e8ebff3	0.2788082
37	0xbecef620	-0.40422153
38	0xbf2b56d6	-0.66929376
39	0x3b82f07c	0.003995953
40	0xbe29cdbb	-0.16582386
41	0xbef8b493	-0.48575267
42	0xbf5b0348	-0.8555188
43	0xbf0951f4	-0.53640676
44	0xbbc62eec	-0.006048074
45	0xbe8634a4	-0.26212037
46	0x3e1c8cb9	0.15288056
47	0xbe114789	-0.14187445
48	0xbdaff577	-0.085917406
49	0xbef5b51d	-0.4798974
50	0x3d9c0150	0.07617438
51	0x3d9ff631	0.07810629
52	0xbcd74fde	-0.0262832
53	0x3e7b7b77	0.24558817
54	0xbe5ec4ad	-0.21754713
55	0xbe06474f	-0.1311314
56	0xbe4f9f7a	-0.20275679
57	0xbd82f056	-0.06393497
58	0xbe0ac370	-0.13551116
59	0xbf38db1c	-0.72209334
60	0xbebd983d	-0.3703021
61	0xbdd93b34	-0.10606995
62	0xbedcfa3b	-0.4315966
63	0x3eccb471	0.39981416
64	0xbe7701df	-0.24121808
65	0x3e844479	0.2583349
66	0x3ee04ec3	0.4381009
67	0x3eeff8f1	0.46869615
68	0xbf2cb6d3	-0.6746647
69	0xbc9d6934	-0.019215204
70	0x3d27a0fc	0.04092501
71	0xbea84b4e	-0.32869953
72	0x3d4d6e1a	0.05015383
73	0xbe53df94	-0.20690757
74	0x3f13542a	0.575503
75	0x3e803e41	0.25047496
76	0x3c0bc127	0.008529938
77	0xbe2c395c	-0.16818756
78	0xbe01a583	-0.12660794
79	0x3e3102ff	0.17286299
80	0x3d4cc456	0.049991928
81	0xbee6d793	-0.45086345
82	0xbdfbf1e2	-0.12301995
83	0x3dac0f18	0.084013164
84	0x3e921efd	0.28539267
85	0x3d4aade8	0.049482256
86	0xbe8bd165	-0.27308193
87	0x3ecd7815	0.40130678
88	0xbdaff1f9	-0.085910745
89	0xbebdba07	-0.3705599
90	0xbdc640f4	-0.096803576
91	0x3f5d7021	0.8649922
92	0xbd6a9f0e	-0.057280593
93	0xbf060848	-0.52356386
94	0xbef97fa3	-0.48730192
95	0x3f02dc43	0.5111734
96	0xbec69b59	-0.38790396
97	0xbdebf7bd	-0.11521862
98	0xbdffd107	-0.12491041
99	0x3e45cc45	0.19316204
100	0x3c9a34ce	0.018824007
101	0xbd95a1a0	-0.07306218
102	0xbed46362	-0.41482073
103	0xbe776993	-0.24161367
104	0x3c59530c	0.013264429
105	0xbee4d320	-0.44692326
106	0xbc46d38b	-0.012135397
107	0xbed095ac	-0.4073919
108	0x3c5c4844	0.013444964
109	0xbeb0acb1	-0.34506753
110	0xbf1f82c4	-0.6230891
111	0xbec9092d	-0.39264813
112	0xbf1e66df	-0.6187572
113	0xbe80cbc0	-0.2515545
114	0xbe8b9137	-0.27259228
115	0xbed1d01e	-0.40979093
116	0xbde95c2c	-0.113945335
117	0xbf0592d0	-0.52177143
118	0xbc8edf03	-0.017440325
119	0x3d8aa625	0.06769971
120	0xbd695339	-0.056964133
121	0xbe23b216	-0.15985903
122	0xbef2cffe	-0.4742431
123	0xbe9391e5	-0.28822246
124	0xbe22027b	-0.15821259
125	0x3ea2338b	0.3167995
126	0x3e26a445	0.16273601
127	0xbe8273e9	-0.25479057
128	0xbde6aa8d	-0.11262999
129	0xbdff4289	-0.124638624
130	0xbd8a65d7	-0.06757706
131	0x3c9ec88e	0.019382741
132	0xbe63a907	-0.22232448
133	0xbea2dfd2	-0.31811386
134	0x3ed15f2e	0.4089293
135	0xbe90a77a	-0.28252774
136	0xbdb696bd	-0.0891547
137	0xbd4d7d93	-0.050168585
138	0xbd56915b	-0.052384716
139	0x3eab6c97	0.33481285
140	0x3e83a9b7	0.2571542
141	0x3ed39977	0.41328022
142	0xbd8c2d5d	-0.0684459
143	0xbf3fcc8c	-0.7492149
144	0xbce9dd02	-0.028547768
145	0xbf24042c	-0.64068866
146	0x3ea14731	0.31499627
147	0xbee0d9e2	-0.4391623
148	0xbeaf916c	-0.34290636
149	0x3eac8021	0.33691505
150	0x3eb5d51c	0.35514152
151	0xbeab4c46	-0.3345663
152	0x3d60c32b	0.054873627
153	0xbe9084cd	-0.2822632
154	0xbea339af	-0.31879947
155	0x3e528efd	0.20562358
156	0xbe857191	-0.26063207
157	0xbec8f176	-0.3924672
158	0x3e4967a9	0.1966845
159	0xbc0c30b2	-0.008556532
160	0x3ea9fff8	0.332031
161	0xbedd670e	-0.43242687
162	0xbde393f2	-0.11112203
163	0xbf0b5d46	-0.544392
164	0xbebdbf5e	-0.37060064
165	0x3ee33d74	0.44382823
166	0xbeec8f16	-0.46202916
167	0xbdf56888	-0.119828284
168	0xbe152f05	-0.14568718
169	0xbebe92d4	-0.37221396
170	0x3ca40d7d	0.020025963
171	0xbf09bd3b	-0.5380437
172	0xbdd7f781	-0.105452545
173	0xbe8593bc	-0.26089275
174	0xbcaa8070	-0.020813197
175	0xbf0d827f	-0.55277246
176	0x3ec2d8d9	0.38056067
177	0x3da99fef	0.08282458
178	0x3f00829f	0.5019931
179	0xbe019526	-0.12654552
180	0xbea7ea8a	-0.32796127
181	0x3db4fcc1	0.088372715
182	0xbf0e8afe	-0.55680835
183	0xbee6e257	-0.4509456
184	0x3dd7e1ea	0.105411366
185	0xbe32b85f	-0.17453144
186	0x3e6b4ff2	0.22979715
187	0x3ee317c7	0.44354078
188	0xbf026068	-0.50928354
189	0x3e0d859a	0.13820496
190	0x3d1fe3c4	0.039035574
191	0xbe2e52ad	-0.17023726
192	0xbed25ad5	-0.41084924
193	0xbde483b0	-0.1115793
194	0xbe11a742	-0.1422396
195	0xbed256e2	-0.4108191
196	0x3e435f43	0.19079308
197	0xbc1fecf7	-0.009761087
198	0xbcc0940f	-0.0235081
199	0xbea2a4ce	-0.3176636
200	0xbe6607f0	-0.22463965
201	0x3dfcc7f6	0.12342827
202	0x3de111ef	0.10989749
203	0xbf67b9f1	-0.905181
204	0xbefc3f3d	-0.49266997
205	0xbf1a921c	-0.60379195
206	0x3dbcdc87	0.0922175
207	0xbe858309	-0.26076534
208	0xbe8694bf	-0.2628536
209	0xbf07b37a	-0.53008235
210	0xbed2212b	-0.4104093
211	0xbeea1687	-0.45720312
212	0x3ece7934	0.40326846
213	0xbebeae87	-0.3724253
214	0xbefb14b6	-0.4903924
215	0x3d2c0b6b	0.042003077
216	0x3d0bdf21	0.03414834
217	0xbe5c7f76	-0.21532997
218	0xbf054126	-0.52052534
219	0xbd8b13a8	-0.067908585
220	0xbefe02c3	-0.49611482
221	0xbeaa0897	-0.3320968
222	0xbef3e945	-0.47638908
223	0xbe566412	-0.20936611
224	0xbf33eb5f	-0.7028102
225	0xbdc165c6	-0.0944324
226	0xbf0257a4	-0.5091498
227	0xbe6e1cf6	-0.23253235
228	0x3e774bcb	0.24150006
229	0x3ed1df61	0.40990737
230	0xbe5d8bba	-0.21635333
231	0x3e12fd17	0.14354359
232	0x3e720e61	0.23638298
233	0xbe069e15	-0.13146241
234	0xbe11e1c9	-0.14246286
235	0xbed3ab27	-0.41341516
236	0xbe20ffdf	-0.15722607
237	0x3e41c894	0.1892417
238	0xbe0c3499	-0.1369194
239	0xbeea82a8	-0.45802808
240	0xbeab16dd	-0.3341588
241	0xbecd4eff	-0.40099332
242	0xbf2643a9	-0.6494699
243	0x3e950a9c	0.29109657
244	0x3e6658ab	0.22494762
245	0xbdb10663	-0.08643796
246	0xbf139fa3	-0.5766546
247	0xbed7cede	-0.42150015
248	0x3f103652	0.56332886
249	0xbd8fd63c	-0.07023284
250	0xbf2e897d	-0.6817854
251	0x3de77d2b	0.11303171
252	0x3de437a9	0.11143429
253	0x3e617ae9	0.22019543
254	0x3e9dbd02	0.30808264
255	0xbf1b8f98	-0.6076598

l2.weight f4 [200, 800]
0	0x3bd110eb	0.0063801906
1	0x3d9287f2	0.07154836
2	0xbcba56be	-0.02274644
3	0xbdb01118	-0.085970104
4	0xbe0e804d	-0.1391613
5	0x3e2c7ab7	0.16843687
6	0xbc9a6dd1	-0.018851193
7	0x3d352cc3	0.04423214
8	0xbe9de4d9	-0.3083866
9	0x3dcf8f5c	0.101347655
10	0x3e4d28f8	0.2003516
11	0xbddc8306	-0.10767178
12	0xbebf5a56	-0.37373608
13	0xbc1f803a	-0.009735161
14	0xbdc3231e	-0.095281824
15	0xbc7b237c	-0.015328284
16	0x3e0cd75f	0.13754033
17	0x3e0cf955	0.13766988
18	0xbe5cad4a	-0.2155048
19	0xbc70f099	-0.0147058
20	0x3d9c53f8	0.07633203
21	0xba7947a7	-0.0009509273
22	0xbd3a4626	-0.045477055
23	0xbe021a76	-0.12705407
24	0xbd93571d	-0.0719435
25	0x3cf30658	0.02966611
26	0xbc53792d	-0.0129073085
27	0xbd21acbf	-0.039471384
28	0xbde04124	-0.109499246
29	0x3e5b0818	0.21389806
30	0xbe582203	-0.21106724
31	0xbd0cc1c1	-0.034364466
32	0x3d4d08cd	0.05005722
33	0x3dd643a9	0.10462124
34	0xbe32d3f1	-0.17463662
35	0xbe6f3c0c	-0.2336275
36	0x3d1288a0	0.035774827
37	0x3dcaa0c1	0.098939426
38	0x3e01d710	0.12679696
39	0xbbbc916f	-0.0057546417
40	0xbc2127f9	-0.00983619
41	0x3dc8f179	0.09811682
42	0x3e1e488c	0.15457362
43	0x3d2884a6	0.04114213
44	0x3e3c9b4e	0.18418619
45	0xbebfa7df	-0.37432763
46	0xbe6a41c5	-0.22876652
47	0xbe80fedb	-0.2519444
48	0x3d862763	0.06550481
49	0xbd72781e	-0.059196584
50	0xbe41f762	-0.18942025
51	0x3d469b0e	0.048487715
52	0xbd80b8e4	-0.06285265
53	0xbec207b8	-0.37896514
54	0x3c4f9e9d	0.012672094
55	0x3d989d45	0.07451872
56	0xbddcaf6a	-0.10775645
57	0xbe0e493b	-0.13895123
58	0x3d8f4bab	0.069968544
59	0xbd82bfa6	-0.0638421
60	0x3d002421	0.031284455
61	0xbd418aa8	-0.047251374
62	0x3e51f004	0.20501715
63	0xbe780021	-0.24218799
64	0xbe8ec662	-0.2788573
65	0xbe499f70	-0.19689727
66	0xbd1452cb	-0.03621177
67	0xbf329832	-0.6976348
68	0x3e28b84f	0.16476558
69	0x3d96a90a	0.073564604
70	0xbe9bf25c	-0.30458343
71	0x3d77eda7	0.060529377
72	0x3b94c762	0.00454037
73	0x3d33c096	0.043884836
74	0xbcfdb4d6	-0.030970018
75	0xbd336e55	-0.043806393
76	0x3e283d6a	0.16429678
77	0xbd0bad60	-0.03410089
78	0xbdee2f22	-0.116300836
79	0xbda2fd75	-0.07958499
80	0xbeccae0b	-0.39976534
81	0x3e82f654	0.25578558
82	0x3c9ac555	0.018892923
83	0x3d0a1c32	0.033718295
84	0xbdf0bf8c	-0.11755285
85	0xbe12b42a	-0.1432654
86	0x3e228034	0.15869218
87	0xbe7781bd	-0.24170585
88	0x3e189a20	0.14902544
89	0x3da25dcd	0.07928047
90	0xbe55f297	-0.20893322
91	0x3c56142b	0.013066332
92	0xbe11fcb1	-0.1425655
93	0x3d763051	0.060104672
94	0x3aa35ab2	0.0012462942
95	0x3d232603	0.039831173
96	0xbd8359df	-0.06413626
97	0xbcefa95f	-0.029255567
98	0x3c982d92	0.018576417
99	0xbc3abc32	-0.011397408
100	0x3daaaf2c	0.08334193
101	0xbc9138b6	-0.017727237
102	0x3e4f92e1	0.20270874
103	0xbdbfd11b	-0.093660556
104	0xbd8168fd	-0.06318853
105	0x3e12229f	0.1427102
106	0xbdada08c	-0.084778875
107	0xbe74a6c5	-0.23891743
108	0x3db72cf8	0.08944124
109	0x3dccad1f	0.09993958
110	0xbcead134	-0.028664209
111	0xbe4b5724	-0.1985746
112	0x3e418bfa	0.18901053
113	0xbdb92c29	-0.09041626
114	0xbc90a21e	-0.017655428
115	0x3a80a981	0.0009816141
116	0x3ce45f42	0.027877454
117	0x3d9b767a	0.07590957
118	0xbe28374d	-0.16427346
119	0xbece9549	-0.4034827
120	0x3c588d0e	0.013217224
121	0x3e22fe0d	0.15917225
122	0x3e30c7a8	0.17263663
123	0xbd517d20	-0.05114472
124	0x3da6ff05	0.0815411
125	0xbeb03c23	-0.3442088
126	0xbe1c94c1	-0.1529112
127	0x3db62af9	0.08894915
128	0x3e985024	0.29748642
129	0xbc016ff7	-0.00790023
130	0xbda8b026	-0.08236723
131	0xbd88c414	-0.06678024
132	0x3dd48b3e	0.10378121
133	0xbe5151d8	-0.20441377
134	0xbd78499f	-0.060617086
135	0x3cb746e8	0.022372678
136	0x3e029fc9	0.12756266
137	0xbd8654a4	-0.06559113
138	0xbd9bf3f4	-0.0761489
139	0xbe3806af	-0.179713
140	0xbe585b5a	-0.21128598
141	0xbd01fa14	-0.031732634
142	0xbd5f5d95	-0.054532606
143	0x3d572c94	0.052532747
144	0xbee7f306	-0.453026
145	0x3de089a5	0.109637536
146	0xbc92b0c4	-0.017906554
147	0xbda62155	-0.08111826
148	0x3d00b135	0.031418998
149	0xbb74b95a	-0.0037341923
150	0xbe43ec12	-0.19133022
151	0x3e046aa8	0.12931311
152	0x3d89a0c4	0.06720117
153	0xbd5b19ac	-0.05349128
154	0xbe26172d	-0.16219778
155	0x3d264f16	0.040602766
156	0x3e02eccf	0.12785648
157	0x3e97d8d6	0.2965762
158	0xbe13330a	-0.14374939
159	0xbe23c65b	-0.15993635
160	0xbd2367f7	-0.03989407
161	0x3dd00934	0.10158005
162	0xbd2740e5	-0.040833373
163	0x3d18675d	0.03720795
164	0x3bc989a1	0.00615044
165	0xbd6e3e30	-0.058164775
166	0xbd3cdbb4	-0.046107963
167	0x3d303220	0.043016553
168	0x3e264038	0.16235435
169	0x3ca3efc0	0.020011783
170	0x3cda7203	0.026665693
171	0x3d1841a5	0.03717198
172	0xbe01c446	-0.12672529
173	0xbc9a054f	-0.01880136
174	0x3dc4d5b2	0.09611072
175	0xbda0fec8	-0.07861096
176	0xbe6f19e2	-0.23349717
177	0xbe120504	-0.14259726
178	0xbe374cfc	-0.17900461
179	0xbe2b65f6	-0.16738114
180	0x3d3a9afe	0.04555797
181	0xbcb23502	-0.021753792
182	0x3df21e96	0.1182224
183	0xbcb9a99e	-0.022663888
184	0xbddc1991	-0.10747064
185	0x3c9e9f91	0.019363197
186	0xbadfaae8	-0.0017064484
187	0x3d4d2253	0.050081562
188	0x3dc6f54f	0.09714758
189	0x3dba3712	0.09092535
190	0x3e117c2c	0.14207524
191	0xbe00ff40	-0.1259737
192	0x3c9aa85b	0.018879106
193	0xbe0a69b8	-0.13516891
194	0x3d069388	0.03285554
195	0xbd3e8595	-0.046514113
196	0x3d690b3c	0.05689548
197	0xbe0cfcbc	-0.13768286
198	0xbd0a6d04	-0.03379537
199	0xbd42b56f	-0.04753631
200	0xbd099152	-0.033585854
201	0xbd2dfac5	-0.04247548
202	0x3b691acf	0.0035568958
203	0xbe92d03c	-0.28674495
204	0xbd6e1e58	-0.058134407
205	0x3da6cc3c	0.08144423
206	0x3dd6c005	0.104858436
207	0x3d65efa8	0.056136757
208	0x3e73e1e8	0.23816645
209	0xbcab83ce	-0.020936873
210	0x3e3cecb0	0.18449664
211	0x3df99774	0.121870905
212	0x3e8f1a42	0.2794972
213	0xbdc9000d	-0.09814463
214	0x3da2fe45	0.07958654
215	0xbe50952f	-0.20369409
216	0xbd87ff92	-0.06640543
217	0xbdf530f8	-0.11972231
218	0x3a4a47f5	0.0007716411
219	0xbe4fe212	-0.20301083
220	0x3c3462f5	0.011009921
221	0xbdf0cc69	-0.11757738
222	0xbd798d46	-0.060925744
223	0x3bcbb7d2	0.0062169814
224	0x3d8e32d9	0.06943292
225	0xbdaffe21	-0.08593393
226	0x3d7492da	0.05971036
227	0xbe555acf	-0.20835422
228	0xbedaa816	-0.42706364
229	0xbd1c542a	-0.038166203
230	0x3ded8835	0.11598245
231	0xbe3ba423	-0.18324332
232	0xbdae89fc	-0.08522412
233	0xbe91dc66	-0.28488463
234	0x3d02c9bb	0.031930666
235	0x3e84ec6d	0.2596163
236	0x3d895163	0.067049764
237	0xbe139fef	-0.14416479
238	0x3d2fdfd0	0.042938054
239	0x3da4c135	0.08044664
240	0x3dd5e8bf	0.104447834
241	0x3c90f741	0.017696025
242	0x3d45d3df	0.04829776
243	0x3d62641d	0.055271257
244	0xbdeabfea	-0.11462386
245	0xbdfeed7f	-0.124476425
246	0x3da6abf9	0.0813827
247	0xbe0bea25	-0.13663538
248	0x3db58ee6	0.08865146
249	0xbe903196	-0.2816283
250	0xbeda5e86	-0.4265024
251	0xbe2f4573	-0.17116337
252	0x3e6cb4b4	0.23115808
253	0xbde7e760	-0.11323428
254	0xbe7680cc	-0.2407257
255	0xbde708cb	-0.11280974

l2.bias f4 [200]
0	0xbdb399c6	-0.08769564
1	0xbd9445ef	-0.07239901
2	0xbdab283d	-0.08357284
3	0xbe0786d4	-0.13235027
4	0xbe0445c4	-0.12917238
5	0xbe1dd835	-0.15414508
6	0x3da90289	0.08252437
7	0xbe4382f9	-0.19092931
8	0x3e27deb6	0.16393551
9	0xbdc29d6f	-0.09502684
10	0x3da44728	0.080213845
11	0xbe04861c	-0.12941784
12	0xbe9881aa	-0.29786426
13	0xbd3be386	-0.04587128
14	0xbe208bb9	-0.156783
15	0x3c3f6a95	0.011683126
16	0xbf09d0b3	-0.53834075
17	0xbdd9d27a	-0.10635848
18	0x3e009105	0.1255532
19	0x3e179b1e	0.14805266
20	0xbdcc2aea	-0.09969123
21	0x3d744231	0.059633438
22	0xbe2633a0	-0.16230631
23	0x3d27890b	0.04090218
24	0xbdb41e57	-0.08794849
25	0xbe4b520b	-0.19855516
26	0xbe020a48	-0.12699234
27	0xbe9aa565	-0.3020431
28	0xbd2be286	-0.041964076
29	0x3d8a8a87	0.06764703
30	0x3ea65836	0.32489175
31	0xbc94bcaa	-0.018156368
32	0x3c3ab0bd	0.011394677
33	0xbd8287c4	-0.063735515
34	0xbe3532e9	-0.17695202
35	0x3ebc2999	0.36750486
36	0xbd9c3a29	-0.07628281
37	0xbdd8c6ed	-0.10584817
38	0xbdeb0473	-0.11475458
39	0xbea09204	-0.313614
40	0xbd642efe	-0.055708878
41	0x3d09a7ab	0.033607166
42	0xbd9bf582	-0.07615186
43	0x3e5d1437	0.21589743
44	0xbd0c0a13	-0.034189295
45	0x3cd52ea6	0.02602322
46	0x3e83a6ed	0.25713292
47	0xbccb9000	-0.024848938
48	0x3c7ad1cf	0.015308811
49	0xbecd5f34	-0.40111697
50	0x3e076d4e	0.1322529
51	0x3e5ab580	0.213583
52	0xbc2dedf7	-0.010615817
53	0xbc54f648	-0.012998171
54	0xbdcf86d4	-0.10133138
55	0x3e762c7b	0.24040405
56	0xbee264cb	-0.44217524
57	0xbd4ec3a4	-0.050479546
58	0xbdb50e7c	-0.08840653
59	0xbece236c	-0.402614
60	0x3d811793	0.063033246
61	0xbd82fd87	-0.06396013
62	0x3c981913	0.018566644
63	0xbdb22aff	-0.08699607
64	0xbdf60047	-0.12011772
65	0xbd7f230e	-0.06228929
66	0xbdfc074c	-0.12306079
67	0xbd0bb945	-0.034112234
68	0x3e315203	0.17316441
69	0xbdd74d8a	-0.10512836
70	0x3ca1fe80	0.019774675
71	0xbcaeefc8	-0.021354571
72	0x3e79f5cd	0.24410172
73	0x3d898d98	0.0671646
74	0x3da2f2e1	0.07956482
75	0x3e5ac399	0.21363677
76	0xbcbd9323	-0.02314145
77	0xbd56ddeb	-0.05245773
78	0xbdfc62e9	-0.12323553
79	0xbdbe8e2e	-0.093044624
80	0xbe1a4266	-0.15064391
81	0xbe5ba78e	-0.21450636
82	0xbcc3c8c5	-0.023899445
83	0xbd3b2907	-0.045693424
84	0xbe3208c1	-0.17386152
85	0xbe0cc07e	-0.13745305
86	0x3dac18b5	0.0840315
87	0x3e40e837	0.18838583
88	0xbd40b1a3	-0.047044408
89	0xbd853a29	-0.06505234
90	0x3c1f307a	0.009716148
91	0x3ddf1fbc	0.10894725
92	0x3c67e5ff	0.014153956
93	0xbe31faaa	-0.17380777
94	0xbe7543cb	-0.23951642
95	0x3e3f5530	0.1868484
96	0x3e02744e	0.12739679
97	0xbcceaf3c	-0.025230043
98	0xba5edff7	-0.00085020013
99	0x3ab7c19f	0.0014019496
100	0xbe6e4917	-0.23270069
101	0xbd1c1540	-0.038106203
102	0x3d43cb31	0.0478012
103	0xbcebcfe0	-0.028785646
104	0xbd874d75	-0.06606571
105	0xbd3a5c42	-0.04549814
106	0x3d87a330	0.066229224
107	0xbd987ec0	-0.07446051
108	0xbe352d82	-0.17693141
109	0x3d4d1788	0.05007127
110	0x3de05792	0.10954203
111	0xbddbac86	-0.107262656
112	0xbe1465a2	-0.14491895
113	0xbd1c9c51	-0.038235012
114	0xbe95779f	-0.29192826
115	0xbe7b9d7f	-0.24571799
116	0xbe275053	-0.16339235
117	0x3e06711a	0.13129082
118	0xbd9840de	-0.074342474
119	0x3e7fe466	0.24989471
120	0x3db0535a	0.08609648
121	0xbddde740	-0.10835123
122	0xbdaca873	-0.08430567
123	0x3e1c0d04	0.1523934
124	0x3d7c0e2f	0.061536964
125	0xbd98dc44	-0.07463887
126	0x3ce08359	0.027406381
127	0xbc057675	-0.008145918
128	0xbd89df84	-0.06732085
129	0xbe193cc0	-0.1496458
130	0x3c53b20e	0.0129208695
131	0x3d359c0e	0.04433828
132	0x3e441059	0.19146861
133	0xbe03d04d	-0.12872429
134	0x3d252496	0.040318094
135	0xbdff4655	-0.12464587
136	0xbd04bb21	-0.032405023
137	0x3b240e96	0.0025033108
138	0xbc2f1a21	-0.010687382
139	0xbba863fb	-0.0051388717
140	0xbd2a8985	-0.041635055
141	0xbd85b05d	-0.06527779
142	0x3c838272	0.016053412
143	0x3c84bedc	0.01620429
144	0xbdceb57c	-0.10093209
145	0x3bea15ce	0.0071437126
146	0x3d1c05d5	0.0380915
147	0x3e2eacac	0.17058057
148	0xbca51124	-0.020149775
149	0x3e3716e7	0.1787983
150	0xbccfc624	-0.025363036
151	0x3bff1b7b	0.0077852583
152	0xbe85abfe	-0.26107782
153	0xbcf05ebf	-0.029342053
154	0x3e09683f	0.13418673
155	0xbcdb206d	-0.02674886
156	0xbdda03a9	-0.10645229
157	0xbd5ef147	-0.05442932
158	0x3d21a317	0.039462175
159	0x3e16d2a7	0.14728795
160	0x3cf4192f	0.029797165
161	0x3dac1c8b	0.08403882
162	0xbe0d9c11	-0.13829066
163	0x3de1a812	0.11018385
164	0x3cd3e5f5	0.025866488
165	0xbed3d88e	-0.41376156
166	0x3c1122c6	0.008858388
167	0x3c32723a	0.010891492
168	0xbe9803a9	-0.29690292
169	0xbd0ba482	-0.034092434
170	0x3e5251e7	0.20539056
171	0xbd09fdeb	-0.03368942
172	0xbe0c25d9	-0.13686313
173	0x3c1a0ff5	0.0094032185
174	0xbd01a95f	-0.031655665
175	0x3e3cfeb7	0.18456541
176	0xbeb30e67	-0.34971926
177	0xbd7ae2b6	-0.061251365
178	0xbec6fc69	-0.3886445
179	0x3db6da75	0.08928386
180	0x3dd43577	0.1036176
181	0xbe70525a	-0.23468915
182	0xbe839ce0	-0.25705624
183	0xbdeb0a45	-0.11476568
184	0xbd858e67	-0.06521302
185	0xbe8e545a	-0.2779873
186	0xbd144e63	-0.036207568
187	0x3e54504d	0.20733757
188	0x3e058700	0.1303978
189	0xbc230ec5	-0.009952252
190	0x3e43f5ae	0.19136688
191	0xbe5aa3ce	-0.21351549
192	0x3c45a7df	0.012063949
193	0xbd896c2f	-0.067100875
194	0x3ca9e2cb	0.020738026
195	0xbd5fa4c9	-0.05460051
196	0x39a36900	0.00031168014
197	0x3e03d580	0.12874413
198	0xbd8b9f69	-0.068175144
199	0xba22e5b6	-0.0006214039

l3.weight f4 [6, 200]
0	0x3f20c050	0.62793446
1	0xbf514bac	-0.8175609
2	0x3e327626	0.17427883
3	0x3e045574	0.12923223
4	0xbea5b090	-0.3236127
5	0x3b8de1ed	0.004329911
6	0xbda969c0	-0.08272123
7	0x3dd0a9d3	0.101886414
8	0x3ec22c52	0.3792444
9	0xbd170be9	-0.036876593
10	0xbdc43457	-0.095802955
11	0xbe8a55c5	-0.27018562
12	0xbe8e4e9c	-0.2779435
13	0xbe44b6f2	-0.19210413
14	0x3e68c670	0.22731948
15	0x3c8f1f25	0.017470906
16	0x3f832d0a	1.024812
17	0xbe25b31c	-0.16181606
18	0x3e2fdb0c	0.17173404
19	0x3e65692b	0.224034
20	0x3f0dc952	0.55385315
21	0xbe028697	-0.12746654
22	0x3ebc13c1	0.3673382
23	0x3cb937a5	0.022609541
24	0xbdab1a9e	-0.08354686
25	0x3e363507	0.17793666
26	0xbecdde83	-0.40208825
27	0xbe383a9c	-0.17991108
28	0xbd3135d1	-0.043264214
29	0xbeb6350d	-0.3558735
30	0x3e810e07	0.25206015
31	0x3c23e39e	0.010002999
32	0x3e2d5ed7	0.1693071
33	0x3eabe8ba	0.33575994
34	0x3e05af2a	0.13055101
35	0x3e5e9a43	0.21738534
36	0xbe2b9eca	-0.16759792
37	0x3dc378cb	0.09544524
38	0xbdf6d696	-0.12052648
39	0xbddc1466	-0.10746078
40	0xbedca7f8	-0.430969
41	0x3d5e21ae	0.05423134
42	0x3e942d05	0.28940597
43	0x3e009175	0.12555487
44	0xbd41febf	-0.047362085
45	0x3f1703f7	0.58990425
46	0x3f837dd7	1.0272778
47	0x3c972dac	0.018454395
48	0xbc144391	-0.009049312
49	0xbe68dc57	-0.22740303
50	0xbe00672a	-0.12539354
51	0x3ea5d5fc	0.3238982
52	0xbb364a9d	-0.002781547
53	0x3d094af0	0.03351873
54	0xbefc8f26	-0.49327964
55	0x3e3f318e	0.18671247
56	0xbf599190	-0.84987736
57	0x3e871a94	0.26387465
58	0xbd3d7451	-0.046253506
59	0xbe363d48	-0.17796814
60	0xbe6dd480	-0.23225594
61	0xbd671780	-0.056418896
62	0xbe25c9e2	-0.16190293
63	0xbd8df982	-0.069323555
64	0xbd5f9885	-0.054588813
65	0x3e1ba025	0.15197809
66	0x3db099f9	0.08623118
67	0x3d9d8aaf	0.076924674
68	0x3df2faea	0.11864264
69	0x3e91cf6d	0.28478566
70	0xbd5b239d	-0.05350076
71	0x3dd484ff	0.103769295
72	0x3e491b8a	0.19639412
73	0xbe93556f	-0.28776118
74	0xbeac8186	-0.3369257
75	0x3f5ab7c1	0.85436636
76	0xbdf8a0ad	-0.121400215
77	0x3cdca8ac	0.026935898
78	0x3b1e20e6	0.0024128496
79	0xbe9f8325	-0.31154743
80	0xbe512007	-0.20422374
81	0x3ead42c9	0.33840016
82	0x3e6c7ac5	0.23093708
83	0xbd4a30e7	-0.049363043
84	0x3e1d175b	0.1534094
85	0xbe2c539c	-0.1682877
86	0xbea19768	-0.31560826
87	0x3ea9b715	0.33147493
88	0xbda65414	-0.081215054
89	0xbf32cc16	-0.6984266
90	0xbcc0399e	-0.023464974
91	0xbd853184	-0.06503585
92	0xbc126ecf	-0.008937552
93	0xbe315d35	-0.17320712
94	0x3ece3884	0.40277493
95	0xbe73af52	-0.23797348
96	0x3d15d735	0.03658219
97	0xbdff0076	-0.1245126
98	0xbe39b704	-0.18136221
99	0x3d475dc4	0.048673406
100	0x3e20cbc1	0.15702726
101	0x3da82a1a	0.08211155
102	0x3ed563e2	0.41677767
103	0xbeaffde3	-0.34373388
104	0xbc25daaf	-0.010122939
105	0xbd2fa0d7	-0.042878
106	0x3e6209a6	0.22073993
107	0x3da1e0d5	0.079042114
108	0x3e81a1f7	0.25318882
109	0xbdd2b6de	-0.102887854
110	0xbf01db1a	-0.5072495
111	0x3dcc1dc5	0.099666156
112	0x3e716fd2	0.23577812
113	0x3bd8e232	0.0066187615
114	0x3f17bce6	0.5927261
115	0xbe8b2700	-0.27178192
116	0x3ee65450	0.449862
117	0xbdd3e766	-0.1034687
118	0xbcceb53f	-0.02523291
119	0x3e128b1e	0.14310881
120	0xbe685b57	-0.22691093
121	0x3f02a62a	0.51034796
122	0xbe2ccf2b	-0.16875903
123	0x3f0049d5	0.5011266
124	0xbd953b91	-0.07286752
125	0x3e077c6f	0.13231061
126	0xbc737eca	-0.014861772
127	0x3d7c0e39	0.061537
128	0xbed10512	-0.4082418
129	0x3e9211eb	0.28529295
130	0xbd2bdab5	-0.041956622
131	0xbe074555	-0.13210042
132	0x3c9eb886	0.019375097
133	0xbe3eb875	-0.18625052
134	0xbe82b1da	-0.25526315
135	0x3ea87dc3	0.3290845
136	0xbe51bf56	-0.20483145
137	0xbbfba8a8	-0.0076800175
138	0x3dd7c585	0.10535721
139	0x3dabe286	0.08392815
140	0x3f83d40f	1.029909
141	0x3f19f99a	0.60146487
142	0x3d12093f	0.03565335
143	0x3d438948	0.047738343
144	0x3e7efb5d	0.24900575
145	0xbe91db10	-0.28487444
146	0x3a79b6bf	0.00095258275
147	0x3d887c63	0.0666435
148	0x3e31ea93	0.17374639
149	0x3e799d5e	0.24376437
150	0x3d120558	0.035649627
151	0x3d200f23	0.039076935
152	0xbf32e7d8	-0.69885015
153	0x3eef646f	0.46756312
154	0xbe9fb6d4	-0.31194174
155	0x3cadb35e	0.021203693
156	0xbe735149	-0.23761477
157	0x3da5c7e8	0.0809477
158	0x3f1b69f1	0.6070853
159	0x3db3017a	0.08740516
160	0x3e18b2dd	0.14911981
161	0xbeefb0de	-0.46814626
162	0xbdce2045	-0.10064749
163	0x3da7072d	0.081556655
164	0x3e8d4df4	0.27598536
165	0xbe303608	-0.17208111
166	0x3c9f578a	0.019450922
167	0xbb5e1a28	-0.0033890102
168	0xbe40276e	-0.18765041
169	0xbd2487ae	-0.040168457
170	0x3c5f4caf	0.013629123
171	0x3dda009e	0.10644649
172	0x3de3a44b	0.11115321
173	0x3c2c9636	0.01053386
174	0x3d27e694	0.04099138
175	0x3deb5d71	0.11492432
176	0xbe2dae51	-0.16961028
177	0x3edd9123	0.43274793
178	0xc0124226	-2.2852874
179	0xbe88dc4e	-0.2673058
180	0xbd52c046	-0.051452897
181	0xbb15ae9f	-0.0022839678
182	0xbe291b07	-0.16514216
183	0xbecdb4c8	-0.40176988
184	0x3e14e31b	0.14539759
185	0xbd5a5905	-0.053307552
186	0xbcc10bee	-0.023565259
187	0x3f21466b	0.62998074
188	0x3eb6b720	0.35686588
189	0xbf064b30	-0.5245848
190	0xbd9d4ce5	-0.07680682
191	0xbea5d1d9	-0.32386664
192	0xbda6786b	-0.08128437
193	0xbd9a99f3	-0.07548895
194	0xbee574fd	-0.44815817
195	0x3e4eb605	0.20186622
196	0x3e18c01e	0.14917037
197	0xbd27dacb	-0.04098014
198	0xbf1ec989	-0.6202627
199	0xbd357b95	-0.04430731
200	0xbd3fdb6f	-0.046840128
201	0x3d54a735	0.051917274
202	0xbde1ccb5	-0.11025373
203	0x3e80dfda	0.25170785
204	0x3f14c479	0.58112293
205	0xbf2f6884	-0.68518853
206	0x3e64966c	0.22323006
207	0xbe776e6f	-0.24163221
208	0x3d4b5dfc	0.049650177
209	0x3ebd5046	0.36975306
210	0xbd5065d9	-0.05087838
211	0xbe631074	-0.22174245
212	0xbf1b68a2	-0.6070653
213	0x3efe7324	0.4969722
214	0xbeca76cc	-0.3954376
215	0xbd425c7f	-0.047451492
216	0x3f52fc39	0.8241611
217	0xbe78663d	-0.24257751
218	0x3dfee337	0.124456815
219	0xbdf96e9a	-0.12179299
220	0x3e151cc0	0.14561749
221	0xbdd9ae17	-0.10628908
222	0xbe623802	-0.22091678
223	0x3ec6e25e	0.3884458
224	0xbe18e769	-0.14932026
225	0x3f0b972f	0.5452756
226	0xbe3f62bf	-0.18690012
227	0xbec99a73	-0.39375648
228	0xbc06b2de	-0.008221356
229	0xbebeb329	-0.37246063
230	0x3db49535	0.088175215
231	0xbd894ed8	-0.067044914
232	0xbe2a7601	-0.16646577
233	0xbd6dbea6	-0.058043145
234	0xbf0fe45b	-0.5620782
235	0x3e4e7464	0.20161587
236	0xbed4382f	-0.41449115
237	0x3e76d636	0.24105152
238	0x3f1332fd	0.57499677
239	0xbe339943	-0.17538933
240	0xbf451c7a	-0.76996577
241	0xbe931bef	-0.2873225
242	0x3e83cf4b	0.2574409
243	0x3eea207f	0.45727918
244	0xbda3b0d7	-0.07992714
245	0xbe73d16b	-0.23810355
246	0x3f3a060a	0.72665465
247	0xbd3cbefb	-0.04608057
248	0xbd781a7d	-0.060572136
249	0xbdb941d0	-0.09045756
250	0x3e5dfcf6	0.21678528
251	0xbed65dc7	-0.4186842
252	0x3c9266ff	0.017871378
253	0xbc66c106	-0.014084106
254	0x3f189d3b	0.59614915
255	0xbce190f6	-0.027534943

l3.bias f4 [6]
0	0x3e0adacd	0.13560028
1	0x3c940030	0.018066496
2	0xbd0a4319	-0.033755396
3	0x3e0f762f	0.14009927
4	0x3ca20bd8	0.019781038
5	0xbdb8480c	-0.08998117
