DDPG/local_checkpoint/Walker2d-v2(orginal)/('target_actor', 14).ckpt (torch, 705111 bytes, 6 tensors)

l1.weight f4 [800, 17]
0.05085969 0.33451608 -0.40728152 0.3775176 0.066895254 0.68245775 -0.06612163 -0.0022250155
-0.5983107 -0.027296042 0.008671033 0.10984694 0.029795563 -0.059567668 -0.11050495 0.02433211
-0.13909826 -0.19047494 -1.8366369 0.96485114 0.89141023 0.45258263 -0.08078436 0.09186421
0.1900972 -0.14550233 0.20186616 -0.10796535 -0.057624623 -0.052332524 0.018164895 -0.16447952
0.051177222 0.031638972 -0.18522324 -0.3362724 0.2877215 -0.081762575 0.81567156 1.1040406
0.98439133 0.058415007 -0.27651104 0.52773386 0.01615073 0.06048692 -0.22750989 -0.001777196
0.22061591 0.19594768 0.014537241 0.55730575 0.062395547 0.06754555 -0.55592406 -0.1382916
0.2953393 0.056260888 -0.14422294 0.14863063 0.046839576 -0.14069131 -0.08961839 0.031496704
-0.011758397 0.19869106 0.10488491 -0.015240427 0.48657346 -1.0512906 0.60802233 0.0192717
0.28406057 0.21256311 -1.1003249 0.073256224 -0.5774978 -0.5022767 -0.13017716 0.028573321
-0.092485845 0.01322036 0.21639685 -0.06011691 0.029802524 -0.59092015 0.10508194 -0.35889116
-0.15362802 -0.09719646 -0.16215186 -0.24183328 0.23734498 0.4248679 -0.062092103 0.04857678
-0.12367922 -0.04090439 0.0061217546 0.08514693 0.13989697 -0.0028168121 -0.80256057 0.76081955
0.16694267 -0.6109249 -0.32412252 -0.81907403 -0.83659375 0.09740701 0.23800565 -0.30170774
0.19575404 -0.08466025 -0.11161345 -0.0074005513 -0.056224655 -0.04579644 0.015043819 -0.061267514
-0.4509356 1.0391687 0.3053742 -0.005387616 0.7561397 -0.0035062414 0.3382249 -0.026572477
-0.13775446 0.19297174 0.101775415 0.13140458 -0.14748229 -0.012331259 0.15987052 0.09448439
-0.5548813 0.5983416 -0.5310238 0.4609073 -0.62980974 0.813409 -0.13527554 -0.27258384
-0.07681689 -0.15859905 0.029724637 0.05678499 -0.07883573 -0.07164894 -0.10596113 -0.045893375
0.050314322 -0.6535811 0.5958618 -0.38626587 -0.5629757 0.32913825 -0.62123847 0.081319824
0.30635408 -0.00775303 0.026974436 0.2805729 -0.06781966 -0.06525102 -0.047485117 -0.10837988
-0.18450695 0.05861536 0.100891665 0.22832808 -0.47006816 0.41618744 0.27073085 -0.16617642
0.37081018 0.4784136 -0.025637098 0.110153645 -0.040306736 0.041444927 -0.114847794 -0.09461731
0.012969998 0.17485043 -0.09987327 0.5092055 -0.6593882 -0.10442157 0.4936739 -0.041023444
0.54458433 -0.91251767 0.33374432 -0.09197431 1.1702737 -0.055728596 0.025600562 0.19653124
-0.008670675 0.052583456 0.017751865 0.026983166 -0.34265918 -0.02130703 -0.61145127 0.6488597
-0.37898457 1.501662 0.46156412 -0.4702583 -0.18900442 0.31886432 -0.01218282 -0.05495675
0.123124175 0.056059178 0.100246616 -0.12998219 -0.035087697 -0.11300098 -0.48195368 -0.4334143
-0.63819647 -0.08710411 -0.043056108 -0.088627085 -0.11660009 -0.9311584 0.10301583 -0.15906985
0.133371 0.16793528 -0.020793816 0.2299953 0.0897941 0.026480783 -0.15049273 0.30983266
0.12433261 -0.19069648 -0.29422918 1.0504054 0.096279524 -0.5506339 -0.20214482 -0.41829294
-0.09396574 -0.08354779 0.15057503 -0.012228341 0.03662856 0.03906647 0.07066619 -0.019489577
00000000: 4052 503d b145 ab3e 3487 d0be fd49 c13e
00000010: 6100 893d 8db5 2e3f c76a 87bd 91d1 11bb
00000020: e42a 19bf f39b dfbc f310 0e3c 6ff7 e03d
00000030: d315 f43c 3afd 73bd 6b50 e2bd 2254 c73c
00000040: c66f 0ebe dd0b 43be eb16 ebbf 7c00 773f
00000050: 7633 643f e9b8 e73e 4572 a5bd 4e23 bc3d
00000060: d7a8 423e 90fe 14be 01b6 4e3e f01c ddbd
00000070: cc07 6cbd a15a 56bd 8cce 943c 526d 28be
00000080: 359f 513d de97 013d 29ab 3dbe e52b acbe
00000090: 3c50 933e 2373 a7bd dacf 503f 3451 8d3f
000000a0: 1201 7c3f 9344 6f3d db92 8dbe 9119 073f
000000b0: 894e 843c 22c1 773d 5af8 68be cdf0 e8ba
000000c0: 23e9 613e 82a6 483e 9c2d 6e3c 97ab 0e3f
000000d0: 7992 7f3d 5255 8a3d 0a51 0ebf 509c 0dbe
000000e0: b636 973e d171 663d 2eaf 13be a132 183e
000000f0: dbda 3f3d 6211 10be d989 b7bd b002 013d
00000100: 4ba6 40bc ab75 4b3e e6cd d63d fcb2 79bc
00000110: 2820 f93e b190 86bf 5aa7 1b3f afdf 9d3c
00000120: 6370 913e 25aa 593e 72d7 8cbf 5c07 963d
00000130: e5d6 13bf 3595 00bf 294d 05be 9912 ea3c
00000140: 3869 bdbd 359a 583c 2397 5d3e 263d 76bd
00000150: 6c24 f43c 8b46 17bf 3335 d73d 95c0 b7be
00000160: aa50 1dbe f00e c7bd 230b 26be 25a3 77be
00000170: 900a 733e 4988 d93e 4a54 7ebd 72f8 463d
00000180: 884b fdbd 5d8b 27bd 0099 c83b 8361 ae3d
00000190: 2741 0f3e 449a 38bb 9c74 4dbf 12c5 423f
000001a0: 05f3 2a3e 9365 1cbf 63f3 a5be d6ae 51bf
000001b0: 022b 56bf 547d c73d c1b7 733e 7079 9abe
000001c0: bf73 483e 5a62 adbd 9895 e4bd 5380 f2bb
000001d0: d34b 66bd 0c95 3bbd 5a7a 763c a5f3 7abd
000001e0: 08e1 e6be 7b03 853f 025a 9c3e 998a b0bb
000001f0: 5f92 413f f8c8 65bb d02b ad3e 86ae d9bc
00000200: 810f 0dbe 629a 453e a16f d03d ec8e 063e
00000210: 9905 17be 0d09 4abc 19b5 233e 0881 c13d
00000220: b30c 0ebf ea2c 193f 2df1 07bf 0bfc eb3e
00000230: 363b 21bf 923b 503f ac85 0abe 1c90 8bbe
00000240: 2c52 9dbd ca67 22be 1581 f33c 6197 683d
00000250: a174 a1bd aebc 92bd 2602 d9bd b1fa 3bbd
00000260: 6416 4e3d 1751 27bf 668a 183f a4c4 c5be
00000270: 2d1f 10bf cf84 a83e 7c09 1fbf 028b a63d
00000280: 71da 9c3e 210d febb 7ef9 dc3c 40a7 8f3e
00000290: 09e5 8abd 54a2 85bd c17f 42bd 45f6 ddbd
000002a0: 64ef 3cbe a916 703d 4aa0 ce3d d6ce 693e
000002b0: c6ac f0be 8516 d53e 3c9d 8a3e 272a 2abe
000002c0: d5da bd3e a1f2 f43e e404 d2bc 3c98 e13d
000002d0: ad18 25bd 28c2 293d 5235 ebbd b8c6 c1bd
000002e0: 1d80 543c fe0b 333e 5b8a ccbd 4b5b 023f
000002f0: aacd 28bf fada d5bd d3c2 fc3e 3308 28bd
00000300: e169 0b3f c29a 69bf 89e0 aa3e 075d bcbd
00000310: 87cb 953f ab43 64bd 45b8 d13c 7c3f 493e
00000320: 720f 0ebc c061 573d 5c6c 913c cd0b dd3c
00000330: 0671 afbe 158c aebc 1288 1cbf ab1b 263f
00000340: 440a c2be 7636 c03f 2252 ec3e b2c5 f0be
00000350: 608a 41be 2f42 a33e 739a 47bc 541a 61bd
00000360: 8728 fc3d 4f9e 653d 194e cd3d 0d1a 05be
00000370: 1eb8 0fbd 0f6d e7bd a2c2 f6be 7be8 ddbe
00000380: d860 23bf a463 b2bd 9a5b 30bd 1e82 b5bd
00000390: 07cc eebd 6660 6ebf f7f9 d23d 35e3 22be
000003a0: 6892 083e 3af7 2b3e cb57 aabc e383 6b3e
000003b0: f8e5 b73d 3aee d83c c41a 1abe 63a2 9e3e
000003c0: 18a2 fe3d f045 43be 35a5 96be af73 863f
000003d0: 332e c53d 58f6 0cbf 0dff 4ebe 7e2a d6be
000003e0: 1c71 c0bd 1b1b abbd 5730 1a3e 6159 48bc
000003f0: d407 163d 2a04 203d 6fb9 903d 9ba8 9fbc

l1.bias f4 [800]
-0.18804716 0.021330876 -0.07559187 -0.11946076 0.4430842 -0.20943563 -0.43509358 -0.5236026
0.18067981 -0.3641891 -0.6501044 0.027687673 -0.059680846 0.08293256 -0.0447873 0.12277353
-0.023523262 -0.1554284 0.3783305 -0.39553377 -0.08873694 -0.094535455 -0.17548157 0.40696886
0.13002706 -0.2021674 0.112787314 -0.24667923 0.05466159 -0.22641048 -0.06446427 0.2754352
-0.43660894 0.26768395 0.1690968 -0.47479522 0.36121747 -0.29807416 -0.60842943 -0.028160144
-0.1676323 -0.39694744 -0.75325525 -0.40989202 0.07712187 -0.21620558 0.0971489 -0.12565863
-0.03817541 -0.3447227 0.11782631 0.017224194 -0.044126943 0.08219386 -0.14807533 -0.08481141
-0.24985857 0.093356 -0.09993388 -0.62064564 -0.2896461 -0.09419487 -0.3629979 0.24193434
-0.21710765 0.17256157 0.3335261 0.40437806 -0.43977356 0.0028828583 0.034048967 -0.26742655
0.16247475 -0.123000585 0.48279065 0.2435052 -0.091531426 -0.10850655 -0.07329605 0.116004564
0.1160136 -0.4503029 -0.12229732 0.15039727 0.19285908 0.03594257 -0.222603 0.24827427
-0.03095379 -0.19560836 -0.041583233 0.68861246 0.0029517692 -0.49712148 -0.22149569 0.33777374
-0.2808903 -0.119709514 0.007812671 0.21085536 0.14040822 0.016038489 -0.35262814 -0.0774004
-0.07060116 -0.29883775 -0.08836005 -0.29371953 -0.05037169 -0.1856636 -0.58601 -0.28158966
-0.39972213 -0.2752857 -0.10964952 -0.35519052 0.06095348 -0.37698162 0.0727383 0.06704735
0.07215922 -0.08487231 -0.46306306 -0.14522155 0.06594722 0.2806755 0.21992306 -0.26394436
-0.1488014 -0.18150125 0.04177635 0.03601648 -0.13818769 -0.37213224 0.25010028 -0.33548337
-0.11344507 -0.0035751553 0.009207017 0.22630845 0.22370785 0.37115642 -0.10289894 -0.50023866
0.010225946 -0.5637701 0.30293548 -0.34824955 -0.21296072 0.33329615 0.32386643 -0.2589997
-0.03667675 -0.25387272 -0.21257718 0.3335878 -0.1915311 -0.3256747 0.102735005 0.062228635
0.36569184 -0.33391038 -0.09780703 -0.36935547 -0.2676069 0.36153236 -0.37627345 -0.07081009
0.019255962 -0.29698408 0.069493964 -0.50094306 -0.07978226 -0.19688578 -0.09233526 -0.50919753
0.3338783 0.035749033 0.35689908 0.049769945 -0.4400038 0.060361233 -0.43097183 -0.34797925
0.22162804 -0.13400541 0.19182713 0.31032965 -0.3453758 0.11203277 0.12017534 -0.11597289
-0.40626493 0.04155433 -0.20267834 -0.33563045 0.16282038 0.026131732 -0.05791906 -0.31900302
-0.14393593 0.09581179 0.05807647 -0.70270497 -0.4571643 -0.48283407 0.15263341 -0.21753554
-0.0990346 -0.44290292 -0.4068148 -0.3866705 0.28639486 -0.40837118 -0.36888027 -0.006143138
0.030263701 -0.16793433 -0.31699485 0.023720445 -0.35761115 -0.20252 -0.39020726 -0.16127461
-0.5257732 -0.0465323 -0.3717611 -0.09306297 0.09732759 0.45565242 -0.15897058 0.09702006
0.18355337 -0.031669952 -0.103389144 -0.29500204 -0.0939381 0.18947476 -0.026788477 -0.29844174
-0.22007063 -0.30333278 -0.41883093 0.2390521 0.09853459 0.016062727 -0.5705969 -0.3415352
0.36106488 0.1373406 -0.606164 0.23565462 0.098330624 0.10234698 0.22409104 -0.57627773
00000000: 6f8f 40be 17be ae3c e9cf 9abd d8a7 f4bd
00000010: efdb e23e 4b76 56be 96c4 debe d20a 06bf
00000020: 2104 393e fe76 babe 3e6d 26bf 42d1 e23c
00000030: e773 74bd 8cd8 a93d e372 37bd b070 fb3d
00000040: dbb3 c0bc 9f28 1fbe 89b4 c13e 6783 cabe
00000050: b6bb b5bd ce9b c1bd 71b1 33be 395e d03e
00000060: d025 053e f904 4fbe 09fd e63d 7b99 7cbe
00000070: d5e4 5f3d 26d8 67be d805 84bd d805 8d3e
00000080: 358b dfbe df0d 893e b627 2d3e 5c18 f3be
00000090: 7ff1 b83e 2d9d 98be 08c2 1bbf 1ab0 e6bc
000000a0: cda7 2bbe b23c cbbe 56d5 40bf 5edd d1be
000000b0: 12f2 9d3d ff64 5dbe 01f6 c63d a8ac 00be
000000c0: d25d 1cbd 7e7f b0be ec4e f13d c119 8d3c
000000d0: 74be 34bd 4155 a83d 0fa1 17be 9bb1 adbd
000000e0: edda 7fbe 6e31 bf3d 22aa ccbd a2e2 1ebf
000000f0: 7e4c 94be 3de9 c0bd dcda b9be a3bd 773e
00000100: 7851 5ebe fbb3 303e efc3 aa3e a40a cf3e
00000110: 002a e1be 56ee 3c3b ee76 0b3d 22ec 88be
00000120: c85f 263e bbe7 fbbd 5630 f73e 6d59 793e
00000130: d474 bbbd af38 debd 3d1c 96bd cd93 ed3d
00000140: 8a98 ed3d 1a8e e6be 0477 fabd be01 1a3e
00000150: da7c 453e 8438 133d 0af2 63be 9c3b 7e3e
00000160: cd92 fdbc 8f4d 48be 2e53 2abd e848 303f
00000170: 7872 413b b586 febe c4cf 62be aef0 ac3e
00000180: dad0 8fbe 432a f5bd b800 003c 78ea 573e
00000190: 2cc7 0f3e 2663 833c ad8b b4be 1a84 9ebd
000001a0: 5797 90bd 4301 99be 1df6 b4bd 6862 96be
000001b0: 8c52 4ebd 991e 3ebe c004 16bf 852c 90be
000001c0: 61a8 ccbe 3ff2 8cbe ed8f e0bd 88db b5be
000001d0: 5baa 793d bc03 c1be d1f7 943d 1f50 893d
000001e0: 37c8 933d 89d1 adbd 9a16 edbe f5b4 14be
000001f0: 560f 873d b3b4 8f3e 8333 613e b723 87be
00000200: 655f 18be 77db 39be ae1d 2b3d 0486 133d
00000210: 1381 0dbe 1e88 bebe 250d 803e 7ac4 abbe
00000220: e455 e8bd 274d 6abb 07d9 163c 67bd 673e
00000230: ac13 653e 3708 be3e aebc d2bd a40f 00bf
00000240: ba8a 273c 3d53 10bf 5c1a 9b3e c44d b2be
00000250: 6012 5abe cba5 aa3e d2d1 a53e 9c9b 84be
00000260: 5c3a 16bd 9bfb 81be d5ad 59be 05cc aa3e
00000270: bb20 44be d6be a6be bb66 d23d 74e3 7e3d
00000280: f63b bb3e 4df6 aabe 0d4f c8bd 291c bdbe
00000290: c603 89be c51a b93e eaa6 c0be e104 91bd
000002a0: aebe 9d3c 4c0e 98be da52 8e3d ce3d 00bf
000002b0: e264 a3bd 6d9c 49be 451a bdbd c55a 02bf
000002c0: 19f2 aa3e 946d 123d 7abb b63e 92db 4b3d
000002d0: 2e48 e1be 573d 773d 57a8 dcbe 562a b2be
000002e0: 76f2 623e b738 09be 556e 443e 87e3 9e3e
000002f0: 19d5 b0be 7071 e53d 7d1e f63d 3283 edbd
00000300: f501 d0be e034 2a3d e98a 4fbe c1d7 abbe
00000310: 63ba 263e 3712 d63c 893c 6dbd 5d54 a3be
00000320: f163 13be f938 c43d 98e1 6d3d 79e4 33bf
00000330: 7011 eabe 0736 f7be ef4b 1c3e a3c1 5ebe
00000340: a7d2 cabd 2cc4 e2be 084a d0be adf9 c5be
00000350: 59a2 923e 0716 d1be e0dd bcbe 604c c9bb
00000360: 95eb f73c faf6 2bbe 264d a2be 6151 c23c
00000370: cf18 b7be 6761 4fbe 3fc9 c7be 2c25 25be
00000380: 1399 06bf a798 3ebd 7957 bebe cc97 bebd
00000390: b053 c73d 464b e93e 2fc9 22be 74b2 c63d
000003a0: 6af5 3b3e 5ab8 01bd b0bd d3bd 820a 97be
000003b0: 9e62 c0bd ac05 423e 8273 dbbc 5bcd 98be
000003c0: 325a 61be 6f4e 9bbe 0271 d6be 13ca 743e
000003d0: 81cc c93d fb95 833c a312 12bf b4dd aebe
000003e0: 7fdd b83e 04a3 0c3e 902d 1bbf 724f 713e
000003f0: 9161 c93d 4b9b d13d 1f78 653e f086 13bf

l2.weight f4 [200, 800]
-0.108826205 0.016810043 0.010697128 -0.09808162 0.103615984 0.15258254 -0.07329602 0.06135035
-0.17541575 0.042917766 0.081339635 -0.1270522 -0.2402801 -0.043283444 -0.026122434 -0.002538037
0.15013836 0.09725256 -0.15374818 -0.007744831 0.03578686 -0.028713891 0.0025859256 -0.13688588
-0.18048024 -0.034391265 0.023034407 0.09041315 -0.06981907 0.12403065 -0.07574336 0.08562709
-0.03749921 -0.008037365 -0.094797365 -0.11739593 0.08311943 0.09589722 0.09393335 0.05200903
-0.023522517 0.05253026 0.057359777 0.084272265 0.15259756 -0.30051792 -0.17389044 -0.259531
0.00305501 0.07892503 -0.16536093 0.006159563 -0.11109115 -0.13817048 0.054120302 0.041676342
-0.100374065 -0.10891066 0.098964654 0.0063353935 0.04077736 0.027508907 0.14117156 -0.07900594
-0.12447305 -0.17133503 -0.08557305 -0.5845534 0.04833311 -0.07725385 -0.1756747 -0.0138894785
-0.036735915 0.045954958 -0.0032897843 -0.055975247 0.040461637 -0.07297621 -0.029171769 0.04208724
-0.34965652 0.118810326 0.0053313076 0.08145528 -0.013186274 -0.09752894 0.09216501 -0.08914463
0.14711794 0.068035096 -0.1393511 0.10352975 -0.099746384 -0.009085202 -0.019843183 -0.0050250944
0.02291028 -0.026599197 0.04012619 0.016709376 0.02110224 -0.07107687 0.055813182 -0.1038741
0.06458226 0.092810586 0.06108456 -0.16400026 -0.03290251 0.12242013 0.059638716 -0.06091471
0.2169046 0.0310058 -0.0073452955 -0.01856438 -0.04154116 0.039204035 -0.090625845 -0.12952162
0.02150159 0.055792548 0.0747721 -0.019323945 0.113500886 -0.27453882 0.0076130214 0.07132098
0.23706736 -0.0442209 -0.086067945 -0.06291526 -0.1379693 -0.03546941 -0.017302373 0.016008181
-0.10543732 -0.023794133 -0.07190739 -0.10995147 -0.056622446 -0.0017677083 0.01875456 0.09688245
-0.3975108 -0.07225584 -0.020169407 -0.09209805 -0.008184447 -0.047172498 -0.18229368 0.076908514
-0.07437999 -0.059054907 -0.14568327 0.06421782 0.1285258 0.18541309 0.0048794895 -0.06475908
-0.03943679 0.0714393 -0.0030214912 0.03230368 0.0671296 -0.024949959 -0.12873968 0.0027085447
0.087660074 -0.086574145 0.08118095 0.096687876 -0.08732738 -0.039569035 0.049686342 0.019641971
-0.18230157 -0.18722945 -0.13140172 -0.038529143 0.042340655 0.08771772 0.05894716 0.055943478
-0.058560185 -0.010112315 -0.07842651 -0.085110724 0.032988887 0.05975167 0.05976452 0.002507043
0.105979666 -0.078365356 -0.10782081 -0.031291906 0.05316455 0.07370858 0.017307952 0.0138629945
0.06082483 0.036250737 0.077807456 -0.25545174 -0.078772396 0.049660835 0.13937707 0.025487956
0.20423095 -0.0709086 0.16290662 0.17815523 0.115097895 -0.13674018 0.07009011 0.029378679
-0.0067924 -0.1085215 0.06257236 -0.22190453 -0.008657409 -0.27750656 -0.09450304 0.06813616
0.04348327 -0.0028178727 -0.07555264 -0.16497974 -0.32360214 0.07417129 -0.021942358 -0.136728
-0.15013552 -0.41976678 0.053039167 0.19143629 0.11121178 -0.04475399 0.01827396 0.04675558
0.07960437 0.039114434 0.118782446 0.09682949 -0.042812005 0.018593552 -0.081142336 -0.091632396
0.11212172 -0.35176396 -0.19434662 -0.04524065 0.08791092 -0.10922124 -0.15512839 -0.032906003
00000000: 46e0 debd 37b5 893c 0243 2f3c 04df c8bd
00000010: 9e34 d43d 993e 1c3e 391c 96bd 814a 7b3d
00000020: 30a0 33be 8aca 2f3d 6595 a63d f919 02be
00000030: fd0b 76be fb49 31bd b7fe d5bc 3255 26bb
00000040: dfbd 193e 5a2c c73d 2a70 1dbe 5ac8 fdbb
00000050: 3e95 123d 6539 ebbc a278 293b d02b 0cbe
00000060: d0cf 38be dbdd 0cbd a7b2 bc3c 882a b93d
00000070: 4dfd 8ebd c803 fe3d 561f 9bbd 415d af3d
00000080: c698 19bd 27af 03bc 1f25 c2bd 476d f0bd
00000090: 853a aa3d c365 c43d 2160 c03d 6c07 553d
000000a0: 4bb2 c0bc f829 573d 16f2 6a3d f096 ac3d
000000b0: 8942 1c3e 7cdd 99be 5610 32be 3fe1 84be
000000c0: 9036 483b 72a3 a13d 6054 29be 29d6 c93b
000000d0: c283 e3bd 907c 0dbe 40ad 5d3d d0b4 2a3d
000000e0: eb90 cdbd 8d0c dfbd fbad ca3d 2299 cf3b
000000f0: 2906 273d 5c5a e13c 478f 103e decd a1bd
00000100: baeb febd 7372 2fbe ec40 afbd 4ba5 15bf
00000110: f0f8 453d 4437 9ebd 12e4 33be b290 63bc
00000120: 6678 16bd 443b 3c3d 6c99 57bb 4d46 65bd
00000130: 1abb 253d 8d74 95bd a2f9 eebc ab63 2c3d
00000140: 2e06 b3be d452 f33d 40b2 ae3b 07d2 a63d
00000150: 3e0b 58bc 41bd c7bd 02c1 bc3d 7691 b6bd
00000160: 16a6 163e fc55 8b3d 0eb2 0ebe 6807 d43d
00000170: d547 ccbd 19da 14bc 2c8e a2bc 8ca9 a4bb
00000180: 57ae bb3c 8fe6 d9bc 5c5b 243d 1ae2 883c
00000190: 9bde ac3c c090 91bd 5d9c 643d f2bb d4bd
000001a0: b443 843d 7a13 be3d ce33 7a3d afef 27be
000001b0: c8c4 06bd 68b7 fa3d ba47 743d b481 79bd
000001c0: 3d1c 5e3e e0ff fd3c ceb0 f0bb 5414 98bc
000001d0: 1027 2abd 6994 203d 0b9a b9bd 51a1 04be
000001e0: 1a24 b03c ba86 643d 1d22 993d 404d 9ebc
000001f0: 2773 e83d 5a90 8cbe a776 f93b bc10 923d
00000200: c9c1 723e f920 35bd 6444 b0bd b7d9 80bd
00000210: d347 0dbe 5f48 11bd b5bd 8dbc 9723 833c
00000220: 86ef d7bd eaeb c2bc 2f44 93bd 3c2e e1bd
00000230: f0ec 67bd 73b2 e7ba 2aa3 993c 4e6a c63d
00000240: 8986 cbbe dffa 93bd 503a a5bc e79d bcbd
00000250: 0f18 06bc f337 41bd 32ab 3abe 3682 9d3d
00000260: 8954 98bd 8fe3 71bd ff2d 15be a284 833d
00000270: 449c 033e eedc 3d3e 20e4 9f3b 69a0 84bd
00000280: 7988 21bd c54e 923d 3604 46bb dd50 043d
00000290: 3e7b 893d db63 ccbc 56d4 03be d781 313b
000002a0: 2087 b33d c94d b1bd 3342 a63d 4b04 c63d
000002b0: b3d8 b2bd 2413 22bd e883 4b3d 33e8 a03c
000002c0: 43ad 3abe 14b9 3fbe 2c8e 06be bcd0 1dbd
000002d0: 656d 2d3d 59a5 b33d 9472 713d fd24 653d
000002e0: cedc 6fbd 20ae 25bc 149e a0bd 884e aebd
000002f0: 5b1f 073d 2bbe 743d a4cb 743d 344d 243b
00000300: de0b d93d 047e a0bd 28d1 dcbd f12b 00bd
00000310: 12c3 593d 86f4 963d 68c9 8d3c 9d21 633c
00000320: 7523 793d a77b 143d 8459 9f3d 92ca 82be
00000330: 6c53 a1bd 2969 4b3d ddb8 0e3e 1ecc d03c
00000340: eb21 513e 8738 91bd fed0 263e 536e 363e
00000350: 72b8 eb3d 9e05 0cbe 678b 8f3d 8eab f03c
00000360: c892 debb 8540 debd f025 803d f13a 63be
00000370: ced7 0dbc 5715 8ebe cf8a c1bd f98a 8b3d
00000380: 831b 323d 0fac 38bb 58bb 9abd 73f0 28be
00000390: 2eaf a5be 1ee7 973d 76c0 b3bc 6d02 0cbe
000003a0: 20bd 19be aceb d6be 993f 593d e007 443e
000003b0: 00c3 e33d f64f 37bd 46b3 953c c782 3f3d
000003c0: 9e07 a33d 7536 203d 3644 f33d 8a4e c63d
000003d0: a45b 2fbd 8151 983c f42d a6bd c4a9 bbbd
000003e0: 13a0 e53d 681a b4be cd02 47be 434e 39bd
000003f0: a40a b43d 63af dfbd fad9 1ebe 72c8 06bd

l2.bias f4 [200]
-0.0049377563 -0.017724892 -0.029416334 -0.1370355 -0.12917238 -0.12486936 0.086263776 -0.14253864
0.14094475 0.0013715444 0.028084591 -0.1495127 -0.27689785 -0.04406123 -0.082135156 0.0141455745
-0.33869648 -0.04038125 0.028275339 0.1168547 0.024460725 0.090535395 -0.12947331 0.069720075
-0.0151435295 -0.090756804 -0.15447281 -0.23362912 -0.041964076 0.04014032 0.24070409 -0.018156368
0.03678269 0.02724549 -0.07755172 0.24064142 -0.07513638 -0.07326869 -0.04624905 -0.24848568
-0.12377544 -0.025532415 -0.043036103 0.117798306 -0.034189295 0.0038948192 0.19506675 -0.0216824
0.019231126 -0.30255225 0.024994252 0.15402375 -0.007465811 -0.009826045 -0.07944247 0.1587825
-0.3414728 -0.062923364 -0.10410694 -0.4060988 0.0650745 -0.024523089 -0.07229891 -0.09855957
-0.16397 -0.042356346 -0.12525986 -0.026661964 0.11622183 -0.052909553 0.091376014 -0.021354571
0.1653206 0.06023009 -0.01386928 0.15821439 0.010725945 -0.041829236 0.008678287 -0.12657951
-0.042362314 -0.114086874 -0.02603591 -0.10694067 -0.07883297 -0.1026007 0.09406063 0.10884756
-0.04326858 -0.023449583 0.009716148 0.039307505 0.017327478 -0.18975757 -0.21751286 0.16567534
0.07869395 0.010212917 0.029710256 0.0014019496 -0.17390592 -0.041250966 0.08176951 -0.041046403
-0.0064288336 -0.051555403 0.035536993 0.018236654 -0.14942077 0.0202818 0.08750251 -0.1827879
-0.065348625 -0.035061024 -0.24127156 -0.20750675 -0.14058547 0.15920667 -0.08671898 0.24715115
0.094459765 -0.056575816 -0.11365885 0.08875705 0.015610852 -0.12129896 0.027406381 -0.008145918
-0.103625104 -0.077658035 0.016088804 0.01299072 0.1598814 -0.096686214 -0.031262465 -0.025855392
-0.085587956 0.0025033108 -0.027634354 -0.0051388717 0.055379044 0.031654034 0.016053412 0.01620429
0.05556485 -0.06580632 0.0048446027 0.071179114 -0.018507559 0.12847297 -0.025363036 0.0077852583
-0.21788271 0.0013553075 0.05837945 -0.02674886 -0.09894231 -0.12851974 0.10190346 0.181793
0.07891341 0.054589566 -0.04918903 0.10288198 -0.032321695 -0.33322427 0.012017475 0.010891492
-0.21622309 -0.034092434 0.14334445 -0.04725787 -0.09653539 0.0094032185 -0.008378639 0.106602035
-0.2549079 -0.11499711 -0.3524171 0.10953785 0.11942487 -0.27806193 -0.20863903 -0.03265703
-0.028342834 -0.21258025 0.06379312 0.15714318 0.083015494 0.038357124 0.22036599 -0.17741619
0.036474433 -0.018696206 0.06303028 -0.06611784 0.13714534 0.03308778 -0.035212673 -0.0006214039
00000000: e7cc a1bb cb33 91bc 86fa f0bc 0953 0cbe
00000010: c445 04be 82bb ffbd 10ab b03d a6f5 11be
00000020: d253 103e 65c5 b33a a811 e63c db19 19be
00000030: 8ec5 8dbe 8c79 34bd 7a36 a8bd d7c2 673c
00000040: a069 adbe cf66 25bd afa1 e73c 8451 ef3d
00000050: dc61 c83c 9f6a b93d a794 04be 66c9 8e3d
00000060: 911c 78bc b4de b9bd 1f2e 1ebe 793c 6fbe
00000070: 86e2 2bbd 2d6a 243d 227b 763e aabc 94bc
00000080: 72a9 163d ef31 df3c 70d3 9ebd b46a 763e
00000090: 1ae1 99bd e50d 96bd a56f 3dbd 0873 7ebe
000000a0: fa7d fdbd 5b29 d1bc a046 30bd 3d40 f13d
000000b0: 130a 0cbd 3940 7f3b 94bf 473e 4a9f b1bc
000000c0: 988a 9d3c 21e8 9abe bfc0 cc3c 67b8 1d3e
000000d0: c3a3 f4bb 6bfd 20bc bcb2 a2bd e197 223e
000000e0: 86d5 aebe f7dd 80bd 0536 d5bd 2fec cfbe
000000f0: c845 853d a5e4 c8bc 7311 94bd 9ad9 c9bd
00000100: c0e7 27be d97d 2dbd 1f44 00be 316a dabc
00000110: b605 ee3d b0b7 58bd 5923 bb3d c8ef aebc
00000120: ce49 293e d4b3 763d fa3b 63bc f402 223e
00000130: e0bb 2f3c 2255 2bbd 602f 0e3c 0f9e 01be
00000140: 1b84 2dbd 61a6 e9bd 4349 d5bc b603 dbbd
00000150: 2e73 a1bd 5120 d2bd dca2 c03d 78eb de3d
00000160: 653a 31bd 5719 c0bc 7a30 1f3c e800 213d
00000170: 5bf2 8d3c cf4f 42be b1bb 5ebe cca6 293e
00000180: 4b2a a13d 1454 273c ec62 f33c 9fc1 b73a
00000190: 6514 32be c6f6 28bd c676 a73d 4620 28bd
000001a0: f7a8 d2bb c22b 53bd 3d8f 113d 0965 953c
000001b0: c201 19be 0426 a63c 8434 b33d c02c 3bbe
000001c0: 80d5 85bd 269c 0fbd e40f 77be a67c 54be
000001d0: a3f5 0fbe 1307 233e b899 b1bd 3115 7d3e
000001e0: 1f74 c13d 0bbc 67bd f9c5 e8bd 42c6 b53d
000001f0: a9c4 7f3c 976b f8bd 5983 e03c 7576 05bc
00000200: 6639 d4bd 2d0b 9fbd abcc 833c 07d7 543c
00000210: f3b7 233e 6c03 c6bd 120d 00bd b0ce d3bc
00000220: bd48 afbd 960e 243b 7161 e2bc fb63 a8bb
00000230: 23d5 623d a9a7 013d 7282 833c dcbe 843c
00000240: f897 633d 77c5 86bd 79bf 9e3b 5bc6 913d
00000250: 2a9d 97bc 6b8e 033e 24c6 cfbc 7b1b ff3b
00000260: a51c 5fbe 93a4 b13a 4a1f 6f3d 6d20 dbbc
00000270: 44a2 cabd ae9a 03be c3b2 d03d f227 3a3e
00000280: 5b9d a13d 4f99 5f3d 707a 49bd cab3 d23d
00000290: c163 04bd 5f9c aabe f2e4 443c 3a72 323c
000002a0: 9669 5dbe 82a4 0bbd e3c8 123e 7891 41bd
000002b0: 59b4 c5bd f50f 1a3c 8f46 09bc 2b52 da3d
000002c0: 4a83 82be 9b83 ebbd 0470 b4be 6155 e03d
000002d0: 0795 f43d 225e 8ebe 78a5 55be 61c3 05bd
000002e0: 3b2f e8bc a3ae 59be f8a5 823d 24ea 203e
000002f0: 0704 aa3d 5c1c 1d3d 9fa7 613e 97ac 35be
00000300: 3766 153d c928 99bc 0516 813d ca68 87bd
00000310: d46f 0c3e 0d87 073d 2a3b 10bd b6e5 22ba

l3.weight f4 [6, 200]
0.34523124 -0.8682717 0.16649361 0.032519538 -0.3236127 0.05860362 -0.1361885 0.044701546
0.21446285 0.047837768 -0.1400793 -0.15139677 -0.2508189 -0.043409802 -0.06424124 0.021475643
0.5729133 -0.08413809 0.13160214 0.15160397 0.5661152 -0.1320041 0.573209 0.029027572
-0.055536207 0.12054489 -0.29579797 -0.0766021 -0.043264214 -0.19871669 0.24318908 0.010002999
0.16551307 0.22440872 0.013703261 0.15062483 -0.14143436 0.04836254 -0.19713685 -0.14658605
-0.20997459 0.02536859 0.19864528 0.0646594 -0.047362085 0.5327797 0.9307265 0.01840783
-0.012433781 -0.29502857 -0.12352134 0.24145469 -0.0058965124 0.031749196 -0.61256915 0.12227225
-0.5063312 0.12021586 0.3479537 -0.15439123 -0.20491105 0.011359162 -0.1616596 -0.05377443
-0.13702494 0.18196587 -0.045330625 0.12479726 0.03964199 0.13801305 0.09708224 0.103769295
0.1124139 -0.11324062 -0.3585968 0.74397296 -0.09951422 0.17621957 0.04116461 -0.22364168
-0.091212414 0.34870076 0.17476049 -0.0674285 -0.19292296 -0.10231486 -0.32072586 0.24404427
-0.11337607 -0.52114743 -0.023464974 -0.049430884 -0.012106883 0.2816001 0.5105251 -0.27676418
0.10294318 -0.100192785 -0.08010113 0.048673406 0.12769756 -0.082924806 0.32724556 -0.102737054
-0.040179748 -0.019828267 0.020641332 -0.09094563 0.4226488 -0.15645179 -0.4915722 0.12026321
0.2190616 0.006955439 0.7175119 -0.06279768 0.22030489 -0.050813127 -0.057959896 0.098876745
-0.09744934 0.37292963 -0.19360545 0.2648375 -0.1936307 0.41494247 -0.014861772 0.061537
-0.4699198 0.3245546 -0.04506728 -0.059353955 0.058001902 -0.18471032 -0.18400945 0.2901543
-0.012021654 -0.0076800175 -0.03124839 0.08392815 0.88620645 0.61272234 0.03565335 0.047738343
0.17732616 -0.2505662 -0.03375782 0.4162823 0.16012977 0.12876892 0.035649627 0.039076935
-0.547115 0.3269222 -0.060875718 0.021203693 -0.11932717 0.02161167 0.5931047 0.11345227
0.11248466 -0.22453274 -0.115829386 -0.024149863 0.2494844 -0.122617245 0.022611871 -0.0033890102
-0.17990601 -0.040168457 -0.018616842 0.0922277 0.11233963 0.01053386 -0.019970104 0.043932706
-0.1409621 0.4528959 -1.8045585 -0.34637052 0.05461641 -0.051359054 -0.13533354 -0.20925075
0.13974379 0.0638429 0.02667727 0.48121184 0.23827872 -0.34630984 0.008049073 -0.25815937
-0.017296536 -0.08188497 -0.17132474 0.03967514 0.14231715 0.0133778555 -0.3449761 -0.04430731
0.061652247 0.008747693 -0.07322581 0.3668817 0.58112293 -0.49993163 0.14291872 -0.30682382
0.09166583 0.4689589 -0.013241391 -0.18035293 -0.63083696 0.12772542 -0.30726647 -0.046840537
0.55594367 -0.17398518 0.115720525 -0.3237575 0.112691775 0.007660782 -0.1933993 0.37318873
-0.018608335 0.49737203 -0.03397994 -0.324192 -0.008221356 -0.26528683 0.18620361 -0.067044914
-0.1943091 -0.12041498 -0.32998532 0.021570724 -0.2659177 0.14216276 0.59685344 -0.21171832
-0.46964943 -0.3233253 0.6137645 0.4399013 -0.07992714 -0.21318528 0.23042105 -0.046125274
-0.06344623 -0.20415281 0.20209447 -0.10154145 0.02066352 -0.014084106 0.54218423 -0.057658523
00000000: 26c2 b03e 0e47 5ebf 4d7d 2a3e 3533 053d
00000010: 90b0 a5be 590a 703d 0075 0bbe f818 373d
00000020: 269c 5b3e 89f1 433d f370 0fbe c107 1bbe
00000030: 566b 80be 7ace 31bd e990 83bd b0ed af3c
00000040: 72aa 123f 9750 acbd b6c2 063e 123e 1b3e
00000050: edec 103f 152c 07be d3bd 123f 3bcb ed3c
00000060: ef79 63bd 3de0 f63d d572 97be 90e1 9cbd
00000070: d135 31bd 637c 4bbe 8f06 793e 9ee3 233c
00000080: 427c 293e 66cb 653e a483 603c 653d 1a3e
00000090: 2bd4 10be cc17 463d 3ede 49be a71a 16be
000000a0: 9403 57be cad1 cf3c ab69 4b3e 266c 843d
000000b0: bffe 41bd 4064 083f 1844 6e3f 04cc 963c
000000c0: 0fb7 4bbc fc0d 97be c2f8 fcbd e63f 773e
000000d0: 8837 c1bb 720b 023d 55d1 1cbf e069 fa3d
000000e0: ec9e 01bf bc33 f63d fd26 b23e bc18 1ebe
000000f0: 34d4 51be c71b 3a3c 188a 25be 9442 5cbd
00000100: 4450 0cbe 4355 3a3e 9bac 39bd b595 ff3d
00000110: a45f 223d 4b53 0d3e 0ed3 c63d ff84 d43d
00000120: 4239 e63d b3ea e7bd 009a b7be 0375 3e3f
00000130: 1dce cbbd e772 343e 399c 283d 5302 65be
00000140: 93cd babd e888 b23e 6af4 323e f417 8abd
00000150: 998d 45be 748a d1bd 2e36 a4be bee6 793e
00000160: b731 e8bd eb69 05bf 9e39 c0bc 0a78 4abd
00000170: f35b 46bc e32d 903e c6b1 023f 09b4 8dbe
00000180: e0d3 d23d e031 cdbd 100c a4bd c45d 473d
00000190: 26c3 023e 7bd4 a9bd bb8c a73e ce67 d2bd
000001a0: 8593 24bd e46e a2bc 0318 a93c b441 babd
000001b0: 6c65 d83e e634 20be 5aaf fbbe 8f4c f63d
000001c0: af51 603e 74ea e33b dcae 373f 129c 80bd
000001d0: 9b97 613e 6d21 50bd 5b67 6dbd e47f ca3d
000001e0: 8593 c7bd a2f0 be3e 8240 46be c898 873e
000001f0: 2047 46be 5773 d43e ca7e 73bc 390e 7c3d
00000200: 5499 f0be 052c a63e 7898 38bd 221d 73bd
00000210: 6793 6d3d b424 3dbe f96c 3cbe 1b8f 943e
00000220: 79f6 44bc a8a8 fbbb a0fc ffbc 86e2 ab3d
00000230: 6dde 623f 5fdb 1c3f 3f09 123d 4889 433d
00000240: fd94 353e 374a 80be a445 0abd f422 d53e
00000250: 0ff9 233e 00dc 033e 5805 123d 230f 203d
00000260: bb0f 0cbf 5962 a73e d158 79bd 5eb3 ad3c
00000270: ce61 f4bd f50a b13c b6d5 173f aa59 e83d
00000280: 5c5e e63d e9eb 65be f537 edbd efd5 c5bc
00000290: d778 7f3e c01e fbbd 883c b93c 281a 5ebb
000002a0: 4839 38be ae87 24bd 5982 98bc e0e1 bc3d
000002b0: 5212 e63d 3696 2c3c 5898 a3bc c8f2 333d
000002c0: 5e58 10be f9e1 e73e c6fb e6bf 7a57 b1be
000002d0: 75b5 5f3d df5d 52bd e094 0abe d445 56be
000002e0: ff18 0f3e 11c0 823d 4a8a da3c 6661 f63e
000002f0: 56ff 733e 864f b1be 42e0 033c 772d 84be
00000300: 77b1 8dbc 4fb3 a7bd c16f 2fbe 6682 223d
00000310: 96bb 113e cb2e 5b3c b5a0 b0be 957b 35bd
00000320: 1187 7c3d 7c52 0f3c 6af7 95bd ebd7 bb3e
00000330: 79c4 143f 0af7 ffbe 4959 123e 0318 9dbe
00000340: 4bbb bb3d 621b f03e 6bf2 58bc 70ae 38be
00000350: 887e 21bf 74ca 023e 0852 9dbe dddb 3fbd
00000360: 5352 0e3f 2c29 32be e2fe ec3d 8bc3 a5be
00000370: f2ca e63d 4c07 fb3b 770a 46be 9812 bf3e
00000380: 8270 98bc 8ca7 fe3e 8d2e 0bbd 7efc a5be
00000390: deb2 06bc add3 87be 29ac 3e3e d84e 89bd
000003a0: f7f8 46be 219c f6bd d6f3 a8be 16b5 b03c
000003b0: 5d26 88be 1d93 113e 63cb 183f b0cc 58be
000003c0: e475 f0be e58a a5be ac1f 1d3f be3a e13e
000003d0: d7b0 a3bd 3e4d 5abe 7ff3 6b3e dbed 3cbd
000003e0: 19f0 81bd 6f0d 51be daf1 4e3e f7f4 cfbd
000003f0: 8b46 a93c 06c1 66bc 96cc 0a3f 582b 6cbd

l3.bias f4 [6]
0.09903203 0.07265819 -0.08557383 0.12115041 0.09455292 -0.098186806
00000000: 4ed1 ca3d d1cd 943d 5541 afbd b51d f83d
00000010: f6a4 c13d 2a16 c9bd
