DDPG/local_checkpoint/Walker2d-v2(orginal)/('target_actor', 20).ckpt (torch, 705111 bytes, 6 tensors)

l1.weight f4 [800, 17]
0.114161424 0.3755925 -0.3836888 0.49012613 -0.10152627 0.79204655 -0.11962664 0.07545487
-0.7274968 -0.07644827 0.048064202 0.113931924 0.06593868 0.0054542795 -0.12789704 0.07133847
-0.07752618 -0.2166957 -1.9151987 0.9709981 0.88951033 0.42067733 -0.0659032 0.12749372
0.1887822 -0.09390544 0.20112526 -0.11688162 -0.0726626 -0.016352696 -0.017778706 -0.14543588
0.031460203 0.021360936 -0.20914938 -0.35531253 0.18859059 -0.12961505 0.6766637 1.2535107
1.1063434 -0.022464016 -0.18284489 0.6590627 0.062257573 0.10323992 -0.17147006 0.061642535
0.19949485 0.16708392 -0.013128131 0.58503145 0.07610988 0.07847801 -0.5331121 -0.08758844
0.20978197 0.05699808 -0.12044349 0.0959236 0.003435516 -0.110141315 -0.08379791 0.062879495
0.011109536 0.22226338 0.12049857 -0.022315273 0.6174976 -1.0146614 0.69108456 -0.09931421
0.120562784 0.09752769 -1.0509907 0.08965895 -0.3584134 -0.52069587 -0.14259031 -0.019033384
-0.010741276 0.02098953 0.2309175 0.0063995863 0.023593083 -0.65885687 0.11403193 -0.30276325
-0.26506406 -0.026514383 -0.23179081 -0.22542255 0.3298043 0.34149253 -0.09047916 0.055900324
-0.1248264 -0.06690488 -0.00951435 0.08414474 0.119193934 0.0018266472 -0.86086893 0.897718
0.13946882 -0.5826701 -0.28680903 -0.8964223 -0.7726584 0.062345505 0.26828706 -0.30631053
0.1802017 -0.06568178 -0.13307498 -0.0075979047 -0.12468564 0.0045385165 -0.017695058 -0.075771675
-0.5765276 1.1622334 0.22910696 0.32122925 0.80391985 0.08260615 0.35353822 0.06715905
-0.17469893 0.2001601 0.0018812831 0.053239103 -0.12492842 0.0037090757 0.12196795 0.07950012
-0.5835825 0.5801662 -0.5729909 0.3977104 -0.68387 0.78612876 -0.1267114 -0.28854585
-0.03680579 -0.18381234 0.054642517 0.042127237 -0.08049469 -0.098768406 -0.11666972 -0.00083946413
-5.5135356e-06 -0.64425856 0.5411072 -0.42741817 -0.64391595 0.3995195 -0.64391065 0.12361399
0.44610104 0.03253834 0.07879472 0.29912227 -0.058371786 -0.023690745 -0.0998368 -0.17189704
-0.151459 0.032958046 0.141591 0.35084584 -0.43659404 0.5320542 0.31403387 -0.02611317
0.3464428 0.5201912 0.007108151 0.009022279 -0.018274305 -0.016642299 -0.057846148 -0.023331288
0.013018638 0.22379282 -0.07364692 0.5746334 -0.7564053 -0.083559796 0.52207834 -0.029503414
0.53355795 -0.87803435 0.37496567 -0.20650794 1.0763752 -0.0583961 0.038332995 0.14267305
0.034517616 0.091999754 -0.0022696771 -0.002508801 -0.32184184 -0.014178625 -0.6057927 0.88151014
-0.3332547 1.9487066 0.44913533 -0.6210259 -0.15122128 0.29892612 -0.008186081 -0.0521495
0.031575415 0.030304099 0.09499852 -0.15446362 -0.010455957 -0.19557206 -0.45856246 -0.48055866
-0.5668893 -0.16739668 0.058704127 0.06391492 0.066159196 -0.84249437 0.14252412 -0.1107859
0.110607274 0.067598835 -0.007023056 0.3193025 0.13366488 0.019131016 -0.11283088 0.26376247
0.12227478 -0.15610991 -0.2971893 1.0751569 -0.05888571 -0.6470606 -0.18123503 -0.42216462
-0.013990348 -0.0533804 0.14695978 -0.044785857 0.08097892 3.647851e-05 0.0626373 -0.060040534
00000000: 77cd e93d a94d c03e dc72 c4be d0f1 fa3e
00000010: 01ed cfbd 90c3 4a3f d0fe f4bd 1588 9a3d
00000020: 3b3d 3abf e990 9cbd f8de 443d 2455 e93d
00000030: dc0a 873d d0b9 b23b 71f7 02be e719 923d
00000040: 0cc6 9ebd 7ae5 5dbe 3b25 f5bf 5593 783f
00000050: f3b6 633f 0563 d73e 42f8 86bd b78d 023e
00000060: 1f50 413e 7f51 c0bd c8f3 4d3e a15f efbd
00000070: 21d0 94bd 17f6 85bc a6a4 91bc 25ed 14be
00000080: 6adc 003d 21fd ae3c 412b 56be 86eb b5be
00000090: e41d 413e cfb9 04be d539 2d3f 0a73 a03f
000000a0: a99c 8d3f 7506 b8bc b13b 3bbe 55b8 283f
000000b0: cc01 7f3d 746f d33d d995 2fbe e27c 7c3d
000000c0: 6148 4c3e 0c18 2b3e 5f17 57bc 9fc4 153f
000000d0: 7fdf 9b3d 14b9 a03d 097a 08bf 9161 b3bd
000000e0: 16d1 563e d276 693d 14ab f6bd 9873 c43d
000000f0: 6526 613b c591 e1bd 3d9e abbd f7c6 803d
00000100: c504 363c 0399 633e f4c7 f63d 85ce b6bc
00000110: 5314 1e3f 6de0 81bf ebea 303f 4065 cbbd
00000120: 9fe9 f63d 99bc c73d dd86 86bf 1d9f b73d
00000130: f681 b7be 534c 05bf 3203 12be e6eb 9bbc
00000140: 2dfc 2fbc 3cf2 ab3c a375 6c3e 9fb3 d13b
00000150: 4846 c13c d8aa 28bf 9389 e93d c903 9bbe
00000160: 7ab6 87be b134 d9bc 925a 6dbe 2bd5 66be
00000170: 1cdc a83e 1cd8 ae3e 234d b9bd bdf7 643d
00000180: fca4 ffbd 6d05 89bd 14e2 1bbc 1454 ac3d
00000190: f31b f43d 1c6c ef3a e861 5cbf d9d0 653f
000001a0: ead0 0e3e de29 15bf a2d8 92be ef7b 65bf
000001b0: f1cc 45bf 005e 7f3d ec5c 893e bcd4 9cbe
000001c0: cb86 383e 2b84 86bd cf44 08be d8f7 f8bb
000001d0: 2f5b ffbd d6b7 943b 3af5 90bc 2e2e 9bbd
000001e0: 5097 13bf 10c4 943f 049b 6a3e 2978 a43e
000001f0: b1cd 4d3f 6a2d a93d f602 b53e af8a 893d
00000200: 47e4 32be c5f6 4c3e 6395 f63a 3f11 5a3d
00000210: 79da ffbd f713 733b 55ca f93d f5d0 a23d
00000220: aa65 15bf c685 143f 88af 12bf b3a0 cb3e
00000230: 1b12 2fbf bc3f 493f a2c0 01be 48bc 93be
00000240: abc1 16bd 4d39 3cbe d5d0 5f3d 9c8d 2c3d
00000250: 66da a4bd 1747 cabd 89f0 eebd 7c0f 5cba
00000260: e900 b9b6 21ee 24bf 0086 0a3f 8ed6 dabe
00000270: add7 24bf d28d cc3e 54d7 24bf 5529 fd3d
00000280: 5b67 e43e ec46 053d 205f a13d 8e26 993e
00000290: 4117 6fbd 1813 c2bc 3c77 ccbd c705 30be
000002a0: 1118 1bbe 04ff 063d 3bfd 103e 11a2 b33e
000002b0: 4189 dfbe b434 083f 0cc9 a03e 49eb d5bc
000002c0: f360 b13e 402b 053f 7eeb e83b 2ed2 133c
000002d0: ffb3 95bc 6e55 88bc 15f0 6cbd 4221 bfbc
000002e0: 204c 553c f229 653e 32d4 96bd 2d1b 133f
000002f0: c7a3 41bf 6621 abbd eda6 053f 25b1 f1bc
00000300: 4197 083f dcc6 60bf 80fb bf3e d176 53be
00000310: aac6 893f c030 6fbd 0f03 1d3d e218 123e
00000320: 5862 0d3d 5e6a bc3d ddbe 14bb b26a 24bb
00000330: 74c8 a4be 774d 68bc 3b15 1bbf a6aa 613f
00000340: 5ca0 aabe 386f f93f 11f5 e53e 8efb 1ebf
00000350: c0d9 1abe d80c 993e ea1e 06bc b79a 55bd
00000360: 3955 013d 4d40 f83c 968e c23d b62b 1ebe
00000370: 764f 2bbc 0b44 48be b3c8 eabe c90b f6be
00000380: a81f 11bf 096a 2bbe bd73 703d d3e5 823d
00000390: 797e 873d b6ad 57bf d8f1 113e b8e3 e2bd
000003a0: 1186 e23d 4271 8a3d aa21 e6bb 9e7b a33e
000003b0: 72df 083e a6b8 9c3c e013 e7bd e00b 873e
000003c0: 336b fa3d 47db 1fbe 3229 98be be9e 893f
000003d0: 2432 71bd c3a5 25bf ad95 39be f625 d8be
000003e0: c637 65bc 68a5 5abd a07c 163e 6071 37bd
000003f0: 47d8 a53d 8000 1938 fc47 803d 10ed 75bd

l1.bias f4 [800]
-0.13702904 -0.017055362 -0.11604844 -0.19670828 0.5584003 -0.20853978 -0.51202035 -0.54721147
0.28757527 -0.3945461 -0.7581975 0.0024880099 -0.022461105 0.0024352102 -0.07423631 0.22036378
-0.062522165 -0.17792505 0.45276707 -0.39098603 -0.12069335 -0.18000872 -0.2942137 0.4964366
0.24400741 -0.22403333 0.19157627 -0.32323945 0.083873965 -0.32734296 -0.13489747 0.2134592
-0.5447903 0.25497848 0.30346882 -0.6033735 0.29141375 -0.37500638 -0.6509321 0.002215755
-0.20421246 -0.46254563 -0.81103814 -0.52969766 0.03983123 -0.2616381 0.02374431 -0.13027675
-0.075995706 -0.37158242 0.03978071 0.08750197 0.0028442412 0.18603216 -0.21095425 -0.14430527
-0.2542928 0.01864309 -0.13436519 -0.6478805 -0.35300234 -0.0459421 -0.3339229 0.31306085
-0.21796735 0.179299 0.38401902 0.43281025 -0.56588984 -0.008838171 0.0348827 -0.27081874
0.101549104 -0.19636542 0.51521176 0.28983903 -0.014780221 -0.1667632 -0.13409024 0.17078975
0.0483728 -0.49056748 -0.07668196 0.13006634 0.23557173 0.03166129 -0.24963948 0.32961854
-0.024865448 -0.29381704 -0.06743737 0.81012994 0.040176824 -0.5582505 -0.38641453 0.41377148
-0.32558396 -0.10919686 -0.049272947 0.18434055 0.09612176 -0.02955999 -0.39139104 -0.19634545
0.020325582 -0.40690148 -0.016759766 -0.25980368 -0.018162524 -0.30255818 -0.64395744 -0.35726452
-0.4637874 -0.22232075 -0.20854568 -0.39413974 -0.07024226 -0.44846758 0.069093995 0.057184108
-0.022133516 -0.11625523 -0.44701263 -0.18030697 0.0032336796 0.32243904 0.19901986 -0.23291717
-0.15033156 -0.18988012 -0.024289303 -0.027254732 -0.17225982 -0.37727997 0.37656608 -0.3534671
-0.19713905 -0.05048724 -0.047336392 0.28403994 0.26128244 0.39124137 -0.06198016 -0.61139166
0.073324904 -0.5647677 0.31396112 -0.45787522 -0.27201572 0.31788173 0.40236777 -0.28698003
0.003822367 -0.24785508 -0.24149927 0.2937822 -0.25072664 -0.51994044 0.19005801 0.026331287
0.37694898 -0.41041765 -0.1419078 -0.4879959 -0.34900185 0.41629463 -0.5039828 -0.0317769
-0.060241908 -0.3281318 0.046638407 -0.5758135 -0.066217095 -0.21452005 -0.039852347 -0.53252715
0.36028922 0.069447346 0.42456296 0.03973528 -0.40557826 0.05874414 -0.46773887 -0.41460308
0.14778732 -0.16565399 0.20373468 0.38555655 -0.42479137 0.083733596 0.061186984 -0.14535
-0.43633416 -0.07748725 -0.20987257 -0.35186243 0.23256627 0.025659995 -0.0547655 -0.29952914
-0.15501717 0.12817712 0.047410306 -0.7616494 -0.44167823 -0.6013312 0.0979532 -0.27605754
-0.16045697 -0.4570347 -0.40430233 -0.47754806 0.38792613 -0.36858758 -0.44616383 -0.036912013
0.0729665 -0.1431161 -0.44977313 0.020451192 -0.46919277 -0.22613844 -0.47949302 -0.18043582
-0.6136007 -0.10514673 -0.4632908 -0.17997779 0.1446953 0.40696186 -0.23336513 0.13666888
0.23005247 -0.13915214 -0.088841304 -0.4110228 -0.12780869 0.18143667 -0.08286116 -0.41412392
-0.30688095 -0.39577097 -0.60387903 0.28278804 0.16430637 -0.06958239 -0.5545171 -0.42266005
0.49610487 0.050384555 -0.65481204 0.16307077 0.11426983 0.2078344 0.23738866 -0.5654931
00000000: 5751 0cbe b0b7 8bbc ceaa edbd e56d 49be
00000010: 52f3 0e3f 748b 55be c413 03bf 0d16 0cbf
00000020: 113d 933e f201 cabe 3b19 42bf e10d 233b
00000030: 5a00 b8bc 0c98 1f3b 3509 98bd 0ba7 613e
00000040: 9f0b 80bd fc31 36be 16d1 e73e 522f c8be
00000050: 132e f7bd 3554 38be 2ea3 96be f02c fe3e
00000060: 14dd 793e fe68 65be 922c 443e a47f a5be
00000070: 1dc6 ab3d 7f99 a7be 9022 0abe 0c95 5a3e
00000080: 6177 0bbf 8a8c 823e 4460 9b3e b076 1abf
00000090: 2f34 953e d600 c0be 7ca3 26bf 3336 113b
000000a0: 121d 51be c8d2 ecbe 32a0 4fbf 449a 07bf
000000b0: 1226 233d 6ef5 85be 6d83 c23c 4567 05be
000000c0: a3a3 9bbd 0d40 bebe 19f1 223d 3c34 b33d
000000d0: 7366 3a3b 377f 3e3e 6404 58be c3c4 13be
000000e0: aa32 82be 65b9 983c 0797 09be 7fdb 25bf
000000f0: b9bc b4be c92d 3cbd f1f7 aabe 8349 a03e
00000100: d532 5fbe 289a 373e 249e c43e 4e99 dd3e
00000110: 28de 10bf facd 10bc 29e1 0e3d c1a8 8abe
00000120: faf8 cf3d 0414 49be ebe4 033f c865 943e
00000130: bd28 72bc f9c3 2abe f44e 09be 82e3 2e3e
00000140: 8f22 463d a92b fbbe 6e0b 9dbd 1c30 053e
00000150: b739 713e 45af 013d 7ea1 7fbe c3c3 a83e
00000160: a0b2 cbbc 306f 96be 9b1c 8abd ad64 4f3f
00000170: 7490 243d 81e9 0ebf 20d8 c5be dbd9 d33e
00000180: f1b2 a6be 9aa2 dfbd 6ed2 49bd c5c3 3c3e
00000190: 7cdb c43d cb27 f2bc 6864 c8be c80e 49be
000001a0: d681 a63c 6455 d0be c74b 89bc fd04 85be
000001b0: 93c9 94bc e8e8 9abe 65da 24bf 60eb b6be
000001c0: 8b75 edbe 0da8 63be 008d 55be afcc c9be
000001d0: 2ddb 8fbd 8b9d e5be 2781 8d3d e239 6a3d
000001e0: 5951 b5bc 3917 eebd d7de e4be 64a2 38be
000001f0: 24ec 533b bb16 a53e ddcb 4b3e d781 6ebe
00000200: 84f0 19be ef6f 42be 5cfa c6bc 5145 dfbc
00000210: e164 30be d72a c1be 45cd c03e a4f9 b4be
00000220: d2de 49be b5cb 4ebd cee3 41bd af6d 913e
00000230: d0c6 853e ca50 c83e e9de 7dbd 2a84 1cbf
00000240: 5e2b 963d 9e94 10bf 83bf a03e 9f6e eabe
00000250: a545 8bbe 65c1 a23e 2603 ce3e 0cef 92be
00000260: ad80 7a3b b9cd 7dbe 964b 77be 9f6a 963e
00000270: 3e5f 80be d11a 05bf 919e 423e b6b4 d73c
00000280: 75ff c03e 4322 d2be 4750 11be 99da f9be
00000290: 5fb0 b2be 9224 d53e 0405 01bf 7f28 02bd
000002a0: 38c0 76bd e400 a8be ea07 3f3d 8368 13bf
000002b0: d49c 87bd 25ab 5bbe 373c 23bd b353 08bf
000002c0: d477 b83e 693a 8e3d 5160 d93e 76c1 223d
000002d0: f4a7 cfbe b29d 703d 787b efbe db46 d4be
000002e0: 8f55 173e 33a1 29be d39f 503e ab67 c53e
000002f0: 417e d9be 857c ab3d 349f 7a3d a1d6 14be
00000300: 3167 dfbe a3b1 9ebd d6e8 56be 5027 b4be
00000310: da25 6e3e e934 d23c ca51 60bd e25b 99be
00000320: d2bc 1ebe dd40 033e 4f31 423d 75fb 42bf
00000330: a623 e2be d7f0 19bf b09b c83d 6a57 8dbe
00000340: d54e 24be 7400 eabe b700 cfbe 2e81 f4be
00000350: 419e c63e 83b7 bcbe 966f e4be 0d31 17bd
00000360: 766f 953d 078d 12be aa48 e6be 4289 a73c
00000370: 093a f0be d690 67be 1c80 f5be 2bc4 38be
00000380: ef14 1dbf 2b57 d7bd 7434 edbe 194c 38be
00000390: 012b 143e 4e5d d03e 45f7 6ebe edf2 0b3e
000003a0: e092 6b3e e67d 0ebe 6ef2 b5bd 9571 d2be
000003b0: 48e0 02be 89ca 393e 1db3 a9bd 0d08 d4be
000003c0: 801f 9dbe 7ea2 cabe d197 1abf 98c9 903e
000003d0: ee3f 283e 3681 8ebd d5f4 0dbf e666 d8be
000003e0: 7501 fe3e 0960 4e3d c3a1 27bf 06fc 263e
000003f0: 4d06 ea3d 8ad2 543e 0316 733e 28c4 10bf

l2.weight f4 [200, 800]
-0.045539282 0.07056812 -9.693282e-05 -0.058106788 -0.10070278 0.15998384 -0.018781126 0.09721831
-0.28196234 0.13946056 0.17123637 -0.09034903 -0.39590767 -0.0393027 -0.0814594 -0.07014852
0.15060079 0.11156454 -0.23575145 -0.03457155 0.06662031 -0.058671724 -0.0049688304 -0.19351777
-0.18735826 -0.054545194 0.02769256 0.02259816 -0.09836372 0.09960811 -0.2066837 -0.016995901
0.017841898 0.23337227 -0.045062616 -0.23879538 0.010475069 0.06627128 0.08131579 -0.003999097
0.019730184 0.06591275 0.12588921 0.14430419 0.20355149 -0.30158758 -0.31193948 -0.22435729
0.06454562 -0.12036656 -0.18415652 0.081638336 -0.07007543 -0.21679203 0.046227302 0.066119745
-0.04637672 -0.14600408 0.104331866 -0.062056378 0.041799024 -0.052783668 0.106335394 -0.11254047
-0.30953085 -0.14467415 -0.03328804 -0.59948754 0.040186025 0.018646386 -0.20075577 -0.10200686
-0.01642093 0.094393715 0.027805166 -0.048753407 0.09388026 -0.0930789 -0.018944254 -0.09424664
-0.394558 0.24904074 0.027269365 0.013772502 -0.08887355 -0.10162021 0.13140222 -0.121082634
0.15705366 0.06912842 -0.28719816 0.09150332 -0.15034583 -0.016113063 0.018050848 0.0731492
0.009393203 0.0056632445 0.047422078 0.021500776 0.03484509 -0.03262603 0.0043266066 -0.08882655
-0.035721097 0.092486426 -0.1431043 -0.1467835 0.013133011 0.02523305 -0.0034833169 -0.17964746
0.24103029 -0.046173055 -0.062106732 0.0045410655 -0.020929884 0.109256476 -0.17319554 -0.2588947
-0.00830796 0.07568549 0.064436086 -0.043805756 0.07019758 -0.1772136 -0.10752899 0.110680565
0.28380975 0.02604284 -0.051764425 -0.110438876 -0.021481145 -0.081508555 -0.024089156 0.031586852
0.0048564426 -0.013062995 -0.047173772 -0.13681287 -0.019330954 -0.006700283 -0.0808835 0.07714957
-0.42372587 -0.09790645 -0.035816215 -0.07712977 0.032707322 -0.044965144 -0.22440925 0.08988704
-0.039554086 -0.08323636 -0.2233327 0.05227354 0.14396125 0.2730713 -0.084595434 -0.049076308
-0.074389294 0.10954959 -0.03735562 0.0101324795 0.00969968 0.0043237787 -0.051991675 0.00042814168
0.15109402 0.020071533 0.015618543 0.099547304 -0.12794183 -0.00067857926 0.08336921 0.0026137582
-0.25538102 -0.13113089 -0.13748322 -0.12654018 0.02829802 0.019524552 0.05434258 0.009764384
-0.055386648 0.020764804 0.030849945 -0.026392724 0.045491256 0.07778392 0.10241403 -0.104078755
0.09886189 -0.12615338 -0.011917341 -0.0631495 0.049285036 -0.024607541 0.008593094 -0.02957447
-0.022814274 0.122624606 -0.024515484 -0.240258 0.046060756 0.12484158 0.08163588 0.0066128327
0.21966234 -0.028641028 0.14661725 0.048079748 0.21666874 -0.015184434 0.18419737 -0.14568879
-0.016867202 -0.038741045 -0.0063655 -0.22019094 0.026466278 -0.1689843 -0.026645586 -0.009446003
0.06489717 -0.030766593 0.12009705 -0.13971096 -0.4185449 -0.071110174 0.058703262 -0.17579445
-0.0886235 -0.33658075 0.052970245 0.26288182 0.123259805 -0.10173049 0.03259713 0.06446236
0.0848618 0.054184873 0.11060146 0.09191807 0.022476774 -0.12559405 -0.030852245 -0.13144827
0.108206615 -0.2617835 -0.4677859 -0.22524199 0.09830567 -0.17144397 -0.15332527 -0.0458507
00000000: 6687 3abd 0586 903d 6948 cbb8 6201 6ebd
00000010: 423d cebd ced2 233e e0da 99bc 651a c73d
00000020: 5e5d 90be c0ce 0e3e 9658 2f3e ea08 b9bd
00000030: 69b4 cabe defb 20bd 30d4 a6bd 07aa 8fbd
00000040: 1837 1a3e f37b e43d d468 71be e69a 0dbd
00000050: 3b70 883d c351 70bd 92d1 a2bb 8629 46be
00000060: d8da 3fbe c86a 5fbd 82db e23c c71f b93c
00000070: eb72 c9bd 56ff cb3d e4a4 53be fd3a 8bbc
00000080: 2c29 923c 24f9 6e3e 9493 38bd c786 74be
00000090: a09f 2b3c 3db9 873d e588 a63d db0a 83bb
000000a0: 32a1 a13c 44fd 863d 1ae9 003e 7ac4 133e
000000b0: cd6f 503e b069 9abe 88b6 9fbe ebbd 65be
000000c0: 7e30 843d be82 f6bd 8793 3cbe 0032 a73d
000000d0: b583 8fbd bbfe 5dbe d758 3d3d ca69 873d
000000e0: 84f5 3dbd 1882 15be f2ab d53d d42e 7ebd
000000f0: 7435 2b3d b033 58bd 5fc6 d93d 9e7b e6bd
00000100: d47a 9ebe 7625 14be 0a59 08bd 0478 19bf
00000110: 1a9a 243d 4ec0 983c ec92 4dbe f9e8 d0bd
00000120: 3085 86bc 7e51 c13d a9c7 e33c a7b1 47bd
00000130: 4b44 c03d 26a0 bebd fb30 9bbc 6204 c1bd
00000140: 8203 cabe 8904 7f3e 0164 df3c 0fa6 613c
00000150: 5603 b6bd 421e d0bd 4e8e 063e 2cfa f7bd
00000160: add2 203e 3393 8d3d a30b 93be 1866 bb3d
00000170: 42f4 19be 8bff 83bc 5fdf 933c 3fcf 953d
00000180: f3e5 193c bd92 b93b a73d 423d 6522 b03c
00000190: bab9 0e3d dfa2 05bd 35c6 8d3b b2ea b5bd
000001a0: 4950 12bd 8669 bd3d ef89 12be 6a4e 16be
000001b0: d72b 573c 8bb5 ce3c 5c48 64bb 81f5 37be
000001c0: a5d0 763e f51f 3dbd a163 7ebd 38cd 943b
000001d0: 2675 abbc dcc1 df3d 2c5a 31be d98d 84be
000001e0: 1c1e 08bc ff00 9b3d 11f7 833d aa6d 33bd
000001f0: c0c3 8f3d 7b77 35be 2938 dcbd 7eac e23d
00000200: 834f 913e cb57 d53c ef06 54bd c72d e2bd
00000210: 3af9 afbc f5ed a6bd 9f56 c5bc 3761 013d
00000220: cb22 9f3b 2c06 56bc 4939 41bd ac18 0cbe
00000230: f35b 9ebc 0c8e dbbb 40a6 a5bd 9800 9e3d
00000240: 99f2 d8be 2d83 c8bd 06b4 12bd 36f6 9dbd
00000250: 1df8 053d 5f2d 38bd 8acb 65be b216 b83d
00000260: 7703 22bd d377 aabd 54b1 64be c81c 563d
00000270: 946a 133e 00d0 8b3e 5f40 adbd 3d04 49bd
00000280: 6a59 98bd 895b e03d 3502 19bd b302 263c
00000290: 68eb 1e3c 7cae 8d3b 39f5 54bd 3478 e039
000002a0: 64b8 1a3e 0e6d a43c ebe4 7f3c 75df cb3d
000002b0: 2f03 03be afe2 31ba 7abd aa3d 964b 2b3b
000002c0: 4dc1 82be 2d47 06be 67c8 0cbe c093 01be
000002d0: 40d1 e73c f4f1 9f3c 5396 5e3d cbfa 1f3c
000002e0: 1cdd 62bd f31a aa3c 06b9 fc3c 8e35 d8bc
000002f0: 0a55 3a3d 2d4d 9f3d 72be d13d 3e27 d5bd
00000300: 1a78 ca3d 5a2e 01be f340 43bc 8654 81bd
00000310: 1bdf 493d c195 c9bc 0cca 0c3c 2946 f2bc
00000320: 00e5 babc 9c22 fb3d b2d4 c8bc 3106 76be
00000330: 34aa 3c3d f1ac ff3d b630 a73d 76b0 d83b
00000340: 2aef 603e 97a0 eabc d522 163e 45ef 443d
00000350: 69de 5d3e 22c8 78bc 3c9e 3c3e 712f 15be
00000360: 162d 8abc eeae 1ebd af95 d0bb bc79 61be
00000370: cfcf d83c 380a 2dbe d847 dabc 68c3 1abc
00000380: cfe8 843d 390a fcbc 71f5 f53d 6410 0fbe
00000390: 844b d6be 36a2 91bd d572 703d 7603 34be
000003a0: 3d80 b5bd 5054 acbe 54f7 583d 7298 863e
000003b0: a36f fc3d 1358 d0bd 9184 053d d804 843d
000003c0: 06cc ad3d f5f0 5d3d 0583 e23d 8b3f bc3d
000003d0: 3621 b83c ba9b 00be d9bd fcbc 609a 06be
000003e0: 6e9b dd3d 7d08 86be a281 efbe d6a5 66be
000003f0: 7c54 c93d 028f 2fbe 4d01 1dbe f2cd 3bbd

l2.bias f4 [200]
-0.04061146 -0.044045493 -0.087372325 -0.12840171 -0.12917238 -0.18910252 0.08155151 -0.14539728
0.16345908 -0.024742741 -0.008349744 -0.13450758 -0.2752434 -0.045649454 -0.096267864 0.0141455745
-0.47391143 -0.11166397 0.13317382 0.12843621 -0.02139823 0.10372642 -0.17362186 0.027537962
-0.09350553 -0.16915444 -0.14674266 -0.29403737 -0.041964076 0.06878587 0.2853824 -0.018156368
0.0639953 0.008338178 -0.12429542 0.33418474 -0.081346005 -0.108897515 -0.12214514 -0.27304143
-0.10698915 -0.011646305 -0.059271023 0.17969409 -0.034189295 0.051565498 0.2509654 -0.024848938
0.019231126 -0.3888997 0.094189204 0.19550484 -0.010615817 -0.009826045 -0.0741134 0.24167316
-0.3931893 0.001855761 -0.06725157 -0.42288494 0.062726244 -0.05245129 -0.022722205 -0.10157236
-0.13162972 -0.044911362 -0.13227874 -0.035238765 0.17311338 -0.087288186 0.028947044 -0.021354571
0.22204338 0.06914699 0.018565161 0.19470043 -0.010953998 -0.10362955 -0.07062664 -0.11841326
-0.11026124 -0.1609983 -0.020232683 -0.09290089 -0.14862844 -0.14242947 0.10225046 0.14485751
-0.06163993 -0.0520488 0.009716148 0.08286248 0.014153956 -0.19894257 -0.24731606 0.15631688
0.110718034 -0.022465939 -0.016450847 0.0014019496 -0.22176155 -0.07423057 0.058856044 -0.045239225
-0.03061251 -0.07950484 0.07042862 -0.047877114 -0.15306407 0.03497499 0.06179251 -0.15374865
-0.086568885 -0.038235012 -0.27314252 -0.24845444 -0.16695186 0.15547402 -0.059127633 0.26659667
0.04468919 -0.11639382 -0.11090059 0.14432317 0.007483705 -0.10521467 0.027406381 -0.008145918
-0.07481386 -0.10484566 0.016088804 0.015180458 0.20717768 -0.12334963 0.009332639 -0.047861896
-0.060672194 0.0025033108 -0.028199445 -0.0051388717 0.05352507 -0.018508254 0.016053412 0.01620429
-0.07682092 -0.04785282 0.065497786 0.12701452 -0.020770958 0.17255788 -0.025363036 0.0077852583
-0.24691062 -0.03176544 0.091655664 -0.02674886 -0.08723989 -0.037640266 0.068332404 0.17273267
0.07386476 0.048417836 -0.110754244 0.08909475 0.0052272426 -0.37980786 0.008858388 0.010891492
-0.23990147 -0.034092434 0.18713726 -0.032432813 -0.1607045 0.0094032185 -0.030042475 0.124428846
-0.33647743 -0.11735593 -0.39063576 0.10759585 0.0818896 -0.25252208 -0.24915798 -0.08834491
-0.04181403 -0.21565986 0.00571485 0.2079646 0.12934689 0.0044820444 0.19277793 -0.20861194
0.03349031 -0.042645175 0.020738026 -0.047112204 0.02021177 0.12457205 -0.087421454 -0.0006214039
00000000: 3458 26bd 0c69 34bd 43f0 b2bd bd7b 03be
00000010: c445 04be 17a4 41be 7a04 a73d 06e3 14be
00000020: d161 273e 4ab1 cabc 5dcd 08bc 5bbc 09be
00000030: b4ec 8cbe ecfa 3abd 1628 c5bd d7c2 673c
00000040: 85a4 f2be 14b0 e4bd b85e 083e c884 033e
00000050: 574b afbc 846e d43d eec9 31be 4b97 e13c
00000060: d47f bfbd d236 2dbe b543 16be 118c 96be
00000070: 86e2 2bbd 9bdf 8c3d a41d 923e aabc 94bc
00000080: f80f 833d da9c 083c 998e febd 431a ab3e
00000090: bc98 a6bd a905 dfbd 3b27 fabd 16cc 8bbe
000000a0: 211d dbbd 25d0 3ebc 2cc6 72bd ba01 383e
000000b0: 130a 0cbd 5836 533d 897e 803e 0090 cbbc
000000c0: 988a 9d3c dd1d c7be 45e6 c03d 6c32 483e
000000d0: f7ed 2dbc 6bfd 20bc c4c8 97bd 2b79 773e
000000e0: 1c50 c9be 023d f33a 31bb 89bd 6084 d8be
000000f0: 9e76 803d 2ad7 56bd eb23 babc 2b05 d0bd
00000100: f1c9 06be faf4 37bd 1474 07be 8656 10bd
00000110: a244 313e 26c4 b2bd 5a22 ed3c c8ef aebc
00000120: 575f 633e f09c 8d3d f715 983c 8d5f 473e
00000130: 6678 33bc bb3b d4bd b3a4 90bd a782 f2bd
00000140: a5d0 e1bd bddc 24be 03bf a5bc d242 bebd
00000150: 0e32 18be 08d9 11be b068 d13d 8755 143e
00000160: 277a 7cbd 1f31 55bd 7a30 1f3c ceb3 a93d
00000170: ffe5 673c 9ab7 4bbe 6c40 7dbe 8811 203e
00000180: 23c0 e23d 7d0a b8bc edc3 86bc 9fc1 b73a
00000190: 7615 63be 3206 98bd 0913 713d c44c 39bd
000001a0: 16c7 fabc 6fd3 a2bd e13c 903d cb1a 44bd
000001b0: d4bc 1cbe ef41 0f3d 251a 7d3d 4970 1dbe
000001c0: 074b b1bd 519c 1cbd 56d9 8bbe d76a 7ebe
000001d0: 6ef5 2abe 9534 1f3e d12f 72bd 5c7f 883e
000001e0: 030c 373d e25f eebd d91f e3bd 74c9 133e
000001f0: de39 f53b ca7a d7bd 5983 e03c 7576 05bc
00000200: 0238 99bd 52b9 d6bd abcc 833c 75b7 783c
00000210: 6326 543e bb9e fcbd ede7 183c d60a 44bd
00000220: 6883 78bd 960e 243b 8602 e7bc fb63 a8bb
00000230: 1b3d 5b3d 9f9e 97bc 7282 833c dcbe 843c
00000240: 4954 9dbd 5201 44bd b423 863d 1810 023e
00000250: db27 aabc 03b3 303e 24c6 cfbc 7b1b ff3b
00000260: 23d6 7cbe 7a1c 02bd f7b5 bb3d 6d20 dbbc
00000270: d4aa b2bd ae2c 1abd dcf1 8b3d d5e0 303e
00000280: 6846 973d c851 463d 1fd3 e2bd 4f77 b63d
00000290: 4a49 ab3b 2d76 c2be c622 113c 3a72 323c
000002a0: bba8 75be 82a4 0bbd e9a0 3f3e 45d8 04bd
000002b0: b88f 24be f50f 1a3c a31b f6bc 8dd4 fe3d
000002c0: c546 acbe 4e58 f0bd 6901 c8be 375b dc3d
000002d0: bcb5 a73d 934a 81be 4523 7fbe 2dee b4bd
000002e0: 3045 2bbd f0d5 5cbe a343 bb3b acf4 543e
000002f0: 8373 043e 1dde 923b 9467 453e 5e9e 55be
00000300: 232d 093d b5ac 2ebd cbe2 a93c baf8 40bd
00000310: 2793 a53c a21f ff3d 050a b3bd b6e5 22ba

l3.weight f4 [6, 200]
0.53269935 -0.8339891 0.16598402 0.061279237 -0.3236127 0.020970015 -0.084736764 0.104557544
0.3166245 0.008669667 -0.10040393 -0.27367997 -0.12220751 -0.09488664 0.0425874 0.021475643
0.6378128 -0.14325897 0.16253063 0.27967075 0.6263055 -0.046027306 0.5258106 -0.0013360122
-0.13846001 0.15267041 -0.43603784 -0.16076863 -0.043264214 -0.321493 0.27467155 0.010002999
0.13446051 0.40486658 0.061276574 0.17310247 -0.14244741 0.08170469 -0.16086929 -0.115817204
-0.3875526 0.09468968 0.24172951 0.1587884 -0.047362085 0.651673 1.0760281 0.018454395
-0.012433781 -0.27191752 -0.09548066 0.20956986 -0.002781547 0.031749196 -0.6053493 0.20317346
-0.71222866 0.16296189 0.058405034 -0.18239239 -0.19922066 -0.057025 -0.13751866 -0.049503572
-0.08079645 0.120527856 0.12706967 0.107467316 0.101445325 0.1685245 -0.018204547 0.103769295
0.1175663 -0.2641644 -0.33649445 0.8304946 -0.13020337 0.05289447 0.008584254 -0.26632613
-0.16602871 0.3631494 0.16037129 0.06562193 -0.022672128 -0.1588945 -0.3275207 0.3242246
-0.10237162 -0.57169807 -0.023464974 -0.021760654 -0.008937552 -0.008355855 0.43352428 -0.27531004
0.011670466 -0.10544642 -0.12670173 0.048673406 0.26039246 -0.12092397 0.45998845 -0.2721599
-0.062328264 -0.029149434 0.15307045 0.090732366 0.35541785 -0.07301692 -0.5344637 0.10961474
0.23902398 0.0066187615 0.6211675 -0.34105542 0.37438262 -0.090306856 -0.038170606 0.11264309
-0.21321599 0.46295172 -0.18298113 0.56084055 -0.06187214 0.33787054 -0.014861772 0.061537
-0.3196154 0.34099606 -0.04506728 -0.21714813 0.025727555 -0.18678384 -0.24950343 0.35012767
-0.15786976 -0.0076800175 0.017570822 0.08392815 0.9379574 0.72592205 0.03565335 0.047738343
0.3575261 -0.28322092 0.00040363538 0.26010987 0.26124236 0.21817327 0.035649627 0.039076935
-0.57564 0.524 -0.32700434 0.021203693 -0.2087374 0.08086337 0.6602217 0.122056074
0.16884933 -0.37232003 -0.13349007 0.022394825 0.30723494 -0.18835668 0.019450922 -0.0033890102
-0.2415048 -0.040168457 -0.01567345 0.11006631 0.14266337 0.01053386 0.042165853 0.056244723
-0.16564386 0.42568484 -2.325181 -0.28557494 0.021367751 -0.024268363 -0.1726757 -0.3181806
0.08653164 -0.009857886 0.015347754 0.7537965 0.42063326 -0.3954034 -0.1002889 -0.3242986
-0.074382804 -0.06323828 -0.44815817 0.098699495 0.16274889 -0.009408459 -0.6153866 -0.04430731
-0.08120695 0.055497628 -0.097256124 0.31392723 0.58112293 -0.62706923 0.15150724 -0.27515343
0.023563672 0.36463434 -0.023032608 -0.15629424 -0.58318555 0.46086976 -0.45577917 -0.046840537
0.5607829 -0.21399517 0.12737332 -0.1658941 0.0758171 0.049711626 -0.1531496 0.35874256
-0.21330813 0.5031399 -0.09767589 -0.4078842 -0.008221356 -0.2653047 0.2080273 -0.067044914
-0.25810915 -0.09017373 -0.39137235 0.097553834 -0.43358326 0.19287822 0.5363273 -0.1828379
-0.523584 -0.26775008 0.42067614 0.42238572 -0.07992714 -0.29791287 0.6070699 -0.04608057
-0.06344623 -0.080317974 0.23065314 -0.21078247 0.017871378 -0.014084106 0.35772765 -0.043656472
00000000: fc5e 083f 4f80 55bf b7f7 293e f0ff 7a3d
00000010: 90b0 a5be 4fc9 ab3c 788a adbd 4422 d63d
00000020: 9b1c a23e 380b 0e3c 93a0 cdbd c81f 8cbe
00000030: ee47 fabd ed53 c2bd 2070 2e3d b0ed af3c
00000040: b347 233f 7bb2 12be 6e6e 263e 0131 8f3e
00000050: 8f55 203f 2187 3cbd 869b 063f 211d afba
00000060: 76c8 0dbe a255 1c3e 5a40 dfbe 88a0 24be
00000070: d135 31bd bb9a a4be c0a1 8c3e 9ee3 233c
00000080: 04b0 093e ac4a cf3e 25fd 7a3d c641 313e
00000090: bcdd 11be ca54 a73d ebba 24be 9231 edbd
000000a0: 4b6d c6be aaec c13d f187 773e 6d99 223e
000000b0: bffe 41bd 0bd4 263f 4abb 893f ac2d 973c
000000c0: 0fb7 4bbc c638 8bbe 5d8b c3bd 7b99 563e
000000d0: 9d4a 36bb 720b 023d 2cf8 1abf b40c 503e
000000e0: 9e54 36bf 7bdf 263e 1e3a 6f3d 12c5 3abe
000000f0: 8000 4cbe 0c93 69bd b1d1 0cbe 42c4 4abd
00000100: 9c78 a5bd 4fd7 f63d 8d1e 023e d317 dc3d
00000110: 91c2 cf3d b091 2c3e b421 95bc ff84 d43d
00000120: 9ac6 f03d 8e40 87be 0049 acbe 4b9b 543f
00000130: 0854 05be dfa7 583d f9a4 0c3c e65b 88be
00000140: 6e03 2abe b8ee b93e 5f38 243e ca64 863d
00000150: e6ba b9bc 3db5 22be cbb0 a7be c400 a63e
00000160: 36a8 d1bd ce5a 12bf 9e39 c0bc 6643 b2bc
00000170: cf6e 12bc ffe6 08bc e5f6 dd3e 70f5 8cbe
00000180: 7b35 3f3c 4bf4 d7bd 19be 01be c45d 473d
00000190: 2952 853e fda6 f7bd 9b83 eb3e 8b58 8bbe
000001a0: ec4b 7fbd cbca eebc 80be 1c3e e4d1 b93d
000001b0: 54f9 b53e e589 95bd 9dd2 08bf b17d e03d
000001c0: b4c2 743e 32e2 d83b d504 1f3f d19e aebe
000001d0: 14af bf3e cdf2 b8bd c858 1cbd 6cb1 e63d
000001e0: 4b55 5abe 0208 ed3e 685f 3bbe 3f93 0f3f
000001f0: a46d 7dbd 5efd ac3e ca7e 73bc 390e 7c3d
00000200: a1a4 a3be 0997 ae3e 7898 38bd 145c 5ebe
00000210: 98c2 d23c 4344 3fbe d47d 7fbe ef43 b33e
00000220: 9ca8 21be a8a8 fbbb aff0 8f3c 86e2 ab3d
00000230: fa1d 703f 07d6 393f 3f09 123d 4889 433d
00000240: a90d b73e 5502 91be 069f d339 1f2d 853e
00000250: 8fc1 853e d068 5f3e 5805 123d 230f 203d
00000260: 255d 13bf dd24 063f 1d6d a7be 5eb3 ad3c
00000270: 42bf 55be b29b a53d 4a04 293f 89f8 f93d
00000280: d7e6 2c3e bba0 bebe 9fb1 08be 5a75 b73c
00000290: e64d 9d3e 93e0 40be 8a57 9f3c 281a 5ebb
000002a0: 094d 77be ae87 24bd 9b65 80bc 726a e13d
000002b0: 5916 123e 3696 2c3c 1ab6 2c3d de60 663d
000002c0: 8b9e 29be 5df3 d93e c4cf 14c0 e136 92be
000002d0: 6c0b af3c 72ce c6bc e6d1 30be 91e8 a2be
000002e0: 8037 b13d f882 21bc 2575 7b3c cff8 403f
000002f0: 3e5d d73e 5072 cabe 4464 cdbd 770a a6be
00000300: 0356 98bd 1283 81bd fd74 e5be f622 ca3d
00000310: a5a7 263e f025 1abc fa89 1dbf 957b 35bd
00000320: d44f a6bd 7b51 633d 382e c7bd 12bb a03e
00000330: 79c4 143f 9c87 20bf b724 1b3e e9e0 8cbe
00000340: 9a08 c13c 5ab1 ba3e e1ae bcbc 990b 20be
00000350: a64b 15bf 1ff7 eb3e e35b e9be dddb 3fbd
00000360: 788f 0f3f 8d21 5bbe 276e 023e 25e0 29be
00000370: ff45 9b3d 6b9e 4b3d 40d3 1cbe 1bad b73e
00000380: 726d 5abe c7cd 003f 4c0a c8bd 33d6 d0be
00000390: deb2 06bc 05d6 87be 1c05 553e d84e 89bd
000003a0: e226 84be 01ad b8bd f561 c8be 4eca c73d
000003b0: a0fe ddbe de81 453e bf4c 093f dc39 3bbe
000003c0: 9a09 06bf 8a16 89be dd62 d73e f142 d83e
000003d0: d7b0 a3bd 0988 98be ef68 1b3f fbbe 3cbd
000003e0: 19f0 81bd c07d a4bd 5630 6c3e 5cd7 57be
000003f0: ff66 923c 06c1 66bc 1428 b73e 21d1 32bd

l3.bias f4 [6]
0.1232883 0.03250971 -0.06659572 0.105154425 0.050766528 -0.11427938
00000000: 947e fc3d e728 053d 5663 88bd 345b d73d
00000010: 90f0 4f3d 4f0b eabd
