DDPG/local_checkpoint/Walker2d-v2(orginal)/('target_critic', 24).ckpt (torch, 720343 bytes, 5 tensors)

l1.weight f4 [800, 23]
00000000: 1dbc 01c0 246d 63bf e922 eabf 5081 853f
00000010: f206 a6be c693 c13f cdad 8abf 3fdc e6bd
00000020: 7a96 3abd fbe1 5c3c 4bcc 47be d806 c2be
00000030: de4d 74be 5bd9 493d 53b5 c53e a34f 463e
00000040: eb4b 73bd be80 dcbe 24c0 1a3e da81 ef3e
00000050: 099d 4f3e 1f0d 21bd f62c babe 1b1f b4bd
00000060: d49f 803f 9597 9340 7495 b3bc 732b 95bf
00000070: 38c0 373f df81 f43e f350 adbf c5bd a1bf
00000080: 6756 7ebf 9c73 8ebd c344 2b3e 4d20 e2bd
00000090: 6ada a3bd 60d2 403e dde0 823e 2b91 0e3d
000000a0: 2620 143e 5992 4bbe 3801 1abe 741a 9a3d
000000b0: 3205 973e e40c 873e 31dc a33e c400 253e
000000c0: 0fff 1fbd 18e6 9abd 0be6 bc3d 8275 843d
000000d0: ad3e b7be 2388 81bb 2fab 833e 7dc7 243e
000000e0: 62ab 98be 99b7 2b3d 019d 85bc 5c0f 9bbc
000000f0: a7fb ca3c 4b67 593e 70c7 a03c 0d02 e83c
00000100: c538 4b3d 4587 17bd 2117 f83d 2b5f 9a3c
00000110: 4df2 8d3e c219 0ebf 3fff ed3f d54d 173f
00000120: fbca a53d 94a8 2b3f 823b b7bf 1a95 3b40
00000130: d635 b13f 15dd bf3d a5ec 723f 74ea cfbe
00000140: 99da 6abb 49fb 18be 97ed da3d 8cf8 1b3e
00000150: 4eae 56be e17e acbd 65af 27bf abfd 06bf
00000160: 2be7 2bbd 541c 01bf ddd9 c1be ffa3 afbd
00000170: 3e85 3bc0 5f07 80bf fa64 ec3f a5b6 3540
00000180: e290 22bf b1d4 493f c748 bd40 64d5 58bf
00000190: 9771 d93e 8885 b9bf 8534 c53e ddc5 3a3d
000001a0: 50e1 a43d 0268 3ebd e977 80be cc82 0ebe
000001b0: 4c76 133c 18f6 f6be f143 81be 1af2 b1be
000001c0: e914 0b3f 5086 3bbf 591a 82bf 4201 1abf
000001d0: 4bec 643f d9b1 1f3e d644 4d3f 85cf 0dbe
000001e0: 87b2 27bf 2097 0dbf 1382 44c0 8140 60bd
000001f0: 0d9c 193f a22e c63d cf0e 56bd 994d b1bd
00000200: 2806 053d 1319 703b 8d10 dc3d 8b33 2abe
00000210: ae75 a13e 65e2 4f3e 0a16 0c3d a02b 20be
00000220: 459d aebe 5730 84be 6b41 dbbe 9ff0 ee3e
00000230: 940d 01be 68a6 5e3e b608 09be ac87 bebe
00000240: 9e68 7d3e a5b5 133e bfc2 42bf 2ff8 2c3f
00000250: 99d4 743e c973 233e 5064 d73d 6c31 3d3d
00000260: f53f 87be f118 34be 84e3 46bc 60a5 963d
00000270: 69c4 243e 90ed bc3d 284c 31bd 5f8e 67bc
00000280: 470a 243e ccc6 24c0 b533 353f 1cdc 3140
00000290: 7341 813f 82ce 25bf 6d22 d540 9948 0c40
000002a0: bebc 2ac0 a18a f73e 13c2 373f 229e 0f3f
000002b0: afbd 3cbc 018e e9bd dee1 8fbd 9376 c4bd
000002c0: f575 55be 0eec 833b 0697 86be 62b0 8fbe
000002d0: 31c9 c33d 49e9 f33d daa3 c73d d853 5d3c
000002e0: ae45 583d 3356 c2c0 4844 e13e ba42 6f3f
000002f0: 039e 823d f96e ac40 79b0 eb3f accd b4be
00000300: 64a6 80bf 786b 2bbe 9ab2 353e f4d8 a3bd
00000310: 633b 273c f70f 23bc 34a1 5ab9 9239 1d3d
00000320: 54b8 573b 404a 31bd 3772 853d aaf0 dc3c
00000330: 8462 1b3d 72ab 71bd 0a0d f2bd e0eb 7fbf
00000340: a2e9 4dbf fc92 723f 464f b040 f7ef 5d3e
00000350: b3a3 9440 e115 9640 b2d4 66be 3304 283f
00000360: 568d 0dbf 78b4 fc3d 6dfb abbe b2f3 40be
00000370: db45 ea3e 0314 13be 2577 0d3c bdd9 883d
00000380: b3a5 f7be 9c6a acbe a03c 363e 21b8 6ebe
00000390: f730 a33d 9fb4 9c3d 78ac 05c0 4b61 b3bf
000003a0: 13b3 3640 d9e6 ec3c a2ca 153f 9473 cc3e
000003b0: c115 a4bf fda2 e6be 4865 34be 317b a73d
000003c0: ed2e 133e 0471 91bd d7bd 73bc 55ef 773c
000003d0: 17a5 62bc 7cd0 d3bb bb5f 813d 2d0b 20be
000003e0: b812 cfbe 5726 02be 7989 80be 8e61 81bd
000003f0: e464 3cbe e9cc 86c0 5de8 26c0 ab39 87bf
-2.0271065 -0.8883841 -1.8291904 1.0430088 -0.32427174 1.5123222 -1.083429 -0.11272477
-0.045553662 0.013481612 -0.19511525 -0.37895846 -0.23857829 0.049279552 0.38614902 0.19366316
-0.059398573 -0.43066972 0.15112358 0.46778756 0.20274748 -0.039319154 -0.36362427 -0.087949954
1.0048776 4.6122537 -0.02192185 -1.1653885 0.7177768 0.47755334 -1.3540329 -1.2636038
-0.9935059 -0.069556445 0.1672545 -0.11041317 -0.080006436 0.18830252 0.25562182 0.03480641
0.14465389 -0.19880046 -0.15039527 0.07524577 0.2949615 0.26377022 0.3200393 0.16113573
-0.039061602 -0.07563418 0.09223565 0.06467725 -0.35790005 -0.0039529963 0.2571654 0.16091724
-0.29818255 0.04192314 -0.016310217 -0.018928222 0.0247782 0.2123081 0.01962635 0.02832129
0.049614687 -0.036994237 0.121137865 0.018844208 0.27723923 -0.55508053 1.859352 0.5910314
0.08095356 0.67054105 -1.4315035 2.9309754 1.3844554 0.0936834 0.9489234 -0.4060856
-0.003583586 -0.14939608 0.10689848 0.15231532 -0.2096493 -0.08422638 -0.65502006 -0.52730817
-0.041968506 -0.5043385 -0.3786153 -0.08576202 -2.9300075 -1.000225 1.8468316 2.8392727
-0.63502324 0.78840166 5.915134 -0.8470061 0.42469475 -1.4493876 0.38516632 0.045598853
0.080507874 -0.04648591 -0.25091484 -0.13917083 0.009000372 -0.4823463 -0.25247148 -0.3475502
0.5432878 -0.7325182 -1.0164291 -0.6015817 0.89423054 0.15595187 0.8018316 -0.13848694
-0.65506786 -0.55308723 -3.070439 -0.054749016 0.6000374 0.09676863 -0.052260216 -0.08657379
0.032476574 0.003663604 0.10745344 -0.16621225 0.31535095 0.20301206 0.034200706 -0.15641642
-0.34104362 -0.2581813 -0.42823347 0.46667954 -0.12602836 0.21743166 -0.13382229 -0.37212884
0.2474694 0.1442476 -0.7607841 0.675662 0.23909225 0.15962137 0.1051718 0.04618971
-0.26415983 -0.1758764 -0.012139205 0.073557615 0.1609055 0.09224999 -0.04328552 -0.014133065
0.16019545 -2.5746336 0.70782024 2.7790594 1.0098099 -0.6476823 6.6604524 2.191931
-2.66777 0.48347953 0.7178051 0.56100667 -0.0115198335 -0.11404038 -0.070255026 -0.09592929
-0.20845778 0.0040259426 -0.26287097 -0.28064257 0.095598586 0.1190973 0.09748049 0.013508759
0.052800827 -6.0730224 0.43997407 0.9346119 0.063777946 5.3885465 1.841323 -0.35313165
-1.0050778 -0.16740215 0.17743912 -0.08000365 0.01020703 -0.009952537 -0.00020850153 0.03838498
0.0032916265 -0.0432837 0.065159254 0.026970226 0.03793575 -0.059001394 -0.11818893 -0.9996929
-0.8043462 0.9475553 5.509677 0.2167357 4.644983 4.690171 -0.22542074 0.6563141
-0.55293787 0.12339109 -0.3359026 -0.18842962 0.4575642 -0.14363103 0.008634363 0.06682155
-0.48368606 -0.33675086 0.17796564 -0.23312427 0.07968324 0.07651638 -2.0886517 -1.4014066
2.8546798 0.02891867 0.5851232 0.3993193 -1.2819139 -0.45046225 -0.1761676 0.08177794
0.1437337 -0.07101634 -0.014876804 0.015132745 -0.013833306 -0.0064640623 0.06317087 -0.15629263
-0.4044397 -0.12709938 -0.25104883 -0.06317435 -0.18397862 -4.2125134 -2.6079323 -1.0564474

l1.bias f4 [800]
00000000: 0205 1fc0 302b bcbf 77ac 4340 1f3c 3abe
00000010: fe5a bebf 6d8d a8bf ce69 5340 4818 9bbf
00000020: f995 00bf 2cee 94bf fe0a e93f 3875 c33e
00000030: 7ce9 a73c 8e75 10c0 0550 2dbf 3731 6040
00000040: a340 16c0 4c34 86c0 83a2 a4be b7c5 a6bf
00000050: f62b bb3e 7465 a3bf fcae 0840 27b6 863f
00000060: fa25 65bf 04e1 01bf e178 e2bf bc00 0940
00000070: 7de6 81bf a628 7cbf 947b bcbf d147 bf3f
00000080: fb29 95bf bfec f23f 36d7 a1be 1bdb afbf
00000090: 7635 b7bf 3577 11bf cc93 4640 fa88 3b40
000000a0: 6e68 e8bf e0b7 8ebe e4c4 c9bd 50ac e6bf
000000b0: 94d7 2cbf 0c18 cbbf 6e95 0fc0 8b40 e3bf
000000c0: bfa6 9fbf cef5 a03e c80f eebf bdee b2bf
000000d0: e455 85c0 abc6 47c0 e36d dcbf da25 c5bf
000000e0: f138 85bf 2b0e 21c0 e029 3cbf c3bd 6fbf
000000f0: 345b 643d d31b f93f a76c ab3f 08dc 403f
00000100: 948d 22c0 60e2 55bf b193 76be b0c1 32c0
00000110: 1f1e 0bc0 9efe 743f 1d68 88bf 03df 66bf
00000120: a551 73bf 2854 dabf 1909 98bf 56ad 1f40
00000130: d3bd 64bf bdbb cebd d14d 0ebf 0f4f e63d
00000140: 5c7c 9ebf fe7f 0cc0 302c 02c0 afe0 47bf
00000150: a931 0440 b30d 6ebf 204a 8cbf 1a52 89bf
00000160: aeac 853f fcb4 c1bf 5685 e6bf a37f 2fc0
00000170: eb7f aabf 2d43 2a3f b6de 2a3f 6314 db3c
00000180: 2bc8 60bf 5ec3 3240 0e41 8cbe abf1 d5be
00000190: 456a cdbf 2fa7 85bf 099f 11c0 1592 b8bf
000001a0: 5504 26c0 5dce 6ec0 797c f4bf abbe 9dbf
000001b0: 8d98 93be 2922 3dbf 8bf1 bcbf 3590 febf
000001c0: db8c 41bf ffa4 6dc0 0dd4 f1bf 5d27 18c0
000001d0: 600e 90bf 6124 aec0 8ab3 53bf 37ea 09c0
000001e0: ac5e 35c0 eaf3 3dc0 0267 d43e 7dc3 2bbf
000001f0: 06f8 43c0 fb43 12c0 e6db 08c0 945a 78bf
00000200: 7502 f9bf 5e29 edbf 10db ffbf e013 1abf
00000210: b987 76be 8db4 1a40 e068 6ebf 517d 3ebf
00000220: 0ae3 95bf 6781 92be a61e f13f 4113 dfbf
00000230: fab8 0e3f 6815 23c0 c3ec dbbf 16ad 0dbf
00000240: 1957 efbf 2ff7 58bf 3ad4 90bf 6d38 15c0
00000250: 6d0a 02c0 c0cf 69c0 c3cd 153f 4315 c73e
00000260: 68d4 92bf d0bc a4bf 6a2c 4e40 09cf 32c0
00000270: 753b bbbf f777 1ec0 b1a6 f2bf 5777 f63f
00000280: cef8 ba3f 86ca 1bc0 17fe 0ac0 915e 4340
00000290: 2d66 d4bf d31a 1ac0 55a9 903f 30c0 b5be
000002a0: 5bfe 173f 22fe c0bf 72e7 d4bf c28a 16c0
000002b0: a446 0cc0 8f16 24c0 ae64 dfbe 3c93 9c3f
000002c0: b02b d7bd 217a 61c0 2b80 8d3e be9a c8bf
000002d0: 1d30 b6bf 38e7 58bf 1bca 4740 0f49 e1bf
000002e0: 2808 8ebf 84fd 0ac0 6aa4 87bf 42bb 5bbf
000002f0: 97f6 a3bf 93c8 34c0 bc5c 4240 412b 0040
00000300: eac3 b3bf 72a1 ff3e 518b aabf 9f03 ebbf
00000310: 907d 38bf 49c4 0e3f 0e56 1340 c00e 75bf
00000320: 410b 93bf ca0a c33f 3f82 30c0 677e f2bf
00000330: b435 73be f1c6 c7bf a415 4040 443e 0e40
00000340: d682 0840 4db6 8ebf 95f7 92c0 6f47 c5bf
00000350: 643b dcbf 4848 efbf 8d77 c4bf 8e2e 6fbe
00000360: 52b9 25c0 cf4c 7d3f e134 a2be 7216 07c0
00000370: c17a c13f d73d d0bf 1c0f 27bf 5134 7bbe
00000380: 4198 cdbf 7c1e 37c0 a749 d1bf 7abd 33c0
00000390: cebe 99bd 2c05 2ec0 61d3 0bbf bccb 273f
000003a0: 1007 9bbf ec3e fbbf ba47 1e3e 5cd8 a0bf
000003b0: 6cd9 08c0 5b32 2140 9c90 acbf d4dc 01bf
000003c0: 3c87 35c0 dedd c3bf 82f1 e0bf f518 9b3e
000003d0: 33c9 19c0 dffb f2bf 6ab4 b4bf 5317 cfbf
000003e0: 9a7e 14bf bf80 d93e 4d24 27bf 0fcc 403e
000003f0: 0781 57c0 aab4 7abf 5740 c9bf 1fc4 863f
-2.4846807 -1.470068 3.0574014 -0.18186997 -1.4871519 -1.316816 3.3033328 -1.2116785
-0.5022884 -1.1635184 1.820648 0.38175368 0.020497076 -2.257175 -0.67700225 3.5030038
-2.347695 -4.193884 -0.32155237 -1.3029088 0.36556977 -1.2765336 2.1356802 1.0524338
-0.8951107 -0.5073397 -1.7693139 2.1406698 -1.0148464 -0.98499525 -1.4725213 1.4943792
-1.1653436 1.8978499 -0.31609505 -1.3738741 -1.431319 -0.5682252 3.1027708 2.9302354
-1.815687 -0.2787466 -0.09852007 -1.8021336 -0.67516446 -1.5866714 -2.2434955 -1.7754072
-1.2472762 0.31437534 -1.8598566 -1.3979107 -4.1667347 -3.1215007 -1.7221035 -1.5402176
-1.0408002 -2.5164897 -0.73501396 -0.9364893 0.05575104 1.9461616 1.3392533 0.7533574
-2.5398912 -0.83548546 -0.24079777 -2.7930717 -2.1737134 0.95701015 -1.0656773 -0.9018404
-0.95046455 -1.7056932 -1.1877776 2.4949546 -0.8935215 -0.10094402 -0.5558749 0.11245548
-1.2381701 -2.195312 -2.033947 -0.78077215 2.065531 -0.92989653 -1.0960121 -1.072818
1.0443323 -1.5133357 -1.8009441 -2.7421653 -1.3320287 0.6650875 0.6674608 0.02674312
-0.8780543 2.7931743 -0.27393383 -0.4178594 -1.6048056 -1.0441645 -2.2753317 -1.4419581
-2.5940144 -3.7313454 -1.9100486 -1.2323812 -0.28827325 -0.7388025 -1.4761213 -1.9887758
-0.75605553 -3.7131956 -1.8892838 -2.3774025 -1.1254387 -5.441941 -0.8269583 -2.1549203
-2.8339033 -2.9680123 0.4148484 -0.67095166 -3.0620131 -2.2853992 -2.1384215 -0.9701321
-1.9453875 -1.8528249 -1.9988728 -0.60186577 -0.24075212 2.41727 -0.93128777 -0.7440997
-1.1709912 -0.2861435 1.8837478 -1.7427751 0.55751 -2.5481815 -1.7181629 -0.55342233
-1.8698455 -0.8475217 -1.1314766 -2.331569 -2.0318863 -3.653305 0.5851709 0.3888341
-1.1471071 -1.2870121 3.2214608 -2.7938864 -1.462752 -2.476072 -1.895712 1.925517
1.4607179 -2.434236 -2.1717584 3.0526469 -1.6593682 -2.4078872 1.1301676 -0.3549819
0.5937249 -1.5077555 -1.6633132 -2.352219 -2.1918116 -2.5638769 -0.436315 1.2232432
-0.105063796 -3.5230792 0.27636847 -1.5672224 -1.4233433 -0.8472781 3.1217105 -1.7600421
-1.1096239 -2.1717234 -1.059705 -0.8583261 -1.2809628 -2.824742 3.03691 2.00264
-1.4044163 0.4992786 -1.3323766 -1.836048 -0.72066593 0.5576826 2.3021274 -0.9572563
-1.148781 1.5237668 -2.7579496 -1.8944825 -0.23750955 -1.5607587 3.0013208 2.2225504
2.1329856 -1.1149384 -4.5927224 -1.5412425 -1.7205625 -1.8693933 -1.5348984 -0.23357603
-2.589436 0.98945326 -0.31680968 -2.110745 1.5115587 -1.6268872 -0.6525743 -0.24531676
-1.6062089 -2.8612356 -1.6350602 -2.8084397 -0.07507096 -2.7190657 -0.54619414 0.6554525
-1.211153 -1.9628577 0.15457049 -1.2566028 -2.1382704 2.5186985 -1.3481631 -0.5072758
-2.836379 -1.5302083 -1.7573702 0.30292478 -2.4029052 -1.8983115 -1.4117558 -1.6178993
-0.5800568 0.42481038 -0.65289766 0.18827842 -3.3672502 -0.9793192 -1.572276 1.0528601

l2.weight f4 [200, 800]
00000000: aa30 f33c c0da 803c 498f 42bd 705c a63c
00000010: 4eca 06bd cc9d 83bb cddc aabc 1603 86bc
00000020: 2afd 69ba b9cd 26bc 7ec2 86bc 9a25 603b
00000030: 9d29 51bd e0f0 a6bc 0268 e0bc 2043 89bc
00000040: 74fb 59bc da28 f3bc 4baa 28bd ee56 073d
00000050: 8fc7 9abc 885e 25bd ed48 6dbc 1a37 7dbc
00000060: 559a 0ebd a06c e93b fe3a 36bd 2320 16bd
00000070: 5723 d43c 6d04 ee3c d4c4 f5bc e48f da39
00000080: 98e6 b83c d8d1 083c eb63 8cbc 34dc d9bc
00000090: 1376 963c 648f b3bc db3c 0cbd 38b3 67bb
000000a0: e488 0dbd 6c3c c83a 2940 bb3b 95b3 0f3c
000000b0: 20e4 cabc 3b1c 16bd d8af 1c3a 727f e0bc
000000c0: c998 0bbb 4501 05bc c97e f3bc 9719 9bbc
000000d0: c800 a5bc 7721 37bd 905a 89bc f681 a3bc
000000e0: 943e e3bc 9fc7 363c 615c 8abd f343 03bd
000000f0: 1315 03bd b9a6 42bb 3c8a f5bc 88ec 1bbc
00000100: 477f d3bc 86a4 d2bc fb73 173b 197b 55bc
00000110: 7a2b 27bc 1b69 58bc 5eb9 acbc 62f1 4d3c
00000120: 4354 febb 7218 ce3c eddf 05bd 1dda 5abd
00000130: 413c 3bbc 6f79 1abd 8500 ee3b 8a07 023d
00000140: 904b 68bc 0ef6 2bbc 41ec 1d3c 2a9a 01ba
00000150: 1975 d6bc 32c6 eb3c 3a3e 02bd 23a3 953c
00000160: 4e04 36bc 9c83 17bd ae3d 063d f0df ccba
00000170: ab4f 03bd cbea 7dbb 9138 9dbc 9e68 783c
00000180: 952b 983c 47d8 923a 14fe 0dbc 7871 543c
00000190: 2a80 69bc 5928 4c39 cfe2 703b 688f fabc
000001a0: 5b5f 1fbd aae5 cd3a ea6b e0bc 4213 02bc
000001b0: eb74 82bd 5a65 1ebd 341a b33c e48f 5abc
000001c0: 73d8 9fba cced a03c ba39 31bd 7d52 52bb
000001d0: 2255 4dbc 2fb0 b63c 8a7e 83bc e128 01bd
000001e0: 3443 ec3c a5c9 993b 90df 5dbc 36bf e5bc
000001f0: 403d 42bd 8703 11bd 96ed 3ebd 85d7 34bd
00000200: 0847 093d af15 9bbc 8178 af3c 3f05 683c
00000210: 3922 953c 22ba 8abd 360d 2ebb b7d3 25bc
00000220: 0c14 6ebb 5a38 3bbd 5ef1 86bc 3c7d a93c
00000230: cedd f8b9 ea0a 4dbc 1cd8 05bb df63 373c
00000240: ac06 b3bc 04aa 2abc 696b 39bd b06a b03c
00000250: 5df1 86bb 8914 ce3c cc59 2b3c 141c d03b
00000260: 746d 63bb 65aa 19bc 4a67 d7bb 3535 993c
00000270: 4d37 98bc 2718 893b f0a0 a5bc 3ef9 22bd
00000280: 6a49 cdbc 0bec 3bbd f028 1dbc 8f66 07bd
00000290: 7c96 2abc c711 1bbd 715c 26bd bdff c83c
000002a0: 4745 243c f81f 893c bd3d a23c a52b 34bc
000002b0: 565c 35bd 4a4f 14bc 4578 863b 4fb3 91bc
000002c0: d0e5 133d 25f8 aa3c 19d6 693b 056c d13b
000002d0: d7c8 e63c 59dd a6bc f4e3 3d3b 486c 08bd
000002e0: 161b 49b9 5c77 e2bc 58c7 383b 78b4 25bc
000002f0: a925 7cbd 9616 783b 90b7 f23b 6af3 b0bc
00000300: 07b6 efbc 3f5f ae3c 888b 88bc c706 24bd
00000310: d173 8abb 77c5 9bbc 5417 0f3c 7a47 14bd
00000320: 5bf2 0dbb d5c9 6dbc b280 9ebc 0a46 823c
00000330: 794d 13bc af9d 92bc 97a9 66bb 7c8b 33bb
00000340: 634c 623b 1177 9dbc 2dea 653c e7f3 903c
00000350: 410e 0abc e305 0e3c f01f 7bbb 6aae 0abd
00000360: ddcb d0bb 9ac3 c5bb 18f1 08bc 89fe df3c
00000370: dd10 77bc 94a5 75bc bb94 45bd e3d9 31bd
00000380: 7ea0 1a3b c6ab 8fbd baa0 c33c 9a80 f43c
00000390: d479 50bc 0d9c e53a ac49 84ba 47d3 9abc
000003a0: f10c b0bc 2593 edbc 4182 68bd 2d2e be3c
000003b0: 3c05 21bd b109 1dbd 3027 b8bc aa30 f3bc
000003c0: b275 a7bc 34f8 c6bc 5b6c 6bbc dd59 c7bc
000003d0: ae5b 48bd e16d 273c 4005 e8bc 7887 423b
000003e0: 0899 fb3b a691 3fbc 4c2c a1ba e510 853c
000003f0: e78e 533c 518d fbbc c6ab 8fbc 3906 a83a
0.02968629 0.015729308 -0.04749993 0.02030775 -0.032907777 -0.0040166136 -0.02085724 -0.016358893
-0.0008925969 -0.010180884 -0.016450163 0.00342021 -0.051065076 -0.02037853 -0.027393345 -0.01675564
-0.01330458 -0.029682565 -0.04117803 0.033041887 -0.018893985 -0.040373355 -0.014482719 -0.015455032
-0.03481515 0.007123545 -0.044489853 -0.03665174 0.025895758 0.029054845 -0.030001082 0.00041687407
0.022570893 0.008350812 -0.017137488 -0.026594259 0.018366849 -0.02191896 -0.034237724 -0.0035354625
-0.034554377 0.0015276796 0.0057144356 0.008770843 -0.024766982 -0.036648016 0.00059771305 -0.02740452
-0.0021300784 -0.008117978 -0.029723542 -0.0189331 -0.020141974 -0.04470965 -0.016766816 -0.019959431
-0.0277398 0.011155992 -0.06755901 -0.032047223 -0.03200252 -0.0029701425 -0.029973142 -0.009516843
-0.025817527 -0.025713217 0.0023109901 -0.013029837 -0.010203237 -0.013208653 -0.021084484 0.012569757
-0.0077615096 0.02515814 -0.032684255 -0.053430665 -0.01142794 -0.037713464 0.0072632455 0.03174547
-0.014178172 -0.010495676 0.009638847 -0.00049439317 -0.026178883 0.02878103 -0.031797625 0.018266266
-0.011109425 -0.036990747 0.032773666 -0.0015630703 -0.0320584 -0.0038744684 -0.019192012 0.015161661
0.018575469 0.0011203372 -0.008666534 0.012966506 -0.014251748 0.00019469987 0.0036756282 -0.03058596
-0.038909297 0.0015708704 -0.027395207 -0.007939162 -0.063699566 -0.038670875 0.02186308 -0.01333997
-0.0012195244 0.01964464 -0.043267943 -0.0032092624 -0.012532504 0.022300808 -0.01605155 -0.031533126
0.028840639 0.0046932274 -0.013542071 -0.028045278 -0.047421694 -0.035403755 -0.0466133 -0.044150848
0.033515006 -0.018931238 0.021419765 0.014161407 0.018204795 -0.06773783 -0.0026558167 -0.0101212775
-0.0036327867 -0.045708038 -0.016472515 0.0206896 -0.00047467503 -0.012514809 -0.0020423 0.011193245
-0.021853767 -0.010416511 -0.04526845 0.021535248 -0.004118128 0.025156276 0.010458421 0.0063510034
-0.003470269 -0.009379004 -0.0065735923 0.018702129 -0.018581057 0.0041837874 -0.020218343 -0.039788477
-0.02505942 -0.045879405 -0.00959228 -0.033056792 -0.010411855 -0.03785875 -0.040615503 0.024536008
0.010026283 0.016738877 0.01980483 -0.010996734 -0.04427751 -0.009052107 0.0041036927 -0.017785696
0.03610784 0.020870278 0.003568059 0.0063910508 0.02817194 -0.020369219 0.0028974982 -0.03330639
-0.00019178944 -0.027644806 0.002819499 -0.010113828 -0.061559353 0.003785526 0.0074071363 -0.021600444
-0.029261602 0.021285651 -0.016668096 -0.040045526 -0.004225232 -0.019015057 0.008733589 -0.036200978
-0.0021659348 -0.014513453 -0.019348476 0.015902538 -0.008990639 -0.017897455 -0.0035196298 -0.0027396372
0.0034530393 -0.019221814 0.014032883 0.017694427 -0.00842625 0.008668396 -0.0038318597 -0.03385774
-0.0063719586 -0.0060352804 -0.0083582625 0.027343052 -0.015079704 -0.01499309 -0.048237544 -0.043420684
0.0023594196 -0.07015185 0.023880351 0.029846478 -0.012724359 0.001751782 -0.0010092757 -0.018899573
-0.021490546 -0.029000828 -0.056764845 0.023215378 -0.039311633 -0.03833932 -0.022479624 -0.02968629
-0.020441864 -0.024288274 -0.014369096 -0.024334842 -0.048915558 0.010219068 -0.028322816 0.0029682796
0.007678155 -0.01169244 -0.0012296527 0.016243408 0.012912489 -0.030707033 -0.017537963 0.0012819237

l2.bias f4 [200]
00000000: 1dda 5abd 7e6e 3fbd be64 86bd 4a4f 14bd
00000010: 548f 97bd c636 5d40 84aa 513c ccfe 16be
00000020: 13f1 6540 de37 6040 0371 02bd 2158 7040
00000030: e734 f93f bb84 1540 6667 c8bc db36 0d3c
00000040: 324f 6abc e41e 0bbf abc2 56be 168d 52bd
00000050: 5e2a 1f40 6cfa 6d40 88c0 4940 3a8b 2bc0
00000060: 2ab7 8ebf 0ce3 3ac0 774e 9abc c01a afbc
00000070: 89d7 7240 c8e4 37bd fd24 c8bb 35ce 3840
00000080: 903c 0540 dbae 15bd cb1a 843c fec3 13c0
00000090: 7cd4 03bd 11be 2b40 2f7d 5439 945a d0bd
000000a0: 8ab3 3abd 1b2f a93c 24ab 02c0 2a78 7640
000000b0: 7b48 62bd bce4 62bd f3ec 2a40 cf92 53bd
000000c0: 5991 54bf e5fd 7740 52a1 94bd fe7e 7bbf
000000d0: edc5 edbc 8af8 e0bc 11dd 4b40 da33 eabc
000000e0: 82a4 8bbd 0ead dbbb c456 b9bf eec5 42c0
000000f0: 3722 9b3d 6252 43bf b353 bbbc 094e d6bc
00000100: 4a22 31bd 9d6e 77bd 56ea abbd dd0e a2bc
00000110: 1968 8abd 53e0 bbbd 563f 7f40 8c5c 97bd
00000120: a3c7 7dbe 2d82 05bd ba39 313c 0ec7 acbf
00000130: 5462 b43c aefa 213e 3b7f 7ebd 068d 363a
00000140: 39f8 dcbd ba55 90bf 41d5 3a3f f1e5 cbbc
00000150: f345 2340 1361 763c 35e8 77bf 5153 4cbd
00000160: 0b80 a5be ecb8 3340 173a b23f 14b9 00c0
00000170: ad51 6740 e6ca 7140 2387 a8b8 1486 e3bf
00000180: 56a6 d33b e0e4 6140 7d32 5840 9918 19bf
00000190: d42e babf e5c7 2a3f b24d f0be 4484 04bd
000001a0: aaca 93be e8c3 7440 b520 99bf 9a03 f4bc
000001b0: 7bbe 95bc 3f9d 87bd fc09 56bf 07e6 d83f
000001c0: 947b 78bf eb65 71bf 53cf 45bd a778 d33f
000001d0: 7cae 7740 18fb 7240 7234 3bbd 8e50 99bd
000001e0: 1e77 4e40 90c8 e83a 399c 72bd a82b 7bbd
000001f0: dcfc 973f f119 7cbd 053d 193d 2c29 c6bd
00000200: f068 9bbe 9006 42bd 52ef 6b40 c723 8140
00000210: 62b7 6340 c267 33c0 3294 6e40 e761 6c40
00000220: 0dbb 88bd bb7a 6e40 aabe 29c0 607d 7540
00000230: ca44 c4bd 8fe5 5cbc 7bc9 0cbd c418 21bc
00000240: 7f12 24bd 6249 6e40 8706 4fc0 14c4 f9bf
00000250: 7561 88be f173 c2bd 43cd 13c0 07ee 49bd
00000260: bfb4 23be 7a54 60bd afa4 e33f 2320 96bd
00000270: 2056 54bd 9af0 283b 4431 03c0 4957 c53f
00000280: e07b fabc 6bc3 dabf 3c24 cc3f c15f d5bc
00000290: 2268 1040 92e9 cdbc 3460 2c40 cd43 7540
000002a0: 3db6 51bd 835b 3bbc 7001 92bd 162c bfbd
000002b0: 552c 41c0 d958 3dc0 c3d2 0dc0 b799 7f3b
000002c0: d2a7 3abd 4dc5 0ebe e418 d9be a223 56bf
000002d0: 9e78 6abf ec9c 6940 8cbd b03d 7b2c 75bd
000002e0: 55b8 50bd c930 6f40 bbe8 0cbd aebe 86bf
000002f0: b950 a6bd 9280 993f 41c2 5640 2f10 7d40
00000300: 1870 5ebd 5570 4240 5baa 3dbf 6bdc bbbc
00000310: dd54 55c0 98f7 aebc bb44 ccbf 7732 2dbd
-0.053430665 -0.046736233 -0.06562184 -0.03620843 -0.074003845 3.456468 0.012797002 -0.14745635
3.592839 3.5034099 -0.031846058 3.755379 1.946927 2.3362262 -0.024463367 0.008619036
-0.014301108 -0.5434401 -0.20972697 -0.05140408 2.486961 3.7184095 3.1523762 -2.6803727
-1.1149647 -2.9201078 -0.018836243 -0.02137506 3.7944052 -0.044895917 -0.006107925 2.8875859
2.0818214 -0.03654371 0.016126057 -2.3088374 -0.032185063 2.6834757 0.0002026453 -0.101735264
-0.045581378 0.020652344 -2.0416956 3.8510842 -0.055244904 -0.05539392 2.6707122 -0.05165368
-0.8303428 3.8748715 -0.07257332 -0.9824065 -0.029025042 -0.027462263 3.1853678 -0.028589178
-0.06818487 -0.0067039793 -1.4479604 -3.0433307 0.07574885 -0.7629758 -0.02286706 -0.026160257
-0.04324559 -0.060408223 -0.083943054 -0.019782478 -0.06758136 -0.09173646 3.9882407 -0.07390699
-0.24783187 -0.03259485 0.010816986 -1.3498247 0.022019543 0.15818283 -0.062133055 0.0006963763
-0.10789532 -1.1276162 0.7298165 -0.024889918 2.5511444 0.015037793 -0.96838695 -0.049884144
-0.32324252 2.8081617 1.3923978 -2.0112963 3.61436 3.778009 -8.0360354e-05 -1.7775292
0.006459038 3.5295944 3.3780816 -0.5980316 -1.4545541 0.66711265 -0.46934277 -0.0323527
-0.28865558 3.8244572 -1.1963106 -0.029786874 -0.018279305 -0.06621789 -0.83608985 1.6945199
-0.97063565 -0.9429614 -0.048293423 1.6521195 3.8700247 3.7965755 -0.045704313 -0.07486068
3.2260203 0.0017759968 -0.059231017 -0.06132093 1.1874042 -0.061548177 0.03741171 -0.09675822
-0.30353498 -0.04736954 3.686482 4.0356174 3.5580678 -2.8032079 3.7277951 3.6934755
-0.06676302 3.7262409 -2.6522622 3.8357773 -0.09583433 -0.013482465 -0.034371834 -0.009832565
-0.0400567 3.723229 -3.2347734 -1.9512963 -0.26636854 -0.0949477 -2.3094032 -0.049299266
-0.15986918 -0.054768063 1.7784632 -0.07330348 -0.051839948 0.0025778175 -2.049882 1.5417262
-0.030576646 -1.7090887 1.5948558 -0.026046636 2.2563558 -0.025135789 2.6933718 3.8322632
-0.051199187 -0.011435392 -0.071291804 -0.093345806 -3.0183308 -2.9585478 -2.2159889 0.0039001533
-0.045570202 -0.13942452 -0.42401803 -0.8364812 -0.915903 3.6502028 0.08629903 -0.059856873
-0.050957043 3.7373526 -0.034401637 -1.0526941 -0.081208654 1.1992362 3.3556063 3.9541128
-0.05430612 3.0381062 -0.74088067 -0.022932252 -3.3333046 -0.021358296 -1.5958475 -0.042284455

l3.weight f4 [1, 200]
00000000: 4fc0 dd3c 12ff 1439 18c0 fbbb f549 493c
00000010: 1282 94bb d5ea c73e 5fc9 9b38 84fb f5bb
00000020: d999 dd3e e480 b73e 32b6 7cbd 233a ee3e
00000030: bc09 363f 905f 3b3f f466 bd3c ed3b a13b
00000040: a9b1 9d3a e587 c6bf 4a63 66bf ef90 363c
00000050: 0073 0d3f 8f73 4f3f c57b e33e b2a2 98bf
00000060: dfdb 5bc0 88bd abbe 1a73 01bd 64bc 96bb
00000070: 6689 0c3f c246 0bbd f6bb d23a e2cc 043f
00000080: 53ec 183f 1cde 843b ede5 84bc c5e7 34bf
00000090: 4097 883c 269c ff3e 2365 bc3c 0cfe 7fbc
000000a0: 5e63 90bb 0eab 06bd 0e65 09bf 9d5d b63e
000000b0: dd10 f73a e64f acbc d076 0e3f ad18 f7bc
000000c0: 03f0 87c0 6f97 e13e 5de2 65bc f5f2 50c0
000000d0: 51bf d63b 4761 91bc 3727 783f 21bc df3b
000000e0: 4ca9 a13c 1ec3 e5bc 2157 7dbf d866 5ebf
000000f0: 8f09 d93f 7760 75c0 0a35 0c3d 1e3b 6ebc
00000100: bbf3 033d 899d ccbc 1079 f23a c29c a73a
00000110: 20c8 ddbc 406c fa3c 21e3 d43e ba7e d7bb
00000120: fe1e c9bc 9bf0 283c 6ca7 04bd 0409 22c0
00000130: bbc8 75bd 5cfb 213f 9664 403c 0150 1d3b
00000140: 122a 133f 4134 b5bf 0bbe 893f 1ed2 06bd
00000150: 1332 1b3f c0bb f0bc aa93 99c0 b2ec 28bb
00000160: ef86 45c0 a9e2 133f 3c8b e83f 6097 9fbf
00000170: 6879 843e a39a ba3e bc5f 0e3b b542 a0bf
00000180: e34b bbbc 11e5 953e 95d9 a13e 26e7 efbf
00000190: aba7 b5bf 7320 dc3f b850 48bf e672 6639
000001a0: b637 893f de73 8b3e e7f5 f3be fd85 db3c
000001b0: f0f6 c13c eb6a 59bb 9295 5cc0 a622 343f
000001c0: 9e36 dfbf 3b25 5fc0 b4be be3c 9ad2 013f
000001d0: 55e9 963e 8895 923e d1a2 423d 2907 133d
000001e0: f93f e63e 17fe d4bb 4f30 92bb 88ca afbc
000001f0: 067f 6f3f b8b1 b93c 5135 0abb b5a8 d03c
00000200: b72a 21c0 d036 b83b e404 c53e c6c9 d73e
00000210: d7e9 8a3e 86b7 45bf fbee f23e 0561 743e
00000220: f4af c5bf 2412 5d3e 524e 67bf 4c81 893e
00000230: d7c6 913c f1bb 8bbc 8d18 3f3c 50c5 d53c
00000240: 577f efbc e427 993e 45a7 24bf cc94 0fc0
00000250: 6dc6 eebf 0bec 3b3c 5268 13bf 15f4 e4ba
00000260: 67b6 de3c 19ed debc 3b12 2c3f bb5c 6b3c
00000270: f9f2 a5bb 7ea2 6f3c 073e 8bbf d513 163f
00000280: b1ba 4dbb cb73 80bf f8ab 133f cb04 96bc
00000290: 5205 bc3e da6b 443c f6e9 053f 9dd7 c43e
000002a0: e982 553c 9af6 a7bb 2c88 04ba c6ab 8f3c
000002b0: dd05 66bf 0b5b 20bf 7618 58c0 6d16 d4bf
000002c0: 8261 3abc 4108 8b3c acd3 50c0 b853 a6c0
000002d0: 6540 d4bf db79 2a3f 1c42 93c0 1244 bbba
000002e0: 0f17 113d 3449 5d3e a237 32b9 f35d a1c0
000002f0: fd90 5238 afbe 863f a20f 103f 8878 b43e
00000300: 8e68 dc3c 3f7f e03e 08b5 03c0 26a7 063c
00000310: ac10 34bf 6153 e83a f81d 0dc0 f91b df3c
0.027069239 0.00014209401 -0.0076828115 0.012285699 -0.004532107 0.3904635 7.428484e-05 -0.0075067896
0.4328144 0.35840523 -0.061697192 0.4652873 0.71108603 0.7319269 0.023120381 0.004920474
0.0012031096 -1.5510222 -0.89995253 0.011142953 0.552536 0.81035703 0.44430366 -1.1924651
-3.4352949 -0.33543038 -0.03160391 -0.0046000946 0.54897153 -0.034003027 0.0016077745 0.51875126
0.597356 0.004054798 -0.016222918 -0.7066615 0.016673684 0.4992382 0.022997444 -0.015624534
-0.0044063767 -0.032877974 -0.5366982 0.35618296 0.001884963 -0.021034192 0.55650043 -0.030163134
-4.2480483 0.44060847 -0.01403102 -3.264829 0.0065535684 -0.01774658 0.9693484 0.0068278466
0.019734047 -0.02804714 -0.98961073 -0.8687568 1.6956042 -3.8340127 0.03423027 -0.014540462
0.03221486 -0.024977462 0.0018499214 0.0012787806 -0.027072966 0.030569196 0.41579536 -0.0065763863
-0.024550911 0.010311271 -0.03238623 -2.5318003 -0.060005885 0.6327417 0.011742732 0.0024003985
0.5748607 -1.4156572 1.0761122 -0.032915227 0.6062328 -0.029386401 -4.7992754 -0.0025775847
-3.0863607 0.5776773 1.8167491 -1.2468071 0.25873876 0.36446103 0.0021724543 -1.2520357
-0.022863334 0.29276326 0.31611314 -1.8742416 -1.4191793 1.7197403 -0.7824817 0.00021977312
1.0720127 0.27236837 -0.47648546 0.026797289 0.02367732 -0.00331753 -3.446629 0.7036537
-1.7438543 -3.4866474 0.023284294 0.5071198 0.29474893 0.28629708 0.047518555 0.0358955
0.44970682 -0.0065000164 -0.0044613252 -0.02145888 0.935532 0.02266775 -0.0021088908 0.02547107
-2.518232 0.0056217685 0.38480294 0.42146128 0.2713153 -0.7723316 0.47447953 0.23865135
-1.5444322 0.21588951 -0.9035388 0.26856458 0.01779501 -0.01705739 0.011663568 0.026095062
-0.029235525 0.29913247 -0.64317733 -2.2434568 -1.8654305 0.011469851 -0.57581055 -0.0017467762
0.027186586 -0.027212666 0.6721532 0.01436537 -0.005064365 0.0146261435 -1.0878304 0.5862401
-0.0031391794 -1.0035337 0.5768428 -0.018312832 0.3672281 0.011988604 0.5231012 0.3844575
0.0130317 -0.0051258327 -0.00050556916 0.017537963 -0.89852697 -0.6263892 -3.376493 -1.6569344
-0.011375787 0.01697171 -3.2629194 -5.1977196 -1.6582152 0.66592187 -4.60182 -0.0014287254
0.03542238 0.21609956 -0.00016996128 -5.0427184 5.0202932e-05 1.0526942 0.56273854 0.35248208
0.026905324 0.4384708 -2.0579243 0.008218562 -0.7033794 0.0017725044 -2.2049541 0.027235018
