DDPG/local_checkpoint/Walker2d-v2(orginal)/('target_critic', 7).ckpt (torch, 720343 bytes, 5 tensors)

l1.weight f4 [800, 23]
0	0xbf90774b	-1.1286405
1	0xbf2c9a5f	-0.6742305
2	0xbf83e89b	-1.030536
3	0x3e03319a	0.1281189
4	0xbed3a4d6	-0.41336697
5	0x3f3b9db6	0.7328752
6	0xbed3e149	-0.41382816
7	0xbf60dc13	-0.87835807
8	0xbf39e1de	-0.7261027
9	0x3e024d0f	0.12724708
10	0x3e9e663d	0.30937377
11	0xbe221d9e	-0.1583161
12	0xbd50c7f2	-0.050971933
13	0xbcda9c3a	-0.026685823
14	0x3dcd0d97	0.10012358
15	0x3e3ea7e6	0.18618736
16	0xbe5d2da9	-0.21599449
17	0xbdc98953	-0.09840646
18	0xbd71d2bb	-0.05903886
19	0xbd613999	-0.05498657
20	0x3e2d10a2	0.16900876
21	0xbeacd720	-0.33757877
22	0xbe0783f4	-0.1323393
23	0x3dd45df5	0.103694834
24	0x3e8db726	0.27678794
25	0x3fd2c0a0	1.6465034
26	0x3eacdbf1	0.33761552
27	0xbf1cfc44	-0.61322427
28	0x3f6576f3	0.8963463
29	0x3f68f091	0.90992075
30	0xbf9e7ff3	-1.2382797
31	0xbe598ef6	-0.21245942
32	0xbeaa7f60	-0.33300304
33	0xbed35bf6	-0.41281098
34	0x3cdcb586	0.026942026
35	0xbcc589d9	-0.024113582
36	0xbdf71208	-0.12063986
37	0x3eb02923	0.34406385
38	0x3e34bf01	0.17650987
39	0x3d2b4108	0.041810066
40	0xbdc32769	-0.09529001
41	0x3d5d6254	0.05404885
42	0xbe13a554	-0.14418536
43	0xbd65d382	-0.056109913
44	0xbe9e5a80	-0.3092842
45	0x3f15c26a	0.5849978
46	0x3e5a087c	0.21292299
47	0x3d4d71cf	0.050157364
48	0xbd86a069	-0.065735646
49	0xbe078600	-0.1323471
50	0x3ea6f1ec	0.32606447
51	0xbe031372	-0.12800387
52	0xbe2382f5	-0.15967925
53	0xbbed30f9	-0.007238504
54	0x3e8ab8c5	0.27094093
55	0x3e011b6b	0.12608115
56	0xbe19efba	-0.15032855
57	0xbd40e244	-0.047090784
58	0xbc30a0be	-0.010780511
59	0x3c276397	0.010216615
60	0xbc6ee480	-0.014580846
61	0x3df99fde	0.12188695
62	0xbc44ce06	-0.01201201
63	0x3dc82455	0.09772555
64	0x3e48b5b1	0.1960056
65	0x3d5e951b	0.054341417
66	0x3dc34685	0.09534935
67	0x3e749f22	0.2388883
68	0x3ce39063	0.02777881
69	0xbd227d69	-0.03967038
70	0x3fc7f816	1.5622585
71	0x3d62c80f	0.055366572
72	0xbd0d1672	-0.034445234
73	0x3f635f99	0.88817745
74	0xbf225a72	-0.6341926
75	0x3fa9a697	1.3253964
76	0x3f2b2353	0.66850775
77	0xbcf2ea3a	-0.029652704
78	0x3f49c0e3	0.78809947
79	0xbe83339c	-0.25625312
80	0xbe135dfb	-0.1439132
81	0xbc6c13de	-0.014409034
82	0xbda7c425	-0.081917085
83	0x3df15922	0.11784579
84	0x3dc4837e	0.09595393
85	0xbc078a4c	-0.008272719
86	0xbe034d5a	-0.12822476
87	0x3d20c7a3	0.03925289
88	0xbcb4a066	-0.02204914
89	0xbe880282	-0.26564413
90	0x3d445a90	0.04793793
91	0xbe1d90ed	-0.15387316
92	0xbfc35999	-1.5261718
93	0xbf558af1	-0.8341513
94	0x3f08c3ad	0.5342358
95	0x3f9f1bc9	1.2430354
96	0xbef224ef	-0.47293803
97	0x3f59202a	0.84814703
98	0x3ff56f4c	1.917459
99	0xbe223632	-0.15840986
100	0xbdd2f6d7	-0.10300987
101	0xbf86a2cc	-1.0518432
102	0x3e6f2cb4	0.23356897
103	0x3dd3512c	0.10318217
104	0xbc3ba596	-0.011453053
105	0xbdcdb0c1	-0.10043479
106	0xbe18dfd8	-0.1492914
107	0xbe8a0f1b	-0.2696465
108	0x3d19786e	0.037468366
109	0x3d808af6	0.06276505
110	0xbe98085f	-0.29693887
111	0x3ea785d0	0.32719278
112	0x3d3822c0	0.044955015
113	0xbf69e9d9	-0.9137245
114	0xbf3c61af	-0.73586553
115	0x3d47a2bd	0.048739184
116	0x3dee1003	0.11624148
117	0x3f84c932	1.03739
118	0x3f8e826b	1.113355
119	0x3e4c53d1	0.19953848
120	0xbf4f437a	-0.80962336
121	0xbf0f6f3e	-0.5602912
122	0xc0255926	-2.5835662
123	0xbeb1b8a8	-0.34711194
124	0x3f0c10df	0.54713243
125	0x3e415257	0.18879066
126	0xbdc59220	-0.09647012
127	0x3d727cb5	0.05920096
128	0x3c73895d	0.014864293
129	0xbd5835c3	-0.052785646
130	0xbd1122ba	-0.03543351
131	0xbd7d36b7	-0.06181976
132	0xbe46524b	-0.1936733
133	0x3eca9948	0.3957007
134	0xbde47293	-0.11154666
135	0x3d60b83a	0.054863192
136	0xbe0b5b91	-0.13609149
137	0x3da403f8	0.080085695
138	0xbe27f92c	-0.16403645
139	0x3ed4b4b2	0.4154411
140	0xbe701593	-0.2344573
141	0xbe3094c7	-0.17244254
142	0xbda74211	-0.08166898
143	0xbee6922e	-0.450334
144	0xbd42e981	-0.047585968
145	0x3e214e8c	0.1575262
146	0xbedda6b5	-0.4329125
147	0x3f27c2d6	0.6553167
148	0x3e48835f	0.19581364
149	0x3d2163e1	0.039401893
150	0x3d886c58	0.0666129
151	0x3bc4df7d	0.006008087
152	0xbe2c22d2	-0.16810158
153	0xbd8e5051	-0.06948913
154	0x3c4a70fb	0.012356038
155	0xbd222951	-0.039590184
156	0xbd0ec55b	-0.03485618
157	0x3d911c08	0.07085425
158	0xbd34d4d6	-0.04414829
159	0x3b86a0b4	0.004108513
160	0x3cd27d65	0.025694558
161	0xbf831907	-1.0242013
162	0x3f9463d8	1.159297
163	0x3ff3bdea	1.9042332
164	0x3ffcc1a8	1.9746599
165	0xbef450a0	-0.47717762
166	0x4096da7f	4.714172
167	0x3f5304fd	0.82429487
168	0xbfeea8bf	-1.8645247
169	0x3eeff6a0	0.46867847
170	0x3ebd57b0	0.36980963
171	0xbd154986	-0.03644707
172	0x3e5ab1dc	0.2135691
173	0x3e497bcd	0.19676133
174	0xbd162971	-0.036660615
175	0x3d1c1f5b	0.03811584
176	0x3e0906fd	0.13381572
177	0xbbdc3cf5	-0.006721134
178	0x3e80c26a	0.25148326
179	0xbe212b08	-0.15739071
180	0x3dffe307	0.12494474
181	0x3e0bb488	0.13643086
182	0xbcc45f45	-0.02397121
183	0xbd9e99d3	-0.077441834
184	0xbedcc35f	-0.43117806
185	0xc05024eb	-3.2522533
186	0x3f38dc7d	0.7221144
187	0x3fa40ad7	1.2815808
188	0x3e997798	0.29974055
189	0x4034e2db	2.8263462
190	0x3f9a5a87	1.2058877
191	0x3e9953f5	0.29946867
192	0xbf8853fb	-1.0650629
193	0x3e55306e	0.20819256
194	0x3d2e99c5	0.042627115
195	0x3c5109c7	0.012758679
196	0x3da07a24	0.078357965
197	0xbaf78a00	-0.0018885732
198	0x3d65dbaf	0.05611771
199	0x3d97cf45	0.074125804
200	0xbbe18b63	-0.0068830713
201	0xbc37d0aa	-0.011219183
202	0xbcb17999	-0.021664428
203	0x3cbdcba9	0.023168402
204	0x3da18c39	0.078880735
205	0xbc40ac7e	-0.011759875
206	0xbc76f2fc	-0.01507258
207	0xbf81f063	-1.0151485
208	0xbed9dd50	-0.4255166
209	0x3f0bfd8e	0.5468377
210	0x3fcbde3f	1.5927199
211	0x3f1d8db8	0.6154437
212	0x4012a368	2.2912235
213	0x401d9289	2.4620688
214	0xbe49b6bb	-0.19698612
215	0x3ef941f0	0.4868312
216	0xbdc25676	-0.09489147
217	0x3db62e57	0.088955574
218	0xbe4c9a80	-0.19980812
219	0xbe46b9e3	-0.19406848
220	0x3e3702bc	0.17872137
221	0x3dfc0665	0.12305907
222	0x3d5e462c	0.05426614
223	0x3cdd2765	0.026996324
224	0xbdce68c3	-0.100785755
225	0x3d3e979e	0.046531312
226	0x3e2ca64a	0.16860309
227	0xbe5a68e3	-0.21329074
228	0xbe3721fb	-0.17884056
229	0x3e25ef13	0.16204481
230	0xbe834925	-0.25641742
231	0xbf1344fd	-0.5752714
232	0x3e4a4286	0.19751939
233	0xbdb243b6	-0.08704321
234	0xbe78c43f	-0.24293612
235	0xbec37297	-0.38173363
236	0xbe179117	-0.14801441
237	0xbeb1ac5a	-0.34701806
238	0x3d7e5120	0.062089086
239	0x3e9d5cad	0.30734769
240	0x3d425501	0.047444347
241	0xbd41366e	-0.04717105
242	0x3c9cecf8	0.019155964
243	0xbd93b335	-0.072119154
244	0xbcaecc10	-0.021337539
245	0x3d45aaa6	0.048258446
246	0xbd4fab47	-0.050700452
247	0xbda1c617	-0.07899111
248	0xbb91ec79	-0.0044532386
249	0x3c896feb	0.016777
250	0xbe3ab8b2	-0.18234518
251	0x3cf5db32	0.030011747
252	0x3d5efa85	0.054438133
253	0xbfefb865	-1.8728148
254	0xbf7ace4f	-0.9797105
255	0xbeea5a94	-0.4577223

l1.bias f4 [800]
0	0xbf96c951	-1.1780187
1	0x3c4d65c7	0.012536473
2	0x3fd07d25	1.6288191
3	0x3e6b1567	0.22957383
4	0xbf270358	-0.6523948
5	0xbeddb44f	-0.43301627
6	0x3fcd4f29	1.6039783
7	0xbe8ddd2e	-0.2770781
8	0xbd1ce4ce	-0.038304143
9	0xbee0f0cc	-0.43933713
10	0x3f93b3bd	1.1539227
11	0x3da8e74d	0.08247242
12	0x3dfd3ebd	0.12365482
13	0xbf96397e	-1.1736295
14	0xbf13dc6c	-0.5775821
15	0x3fb29b69	1.3953677
16	0xbf6f5309	-0.93486077
17	0xbfa52d14	-1.2904382
18	0xbdc5bcb4	-0.09655133
19	0xbea359dc	-0.31904495
20	0x3e741f65	0.23840101
21	0xbf3a1c8a	-0.726998
22	0x3f98e162	1.1943781
23	0x3ed1c41a	0.40969926
24	0xbda66f70	-0.08126724
25	0xbe91fcf5	-0.28513303
26	0xbf2a7f6f	-0.666007
27	0x3fa2941a	1.2701447
28	0xbf0ee858	-0.5582328
29	0xbf2152e0	-0.6301708
30	0xbf395892	-0.7240077
31	0x3f410702	0.7540132
32	0xbeacef7e	-0.33776468
33	0x3f653a32	0.89541924
34	0x3ed545ab	0.41654715
35	0xbe76ab68	-0.24088824
36	0xbf7ecc28	-0.9953027
37	0xbe03c1ae	-0.12866852
38	0x3fcf4245	1.6192099
39	0x3fc27f4a	1.5195096
40	0xbf86b1bd	-1.0522991
41	0xbe531c3b	-0.20616238
42	0x3dc7c9ed	0.09755311
43	0xbf430e4f	-0.7619371
44	0xbee658c6	-0.44989604
45	0xbf4181ac	-0.7558849
46	0xbf9efe85	-1.2421423
47	0xbf1c037a	-0.60942805
48	0xbf03f8b5	-0.5155137
49	0x3e3991db	0.18122046
50	0xbf60647c	-0.87653327
51	0xbe78fbf8	-0.24314868
52	0xbfe91a9c	-1.8211246
53	0xbf9e6cac	-1.2376914
54	0xbf6e0b25	-0.92985755
55	0xbf810f6d	-1.0082833
56	0xbf22d03c	-0.6359899
57	0xbf707e49	-0.93942696
58	0xbeb37885	-0.35052887
59	0xbe747cad	-0.23875685
60	0x3f1519cc	0.5824249
61	0x3fa2c67f	1.2716826
62	0x3f732ead	0.94993097
63	0x3e92b846	0.28656214
64	0xbfb6147c	-1.4225001
65	0xbf177def	-0.59176534
66	0xbf29c103	-0.6631014
67	0xbf758882	-0.9591142
68	0xbf3afdc4	-0.73043466
69	0x3e749677	0.23885523
70	0xbe93bced	-0.28855076
71	0xbd6817f9	-0.056663487
72	0xbe1a3bd0	-0.15061879
73	0xbf6899e5	-0.90859824
74	0xbf0e2ed9	-0.55540234
75	0x3fb6dc73	1.4286026
76	0xbe8d2c2d	-0.27572766
77	0x3f209fa6	0.62743604
78	0x3db7d499	0.08976097
79	0xbe35efc1	-0.1776724
80	0xbf28c773	-0.65929335
81	0xbfa452eb	-1.2837805
82	0xbf5e33e5	-0.86797935
83	0xbf382f71	-0.7194739
84	0x3f8b330f	1.0874957
85	0xbeb5a0a2	-0.35474116
86	0xbddf5c98	-0.10906333
87	0xbf191d0b	-0.5980994
88	0x3f528a58	0.82242346
89	0xbe866b5a	-0.26253778
90	0xbf33aadd	-0.7018259
91	0xbfa496db	-1.2858537
92	0xbf160248	-0.5859723
93	0x3ef7b22c	0.48378122
94	0x3e03f374	0.12885839
95	0x3f01027a	0.50394404
96	0xbf14d957	-0.58144134
97	0x3fa65063	1.2993282
98	0xbe73ca21	-0.23807575
99	0x3e8efe3a	0.27928334
100	0xbf97caee	-1.1858804
101	0xbecd87f1	-0.40142778
102	0xbf739f0c	-0.9516456
103	0xbf2b9ed4	-0.6703923
104	0xbf89f982	-1.0779269
105	0xbfd2f532	-1.6481078
106	0xbf9760c2	-1.1826403
107	0xbef0daab	-0.4704183
108	0x3ea75558	0.326823
109	0xbea8c6af	-0.32964084
110	0xbf268d19	-0.6505905
111	0xbf82c01d	-1.0214878
112	0xbf0240cc	-0.5088012
113	0xbffdc5e6	-1.9826019
114	0xbf2c963d	-0.67416745
115	0xbfbbdb8c	-1.4676375
116	0xbee20480	-0.44144058
117	0xc014619a	-2.3184571
118	0xbeeb8eb4	-0.4600731
119	0xbf9baaa1	-1.2161447
120	0xbfaf927b	-1.3716577
121	0xbfa93596	-1.3219478
122	0x3ec039ba	0.37544042
123	0xbee2ad41	-0.44272807
124	0xbf911206	-1.1333625
125	0xbf8f088d	-1.1174484
126	0xbf2663d6	-0.6499609
127	0xbf3ce491	-0.73786265
128	0xbf84ffd1	-1.0390569
129	0xbf4ec968	-0.8077607
130	0xbf980fdd	-1.1879841
131	0xbda57564	-0.08079031
132	0xbdc42e10	-0.09579098
133	0x3fadc030	1.3574276
134	0xbf0087cf	-0.5020723
135	0xbe3cbb9c	-0.18430942
136	0xbed315eb	-0.4122766
137	0x3ee86301	0.45388034
138	0x3f78833d	0.97075254
139	0xbf5e8df3	-0.8693535
140	0x3f266406	0.64996374
141	0xbf981729	-1.1882068
142	0xbf28fae2	-0.66007817
143	0xbed7f282	-0.42177206
144	0xbf81ab01	-1.0130311
145	0xbf258dd2	-0.64669526
146	0xbf10c092	-0.5654384
147	0xbf25760c	-0.6463325
148	0xbf55e470	-0.8355169
149	0xbfd1908e	-1.637224
150	0x3f1a11b0	0.6018324
151	0x3f0c9694	0.54917264
152	0xbf0466c7	-0.51719326
153	0xbf2695b7	-0.65072197
154	0x3fd92da1	1.696705
155	0xbf9f7e22	-1.2460368
156	0xbef4a88a	-0.47784835
157	0xbf7dc642	-0.9913064
158	0xbf624788	-0.883904
159	0x3f85360d	1.040712
160	0x3f199d8d	0.6000603
161	0xbf7fc414	-0.99908566
162	0xbf923dd3	-1.1425117
163	0x3fc99b5e	1.5750539
164	0xbf4c1fe0	-0.7973614
165	0xbfbdacdd	-1.4818379
166	0x3f9d3a95	1.2283503
167	0xbe434efb	-0.19073097
168	0x3f0837ee	0.5321034
169	0xbee8559c	-0.45377815
170	0xbec63ca4	-0.3871814
171	0xbf7dc851	-0.99133784
172	0xbf8a4706	-1.0802925
173	0xbfad476f	-1.3537425
174	0x3e385ce2	0.18004182
175	0x3f94b9a7	1.1619157
176	0x3e6c0dae	0.23052093
177	0xc006fcb7	-2.1091745
178	0xbdaffcf8	-0.08593172
179	0xbf30eea8	-0.6911416
180	0xbf2d8d86	-0.6779407
181	0xbea15568	-0.31510472
182	0x3fd0dd59	1.631755
183	0xbf6c8c3d	-0.92401487
184	0xbdf961f2	-0.12176885
185	0xbfa6f807	-1.3044442
186	0xbe829cb4	-0.2551018
187	0xbf35de35	-0.71042186
188	0xbf41170a	-0.7542578
189	0xbf6583d8	-0.896543
190	0x3fc9dcb2	1.5770476
191	0x3f9e39b7	1.2361363
192	0xbf652520	-0.89509773
193	0xbd5ed6b5	-0.05440398
194	0xbf1324fe	-0.5747832
195	0xbf17a82a	-0.59240973
196	0xbdf0dc2e	-0.11760746
197	0x3f39789d	0.72449666
198	0x3f978dcf	1.1840152
199	0x3ce77408	0.02825357
200	0x3e73ecf6	0.23820862
201	0x3f9bdff6	1.2177722
202	0xbfa4f5e0	-1.2887535
203	0xbf8b8240	-1.0899124
204	0x3f655981	0.895897
205	0xbf00cc5f	-0.50311846
206	0x3fcad1be	1.5845258
207	0x3fb45ca6	1.4090774
208	0x3f74ed40	0.95674515
209	0xbf22add6	-0.635465
210	0xc011c22b	-2.277476
211	0xbe95fc3b	-0.29294
212	0xbf51cc9d	-0.8195284
213	0xbf7fb982	-0.9989244
214	0xbf10a7fe	-0.56506336
215	0x3e1846e2	0.1487079
216	0xbfb95e4e	-1.4481905
217	0x3f2165fc	0.6304624
218	0xbe2c04ba	-0.16798678
219	0xbf998ecc	-1.1996703
220	0x3f7a8e9c	0.97873855
221	0xbed7b239	-0.4212816
222	0x3e371a23	0.17881064
223	0x3e8cd6c1	0.27507594
224	0xbed536ef	-0.41643474
225	0xbfb72a1c	-1.4309726
226	0xbf02a429	-0.5103174
227	0xbf46bcd5	-0.77631885
228	0x3e960053	0.29297122
229	0xbfc833a1	-1.5640756
230	0x3f546888	0.82972
231	0x3f412577	0.7544779
232	0xbefcaa81	-0.49348834
233	0xbf4ae213	-0.7925121
234	0xbe5336c4	-0.2062636
235	0xbf18d998	-0.5970702
236	0xbf69645c	-0.9116876
237	0x3fb9606f	1.4482554
238	0xbf132368	-0.574759
239	0xbe52b875	-0.20578177
240	0xbf82484b	-1.0178312
241	0xbf01b2fe	-0.50663745
242	0xbf1dd3ae	-0.6165112
243	0x3d7aff4f	0.061278637
244	0xbf9205dc	-1.1408038
245	0xbf8c73c0	-1.0972824
246	0xbf06a12d	-0.52589685
247	0xbecedc8e	-0.40402645
248	0xbefe1057	-0.4962184
249	0x3e494c70	0.19658065
250	0xbec83768	-0.39104772
251	0x3f151199	0.58229977
252	0xbfc90427	-1.5704392
253	0xbeb72133	-0.35767516
254	0xbf04a069	-0.51807266
255	0x3f895075	1.0727679

l2.weight f4 [200, 800]
0	0x3cf330aa	0.02968629
1	0x3c80dac0	0.015729308
2	0xbd428f49	-0.04749993
3	0x3ca65c70	0.02030775
4	0xbd06ca4e	-0.032907777
5	0xbb839dcc	-0.0040166136
6	0xbcaadccd	-0.02085724
7	0xbc860316	-0.016358893
8	0xba69fd2a	-0.0008925969
9	0xbc26cdb9	-0.010180884
10	0xbc86c27e	-0.016450163
11	0x3b60259a	0.00342021
12	0xbd51299d	-0.051065076
13	0xbca6f0e0	-0.02037853
14	0xbce06802	-0.027393345
15	0xbc894320	-0.01675564
16	0xbc59fb74	-0.01330458
17	0xbcf328da	-0.029682565
18	0xbd28aa4b	-0.04117803
19	0x3d0756ee	0.033041887
20	0xbc9ac78f	-0.018893985
21	0xbd255e88	-0.040373355
22	0xbc6d48ed	-0.014482719
23	0xbc7d371a	-0.015455032
24	0xbd0e9a55	-0.03481515
25	0x3be96ca0	0.007123545
26	0xbd363afe	-0.044489853
27	0xbd162023	-0.03665174
28	0x3cd42357	0.025895758
29	0x3cee046d	0.029054845
30	0xbcf5c4d4	-0.030001082
31	0x39da8fe4	0.00041687407
32	0x3cb8e698	0.022570893
33	0x3c08d1d8	0.008350812
34	0xbc8c63eb	-0.017137488
35	0xbcd9dc34	-0.026594259
36	0x3c967613	0.018366849
37	0xbcb38f64	-0.02191896
38	0xbd0c3cdb	-0.034237724
39	0xbb67b338	-0.0035354625
40	0xbd0d88e4	-0.034554377
41	0x3ac83c6c	0.0015276796
42	0x3bbb4029	0.0057144356
43	0x3c0fb395	0.008770843
44	0xbccae420	-0.024766982
45	0xbd161c3b	-0.036648016
46	0x3a1cafd8	0.00059771305
47	0xbce07f72	-0.02740452
48	0xbb0b98c9	-0.0021300784
49	0xbc050145	-0.008117978
50	0xbcf37ec9	-0.029723542
51	0xbc9b1997	-0.0189331
52	0xbca500c8	-0.020141974
53	0xbd372177	-0.04470965
54	0xbc895a90	-0.016766816
55	0xbca381f6	-0.019959431
56	0xbce33e94	-0.0277398
57	0x3c36c79f	0.011155992
58	0xbd8a5c61	-0.06755901
59	0xbd0343f3	-0.032047223
60	0xbd031513	-0.03200252
61	0xbb42a6b9	-0.0029701425
62	0xbcf58a3c	-0.029973142
63	0xbc1bec88	-0.009516843
64	0xbcd37f47	-0.025817527
65	0xbcd2a486	-0.025713217
66	0x3b1773fb	0.0023109901
67	0xbc557b19	-0.013029837
68	0xbc272b7a	-0.010203237
69	0xbc58691b	-0.013208653
70	0xbcacb95e	-0.021084484
71	0x3c4df162	0.012569757
72	0xbbfe5443	-0.0077615096
73	0x3cce1872	0.02515814
74	0xbd05dfed	-0.032684255
75	0xbd5ada1d	-0.053430665
76	0xbc3b3c41	-0.01142794
77	0xbd1a796f	-0.037713464
78	0x3bee0085	0.0072632455
79	0x3d02078a	0.03174547
80	0xbc684b90	-0.014178172
81	0xbc2bf60e	-0.010495676
82	0x3c1dec41	0.009638847
83	0xba019a2a	-0.00049439317
84	0xbcd67519	-0.026178883
85	0x3cebc632	0.02878103
86	0xbd023e3a	-0.031797625
87	0x3c95a323	0.018266266
88	0xbc36044e	-0.011109425
89	0xbd17839c	-0.036990747
90	0x3d063dae	0.032773666
91	0xbaccdff0	-0.0015630703
92	0xbd034fab	-0.0320584
93	0xbb7deacb	-0.0038744684
94	0xbc9d3891	-0.019192012
95	0x3c78689e	0.015161661
96	0x3c982b95	0.018575469
97	0x3a92d847	0.0011203372
98	0xbc0dfe14	-0.008666534
99	0x3c547178	0.012966506
100	0xbc69802a	-0.014251748
101	0x394c2859	0.00019469987
102	0x3b70e2cf	0.0036756282
103	0xbcfa8f68	-0.03058596
104	0xbd1f5f5b	-0.038909297
105	0x3acde5aa	0.0015708704
106	0xbce06bea	-0.027395207
107	0xbc021342	-0.007939162
108	0xbd8274eb	-0.063699566
109	0xbd1e655a	-0.038670875
110	0x3cb31a34	0.02186308
111	0xbc5a8fe4	-0.01333997
112	0xba9fd873	-0.0012195244
113	0x3ca0edcc	0.01964464
114	0xbd3139ba	-0.043267943
115	0xbb52527d	-0.0032092624
116	0xbc4d5522	-0.012532504
117	0x3cb6b02f	0.022300808
118	0xbc837e8a	-0.01605155
119	0xbd0128e1	-0.031533126
120	0x3cec4334	0.028840639
121	0x3b99c9a5	0.0046932274
122	0xbc5ddf90	-0.013542071
123	0xbce5bf36	-0.028045278
124	0xbd423d40	-0.047421694
125	0xbd110387	-0.035403755
126	0xbd3eed96	-0.0466133
127	0xbd34d785	-0.044150848
128	0x3d094708	0.033515006
129	0xbc9b15af	-0.018931238
130	0x3caf7881	0.021419765
131	0x3c68053f	0.014161407
132	0x3c952239	0.018204795
133	0xbd8aba22	-0.06773783
134	0xbb2e0d36	-0.0026558167
135	0xbc25d3b7	-0.0101212775
136	0xbb6e140c	-0.0036327867
137	0xbd3b385a	-0.045708038
138	0xbc86f15e	-0.016472515
139	0x3ca97d3c	0.0206896
140	0xb9f8ddce	-0.00047467503
141	0xbc4d0aea	-0.012514809
142	0xbb05d81c	-0.0020423
143	0x3c3763df	0.011193245
144	0xbcb306ac	-0.021853767
145	0xbc2aaa04	-0.010416511
146	0xbd396b69	-0.04526845
147	0x3cb06ab0	0.021535248
148	0xbb86f15d	-0.004118128
149	0x3cce1489	0.025156276
150	0x3c2b59cc	0.010458421
151	0x3bd01c14	0.0063510034
152	0xbb636d74	-0.003470269
153	0xbc19aa65	-0.009379004
154	0xbbd7674a	-0.0065735923
155	0x3c993535	0.018702129
156	0xbc98374d	-0.018581057
157	0x3b891827	0.0041837874
158	0xbca5a0f0	-0.020218343
159	0xbd22f93e	-0.039788477
160	0xbccd496a	-0.02505942
161	0xbd3bec0b	-0.045879405
162	0xbc1d28f0	-0.00959228
163	0xbd07668f	-0.033056792
164	0xbc2a967c	-0.010411855
165	0xbd1b11c7	-0.03785875
166	0xbd265c71	-0.040615503
167	0x3cc8ffbd	0.024536008
168	0x3c244547	0.010026283
169	0x3c891ff8	0.016738877
170	0x3ca23dbd	0.01980483
171	0xbc342ba5	-0.010996734
172	0xbd355c56	-0.04427751
173	0xbc144f4a	-0.009052107
174	0x3b867845	0.0041036927
175	0xbc91b34f	-0.017785696
176	0x3d13e5d0	0.03610784
177	0x3caaf825	0.020870278
178	0x3b69d619	0.003568059
179	0x3bd16c05	0.0063910508
180	0x3ce6c8d7	0.02817194
181	0xbca6dd59	-0.020369219
182	0x3b3de3f4	0.0028974982
183	0xbd086c48	-0.03330639
184	0xb9491b16	-0.00019178944
185	0xbce2775c	-0.027644806
186	0x3b38c758	0.002819499
187	0xbc25b478	-0.010113828
188	0xbd7c25a9	-0.061559353
189	0x3b781696	0.003785526
190	0x3bf2b790	0.0074071363
191	0xbcb0f36a	-0.021600444
192	0xbcefb607	-0.029261602
193	0x3cae5f3f	0.021285651
194	0xbc888b88	-0.016668096
195	0xbd2406c7	-0.040045526
196	0xbb8a73d1	-0.004225232
197	0xbc9bc577	-0.019015057
198	0x3c0f1754	0.008733589
199	0xbd14477a	-0.036200978
200	0xbb0df25b	-0.0021659348
201	0xbc6dc9d5	-0.014513453
202	0xbc9e80b2	-0.019348476
203	0x3c82460a	0.015902538
204	0xbc134d79	-0.008990639
205	0xbc929daf	-0.017897455
206	0xbb66a997	-0.0035196298
207	0xbb338b7c	-0.0027396372
208	0x3b624c63	0.0034530393
209	0xbc9d7711	-0.019221814
210	0x3c65ea2d	0.014032883
211	0x3c90f3e7	0.017694427
212	0xbc0a0e41	-0.00842625
213	0x3c0e05e3	0.008668396
214	0xbb7b1ff0	-0.0038318597
215	0xbd0aae6a	-0.03385774
216	0xbbd0cbdd	-0.0063719586
217	0xbbc5c39a	-0.0060352804
218	0xbc08f118	-0.0083582625
219	0x3cdffe89	0.027343052
220	0xbc7710dd	-0.015079704
221	0xbc75a594	-0.01499309
222	0xbd4594bb	-0.048237544
223	0xbd31d9e3	-0.043420684
224	0x3b1aa07e	0.0023594196
225	0xbd8fabc6	-0.07015185
226	0x3cc3a0ba	0.023880351
227	0x3cf4809a	0.029846478
228	0xbc5079d4	-0.012724359
229	0x3ae59c0d	0.001751782
230	0xba8449ac	-0.0010092757
231	0xbc9ad347	-0.018899573
232	0xbcb00cf1	-0.021490546
233	0xbced9325	-0.029000828
234	0xbd688241	-0.056764845
235	0x3cbe2e2d	0.023215378
236	0xbd21053c	-0.039311633
237	0xbd1d09b1	-0.03833932
238	0xbcb82730	-0.022479624
239	0xbcf330aa	-0.02968629
240	0xbca775b2	-0.020441864
241	0xbcc6f834	-0.024288274
242	0xbc6b6c5b	-0.014369096
243	0xbcc759dd	-0.024334842
244	0xbd485bae	-0.048915558
245	0x3c276de1	0.010219068
246	0xbce80540	-0.028322816
247	0x3b428778	0.0029682796
248	0x3bfb9908	0.007678155
249	0xbc3f91a6	-0.01169244
250	0xbaa12c4c	-0.0012296527
251	0x3c8510e5	0.016243408
252	0x3c538ee7	0.012912489
253	0xbcfb8d51	-0.030707033
254	0xbc8fabc6	-0.017537963
255	0x3aa80639	0.0012819237

l2.bias f4 [200]
0	0xbd5ada1d	-0.053430665
1	0xbd3f6e7e	-0.046736233
2	0xbd8664be	-0.06562184
3	0xbd144f4a	-0.03620843
4	0xbd978f54	-0.074003845
5	0x3fe06473	1.7530655
6	0x3c51aa84	0.012797002
7	0xbe16fecc	-0.14745635
8	0x3fd73031	1.6811582
9	0x3fda44be	1.7052228
10	0xbd027103	-0.031846058
11	0x3fe6db9d	1.8035771
12	0x3f75d47b	0.96027344
13	0x3fb16a0c	1.3860488
14	0xbcc86766	-0.024463367
15	0x3c0d36db	0.008619036
16	0xbc6a4f32	-0.014301108
17	0xbeeb26ec	-0.45928133
18	0x3c0e9285	0.008701925
19	0xbd528d16	-0.05140408
20	0x3fa23014	1.2670922
21	0x3fcc76de	1.5973775
22	0x3fcabec7	1.5839471
23	0xbfc9950a	-1.5748608
24	0xbf007453	-0.50177497
25	0xbfbe6427	-1.4874314
26	0xbc9a4e77	-0.018836243
27	0xbbed123d	-0.00723484
28	0x3fe5fc89	1.7967693
29	0xbd37e4c8	-0.044895917
30	0xbbc824fd	-0.006107925
31	0x3fa95608	1.322938
32	0x3f9bb2a5	1.2163893
33	0xbd15aedb	-0.03654371
34	0x3c841acb	0.016126057
35	0xbf8a5990	-1.0808582
36	0xbd03d47c	-0.032185063
37	0x3fb4f658	1.4137678
38	0x39547d2f	0.0002026453
39	0xbdd05a94	-0.101735264
40	0xbd3ab38a	-0.045581378
41	0x3ca92f1b	0.020652344
42	0xbf40333a	-0.75078166
43	0x3ff7cba4	1.9359021
44	0xbd62487b	-0.055244904
45	0xbd62e4bc	-0.05539392
46	0x3facdba5	1.350453
47	0xbd5392cf	-0.05165368
48	0xbe6b39ec	-0.22971314
49	0x3ff195b8	1.8873816
50	0xbd94a152	-0.07257332
51	0xbf2c6145	-0.6733592
52	0xbcedc5ed	-0.029025042
53	0xbce0f88a	-0.027462263
54	0x3fc7211f	1.5556983
55	0xbcea33da	-0.028589178
56	0xbd8ba482	-0.06818487
57	0x3ccd0ae9	0.025029616
58	0xbf363899	-0.7118011
59	0xbfc880db	-1.5664324
60	0x3e2d5d5c	0.16930145
61	0xbeef99d9	-0.46797064
62	0xbcbb53b3	-0.02286706
63	0xbcd64e09	-0.026160257
64	0xbc7bcbd1	-0.015368418
65	0xbd776e9d	-0.060408223
66	0xbdabea56	-0.083943054
67	0xbca20edd	-0.019782478
68	0xbd8a6819	-0.06758136
69	0xbdbbe053	-0.09173646
70	0x3ff58ab0	1.9182949
71	0xbcb8ac00	-0.022542953
72	0xbe7da37e	-0.24769399
73	0xbd05822d	-0.03259485
74	0x3c3139ba	0.010816986
75	0xbe8948bd	-0.26813307
76	0x3cb46254	0.022019543
77	0x3e0d091a	0.13773003
78	0xbd7e7f3b	-0.062133055
79	0x3a368d06	0.0006963763
80	0xbe6cde68	-0.23131716
81	0xbeec890c	-0.46198308
82	0x3f13ea38	0.57779264
83	0xbccbe5f1	-0.024889918
84	0x3fb31229	1.3989917
85	0x3c766113	0.015037793
86	0xbf1b2460	-0.6060238
87	0xbd4c5351	-0.049884144
88	0xbea4bb1d	-0.32174006
89	0x3fb68324	1.4258771
90	0x3f6b538f	0.91924375
91	0xbfaa5656	-1.3307598
92	0x3fea6215	1.8311182
93	0x3fe21c22	1.7664835
94	0xb8a88723	-8.0360354e-05
95	0xbf7a2810	-0.9771738
96	0x3bd3a656	0.006459038
97	0x3fd9e04c	1.7021575
98	0x3fd72205	1.6807257
99	0xbde7c5a7	-0.11316996
100	0xbf1b92da	-0.6077095
101	0x3eb569b5	0.3543221
102	0xbcf8566c	-0.030314647
103	0xbd048444	-0.0323527
104	0xbea996a9	-0.33122757
105	0x3fee50c5	1.8618399
106	0xbf03f79b	-0.5154969
107	0x3b017701	0.001975477
108	0xbc95be7b	-0.018279305
109	0xbd879d3f	-0.06621789
110	0xbec591a9	-0.38587692
111	0x3f7b4f5e	0.9816798
112	0xbf2e0490	-0.6797571
113	0xbf5077a5	-0.81432563
114	0xbd45cf53	-0.048293423
115	0x3f266611	0.6499949
116	0x3fec72b1	1.8472501
117	0x3fedd703	1.8581241
118	0xbd3b3472	-0.045704313
119	0xbd99508e	-0.07486068
120	0x3fc4b4e2	1.5367701
121	0x3ae8c890	0.0017759968
122	0xbd729c39	-0.059231017
123	0xbc87cc1f	-0.016576825
124	0x3e9d69f6	0.30744904
125	0xbd7c19f1	-0.061548177
126	0x3d193d05	0.03741171
127	0xbdc6292c	-0.09675822
128	0xbe18b476	-0.1491259
129	0xbd420690	-0.04736954
130	0x3fe92c05	1.8216559
131	0x3ff4cfd4	1.9125924
132	0x3fea44a1	1.8302194
133	0xbf94d616	-1.1627834
134	0x3fddcb11	1.7327596
135	0x3fe19495	1.7623469
136	0x3ca3bab9	0.019986497
137	0x3fecb650	1.8493137
138	0xbf9f7dc8	-1.246026
139	0x3ff91d69	1.94621
140	0xbdc444ca	-0.09583433
141	0xbc5ce58f	-0.013482465
142	0xbd0cc97b	-0.034371834
143	0xbc2118c4	-0.009832565
144	0xbc0e6b75	-0.008692612
145	0x3fe196d5	1.7624155
146	0xbfc964a0	-1.5733833
147	0xbf9a67f1	-1.206297
148	0xbe96058a	-0.293011
149	0xbdc273f1	-0.0949477
150	0xbf946fc5	-1.1596609
151	0xbd49ee07	-0.049299266
152	0xbe23b4bf	-0.15986918
153	0xbd60547a	-0.054768063
154	0x3f7d09fc	0.9884336
155	0xbd962023	-0.07330348
156	0xbd545620	-0.051839948
157	0x3b28f09a	0.0025778175
158	0xbf783646	-0.96957815
159	0x3f852d74	1.0404496
160	0xbcfa7be0	-0.030576646
161	0xbf322a9c	-0.69596267
162	0x3f491c13	0.7855846
163	0xbcd55fc1	-0.026046636
164	0x3f6f5590	0.93489933
165	0x3bd8fd8c	0.006622022
166	0x3fbb8c42	1.4652178
167	0x3ff2a85c	1.8957629
168	0xbd51b63d	-0.051199187
169	0xbc3b5b83	-0.011435392
170	0xbd920170	-0.071291804
171	0xbd7c3c50	-0.061580956
172	0xbfc08e89	-1.5043498
173	0xbfc496b6	-1.5358493
174	0xbf826ec1	-1.019005
175	0xbdb3dd9b	-0.08782502
176	0xbd3aa7d2	-0.045570202
177	0xbe0ec54d	-0.13942452
178	0xbe54e8fa	-0.20791999
179	0xbf01b9c9	-0.5067411
180	0xbf00eb35	-0.503589
181	0x3fe20a51	1.7659398
182	0xbcfe93f0	-0.031076401
183	0xbd752c7b	-0.059856873
184	0xbd50b855	-0.050957043
185	0x3feb0a92	1.8362601
186	0xbd0ce6f4	-0.03439994
187	0xbf13b331	-0.576953
188	0xbda650b9	-0.081208654
189	0x3f131546	0.57454336
190	0x3fc6d215	1.5532862
191	0x3ff47bf9	1.9100333
192	0xbd5e7018	-0.05430612
193	0x3fd04242	1.627022
194	0xbec8618a	-0.39136916
195	0xbcbbdc6b	-0.022932252
196	0xbfd78772	-1.683821
197	0xbcaef798	-0.021358296
198	0xbf92558e	-1.1432359
199	0xbce6f3cf	-0.028192429

l3.weight f4 [1, 200]
0	0x3cddc04f	0.027069239
1	0x3914ff12	0.00014209401
2	0xbbfbc018	-0.0076828115
3	0x3c4949f5	0.012285699
4	0xbb948212	-0.004532107
5	0x3ea49932	0.3214813
6	0x389bc95f	7.428484e-05
7	0xbbf5fb84	-0.0075067896
8	0x3eca461b	0.3950661
9	0x3e838fc2	0.25695616
10	0xbd7cb632	-0.061697192
11	0x3e9dd0c9	0.30823353
12	0x3f184f8a	0.59496367
13	0x3ee2396c	0.44184434
14	0x3cbd66f4	0.023120381
15	0x3ba13bed	0.004920474
16	0x3a9db1a9	0.0012031096
17	0xbf429d41	-0.760212
18	0xbce43895	-0.027859012
19	0x3c3690ef	0.011142953
20	0x3f6331e4	0.88748
21	0x3f1c80af	0.61133856
22	0x3eb62941	0.3557835
23	0xbf33367d	-0.7000502
24	0xc00985a3	-2.1487815
25	0xbee28d8e	-0.44248623
26	0xbd01731a	-0.03160391
27	0xbca1823c	-0.01971542
28	0x3e6e70b4	0.2328518
29	0xbd0b46c2	-0.034003027
30	0x3ad2bbf6	0.0016077745
31	0x3ef0157c	0.4689139
32	0x3f4aff9e	0.7929629
33	0x3b84de1c	0.004054798
34	0xbc84e5ed	-0.016222918
35	0xbf4c9dee	-0.7992848
36	0x3c889740	0.016673684
37	0x3ee16825	0.44024768
38	0x3cbc6523	0.022997444
39	0xbc7ffe0c	-0.015624534
40	0xbb90635e	-0.0044063767
41	0xbd06ab0e	-0.032877974
42	0xbf234640	-0.6377907
43	0x3ea9026e	0.33009666
44	0x3af710dd	0.001884963
45	0xbcac4fe6	-0.021034192
46	0x3eef0726	0.4668514
47	0xbcf718ad	-0.030163134
48	0xc0110625	-2.266
49	0x3ea5303c	0.32263362
50	0xbc65e25d	-0.01403102
51	0xbfb4ca71	-1.412428
52	0x3bd6bf51	0.0065535684
53	0xbc916147	-0.01774658
54	0x3f51dc28	0.81976557
55	0x3bdfbc21	0.0068278466
56	0x3ca1a94c	0.019734047
57	0x3b721768	0.003694022
58	0xbf2b0db7	-0.668178
59	0xbf2fa281	-0.68607336
60	0x3f9770f2	1.1831343
61	0xbfef4876	-1.8693988
62	0x3d0c350a	0.03423027
63	0xbc6e3b1e	-0.014540462
64	0xbb79e387	-0.0038130002
65	0xbccc9d89	-0.024977462
66	0x3af27910	0.0018499214
67	0x3aa79cc2	0.0012787806
68	0xbcddc820	-0.027072966
69	0x3cfa6c40	0.030569196
70	0x3ea0a88d	0.31378594
71	0xbc33aea4	-0.010966931
72	0xbcc7f04c	-0.024406575
73	0x3c28f09b	0.010311271
74	0xbd04a76c	-0.03238623
75	0xbf926b87	-1.1439065
76	0xbd75c8bb	-0.060005885
77	0x3f72edb5	0.9489396
78	0x3c406496	0.011742732
79	0x3b1d5001	0.0024003985
80	0x3f87ad1b	1.0599703
81	0xbf24f14e	-0.644307
82	0x3f8e19e8	1.1101656
83	0xbd06d21e	-0.032915227
84	0x3ee03839	0.43792894
85	0xbcf0bbc0	-0.029386401
86	0xbfd564fd	-1.6671444
87	0xbb28ecb2	-0.0025775847
88	0xbf54c297	-0.8310942
89	0x3f2f7d93	0.68550986
90	0x3f1ccb9c	0.61248183
91	0xbf14f6ac	-0.5818889
92	0x3e53c16c	0.20679253
93	0x3e35b026	0.17742977
94	0x3b0e5fbc	0.0021724543
95	0xbfb8cd23	-1.4437603
96	0xbcbb4be3	-0.022863334
97	0x3e6c2ac5	0.2306319
98	0x3df7de6c	0.121029705
99	0xc03a9e14	-2.9158983
100	0xbfe2d504	-1.7721257
101	0x3f6fa8c1	0.93616873
102	0xbf89e5e0	-1.0773277
103	0x396672e6	0.00021977312
104	0x3fa1719e	1.2612798
105	0x3e67d694	0.22640449
106	0xbf235b54	-0.6381123
107	0x3d6fdd16	0.058560453
108	0x3cc1f6f0	0.02367732
109	0xbb596aeb	-0.00331753
110	0xbfa14c12	-1.260134
111	0x3fadade7	1.3568696
112	0xbf8026fa	-1.0011895
113	0xbf1aaaaf	-0.6041669
114	0x3cbebeb4	0.023284294
115	0x3eaa3ae8	0.33248067
116	0x3e769570	0.24080443
117	0x3e9320ef	0.28736064
118	0x3d42a2d1	0.047518555
119	0x3d130729	0.0358955
120	0x3efa436e	0.4887957
121	0xbbd4fe17	-0.0065000164
122	0xbb92304f	-0.0044613252
123	0xbd78977e	-0.06069135
124	0x3f37de38	0.71823454
125	0x3cb9b1b8	0.02266775
126	0xbb0a3551	-0.0021088908
127	0x3cd0a8b5	0.02547107
128	0xbf6bc4a9	-0.92096955
129	0x3bb836d0	0.0056217685
130	0x3e893b0d	0.26802865
131	0x3ea24076	0.31689805
132	0x3e3ba640	0.18325138
133	0xbedba159	-0.42896536
134	0x3e851671	0.25993684
135	0x3e3ac13f	0.1823778
136	0xbfcccfb0	-1.6000881
137	0x3e57ba55	0.21067174
138	0xbf3b2ea2	-0.7311803
139	0x3e9bbada	0.30415994
140	0x3c91c6d7	0.01779501
141	0xbc8bbbf1	-0.01705739
142	0x3c3f188d	0.011663568
143	0x3cd5c550	0.026095062
144	0x3b2487af	0.0025105288
145	0x3e53ba19	0.2067646
146	0xbec76a7b	-0.38948426
147	0xbef278da	-0.47357827
148	0xbf491bef	-0.7855825
149	0x3c3bec0b	0.011469851
150	0xbf1a8bcf	-0.6036958
151	0xbae4f415	-0.0017467762
152	0x3cdeb667	0.027186586
153	0xbcdeed19	-0.027212666
154	0x3f8031f7	1.0015248
155	0x3c6b5cbb	0.01436537
156	0xbba5f2f9	-0.005064365
157	0x3c6fa27e	0.0146261435
158	0xbf8a0106	-1.0781562
159	0x3f221fc9	0.6332975
160	0xbb4dbab1	-0.0031391794
161	0xbf0eeb06	-0.5582737
162	0x3f3a342b	0.7273585
163	0xbc9604cb	-0.018312832
164	0x3f45716e	0.77126205
165	0xbca1e7cd	-0.019763852
166	0x3f27a78d	0.6549004
167	0x3ea840c6	0.32861918
168	0x3c5582e9	0.0130317
169	0xbba7f69a	-0.0051258327
170	0xba04882c	-0.00050556916
171	0xbc6914ee	-0.014226181
172	0xbf428a51	-0.75992304
173	0xbf110450	-0.56647205
174	0xbf56df72	-0.839347
175	0xbfe064ca	-1.7530758
176	0xbc3a6182	-0.011375787
177	0x3c8b0841	0.01697171
178	0xc0181ded	-2.3768265
179	0xc0676bf8	-3.615965
180	0xbf62275a	-0.88341296
181	0x3ea45ce9	0.32102135
182	0xbf4a3862	-0.78992283
183	0xbabb4412	-0.0014287254
184	0x3d11170f	0.03542238
185	0x3e665314	0.2249263
186	0xb9364981	-0.00017384255
187	0xbfbdee4b	-1.4838346
188	0x385290fd	5.0202932e-05
189	0x3f77bfb6	0.967769
190	0x3f06e6f9	0.52696186
191	0x3ea3594e	0.31904072
192	0x3cdc688e	0.026905324
193	0x3ea8894d	0.32917252
194	0xbf489d01	-0.7836457
195	0x3c06a726	0.008218562
196	0xbf086c42	-0.5329019
197	0x3ae85361	0.0017725044
198	0xbfdf89f2	-1.7463973
199	0xbcf85515	-0.030314008
