DDPG/checkpoints/colabv2/v2/target_critic.ckpt (torch, 537409 bytes, 11 tensors)

layer1.weight f4 [400, 24]
00000000: 5dd6 803d 700b 913f 8e32 153f 693a df3f
00000010: cf13 023e 7c20 3c3e a517 34be 3d81 c93a
00000020: e930 1fbe e5e7 1bbd bfec 513e 01f6 d8be
00000030: b1c6 833f 036e 31bc 4895 753e a7c4 8a3e
00000040: 1074 8e3e c045 463e 5df6 613e b467 653e
00000050: 18d7 653e e1ec 583e 7020 6b3e 3553 603e
00000060: 6fbc e43d aa6b ea3f e1f0 16be f8a8 3c3e
00000070: 3d18 5fbd e3ad b8bd 5387 9fbe fa51 833e
00000080: 9ced a23e 3058 2e3d 1b6b 743e 96b7 ca3d
00000090: 0305 6bbf c48f c23e 79e3 293e d2d1 143e
000000a0: f35d 3a3e 0bb4 0d3e 1da9 343e cfa0 4c3e
000000b0: b1cd 233e f048 213e 221a 043e 047b c23c
000000c0: 32f9 d0bd a8b4 0dbd 425a 883c db20 f6bd
000000d0: ae36 cabe 472a ae3e 1354 2e3e a3a0 b8be
000000e0: e550 17be 329d 863e a020 7a3f 3474 f2bc
000000f0: 2ef0 5cbe 7b1e ff3d 1625 35be 63dd 2ebe
00000100: 644c 69be 2d0a 21be 672e 4bbe b2a1 49be
00000110: 9a8b 2ebe fb38 24be a7a5 6abe 2207 46be
00000120: 2b88 6a3f 07c5 0740 ecbe d2bf 7652 01bf
00000130: db15 9e3e 1010 0fbe edc0 a0bd 28a1 cebd
00000140: 1f0e 2e3e b334 f13e 7424 513d c30b c23e
00000150: 41f9 0f3d b8b2 053e 21d6 ba3e 86a3 ae3e
00000160: 8517 bc3e 55be be3e 5561 ba3e cd47 bc3e
00000170: c453 b03e ebb0 c73e c9c3 723e dc53 d53d
00000180: 3365 5a3c 0d76 0b40 82ab b13e 8664 0d3e
00000190: f422 89bf add3 7dbe 374d 1fbe 3310 45be
000001a0: 51a6 113c 04cc 9c3f 21fd 9b3e adc6 843e
000001b0: 7e50 043c 118d 023e f02c 553e abf4 383e
000001c0: 135c 463e 0f34 543e 335c 1e3e 0539 573e
000001d0: 39db 443e b7cb 0b3e 4da5 ff3d 48b7 b33d
000001e0: a310 213e d99e 7540 6c8c e0bf 2626 d4bf
000001f0: bd3e 143e fb43 0abf f5a3 e4be e3da 753f
00000200: 43f6 02be 1d39 8bbe ea7d 463f 4431 11be
00000210: 72cb 98be bd9b 37be 51b7 bc3e 1570 cb3e
00000220: 723f cf3e 5ab4 b43e 70b1 b43e df5f bc3e
00000230: 2ffc ad3e eef1 d33e 9a66 8c3e 89dd 2cbe
00000240: 6e49 093e 7d99 54c0 a36a be40 f5f3 d8be
00000250: 4fc3 82be b6b6 e2bd f4f9 403d e886 dabc
00000260: f1cb 983d e00b b73c 5c65 d7bd 7bc5 1abe
00000270: c980 86bc 3e73 e23d 8ff7 9b3e c6fb 6f3e
00000280: 9507 623e 2636 8f3e 9590 613e 983f 913e
00000290: d35c 643e 4f40 833e 0af7 a03e 16be 07be
000002a0: cb1d 24bf 4ea6 efbf bc42 853f e088 5dbf
000002b0: cba1 3bbe 7253 893e cb7f 61be 67f3 283c
000002c0: f463 513e 1ff0 febe 0a89 c7be a4ed 18bd
000002d0: a9bd 11bf e5b0 d13c c8ca 3f3e f727 3c3e
000002e0: 7062 283e 321d 133e 7eda 203e e7e6 273e
000002f0: e377 013e 9829 1f3e 9e44 713e 9ba0 743e
00000300: 1274 983e 1f39 5640 15e7 0c3f eae7 883f
00000310: 1b96 0dbe d445 523f 37af fe3b c1af 68bd
00000320: 0a35 d13d 1500 b43e f0bb 983e 5c6d 323f
00000330: b5b2 a23f 72f4 d23c e111 3b3e 855c 623e
00000340: 3502 423e 3aee 643e 320d 353e 59d7 393e
00000350: 0d3b 4d3e e5c5 3f3e 2aeb 8d3e 061f d63d
00000360: aa8b 23be c98b b3be 0287 61be 6fb2 f3be
00000370: 35f1 60bd 9704 92bd c74f eebd dc62 16bf
00000380: c681 6d3e fa2d 3cbe 20c2 cf3b 8983 efbd
00000390: 752c 6d3e 3422 763d c0b2 463e 30f7 4d3e
000003a0: d1a9 853e 8ced 773e f0bf 4f3e 07ac 923e
000003b0: c605 5c3e ecf0 753e 63f5 4e3e cc82 513e
000003c0: 470e 083e ac38 1d40 899c 633e 7413 98bf
000003d0: e08b a0bd 40fe c53e 45f8 15bd cc7e a5be
000003e0: 35b1 f83d 3466 0dbe 06bb 833e e718 1bbe
000003f0: f7d2 963e 54bb ca3d bfa8 a93c 0f2a d33d
0.062908866 1.1331615 0.58280265 1.74397 0.12702869 0.18371767 -0.17587145 0.0015373599
-0.15546001 -0.03806295 0.20500468 -0.42375186 1.0295011 -0.0108294515 0.23982728 0.2710316
0.27822924 0.19362545 0.22066636 0.22402841 0.22445333 0.21184112 0.22961593 0.21906741
0.11168753 1.8314106 -0.14740326 0.18423831 -0.054466475 -0.09017541 -0.31157932 0.2564848
0.31821907 0.04256457 0.23868982 0.098982975 -0.9180452 0.3800031 0.1659068 0.14533165
0.18199901 0.13838212 0.17642637 0.19983219 0.15996434 0.1575048 0.12900594 0.023740299
-0.1020378 -0.034596115 0.0166446 -0.120179854 -0.39494842 0.3401663 0.1702426 -0.36060056
-0.14776953 0.26291806 0.9770603 -0.029596426 -0.21575996 0.124569856 -0.17689928 -0.1707664
-0.22783047 -0.15726538 -0.1984192 -0.19690588 -0.17045441 -0.16037361 -0.22914754 -0.19338658
0.91614026 2.1214006 -1.6464515 -0.5051645 0.3087605 -0.13970971 -0.07849298 -0.10089332
0.16997574 0.4711052 0.051060155 0.37899598 0.035149816 0.13056457 0.36491492 0.34109133
0.36736694 0.37254587 0.36402383 0.3677353 0.34438908 0.39002165 0.23707499 0.104163855
0.013329792 2.1790802 0.34701163 0.13807878 -1.0713792 -0.24787779 -0.15556799 -0.19244461
0.008889751 1.2249761 0.3046656 0.25932828 0.008075831 0.12749125 0.20817924 0.18062083
0.19371061 0.20722984 0.15464859 0.21017845 0.19224252 0.1365193 0.124827005 0.087751925
0.15729003 3.8378203 -1.7542853 -1.6574142 0.14477058 -0.5400998 -0.4465634 0.9603712
-0.12789254 -0.2719201 0.7753588 -0.1417895 -0.29842716 -0.17930503 0.3685861 0.3973395
0.40478092 0.35293847 0.35291624 0.36791894 0.33981463 0.41395515 0.2742203 -0.16881384
0.13406917 -3.3218682 5.950517 -0.42373624 -0.25539634 -0.110700056 0.047113374 -0.026675656
0.07460774 0.02234453 -0.1051738 -0.15114395 -0.016418831 0.11057137 0.3046231 0.23435888
0.22073205 0.27971 0.2202781 0.2836883 0.22301035 0.25635 0.31438476 -0.13256106
-0.6410796 -1.8722627 1.0410991 -0.8653698 -0.18323438 0.26821476 -0.22021405 0.010311938
0.20448285 -0.49792573 -0.3897174 -0.037336007 -0.56930023 0.025597045 0.18729699 0.1837462
0.16443801 0.14366606 0.15708348 0.16396676 0.1264339 0.1554321 0.23561332 0.23889391
0.29776055 3.3472364 0.55040103 1.0695775 -0.13826792 0.821378 0.007772352 -0.056808237
0.102151945 0.35156313 0.29830885 0.6969812 1.2710787 0.025751326 0.18268539 0.22105606
0.18946154 0.22356501 0.17680815 0.18148555 0.20042057 0.18727835 0.27718478 0.10455136
-0.15971246 -0.35067585 -0.22024158 -0.47597072 -0.054917533 -0.07129782 -0.1163631 -0.587446
0.23194036 -0.18376914 0.00634028 -0.1169501 0.2316149 0.060091212 0.19404125 0.20113826
0.26106122 0.2421171 0.20288062 0.2864687 0.21486577 0.24017686 0.20210795 0.20460051
0.13286696 2.456584 0.22227682 -1.1880937 -0.07839179 0.3867054 -0.03661372 -0.323233
0.121431746 -0.13808519 0.25728625 -0.15146218 0.29457828 0.09899011 0.020710347 0.103107564

layer1.bias f4 [400]
00000000: 11f8 553d 9e25 44bd 7c0f cf3e ab65 bc3d
00000010: 84eb 203d 448a 20be af74 71bd a6c9 8d3e
00000020: f58e 24be b7d2 bf3d 830e 8b3e 9370 843d
00000030: 15de 7d3c 50f2 2a3c e981 363e 4e95 56be
00000040: 3a60 f83d 6e05 843e ccdd 673e 2696 9c3c
00000050: 15ca 993e c334 6dbd fe79 ca3e 7349 5b3d
00000060: a72e 83be 4afd 18be 9637 963e b9da 23be
00000070: b2e2 3b3e 6a4e 293e 3761 ff3d cab4 7e3e
00000080: b728 883b b52a 09bd 10d3 463e 4bde 073e
00000090: 2051 033e 478e 13bf 5d42 d43d 71c9 023f
000000a0: fcd7 88bd 6ecb 623e 8364 783e 4908 2e3e
000000b0: 011c 143e 61e0 423d a28c 4e3e 648a 8c3c
000000c0: 6c1b e53d 590a 013f 6fcf e03e 8a4c cd3d
000000d0: df10 9f3e db29 3d3e 26a3 843d 8227 1c3e
000000e0: 3101 46be 00dc fb3d b50c 1f3e 1736 1fbd
000000f0: 1c6f 6e3e c417 6dbe 4fe7 1d3e 5b37 f03d
00000100: 0963 f1bc 7dd9 f73d 076e 58be bc54 9c3e
00000110: 8952 67be 72f8 013e 0f4e 4abd d596 be3d
00000120: 641a e23a 121c 91be 8012 443e 5783 89be
00000130: 7fa0 b43e eec8 363e f216 bf3e 17a2 983d
00000140: 2781 ed3d 1854 e53e fe5f a13e b8f5 9a3d
00000150: 4993 a73e 3fd7 b93d d650 29bb e498 423d
00000160: 41d4 8f3d 8df8 d1be 6750 043e 74bf 3c3e
00000170: 259f 133b 40fa 1d3e 6db4 093f a02f ec3c
00000180: 7abe 943e 3a50 92bc 6e39 16bd 479a 633e
00000190: 67ad 44be 086a 4e3e 6ff0 b53d 0ca1 ac3d
000001a0: eff1 ae3d 6e16 cb3d d6dc a1bb 6680 1a3e
000001b0: 7ac2 88be 3949 db3e 91ac 033f 9b92 d83d
000001c0: fd5e ad3d eaab b2be bbee 2bbd 79d1 1a3e
000001d0: 7838 f63d 601f 163e 1d2f 3a3e 0811 d9bc
000001e0: 06dd 223e 4c7d 653e 5cc5 ad3e 02b0 cebd
000001f0: fa54 db3d 2e80 63be 3e47 243e c835 853d
00000200: 422a 07bb 5cdb 393e ac83 df3d f5d8 0e3e
00000210: ff56 1f3e 1883 f93e f46b f7bd 9468 d43d
00000220: 2bf5 903d 4c44 813c 624b 163e f16b bb3d
00000230: 59fd 853d b2b8 2d3e 74ec b23e d92c 033f
00000240: c5db 8ebc 84f8 463c dc1f 81be 29ac fb3c
00000250: 6200 913e 63ab fa3d d6d8 373e 84e3 dc3d
00000260: 3975 1a3e 201c c63d a76b e73e 4d79 c1bd
00000270: 8160 a63d ea4d 0ebc c12d b23e 298f a63e
00000280: 6529 af3d 3653 523e 7af7 493e 3f69 eb3e
00000290: d258 8f3e e31e d83d 3e73 ab3d 8555 9e3e
000002a0: 5c3a 033d ec7e a93e a7ab a33e dcf4 eebc
000002b0: ac97 343e 2e8b 5a3e 7362 593e f6a5 433e
000002c0: 029f 013f ab4e 953e 803a d23d 674e 5d3e
000002d0: 2072 ad3e c0b9 9b3d fe83 f2be b689 1e3e
000002e0: 7b7f 4a3d adfb 253e 67bb 323e e8b2 803e
000002f0: e268 bcbb afe2 cf3e 0815 1d3e 977f 7c3d
00000300: 60cf f7bc fffd 333e ba8d f03d 5b44 fdbd
00000310: b587 323e 1a5c a0bd 7c0e 293e 1513 193d
00000320: 58bb 3a3d af3a 2ebe 7284 0dbe d0d4 d53d
00000330: 92f4 b23b 68fd b53c 9b9f 163e da9d d7bd
00000340: bf5a da3e 42bd 10bf f74f 253e 1702 613e
00000350: de95 2ebe e5c8 0d3e 32df e03c 427f 5abe
00000360: 8441 853d f58d ce3e 062e 5b3f 3b86 5d3c
00000370: fd51 9f3d 6517 cb3e cbdc 14be fb50 dbbe
00000380: 3786 9a3d ae0d 1d3e 3ed3 e13e 7801 9ebd
00000390: a6fc 8f3d 24fa ed3e 5635 5e3e 3e33 da3d
000003a0: 74e3 c03e cde0 bd3c 05f7 fd3d 63d4 3f3e
000003b0: 0e1c dabd d1c7 383d 30ae 70bc 2d55 783e
000003c0: 05a0 053e 18e8 60be 3f31 ee3e d7eb 283e
000003d0: 79af eabe 15de ab3e a6e4 30be ac5c 043f
000003e0: b507 d23e 7d48 9a3d a532 5b3d 2ded d03e
000003f0: 1730 a23e 6751 83bd 699d 613d 3fec 78bd
0.052238528 -0.047887437 0.404415 0.09199079 0.039287105 -0.15677744 -0.05894917 0.27692908
-0.16070159 0.093663625 0.2715951 0.06466784 0.015494843 0.010433748 0.17822994 -0.20955393
0.12127729 0.25785393 0.22643203 0.019114565 0.3003699 -0.057911646 0.39546198 0.053536844
-0.2562153 -0.14940372 0.29339284 -0.16001405 0.18348196 0.16533819 0.12469714 0.24873653
0.004155244 -0.033487994 0.19416451 0.13268392 0.12823915 -0.57638973 0.1036422 0.51088625
-0.06681821 0.22147915 0.24257092 0.16995348 0.14463808 0.047577266 0.20170835 0.017155834
0.11186871 0.50406414 0.4390826 0.10024364 0.3106756 0.18472998 0.064764306 0.15249446
-0.19336392 0.12297821 0.15532191 -0.038869943 0.23284572 -0.23153597 0.15420268 0.11729308
-0.029466169 0.121020295 -0.21135722 0.30533397 -0.22590078 0.1269243 -0.04939085 0.09306113
0.0017250297 -0.28341728 0.19147682 -0.26858017 0.352787 0.17850086 0.37322193 0.07452791
0.115968995 0.4479072 0.3151855 0.075663984 0.32729557 0.09074258 -0.0025835535 0.04750909
0.07022906 -0.41009942 0.12921296 0.18432409 0.0022525277 0.15427494 0.5379093 0.028831303
0.29051572 -0.01786052 -0.036675863 0.22226821 -0.19206773 0.20157635 0.0888375 0.08429155
0.08542239 0.099163875 -0.004939656 0.15088043 -0.26710874 0.42829302 0.5143519 0.10574838
0.08465383 -0.34896785 -0.041975718 0.1511897 0.12022489 0.14660406 0.18182035 -0.026497379
0.15904626 0.22411078 0.33939636 -0.100921646 0.10709567 -0.22216865 0.16042802 0.065043986
-0.0020624553 0.18150085 0.10913786 0.1394995 0.1556053 0.4873283 -0.12081137 0.10371509
0.07078012 0.015779637 0.14677194 0.091514476 0.06542463 0.16964987 0.34946024 0.5124031
-0.017438779 0.012144212 -0.2521962 0.03072174 0.28320605 0.12239721 0.1795381 0.10785583
0.1508378 0.09673333 0.4519932 -0.094469644 0.081238754 -0.008685568 0.34800532 0.32531098
0.08552817 0.20539555 0.19723311 0.45978734 0.27997452 0.10552766 0.0837159 0.3092462
0.032038078 0.33104646 0.31966898 -0.029169492 0.17635983 0.21342155 0.21228962 0.19106278
0.5063325 0.2916158 0.10265064 0.2161194 0.33876133 0.076037884 -0.47366327 0.1548222
0.04943798 0.16209288 0.17454301 0.25136495 -0.0057498077 0.40602633 0.15340054 0.061645117
-0.030250251 0.1757736 0.11745782 -0.123665534 0.1743458 -0.07830067 0.16509432 0.037371714
0.04558882 -0.17014574 -0.13820055 0.104409814 0.005461284 0.02221556 0.14709322 -0.10528155
0.4264736 -0.56538785 0.16143785 0.21973453 -0.17049357 0.13846166 0.027450178 -0.21337608
0.06506637 0.4034268 0.856171 0.013520773 0.0777931 0.39666286 -0.14537351 -0.4283522
0.07545131 0.1533725 0.44106477 -0.07715124 0.07030611 0.46479905 0.21700034 0.10654305
0.37673533 0.023178482 0.12400631 0.18733363 -0.10649882 0.045112435 -0.014689967 0.24251242
0.13049324 -0.21963537 0.46521947 0.16496216 -0.45837 0.33567873 -0.17274722 0.51703906
0.41021505 0.07533357 0.053515095 0.4080595 0.31677315 -0.06412011 0.05508176 -0.060772177

bn1.weight f4 [400]
00000000: b430 ff3e f2cd 203f 9a34 e23f 8bdf 963e
00000010: 4b89 a93f b34d 323f 8d09 0440 c086 b93d
00000020: 00bc 8b3f a30f c73e 48aa 363f a755 a33f
00000030: 1438 a03f 9373 a23f 9a51 bc3e 8fac 6e3f
00000040: b108 d33f bea3 ad3e f5f9 ab3e 366f 7f3f
00000050: 8cf5 043f 977e 123f 7ffe 993f 85fc 453f
00000060: f78d 883f 5e13 803f e4c6 973f 3a64 783f
00000070: 06bf 913e 1a6d 853f df6e 4e3f cf2e 9e3f
00000080: 7b46 9b3f cf7c 0040 2026 713f 7344 aa3e
00000090: 010f a43f 72fb f23f 8277 a83e 0884 a83f
000000a0: 0e68 2b3f 27e6 9b3f b8b1 b93e 4cb8 173f
000000b0: 0166 8b3e ff7f 6f3f 0b9c dc3e e7d8 6a3f
000000c0: d9b4 943e 258e db3f cd45 c43f 8b40 aa3e
000000d0: f0b4 003f 613a 9e3e 24dc bd3e 8b0d a13f
000000e0: c6b0 963f 5f7f 1a3f 5b08 fc3f d85a 6f3f
000000f0: 1e2d 9b3e c5b0 ac3f 977a ae3e 9f34 513f
00000100: fe72 183f 5f08 313f 5e6d 7a3f 4005 4b3f
00000110: 559c 813f 1b83 123f 6817 6d3f cdb1 1d3f
00000120: a2d8 6f3f 747a 4f3f 55e4 ac3e 7f38 8a3f
00000130: f33f d93e 09ce 083f 8a98 d73f 45df 013f
00000140: 9e99 f03e 1fe8 533f d415 da3e ff57 b63f
00000150: 2bb2 1b3f 18b0 d53f 7e0f 143f 4b85 7a3f
00000160: ba59 293f 82eb 773f 010f 203f 959d 223f
00000170: 344d c43f 18dd b13f 674f 1640 23d6 563f
00000180: 5238 113f 63f2 843f 741d 053f 594a 623f
00000190: 5d19 063f 0809 b03e f21c 9f3e 322b a93e
000001a0: 9635 883e 5008 a73e 1f5e 493f d6f9 5d3f
000001b0: ef61 513f bb0b c73e c23a 0f40 3712 2d3f
000001c0: df4d 333f 2994 5f3f a386 893f 60da 7b3f
000001d0: 3718 a53e bf06 873f 7e89 823f c29f f83e
000001e0: f50d 5a3f ebb3 a93e 3561 033f 436c 9b3f
000001f0: e2d4 6c3f fbce 7b3f dbdb 143f 88bf 433f
00000200: f3fc 533f 0ec9 c63f 37f5 0d3f 823f 4e3e
00000210: a7de ac3f da28 383f b50c 0a3f bce7 e73e
00000220: 16c0 1e3f 7937 8d3f 9008 233f 15e9 193f
00000230: a740 193f d9f6 943f 3be7 8a3f a4ce 643f
00000240: b2c4 323f 48f6 343f 519f 503f dbd0 383f
00000250: ff9e 953f 4053 a83f 6de5 a43f 85d2 103f
00000260: 0897 a63e 83b3 543f f3a6 cd3f 56f9 a33f
00000270: b955 9e3e 35d6 413f 1859 e93e 546f 1d3f
00000280: 6234 9f3e 061a a23f 0dec a13f 31d2 693e
00000290: 57b6 073f 21e4 1e3f 8774 a53f e102 2b3f
000002a0: 93b7 7a3f 3789 1b3f 57af 263f a5e9 993f
000002b0: 3137 a73e b546 b63e 0f11 923e 9f78 843f
000002c0: 9bf4 d83f 96de 953f 67b2 523f c3f3 9c3f
000002d0: babb b93f 731a 0e3f 544c c03f c6de b83e
000002e0: 2873 b63f 0928 bd3f 0886 b03e 259c 6c3f
000002f0: 88bc 9b3f aeee 753f 4e1a a43e d642 303f
00000300: 6ec1 4b3f 297e 943e fa26 503f fc7c 6d3f
00000310: 064f 7d3f 545e 933f ee29 a43e 9477 9a3f
00000320: 5037 383f ffa3 0d3f ff94 663f 5368 b33e
00000330: 9ee8 9a3f 0254 8a3f 14d1 aa3e da92 893f
00000340: d14e c43f b981 ad3f 15dc 803f 4d17 723f
00000350: b7c4 8d3f ada4 1d3f 6e1f 8b3f e574 8f3f
00000360: 2a1f 743f 07ad c73f dfe6 f93f 6eb7 a43f
00000370: 470b 133f cc3e e03f 4962 3a3f 09ae dd3f
00000380: 8c60 ef3e 61a1 b03e a7b7 c03f 798a 823f
00000390: 7d9d a73f 93a2 333f 7161 9e3e 476e 3d3f
000003a0: 0d1b c03f 952c 983f 4934 2a3f a2ab cd3f
000003b0: 5d2f 403f 7761 2d3f d721 663f cb2d ae3f
000003c0: 1a52 0b3f 2378 223f afc9 c93f 5833 453f
000003d0: 2b83 ec3f f2f0 443f 2809 633f a1d2 1840
000003e0: 60eb cd3f 1d7e bf3e a0eb 7f3f 939f a43f
000003f0: b706 283f d2e6 8d3f 328c 873f 987e 9c3f
0.49841845 0.6281425 1.7672303 0.29467425 1.3245023 0.6964981 2.063083 0.09058905
1.0916748 0.38879117 0.7135358 1.2760514 1.2517114 1.269152 0.36781007 0.93232054
1.6487027 0.33913988 0.3358914 0.9977907 0.51937175 0.5722441 1.2030791 0.7733844
1.0668324 1.000591 1.1857572 0.97027934 0.28466052 1.042392 0.80637926 1.2358035
1.2130884 2.0076177 0.941988 0.33255348 1.2817079 1.8982985 0.32903677 1.3165293
0.6695565 1.2179612 0.362684 0.5926559 0.2722626 0.9355468 0.430878 0.91737217
0.29044226 1.7152754 1.5333802 0.33252367 0.5027609 0.30903915 0.37082016 1.2582258
1.1772697 0.603506 1.969005 0.9349799 0.3030786 1.3491446 0.34077904 0.8172092
0.59550464 0.691534 0.9782313 0.79304886 1.0125834 0.572313 0.9261384 0.6159943
0.9368993 0.81046224 0.33767954 1.0798491 0.42431602 0.53439385 1.6843426 0.5073131
0.469922 0.82776064 0.4259478 1.4245604 0.6081874 1.6694365 0.5783614 0.9785964
0.66152537 0.9684373 0.62522894 0.635217 1.533606 1.3895597 2.3485963 0.83920497
0.5672656 1.038647 0.51998067 0.88394696 0.5238245 0.3438189 0.3107677 0.33040768
0.26603383 0.3262353 0.7865924 0.86709344 0.8179006 0.38876137 2.2379613 0.6760592
0.70040697 0.8733545 1.0744213 0.9838009 0.32245037 1.0548934 1.0198209 0.48559386
0.85177547 0.3314508 0.513202 1.2142414 0.92512333 0.983627 0.5814797 0.7646413
0.82807845 1.5530107 0.55452293 0.20141414 1.3505448 0.71937335 0.5392564 0.45293987
0.6201185 1.1032554 0.6368494 0.6012128 0.59864277 1.1637832 1.0851816 0.8937781
0.69831383 0.70688295 0.814931 0.7219369 1.1689147 1.3150406 1.2882515 0.5657123
0.32537103 0.83086413 1.6066574 1.2810466 0.30924776 0.7571748 0.45575786 0.61498
0.31094652 1.2664192 1.2650162 0.22834088 0.53012604 0.6206685 1.2926186 0.6680127
0.9793636 0.6075625 0.651113 1.2024428 0.32659295 0.3560082 0.2852864 1.0349311
1.6949648 1.1708553 0.8230347 1.226189 1.4510415 0.5550911 1.5023293 0.36107463
1.4253893 1.4777843 0.34477258 0.9242576 1.216691 0.9606732 0.3205132 0.68851984
0.79592025 0.29002503 0.81309474 0.92768836 0.98948705 1.1513162 0.3206324 1.2067742
0.719594 0.55328363 0.900711 0.3504053 1.2102239 1.0806887 0.3336264 1.074794
1.5336553 1.3555213 1.0067164 0.94566804 1.1075658 0.615794 1.0868967 1.1207548
0.9536005 1.5599679 1.9523581 1.2868478 0.5743908 1.7519164 0.7280622 1.7318736
0.46753347 0.34498122 1.5056046 1.0198509 1.3094937 0.70169944 0.30933717 0.73996395
1.5008255 1.1888605 0.6648603 1.6068003 0.7507227 0.67726845 0.89895386 1.3607725
0.5442215 0.63464564 1.5764674 0.7703147 1.8477529 0.76930153 0.88685846 2.3878558
1.6087456 0.37400904 0.9996891 1.2861198 0.65635246 1.1086066 1.0589659 1.2226133

bn1.bias f4 [400]
00000000: 0fbb 9abe c7e8 1dbf 1dc1 713c 2785 1abf
00000010: 7288 95be 6f86 26bf 472d 8dbe 1bce 95be
00000020: 2a2e 72be 3b9f 15bf 4041 dabe 4dd4 8fbe
00000030: 4afb e43d b1f3 1abe 1543 34bf 1797 42be
00000040: 629a a73e 6245 15bf 7ca7 20bf cecc a6be
00000050: 661c 23bf 2040 edbe 5b92 e23d 2d88 bbbc
00000060: de1e eebd ba76 e9be b029 83be 5076 25bf
00000070: b369 29bf 2a4c 183e 9ab4 4abf 4152 4d3e
00000080: 5019 debe ceb2 52bd 3eff f33d 6cf2 29bf
00000090: 4041 40be 62f9 78be 8b62 16bf 39c1 af3e
000000a0: 93ae 31bf 3cbf 8abe 183c 2ebf 2c0e 2abf
000000b0: 062c 23bf bfc4 083e 2915 19bf 9c9e f43d
000000c0: 56ea 2bbf 3ac9 973e 58ba 7b3e 3745 08bf
000000d0: 36ea 17bf c2ad 1dbf af31 08bf aae7 3fbe
000000e0: 75e9 f3be d6ae debe 2b57 2cbe 8e21 2bbf
000000f0: 4fb3 11bf f439 2cbf 60be 24bf 443d 0cbf
00000100: da6e 21be 5c9f 25bf 955d 2bbf 248e 27bf
00000110: 5c11 0dbf 5a65 34bf 981a 89bc 4fc2 29bf
00000120: c082 b3be 441d 14bf ec1f 34bf eeb4 71be
00000130: aa1d 28bf 6e3e 11bf 6e5d e83e 35ca fdbe
00000140: e773 e3be 8199 fdbe 7193 2fbf 4cce 743e
00000150: cbc8 37bf ab0b 1dbe 498c 47bf 9762 89be
00000160: aab6 21bf 82c6 60be 26f9 2cbf e97b 1bbf
00000170: bbb6 583e 10f6 f73d 328f a33e 5d90 a4be
00000180: 9e8b 0abf 2ca7 a0bc 940a 4abf 71b7 ef3d
00000190: 47c5 0fbf 615e dfbe e6e8 19bf f023 25bf
000001a0: dc09 2abf 2e7c 06bf d2a3 00bf 0527 343e
000001b0: 8281 fdbe f77b 24bf 2bf6 ce3e b763 f5bc
000001c0: f42c 403e 35a6 e3be fac0 09bf fd3d 093e
000001d0: e8d1 24bf 7b71 f23d 5dd9 0c3e 3cf8 40bf
000001e0: b58b 7fbe 5196 1dbf a3bb fdbe d8e1 99be
000001f0: 0bc7 83be b524 0bbf bd58 23bf 5537 37bc
00000200: e4ca 5abe 646f 7d3e bb6f 1fbf defd abbe
00000210: bfcd 793e 4928 d9be f6e3 35bf ac92 b9be
00000220: e10d 00bf 28a8 d13d 2d5d 27bf 27f1 4abf
00000230: c30b 1a3d 08bf 103e 505f 5dbe af6f 0fbe
00000240: 0eb4 bebe 81cd 30bf 2dc4 03bf 0bd7 1abf
00000250: 5712 4fbc 1b44 783e b6bd d7bd d0cd 39bf
00000260: d6b2 f8be ee67 d83d a49f 083e 92bc 48be
00000270: 1105 14bf c96f 41bf 6d08 18bf 5010 cdbe
00000280: a259 1ebf 76aa d13d ed10 5c3e 7a54 e0be
00000290: 7a53 0bbf 0841 33bf 536f aebe 246d 3bbf
000002a0: 4629 99be 47e9 08bf 0b59 0bbf 81e8 16bf
000002b0: 7f23 1abf 48bc 25bf 2a89 0bbf cd21 50bc
000002c0: 4b92 10be 2e7d ba3d 9e1c 91bd cff3 e4be
000002d0: c35c 533d d038 53bf 388c 9dbe cd6a 21bf
000002e0: 390c c33e 3ff9 b93e 99e0 39bf 77c5 8a3e
000002f0: f685 d9be bf4e 0b3e 25cb 47bf fe31 26bf
00000300: 67cc 4abe 4b43 16bf b651 c33d 1777 9bbe
00000310: 21bd cbbe 4503 f23c d2b8 30bf e31a c0be
00000320: 4ed7 57bf 3cbb 90be 88a0 bcbe a7b8 23bf
00000330: e7b8 243e 5826 08bf b7fd e5be 77cf 24bf
00000340: 45a1 d33e 4717 d0be f973 15be aa82 22bf
00000350: 967c 63bd 3a20 f4be 1514 723b 59fd b9be
00000360: 4279 04bf 1fd9 1e3e e50b e43e 82e8 cf3d
00000370: 474e 04be 06e2 e03e 7814 11bf 4a84 a6be
00000380: fc1f 3cbf fbfc 15bf cd53 a63e 37a3 52be
00000390: cf45 eabe 0b96 05bf 21a4 1cbf e5aa bcbe
000003a0: 7b1a 8d3e c97a 0abf 43eb ccbe a4cc d3be
000003b0: 11c5 42bf 5d25 3abf 58f8 03bf 3f3a 443e
000003c0: 3225 58bd 95e7 11bf 3ffd 6b3e 10b9 1bbf
000003d0: ddcb 78be 3b42 1fbf ab29 d5be b07a 9d3e
000003e0: a2fa 053d d390 45bf f575 51be 94ed aa3e
000003f0: 65be 4fbf 50ed cfbe 5a0f a0be da4f 2abe
-0.3022084 -0.61683315 0.014755514 -0.60359424 -0.29205662 -0.6504888 -0.27573606 -0.29258808
-0.23650423 -0.5844609 -0.42627907 -0.2809166 0.11180742 -0.15132023 -0.7041486 -0.19002949
0.32734972 -0.58308995 -0.6275556 -0.3257813 -0.6371521 -0.46337986 0.11063071 -0.022892082
-0.11626981 -0.45598394 -0.25617743 -0.64633656 -0.6617691 0.14872804 -0.79181826 0.20050909
-0.43378687 -0.051440053 0.11913918 -0.6638553 -0.18774891 -0.24313882 -0.58744115 0.34327105
-0.69407004 -0.27099025 -0.68060446 -0.66427875 -0.6373905 0.13356303 -0.5979791 0.11944315
-0.67154443 0.2964571 0.24582803 -0.53230613 -0.5934175 -0.6159326 -0.5320081 -0.18740717
-0.4763905 -0.43492764 -0.16830127 -0.66848075 -0.5691423 -0.6727593 -0.6435299 -0.54780984
-0.15764943 -0.6469629 -0.6693967 -0.65451264 -0.55104613 -0.7046715 -0.016736314 -0.66312116
-0.35060692 -0.57857156 -0.7036121 -0.23604175 -0.65670264 -0.56735885 0.4538378 -0.49568334
-0.44424364 -0.49531177 -0.6858435 0.23906821 -0.7179076 -0.15336482 -0.77948433 -0.2683303
-0.6316935 -0.21950725 -0.6756767 -0.60735947 0.21163456 0.121074796 0.31945187 -0.3214139
-0.5411929 -0.019610964 -0.7892239 0.117049105 -0.56160396 -0.43626693 -0.60121 -0.6450796
-0.66421294 -0.52533233 -0.5024997 0.1759301 -0.4951287 -0.64251655 0.40422186 -0.029954774
0.18767148 -0.44462743 -0.53810084 0.13402553 -0.6438279 0.11838051 0.13754793 -0.75378776
-0.24955638 -0.6155749 -0.49557218 -0.30055118 -0.25737795 -0.54352885 -0.6380728 -0.011182626
-0.21366459 0.24749523 -0.6227986 -0.33592123 0.24394892 -0.42413548 -0.71050966 -0.36244714
-0.5002118 0.102371514 -0.6537655 -0.7927422 0.037608873 0.14135373 -0.2161839 -0.14007448
-0.37246746 -0.69063574 -0.51471215 -0.6048438 -0.01263865 0.2424473 -0.10534231 -0.7257967
-0.4857394 0.10566698 0.13342148 -0.19603184 -0.5782023 -0.75561196 -0.59387857 -0.40051508
-0.6185552 0.10237591 0.21490832 -0.4381445 -0.5442425 -0.70021105 -0.3406931 -0.7321341
-0.29914302 -0.5348095 -0.54432744 -0.5894852 -0.6021041 -0.6474042 -0.5450617 -0.012703371
-0.14118306 0.091059074 -0.070855364 -0.4471726 0.051602136 -0.82508564 -0.3077104 -0.6305359
0.38095263 0.36322972 -0.72608334 0.2710378 -0.42485017 0.13604258 -0.7804435 -0.6492003
-0.19804536 -0.5869643 0.095370695 -0.30364296 -0.3979273 0.029542575 -0.69032013 -0.37520513
-0.84312904 -0.28267848 -0.36841226 -0.6395363 0.1608616 -0.5318351 -0.44920132 -0.64379066
0.41333976 -0.4064276 -0.14595021 -0.6348063 -0.055538736 -0.47680837 0.003693824 -0.363261
-0.51747525 0.15512513 0.44540325 0.10151769 -0.12920485 0.43922442 -0.5667186 -0.32522804
-0.73486304 -0.5858914 0.3248581 -0.20570074 -0.45756385 -0.5218207 -0.6118794 -0.36849132
0.27559265 -0.54093605 -0.4002324 -0.41367066 -0.7608195 -0.7271326 -0.5155082 0.19162844
-0.052769847 -0.5699399 0.23045824 -0.6082926 -0.24296518 -0.62210435 -0.41633353 0.30757666
0.032709725 -0.7717411 -0.20455153 0.33384383 -0.81149894 -0.40610743 -0.31261712 -0.16632023

layer2.weight f4 [300, 400]
00000000: 32e0 adbe 74dd c53d 6554 74bf df8c 703c
00000010: fb13 f43e d66f 043f f5fb 73bf ad3d 06be
00000020: 55c5 633d e074 9ebd 9afd 3abf 0adb 92be
00000030: 5ee3 d43e 6e88 0abf feb7 b6be c2e4 a63d
00000040: 9b80 31be a0e8 9b3e 0f72 253e df6a 793c
00000050: afbb 54be c1fc 88bd 19ef 06bf 96a1 5ebd
00000060: 2850 6e3e 0217 2c3e 82af 543f 20f2 8cbe
00000070: b5e5 a23d 92cf 0ebf 9e23 db3e edb8 1dbf
00000080: 93fd cf3e 5852 d43e 2a60 02bf 962a 113e
00000090: 66ea b5be 0031 843f 286e 25be 4d46 893e
000000a0: eeeb e03e 98aa 79bf 81a4 8bbc aa79 c7be
000000b0: 17c4 a53d b625 9abc 48de 07bf 456d 61bf
000000c0: 0145 a6ba 33f3 193f c55a 41bf cf3c b73d
000000d0: ccb4 d8be bf38 f13d 78e6 80bc 6ccf 3cbf
000000e0: 2a21 3a3f d12d 17bf 71e1 c3bf 899c 003f
000000f0: a4c4 a1bd 7bf8 673f 65a5 a1bd e9a5 73bd
00000100: 6e67 cf3e 95a0 473f 8c9c 02be fd56 533e
00000110: c47b 91be e62d 79be 2fa9 c0be fae4 cf3e
00000120: 121b 1e3e 3a1c 003f b385 16be eed9 cb3d
00000130: ef29 24be 6032 48bd 2816 fb3e caf4 7e3c
00000140: ad65 b6be a803 3dbf d3e3 afbd 3c31 be3d
00000150: 7859 933e 50a5 9ebf fb60 2abf ab1e de3d
00000160: 22e3 333d 5ad6 183e 06e7 193f 2978 183e
00000170: cca6 e5bc 1195 623e 9bf2 483f 4174 bdbe
00000180: 8d41 bc3e 9477 b73e 5314 03be 79ca 9b3e
00000190: ec84 4fbe f754 c0bd 00a6 39be a1d1 a63b
000001a0: f692 993d 20cb 80bd 6d94 723e b985 24be
000001b0: e229 dd3e 65d9 51be 9eea 323f 4d1d faba
000001c0: fc69 893d 6f5a 38bd cfd6 013e 0a05 20bf
000001d0: 7969 803d 525d 12bf 7a6c 0cbf 63ab 86bc
000001e0: 8bbd d5bd f2bd 603d f1d7 723c 2513 ba3e
000001f0: 2dd0 92be a555 a63e 5d3d 76be 4502 dd3e
00000200: be51 f93d ede5 8bbe 8ad8 bfbe d716 afbd
00000210: 5e10 a1bf 2deb c9be 8ca9 9fbe fd33 98be
00000220: ff28 a43e a7b9 2dbf 59eb 163f 8b46 2f3f
00000230: f15f 16bf a329 2abf 41eb 5dbe d3e7 3dbf
00000240: 380e c5be 9ecb fd3e ec11 86be 1923 b43e
00000250: fb40 bdbd 7fe9 37bd 3eb8 453d 1c83 76be
00000260: 8194 9c3d d7a4 0abf 944e 573f 3177 113e
00000270: 9e73 6fbd 3519 083f d9f9 3abd a744 1abf
00000280: d1c9 26bd a599 3bbf 01df 77bf 2930 4cbf
00000290: dce4 873e 8d35 98bd 1161 183d 25fc f23e
000002a0: bfc8 8a3d ba34 67be 9c9c b03e fe26 87bf
000002b0: de24 90bb 8fd2 113d cc93 5abc 4134 edbe
000002c0: 2345 2b3f 5a3c 1abf c623 f4be 57e6 293f
000002d0: 8406 673f 324c babc 5122 003f df63 373e
000002e0: b82b c9be 94d2 33bd d01a 4bbe e8ff 98be
000002f0: eb85 e43e 5f5a 873d 1a3b a7bd 9fd2 d2bd
00000300: 566d 6dbf f02e 9c3c 84e1 e4be a57a a8be
00000310: 73a2 9f3e 9a7c b8be b995 cc3a 447b 0dbf
00000320: b98d 9c3f d720 853e e8cc 03bf cd98 523e
00000330: 3ff1 f93e b3cd 9abd 837c 20be 0463 223e
00000340: 5890 173f eec3 a53e b533 03bd 9633 e23e
00000350: a92c f43e 32bd cc3d 7c77 95bf 0c05 90be
00000360: d780 893e 57c8 49bc e502 4cbf 8043 42bf
00000370: 2a1b 01bd 644f d03e ed2a 433f 5b33 6f3f
00000380: ae7f ffbe 995d 3abe 6d40 a13e e08c d7be
00000390: 4359 c5bf ffdf 41be 6611 ac3d 53ea 1dbf
000003a0: f9c2 8dbf 7ac7 223f ee2f 11bf 702b dd3e
000003b0: f907 503d 89fa 543f 8c74 2a3f 6ef7 42bf
000003c0: 2a31 aabe 6991 71bd eac5 d3be b267 943c
000003d0: b056 913f fcec 5e3f 582e a9bd 6036 3c3f
000003e0: 0334 67be b982 01be c87d ddbe 2467 13bf
000003f0: d01a ed3d eec9 da3c fb4c 083e b93f 963e
-0.3396011 0.096613795 -0.95441276 0.014682024 0.47671494 0.5173315 -0.9530633 -0.13109465
0.055608112 -0.07737136 -0.73043215 -0.2868274 0.41579717 -0.54114425 -0.3568725 0.08149101
-0.17334215 0.30450916 0.16156791 0.015223234 -0.2077472 -0.06688834 -0.52708584 -0.05435332
0.23272765 0.16805652 0.83080304 -0.27528477 0.079539694 -0.5578548 0.4280061 -0.616103
0.4062315 0.41469073 -0.50927985 0.14176401 -0.35530394 1.0327454 -0.16155303 0.26811448
0.4393 -0.9752593 -0.017046215 -0.3896001 0.08094042 -0.01881681 -0.5307355 -0.8805736
-0.001268536 0.6013672 -0.7552913 0.08947145 -0.42325437 0.117784016 -0.015734896 -0.73754
0.72706854 -0.59054285 -1.5303174 0.50238854 -0.07898834 0.90613526 -0.07892875 -0.059484396
0.40508598 0.77979404 -0.1275503 0.20638652 -0.28414738 -0.24333915 -0.37629077 0.40604383
0.15440014 0.5004307 -0.1469944 0.09953676 -0.16031621 -0.048876166 0.4904034 0.015561292
-0.35624447 -0.73833704 -0.08588376 0.092867345 0.28779197 -1.2394199 -0.6655423 0.10845693
0.043917783 0.14925519 0.6011814 0.14889587 -0.028033637 0.22127177 0.78495187 -0.37002757
0.3676876 0.35833418 -0.12800722 0.30427912 -0.2026555 -0.09391206 -0.1812973 0.0050909077
0.07498734 -0.06288743 0.23689432 -0.16066636 0.43196017 -0.20493086 0.6988925 -0.0019082219
0.06709668 -0.04500812 0.12679599 -0.6250769 0.06270117 -0.57173645 -0.5485302 -0.016439145
-0.10436543 0.054868646 0.014821992 0.3634273 -0.2867445 0.32487217 -0.24046846 0.43165794
0.12173794 -0.27323857 -0.37469894 -0.08549278 -1.258312 -0.39437237 -0.31184042 -0.29727164
0.32062528 -0.6786141 0.5895286 0.68467015 -0.58740145 -0.6646978 -0.21671773 -0.7418186
-0.3848741 0.4956941 -0.26185548 0.35183027 -0.0924091 -0.044900414 0.04827141 -0.24073452
0.07645512 -0.54157776 0.84104276 0.14205624 -0.05845987 0.5316346 -0.04564843 -0.60261005
-0.04071981 -0.7328132 -0.9682465 -0.79760987 0.26541793 -0.07432089 0.037201945 0.47457996
0.067765705 -0.22578707 0.34494483 -1.0558774 -0.004398926 0.035601195 -0.013340902 -0.4632893
0.6690237 -0.6024834 -0.47683543 0.66367096 0.9024432 -0.02274141 0.5005236 0.17909192
-0.39291167 -0.043901995 -0.19834447 -0.2988274 0.4463342 0.06609034 -0.081655696 -0.10294079
-0.9274496 0.01906535 -0.44703305 -0.3290607 0.31178626 -0.36032563 0.0015608586 -0.55266213
1.223075 0.26001617 -0.5148454 0.20566101 0.4881687 -0.07558765 -0.15672497 0.15858084
0.59204626 0.32376045 -0.032031734 0.44179982 0.47690323 0.09997024 -1.1677089 -0.2812885
0.2685611 -0.012315831 -0.79691917 -0.75884247 -0.031520046 0.4068557 0.76237375 0.9343774
-0.499021 -0.18199767 0.31494465 -0.42099667 -1.5417866 -0.18933104 0.08401756 -0.61685675
-1.1075126 0.6358563 -0.5671376 0.43197203 0.050788853 0.83194786 0.66584086 -0.761588
-0.33240634 -0.058976565 -0.41361934 0.018115852 1.135458 0.8708036 -0.082607925 0.7352047
-0.22578435 -0.12647523 -0.43260026 -0.57579255 0.1157738 0.026707616 0.13310616 0.29345492

layer2.bias f4 [300]
00000000: 484d fe3d b3ad 5a3e b470 ae3e bea9 9dbe
00000010: a035 ae39 bf54 dc3d 1fee 11bc b0ab ca3d
00000020: e507 cbbc ccf0 573e a01b 3d3e a5b1 80be
00000030: 9c41 40bd 9b2d 273e e3da 4dbe 318a 403e
00000040: 9c71 b3bd c072 84bd c330 c7be 6872 e93d
00000050: 4be3 a63e 99c7 7fbe a13d df3d 0b21 973e
00000060: ec4b 143e 74c5 b03e 6d82 a53d 8903 6f3d
00000070: 25eb a6be 4b5f bb3e 0578 13bd 4914 a5be
00000080: b218 8fbe 9da7 c13e f5c1 eabc 1c0d eebe
00000090: fdc3 eebd 8713 40be e296 243e c23c 8bbe
000000a0: 7116 ac3e c79f c53d b647 4abe 9036 c9bd
000000b0: a3df 923e 5e09 873e 0f88 afbd 28a9 d13e
000000c0: acb4 773d 20ed 733d 545d 893c f125 8abc
000000d0: 914a 53be 1046 76bc 30de ff3e e182 debc
000000e0: 404d 183e 09ed 963d 9e2c 9e3e f2b1 483e
000000f0: 7a4a 303e 3ef4 083e 24cb 97bc 6ee5 59be
00000100: 3be5 91bd a266 533e 6954 563e 70ee 4abe
00000110: e359 8f3e 7d02 063d 8cc6 563e 0622 06be
00000120: ea67 e33d b231 f2bc d607 2c3e c846 303e
00000130: d3eb a2be 9da3 733e 44d4 e83d db01 60be
00000140: 33cc 49bd daf3 41ba c132 2b3e 08c9 24bd
00000150: 4dac cebb 49ff 93bd 0bdf 6a3e 8093 163d
00000160: 6541 7c3d e58c a43e 0b0c aebe 9e93 853d
00000170: 97c0 e4bd 5d96 dabd 707e 9dbe a02d 3cbe
00000180: ff96 1bbe 631f 42be 2d9b 39be 4ea8 0f3e
00000190: f639 6f3e 2534 513e 2769 99bd aec9 7b3d
000001a0: 19c7 8ebd 054d 513d 4990 a73d b548 293e
000001b0: a73d e4bd 0a0f 63bc f336 2f3e f29a 6bbc
000001c0: 7061 bebe 8cad dc3b 2812 91be bb07 31be
000001d0: 2f73 3ebe 5baf 1abe 7d10 c8bc 4a0f 5fbe
000001e0: 49e5 843e 6184 ce3e 5eba c1be 244e 3cbd
000001f0: 5a29 e93d e731 7e3e 9cb6 373d 7284 bdbb
00000200: e7d5 a7bd 3917 f4bd e27b 8abe e6d8 25be
00000210: 0d43 c63e d79d ab3e 81d1 2f3e 2227 183d
00000220: 7e12 8c3e 2767 c53d 1a98 de3b 76c2 b83e
00000230: 0ac4 92be d33d 26bd 39ef 0b3e 060c 083e
00000240: 1897 6fbd dca1 913e bbfe 16be 3478 993d
00000250: 6303 1abc abe5 03bf 0e79 183e bec7 133e
00000260: 8f04 063d 63ce 1cbe 0116 fbbb f53c 4ebe
00000270: b579 283e c053 833e 9718 8a3d 4e3f 57bc
00000280: ae4d 83be 738e f83d b037 0abe 146f f3bc
00000290: f929 883d f764 cdbd 5d29 0b3d 6e44 e73d
000002a0: 10d4 383d 0921 0cbd 3e68 32be 24bd 3abe
000002b0: 1645 51be 048a a63e d6b4 8a3e f36f 4a3e
000002c0: 9847 773e 953e 773e e3b2 d4bc eb82 32be
000002d0: ff6b 9bbe d9cf c53e b903 993e 1b7d 013e
000002e0: 1c99 81bd fca7 973e f0f9 00be 339e b13d
000002f0: 07a2 0fbe 078f 85be 26ef bfbe 35ef 853e
00000300: ed08 0bbe 6d61 413e 2cf4 95be 8a99 84be
00000310: 6a0b f0bd 37ec a4be e351 e3bc fdd1 fd3d
00000320: da21 0cbe 9a41 2bbe bd45 4bbe 12f6 efbd
00000330: b35e 733e f298 21bd 5e1b 06be 0db9 56be
00000340: 5da4 2c3e 44bf f93b 5968 443d a7b2 b8bd
00000350: 5b55 7cbe 1e76 a73e 1741 0d3e bec5 363d
00000360: ca6a cfbc 4371 b7bc 3024 cebd 3887 8cbe
00000370: eddc 113e 19f8 c63e e271 54be a53e f13d
00000380: 8d27 41be b643 41be 9260 de3d 3e48 4cbb
00000390: 0b09 1e3e ffe8 73be 16b7 8fbe b2d8 78be
000003a0: 0444 5e3d 4ec1 dbbd b80b 573e 7be3 5c3e
000003b0: 274c 7d3e 1dc4 903d 4cf1 c4bb 84db ba3e
000003c0: 4e64 c93d ea7c 823e b818 9d3e 63a6 21be
000003d0: 2406 293e 6c3e e9bc 4669 04be 3cda 15be
000003e0: 30ad c5be 0836 92be 3275 943e 3a00 22bd
000003f0: 9cd9 463e 5480 da3c ac96 a33d 4ca0 b73e
0.12417084 0.21355323 0.3407036 -0.30793566 0.0003322782 0.107583515 -0.00890687 0.09896028
-0.024784038 0.2108795 0.1846757 -0.25135532 -0.04693757 0.16325991 -0.2010303 0.18802716
-0.08761904 -0.06467199 -0.3890439 0.113987744 0.32595286 -0.24978484 0.10900427 0.29517397
0.14482087 0.34525645 0.08081517 0.05835298 -0.32601276 0.3659614 -0.03600313 -0.3224204
-0.2794853 0.3782319 -0.028656939 -0.46494377 -0.116584755 -0.18757449 0.16073182 -0.27194792
0.3361087 0.09649616 -0.19753918 -0.0982486 0.28686246 0.26374334 -0.08570873 0.40949368
0.060475037 0.059552312 0.016768135 -0.016863795 -0.20633914 -0.015031353 0.49974203 -0.027162017
0.14873219 0.073694296 0.30893415 0.19599131 0.1721591 0.13374421 -0.018529482 -0.21278927
-0.071238 0.2064462 0.20930637 -0.19817519 0.27998266 0.032717217 0.20974177 -0.13098916
0.111038044 -0.029564712 0.16799864 0.17214501 -0.31820545 0.23792882 0.113686115 -0.21875708
-0.049267005 -0.00073987024 0.1671858 -0.04023078 -0.006307161 -0.07226426 0.22936647 0.03676176
0.061585803 0.32138744 -0.33993563 0.06522296 -0.11169546 -0.10673211 -0.30760527 -0.1837678
-0.15194319 -0.18957286 -0.18125601 0.14029047 0.23361954 0.20430048 -0.07490759 0.061471634
-0.069715686 0.051098842 0.08181817 0.16531642 -0.11144572 -0.013858566 0.17110805 -0.014380204
-0.37183714 0.0067345556 -0.28334165 -0.17288105 -0.18598627 -0.15105955 -0.024421925 -0.21783176
0.2595618 0.40335372 -0.378375 -0.04597296 0.1138484 0.24823724 0.044851884 -0.005783611
-0.081950955 -0.11918492 -0.2704764 -0.16196021 0.3872303 0.3351886 0.17169763 0.037146695
0.27357858 0.096388154 0.0067930343 0.36085862 -0.2866519 -0.040586304 0.13665475 0.13285837
-0.058493704 0.284438 -0.1474561 0.0749363 -0.0094002215 -0.5152232 0.14889929 0.14431664
0.03271919 -0.15313105 -0.007662535 -0.20140441 0.16452678 0.25649834 0.067429714 -0.013137652
-0.25645202 0.12136545 -0.13497806 -0.029716052 0.06648631 -0.10029023 0.033974994 0.11292349
0.045124114 -0.034211192 -0.17422578 -0.18236214 -0.2043651 0.32527173 0.27091092 0.19769268
0.24148405 0.24144967 -0.025964206 -0.17432754 -0.30355832 0.38635138 0.29885653 0.1264538
-0.063280314 0.2962035 -0.12595344 0.08672752 -0.14026652 -0.26085684 -0.37487143 0.26159063
-0.13577624 0.18884821 -0.2928785 -0.2589839 -0.11720927 -0.32211468 -0.027749008 0.12393568
-0.13684788 -0.16724244 -0.19850822 -0.11716856 0.23766594 -0.0394525 -0.13096377 -0.20969029
0.16859575 0.0076216776 0.047951076 -0.0901845 -0.24641936 0.32707304 0.13794361 0.044622175
-0.025319476 -0.022392875 -0.10065496 -0.27446914 0.14244433 0.38861158 -0.20746568 0.117795266
-0.18862744 -0.18873486 0.10858263 -0.003117099 0.15433137 -0.2381935 -0.2806937 -0.24301413
0.054264084 -0.10730229 0.21000564 0.21571152 0.24736081 0.07068656 -0.00601021 0.36495602
0.09833585 0.25485927 0.3068292 -0.15786128 0.16506249 -0.028472148 -0.12930784 -0.14634031
-0.38608694 -0.28556848 0.28995663 -0.039550997 0.19418949 0.02667252 0.07987723 0.35864484

bn2.weight f4 [300]
00000000: d805 8b3f 121f 703f df36 d43e f6aa 0140
00000010: df4d fa3e e94f d53f 26fd da3f e8ba af3e
00000020: 4ffa d33e 406e dd3f 1a5a be3f a0fc c43f
00000030: fa5f b73f 2f9c e23f 9985 b93f 3393 b73f
00000040: eafd 8b3f e182 d83f 013e 0e40 90c1 753f
00000050: cc6a 823f 8d56 d93f d5d7 063f 00fa 803e
00000060: 70cf 983f a9c0 583f 81a5 ba3f 8800 aa3f
00000070: 1bf9 1240 1257 5e3f 96ec 993f c4f7 ec3f
00000080: de54 1640 60f5 6d3f 1f15 a43f 73c1 3540
00000090: 7700 b33f 64ab ba3f f49b 1b3f 2db3 a33f
000000a0: 7931 923f c856 1840 6935 ef3f 5842 b73f
000000b0: f2de a53f d11f b53f 7692 a23f 0743 583f
000000c0: 04cd 133f 7cf2 3d3f ff2d c03f 24ad e83e
000000d0: 1880 1f40 d1ce 9e3e d4d3 5b3f 779b d33e
000000e0: 5897 b33f d211 a53f 6936 023f a694 a93f
000000f0: 6023 aa3f 445b 943f ddb6 263f 4809 c83f
00000100: 30e1 fd3f 104b aa3f 7bb7 8a3f 4919 ab3f
00000110: 1ae6 043f d9f4 b03f 72f2 b83f 8393 af3f
00000120: a0db 873f 0344 173f ce06 a63f e57a ba3f
00000130: 4514 2740 b9ae bb3f 9c1f b23f b44f d63f
00000140: bdca 1b3f 6103 fc3f 3179 c23f 2150 c93e
00000150: 1932 093f 2cc0 993f 456d 903f 2312 2740
00000160: accc cc3f c1cf 943f 21a1 2a40 c4cf 5f3f
00000170: cf70 d63f db93 c43f 0181 b03f 625c f53f
00000180: 6b5d 193f c5a7 753f 916f 263f de0d 9b3e
00000190: c71c c83f 7da7 b23f 67ce 963f 860d 063f
000001a0: 7a78 ad3f 6644 973f ed5f 1a3f 0959 b13f
000001b0: 1adc 913f 22b0 b13f c868 bc3f e2b4 623f
000001c0: ffbb eb3f c41c 063f aa70 553f bfcb 9b3f
000001d0: 1f4b b73f 0506 153f 3bfb 043f 2bc8 b93f
000001e0: d3d3 963e 9783 523f a2c9 3340 e95f 033f
000001f0: df16 a33f 7e43 b73f be05 103f 9d85 cf3f
00000200: 1aa6 133f 7d9d 933f 61b8 0e40 a99c f03f
00000210: 5900 613e 0bac 653f 8425 d33f e04b 203f
00000220: 9dd7 d93f 363e 973f a3ad 293f 4b9e 763f
00000230: d6e4 163f 3296 d33f 3fdb b73f d612 0b3f
00000240: e243 333f ba42 7c3f cdcf aa3f 56c6 613f
00000250: 5539 033f 4d2b 4d40 3903 a13f 97b1 9f3f
00000260: 843e 093f 6ad5 c13f ed6c 8f3e bfe7 3140
00000270: ef60 a83f 4bea c53f f739 043f 7b6b 163f
00000280: c8fe d23f 7a7f 6e3f 4a20 9d3f 76cf 033f
00000290: 8907 823e a3a8 123f f13c 983f 58b6 f03f
000002a0: 015b 0b3f 77d4 853f 7f93 ed3f fcf3 ed3f
000002b0: c51e a93f 9824 7c3f c74c 693f 5728 963f
000002c0: 3329 b13f 1cb2 ca3e 1f80 b93e faea 803f
000002d0: c892 f93f 99cd 5c3f 9c0e b43f b87d 0540
000002e0: 34d3 1540 3492 b13f 10fb b93f a5d2 233f
000002f0: 12fe ba3f dac5 2640 9412 3b40 4de2 063f
00000300: 2fbf 2940 d173 5640 4ccb 523f 5496 2840
00000310: bf7f c43f b94e 0c40 1459 a23e c268 a63f
00000320: 44f0 bc3f 7b6a ad3f b025 b73f a474 b93f
00000330: c614 ba3f 9119 b63f 6e87 ec3f 8368 0a40
00000340: 7cca 5a3e eb57 6f40 406f a13f 139d d43f
00000350: e6be bf3f 389b ec3e 441e ad3f f999 c63f
00000360: 97da 4b3f fc57 023f 5882 803f 1f67 3840
00000370: f28d 1b3f 60eb 663f 1c5b 0640 d898 4b40
00000380: b943 0f40 4e05 243f 2f89 ab3f 855d d33f
00000390: b6e3 aa3f 09ea 3140 736a 1b40 f3c5 1d40
000003a0: 7724 be3f f3f6 3c3f 1041 ac3f e8da ac3f
000003b0: 6459 c23f 4664 c33f a6ff 9c3f 2a56 a93e
000003c0: 4dc9 ed3e 3eda 773f 904b 813f 335d c53f
000003d0: 85a3 af3f 1b4e 063f cdf7 0c40 fdb1 aa3f
000003e0: a7c2 2b40 4a92 0840 1a91 b33f e3ce 1b3f
000003f0: d785 e03f 7c57 0b3f f5e5 7b3f f995 063f
1.0861158 0.9379741 0.41448113 2.0260596 0.48887536 1.6665012 1.7108505 0.34322286
0.41401908 1.7299271 1.4871247 1.5389595 1.4326165 1.7703913 1.4493896 1.4341797
1.0936863 1.6914941 2.2225344 0.9599848 1.0188842 1.6979538 0.52673084 0.25190735
1.1938305 0.84668976 1.4581758 1.3281412 2.2964542 0.8685161 1.2025325 1.8513112
2.34893 0.9295254 1.2818946 2.8399322 1.3984517 1.4583554 0.6078484 1.2789055
1.1421348 2.3802967 1.8688174 1.4317122 1.2958663 1.4150335 1.2700946 0.84477276
0.57734704 0.74198127 1.5014037 0.45444596 2.4921932 0.31017163 0.858701 0.41329548
1.4030561 1.2896063 0.50864273 1.3248489 1.3292046 1.1590352 0.6512278 1.5627832
1.9834347 1.3304157 1.0837244 1.3367091 0.5191361 1.3824722 1.4448988 1.3716892
1.0613899 0.5908815 1.2970827 1.4568754 2.6106122 1.4662696 1.3915896 1.6743073
0.6085623 1.9688531 1.5193235 0.39318946 0.5359207 1.2011771 1.1283346 2.610482
1.5999961 1.1625901 2.6660845 0.874264 1.6753176 1.5357622 1.3789369 1.9168818
0.5990817 0.9595912 0.65013987 0.30284017 1.5633782 1.3957363 1.1781739 0.52364385
1.3552392 1.1817749 0.6030262 1.3855296 1.1395295 1.3881876 1.4719477 0.88557255
1.8416747 0.5238764 0.83375037 1.2171553 1.43198 0.5821231 0.5194585 1.4514211
0.29458484 0.8223204 2.8091817 0.5131822 1.2741355 1.4317472 0.5625876 1.621265
0.57675326 1.1532437 2.2300036 1.8797809 0.21972789 0.8971564 1.6495824 0.62615776
1.7018925 1.181586 0.66280574 0.96335286 0.58942926 1.6530211 1.4363784 0.54325616
0.70025456 0.98539317 1.3344666 0.8819326 0.51259357 3.2057679 1.2579108 1.2476071
0.53611016 1.5143254 0.2801279 2.7797697 1.3154582 1.5462126 0.5165095 0.5875775
1.6484003 0.93163264 1.2275479 0.51488435 0.25396374 0.5728857 1.1893598 1.8805647
0.54435736 1.0455464 1.8560637 1.8590083 1.3212515 0.9849334 0.9113278 1.1731061
1.3840698 0.39589012 0.3623056 1.0071709 1.9497919 0.8625122 1.4066958 2.0857983
2.3410158 1.3872743 1.4529743 0.63993293 1.4608786 2.605826 2.923009 0.5268906
2.652294 3.3508189 0.82341456 2.6341753 1.5351485 2.1923048 0.31708586 1.300072
1.4760823 1.354812 1.4308376 1.4488721 1.453759 1.4226552 1.847883 2.162629
0.21366304 3.739741 1.2612076 1.6610435 1.4980133 0.46212173 1.3524861 1.5515739
0.79630417 0.50915504 1.0039778 2.881294 0.60763466 0.90202904 2.0993109 3.1812038
2.2385085 0.64070594 1.340124 1.6512915 1.3350742 2.7799094 2.4283721 2.4652069
1.4854878 0.73814315 1.3457355 1.3504305 1.518353 1.5264976 1.2265518 0.3307355
0.46442643 0.96817386 1.0101185 1.5419067 1.3721777 0.5246293 2.2026246 1.3335568
2.6837556 2.1339288 1.4028656 0.6086256 1.7540845 0.54430366 0.9839776 0.5257259

bn2.bias f4 [300]
00000000: 51a7 1fbf 62f4 56bf 3432 76bf 0b2d fcbe
00000010: 0eda d5be b50f cebe 7b0f 003f db04 32bf
00000020: d983 ddbe a698 e23e 1c77 963e d4cd 2a3e
00000030: 068c 263d cc2c c2be b4f8 da3b f5ce de3d
00000040: 6bdf 15be 3416 0b3e 19a5 273f ae82 f6be
00000050: 3c89 cb3d 6eaf 283f 0319 c8be 9033 25bf
00000060: e700 d3be fbd9 d4bd b91b 363e c66f 81be
00000070: 52cf fd3e b9fc b3bd 77d5 b43d 6753 0b3f
00000080: caf0 fd3e ff28 743c 082e 043e 74f9 543f
00000090: 4bce fc3d a0d9 023e 2599 5bbf b13b ed3d
000000a0: e959 233e c42b b7be 5a8a 4d3f 6179 263e
000000b0: 254a 72be b67a 243e 74bb fe3d fca9 d5bd
000000c0: a566 9dbe dd9c 83be 61a8 68be e67f 0ebf
000000d0: 7b4d 103f ab28 1fbf 966c 823d 78a9 05bf
000000e0: 88bb 60be 237f 9ebe 214e 80bf ed90 f4bd
000000f0: 8993 3abe 2342 65be 7ee2 62be 0dc1 563e
00000100: d636 983d 1b00 943e a326 1abf 77c0 df3d
00000110: 6888 72bf 255d 2abf 17d5 3b3e fba8 333e
00000120: 7106 83be a657 adbe 9600 bf3b c34e 643e
00000130: 44e9 693f 4870 fe3c 1a7b 01be 532a 653d
00000140: dd85 98be 1fbd 613e af5f 883e a656 13bf
00000150: f3cd a7be 7d9a 21be b5d3 2d3c e267 aa3e
00000160: 1fb5 4fbe 0899 7c3e 0fbb 223f b075 0abf
00000170: dcb8 073e 6488 0e3e 101d a63d 7ff2 263f
00000180: 5076 f3be 25e5 a5be 1c27 b3be cd03 0fbf
00000190: f10f 933d 6efb 223e 5dba b73a b44f e6be
000001a0: d3ac e43d cfe9 febe 97a4 a2be 4e84 09be
000001b0: 90eb 4abe 1139 293e ede1 32be c5db 1fbe
000001c0: 9f61 0f3f 7339 adbe 2328 25bf 793c dd3d
000001d0: 913d 393e ec85 edbe 2e1c adbe 1c6d 3d3e
000001e0: 3d66 34bf eccf eebd 2bc3 1e3f 2505 c2be
000001f0: 2628 b5be 0cf6 58be 423d 5ebf fc0b c83e
00000200: da48 a0be 13a8 66be d06a e2be ec31 ff3d
00000210: 9b57 3bbf cff2 0ebd 869d 9cbe 8bca fcbe
00000220: 8fef c33e ad9e bcbe f240 92be aed5 643d
00000230: c88c 4cbf 665c a53d 9f51 513d bdfa cebe
00000240: 8c48 a2be 9039 25bf 152a c13d 0401 5fbf
00000250: f30c e3be 74e4 423f f62b 213e 1c77 a7be
00000260: db1e a8be d70d 053e 470b 1bbf fc6c 4a3f
00000270: 1256 1d3e 5add d63d 9724 bcbe 6bc3 c6be
00000280: 8fdf 093e 2b69 40be da20 c53d fd0e b4be
00000290: e6cc 2cbf f7ef c1be 3ace 2a3e cb84 0a3e
000002a0: 4246 b8be 415f cabd faeb f53e 5e15 a63b
000002b0: b86d e33d bbeb 973d a439 37bf a83c 63be
000002c0: 4f15 72be e471 6dbf 4d38 1dbf 9d0b 2bbd
000002d0: cea7 1c3f b859 bdbd 66c8 f2bd c16f 41be
000002e0: b632 903e f0b1 d8bd 3486 633e 55d3 77be
000002f0: e6be 263e 5755 2c3f 200c 6b3f b38d 4fbf
00000300: 1285 043e ed64 e6b9 4a99 dabe 672b bf3e
00000310: 8b45 763d ac26 cabe f9fd 1cbf 1511 283e
00000320: 1e79 1b3e e06d c93d d18b 1b3e 2cea 0a3e
00000330: b7f9 803e e86b 0bbf ee24 223f dcf9 d1bd
00000340: 8ede 0fbf f418 323d 1b62 c6be 8c17 233d
00000350: a119 2f3e fd2e 67bf 6ca5 e9be ef3c e93d
00000360: da4e 81be bd34 acbe 5828 d7be 917d a43e
00000370: 5e6c 5cbf 4862 8d3c 84b9 f93e 3fd3 e9bb
00000380: 88f9 b3be d769 b7be 7539 a03d 99cc 243e
00000390: 8705 cf3d 4547 5b3f 8d9d c23e 7d8a 9a3e
000003a0: 8925 0dbe 8c39 d8be bff6 2dbe 4d0f 983d
000003b0: 97d5 ea3d 460d 93bd 02f6 c8be b802 5ebf
000003c0: d16d 3fbf 8d0a 11bf c8ca 8e3d 01c8 953e
000003d0: c398 00be e41e adbe abee 0c3e dc93 d33d
000003e0: a7b7 f43e 8536 be3e f85b 0abc 3f8f babe
000003f0: db9e 123f de92 b2be 6c67 4dbd 3761 75bf
-0.6236468 -0.8396665 -0.96170354 -0.49253115 -0.41767925 -0.4024636 0.5002362 -0.6953866
-0.43264654 0.44257087 0.29387748 0.1668008 0.04066088 -0.37924802 0.0066824798 0.10879318
-0.14636008 0.13582689 0.65486294 -0.48146576 0.09938285 0.65892684 -0.39081582 -0.64531803
-0.41211626 -0.10393139 0.17784013 -0.2528059 0.49572235 -0.087884374 0.08829778 0.54424137
0.4959777 0.014902352 0.12908185 0.83193135 0.12344035 0.1277833 -0.85780555 0.11583651
0.15952267 -0.35775578 0.8028923 0.1625724 -0.23661096 0.16062436 0.124380976 -0.104328126
-0.30742374 -0.25705615 -0.22720481 -0.5566391 0.56368226 -0.6217143 0.063683674 -0.52211714
-0.21946537 -0.30956373 -1.0023843 -0.11941705 -0.18220343 -0.2238851 -0.22156712 0.2097208
0.07432334 0.2890633 -0.60215205 0.10925382 -0.9473939 -0.6654838 0.18343006 0.1754493
-0.25590852 -0.33855933 0.0058289273 0.2229567 0.9137156 0.0310594 -0.12644616 0.055948567
-0.2978963 0.220448 0.266355 -0.5755409 -0.32774314 -0.15781589 0.010609557 0.3328238
-0.20283936 0.24667752 0.6356668 -0.54085827 0.13254112 0.13919216 0.08111012 0.6521377
-0.47551203 -0.32401386 -0.34990776 -0.55865175 0.07180775 0.15916225 0.0014017333 -0.44982684
0.11165776 -0.49787757 -0.31766197 -0.13429376 -0.19816422 0.16525675 -0.17468996 -0.15611179
0.5600833 -0.33832893 -0.6451437 0.1080255 0.18089892 -0.46391237 -0.33810562 0.18498653
-0.70468503 -0.11660752 0.6201655 -0.3789455 -0.35382193 -0.2118761 -0.8681222 0.39071643
-0.3130558 -0.22525053 -0.44222116 0.12460694 -0.7318055 -0.03489953 -0.3058893 -0.49373278
0.38268706 -0.3683981 -0.28565174 0.055867843 -0.79902315 0.08074264 0.05110323 -0.40425673
-0.31695974 -0.6454096 0.09431855 -0.87110925 -0.44345817 0.7612984 0.15739426 -0.3270806
-0.3283604 0.1299356 -0.6056408 0.79072547 0.15364864 0.10491438 -0.36746666 -0.38820967
0.13464187 -0.18790118 0.096254066 -0.35167685 -0.6750015 -0.3787839 0.16680232 0.13527219
-0.35991102 -0.098814495 0.48031598 0.005068465 0.111049116 0.07418009 -0.7157233 -0.22191107
-0.23640941 -0.9275191 -0.61414033 -0.041759122 0.6119355 -0.09245628 -0.11854629 -0.18890287
0.2816369 -0.10580814 0.22219163 -0.2420171 0.1628376 0.6731772 0.91815376 -0.8107559
0.12941387 -0.00043944214 -0.42695075 0.373378 0.060124915 -0.3948263 -0.6132503 0.16412766
0.15182921 0.0983541 0.15190054 0.13565892 0.25190517 -0.54461527 0.633376 -0.10252735
-0.56198967 0.04348083 -0.38746724 0.039817378 0.1709962 -0.90306073 -0.4563402 0.11388575
-0.2525547 -0.33633986 -0.42022967 0.3212705 -0.86102855 0.017258778 0.4877435 -0.007135778
-0.35151315 -0.35822937 0.07823459 0.16093673 0.10108476 0.85655624 0.38010827 0.30183783
-0.1378385 -0.42231405 -0.16988657 0.074247934 0.1146652 -0.07180266 -0.3925019 -0.867229
-0.7477694 -0.56656724 0.06972271 0.29254153 -0.12558274 -0.3381263 0.1376292 0.10330936
0.47796366 0.3715097 -0.008444779 -0.36437413 0.57273644 -0.34877676 -0.05014746 -0.95851463
