DDPG/checkpoints/colabv2/v5/actor.ckpt (torch, 534407 bytes, 10 tensors)

layer1.weight f4 [400, 24]
000000 69 92 e0 3d 78 1e b4 bd cd 60 3a 3e da 66 21 be
       0.109654255 -0.08794874 0.18200989 -0.15761891
000010 33 a7 05 be 87 4e 89 bc 06 24 e9 bd 2a ac 37 bd
       -0.13052063 -0.016761078 -0.11383824 -0.044841923
000020 04 e9 2a 3e 92 23 8b 3d 8a 77 24 bc 71 17 0a be
       0.16690451 0.06793894 -0.010038266 -0.13485505
000030 33 77 5f bd d9 26 40 3e 95 3c 01 3e 6e f1 32 3e
       -0.054557037 0.18764819 0.12620766 0.1747491
000040 83 fe 43 3e c5 c6 c7 3d fc ae 42 3e 63 17 27 3e
       0.19140057 0.09754709 0.19012064 0.16317515
000050 76 48 38 3e 9f 8a 2d 3e e1 24 2e 3e 6b 86 2f 3e
       0.17996392 0.16947411 0.17006256 0.1714112
000060 24 cc 90 be 73 b2 59 3d 61 cb 5e be 5f 8d 0b 3e
       -0.28280747 0.053148698 -0.2175727 0.13628148
000070 f7 21 00 be 83 9e 1e 3e 20 03 3e 3e d6 64 36 3d
       -0.12512957 0.15490155 0.1855588 0.04452976
000080 ac a0 7c be c7 de 94 3d 91 bd cd 3d 83 ce 39 3e
       -0.24670666 0.07269054 0.100459225 0.18145184
000090 f6 8a 1f 3c 3b 9c 78 be 92 01 71 be 6a 72 a0 be
       0.009737721 -0.24278347 -0.23535755 -0.3133729
0000a0 0b 7f 98 be be e9 96 be 78 cf 94 be 1f bd 8f be
       -0.29784426 -0.29475206 -0.29064536 -0.28073975
0000b0 e7 ad 5d be de 53 9b be 3a c8 81 be ab cf a1 be
       -0.2164837 -0.30337423 -0.25348073 -0.3160375
0000c0 fb 95 42 be 76 ef 77 3d a9 10 0e be 2d 18 0b 3e
       -0.19002526 0.060531102 -0.13873543 0.13583441
0000d0 36 c5 02 be ca 59 d7 3d 4e 6d 39 3e 17 1f a4 3c
       -0.12770543 0.10515173 0.18108103 0.020034356
0000e0 41 27 10 be ef e6 a5 3d 0c fc 8c 3d aa 95 d4 3d
       -0.14077474 0.08100688 0.068840116 0.10380109
0000f0 ae f4 4e 3d 85 b8 4f be be d1 3e be a7 93 22 be
       0.050526313 -0.20285232 -0.18634698 -0.15876637
000100 ae 75 79 be 01 45 36 be 7f 03 5e be 1e 14 39 be
       -0.24361297 -0.1779976 -0.21681021 -0.1807408
000110 a9 d0 42 be 89 08 5b be 6a 08 6d be 3f 23 2b be
       -0.1902491 -0.21389975 -0.23147741 -0.16712664
000120 d4 24 78 be 95 cb d3 3d 20 0c 34 be 1d ee 63 3e
       -0.24232799 0.103415646 -0.1758275 0.22258802
000130 12 a4 f0 bd 41 87 f2 3d a0 8d 39 3e d8 86 2b bd
       -0.11750044 0.11842204 0.18120432 -0.041876644
000140 49 9f 43 be 68 e2 e3 3d 4e 63 97 3d 23 64 1e 3e
       -0.19103731 0.11127168 0.07391988 0.15467887
000150 85 6b 2b bc 88 fd 49 be da 1c 92 be eb 6b 65 be
       -0.010462646 -0.19725621 -0.28537637 -0.22404449
000160 5c 8d 9a be c0 fd 81 be c0 bf 6d be 5e bd 9f be
       -0.30185974 -0.25388908 -0.23217678 -0.31199163
000170 36 de 8f be 9b 60 8e be bc 9c 94 be f7 f3 a1 be
       -0.2809922 -0.2780808 -0.2902583 -0.31631443
000180 1e 6f 0a be 22 de a6 3c 1e d4 dc bd 88 82 06 3e
       -0.1351895 0.020369593 -0.10782646 0.13135731
000190 68 8b bd bd 8e 45 88 3d 3c a1 32 3e 96 71 9c 3d
       -0.09255105 0.066538915 0.17444319 0.07638852
0001a0 fc d1 1f be 47 47 e0 bc eb 7b e0 3d 01 e1 d0 3d
       -0.15607446 -0.027377738 0.109611355 0.10199166
0001b0 b1 de e5 3b c0 07 1e be 20 e0 52 be 15 23 47 be
       0.0070150723 -0.15432644 -0.2059331 -0.19446976
0001c0 26 9a 4b be 2d ce 30 be 1d 8d 2b be 9d 0b 53 be
       -0.19883022 -0.1726615 -0.16753049 -0.20609899
0001d0 c5 db f0 bd 4b 24 e4 bd 7f ad 47 be f6 aa 37 be
       -0.11760668 -0.11139735 -0.19499777 -0.1793631
0001e0 1c cc 85 be 75 d3 c8 3d c0 95 3c be dd 5b 65 3e
       -0.26132286 0.09805957 -0.184165 0.22398324
0001f0 aa 86 0c be 7a 5c b0 3d d2 b4 0f 3e 1d 19 82 3c
       -0.13723245 0.086113885 0.14033821 0.015881116
000200 22 49 50 be f1 bd 80 3d 85 e1 aa 3d 01 fd 2b 3e
       -0.20340398 0.062862284 0.08343796 0.16795732
000210 66 31 a2 3c 3d e6 97 be e1 ee 97 be 94 14 a5 be
       0.019798946 -0.29667845 -0.29674438 -0.32242262
000220 a7 01 a0 be 6e e6 86 be 81 e5 85 be 98 83 68 be
       -0.3125126 -0.2634768 -0.2615166 -0.22706449
000230 6e 73 96 be 6f 34 7d be 5a 6c 97 be fd 88 a7 be
       -0.2938494 -0.24727033 -0.29574853 -0.327217
000240 9d 13 62 be 9b 04 8d 3d 88 54 4b be 68 11 25 3e
       -0.22077794 0.06885644 -0.19856465 0.16119921
000250 84 45 30 be 78 31 24 3e 7e 90 0e 3e e4 eb 7f 3d
       -0.17214018 0.16034496 0.13922307 0.062480822
000260 e6 4b 63 be 9a 48 b2 3d 98 2f 0a 3e ea f1 12 3e
       -0.22196922 0.08705254 0.13494718 0.14350095
000270 e2 2c 3a 3d 56 bc 88 be e1 c2 71 be a4 ef 9b be
       0.04545296 -0.2670619 -0.23609497 -0.3045627
000280 fe 7f 93 be a0 54 62 be f6 fe 75 be 75 d7 88 be
       -0.28808588 -0.22102594 -0.24023041 -0.2672688
000290 02 3f 57 be 9a 17 67 be e3 5b 8e be 9b e2 99 be
       -0.2102013 -0.22567597 -0.2780448 -0.300557
0002a0 29 15 37 3e ba 66 f9 3b 85 31 a5 3d ca c3 cb bc
       0.17879166 0.007611123 0.08066086 -0.024873633
0002b0 31 d3 4b be 61 9a 00 3d c6 b9 2e be 20 c7 bf 3c
       -0.19904782 0.031397227 -0.17063054 0.02341038
0002c0 a7 96 08 3e 3c 6c 7b 3e cf a4 da 3d b5 74 bf bc
       0.1333872 0.24553007 0.10675966 -0.02337108
0002d0 ae 70 0b bd ab ec 3f 3e 8a 3e 1d 3e 31 ef 35 3e
       -0.034043007 0.18742625 0.15355888 0.17767026
0002e0 93 83 c2 3d 28 3a 0c 3e b6 40 43 3e 39 6b 17 3e
       0.09497752 0.1369406 0.19067654 0.14786996
0002f0 93 1e 43 3e 18 d5 37 3e 62 bd 38 3e 81 1b 06 3e
       0.19054632 0.17952383 0.18040994 0.1309643
000300 b2 69 33 3e 43 4a 1c be 7d 3e fd 3d 17 9d 05 be
       0.17520788 -0.15262704 0.12365434 -0.13048206
000310 bf 01 93 bd 29 f3 1d bd ec 3b 3f be c9 c8 f1 39
       -0.071780674 -0.038561974 -0.18675202 0.000461167
000320 9e 5f 78 3e 6c 41 18 3d 72 d2 93 bb 9a db fe bc
       0.24255225 0.037171766 -0.004511171 -0.031110574
000330 c4 ab 37 bc db 0d 74 3e d5 33 45 3e 01 24 6c 3e
       -0.011210386 0.2383341 0.19258054 0.2306061
000340 c6 29 8a 3e 35 f1 80 3e 52 3e 87 3e ef 36 88 3e
       0.26984996 0.25184026 0.26414734 0.2660441
000350 91 98 64 3e 34 4e 82 3e b0 e4 8d 3e b8 69 78 3e
       0.22323824 0.2545029 0.27713537 0.24259079
000360 da e6 e0 3e 2f 3d 06 be da 65 bf 3e 0b 79 c6 be
       0.43926126 -0.13109277 0.37382394 -0.38764223
000370 aa 92 91 bd 1d d4 2a be 9b ed cd be 30 53 e2 bd
       -0.07108052 -0.16682477 -0.4022034 -0.11051023
000380 2c 90 db 3e 63 44 53 3e be 2c da bd 81 e6 a2 be
       0.42883432 0.20631556 -0.10653065 -0.31816486
000390 a7 cf 70 bd f2 cf fa 3e 8e 96 f5 3e 44 5e 02 3f
       -0.058791783 0.48986775 0.47966427 0.5092509
0003a0 6e 2b f4 3e 11 fa df 3e 9a 93 02 3f 54 46 e1 3e
       0.47689384 0.43745473 0.5100647 0.4399897
0003b0 07 d9 03 3f 7b 4c e9 3e d8 e1 e2 3e 30 7b fb 3e
       0.5150303 0.45566162 0.4431293 0.49117422
0003c0 15 fd f9 3d 8d 79 3b 3d 98 9d 57 bc b9 37 65 3d
       0.12206475 0.045770217 -0.013160132 0.055961344
0003d0 38 67 df 3c 27 e8 81 3c c3 a1 c8 bd 58 00 c8 3c
       0.027270898 0.01585777 -0.097964786 0.024414226
0003e0 82 22 ea 3d 69 b7 a4 3d 97 4f ec 3c 59 c6 de bd
       0.11432363 0.08042795 0.028846545 -0.108776756
0003f0 b9 77 9d bc 07 d4 d1 3d 60 3a b0 3d 1d 6f 0a 3d
       -0.019222127 0.10245519 0.08604884 0.033797372

layer1.bias f4 [400]
000000 82 8e 1d 3e 8a 7e 90 be 33 0b 52 be b0 d9 a4 be
       0.15386394 -0.28221542 -0.20512085 -0.32197332
000010 e9 88 12 be dc 42 88 be 53 be 54 be 57 f4 4c 3e
       -0.1431004 -0.2661351 -0.20775728 0.20015083
000020 ce c8 66 3e a4 b8 fc 3e 24 e2 d8 3d 78 d5 74 be
       0.22537538 0.4935962 0.10590008 -0.23909557
000030 12 81 7e be 22 f3 6a be 83 f8 97 bd 47 22 24 be
       -0.24853924 -0.2294431 -0.07420447 -0.16028701
000040 87 08 ee 3c 34 67 1f be 0b 32 c7 3d 49 bc 0d be
       0.0290568 -0.15566713 0.09726342 -0.13841356
000050 57 09 93 be d5 74 4c be 84 0b 87 be d9 86 7a be
       -0.28718063 -0.19966443 -0.26375973 -0.24465503
000060 ed 3e 08 be 95 45 ff 3d 2c 05 05 3e 70 bb 66 be
       -0.13305254 0.124644436 0.12990254 -0.22532439
000070 b0 fc 9c be 8c 0c 88 be bb d0 40 be ef fc 91 be
       -0.30661535 -0.26572073 -0.18829624 -0.28513286
000080 a2 c8 8b be a3 8f 9a be a2 5c b3 bd 25 63 23 be
       -0.27301508 -0.3018771 -0.08757903 -0.1595579
000090 2b 5d 0e be c0 79 5b 3e 86 fc 3a be 13 71 24 3e
       -0.13902728 0.21433163 -0.18260393 0.1605876
0000a0 20 f5 cf bd 08 7f 78 be a5 2b 5a 3c d4 26 57 be
       -0.10154176 -0.24267209 0.01331607 -0.21010906
0000b0 68 70 2f be 4e ba a6 be 95 91 ee bc 7d 47 c9 3b
       -0.17132723 -0.32564014 -0.029122153 0.0061425553
0000c0 33 47 80 3e b2 3c b1 3e fd 08 40 be 03 27 80 be
       0.2505432 0.3461662 -0.18753429 -0.25029764
0000d0 a7 26 05 3e 1e e5 c5 3d cd 71 3d be 82 1d 1e be
       0.13003026 0.09662841 -0.18500443 -0.15440944
0000e0 03 e0 b6 3a 9a f2 91 bc b5 f3 48 be ca b1 54 3e
       0.0013952259 -0.017815877 -0.19624217 0.20770946
0000f0 dc 5d 35 be 9b 30 58 be 8f b3 96 3e 0d 51 84 bd
       -0.17711586 -0.21112292 0.29433867 -0.06460772
000100 1e 22 75 3e 9c 63 2c 3e a2 ef 9b be 1f 92 b2 3e
       0.23938796 0.16834873 -0.30456263 0.34877107
000110 2d 2d 57 3e 6c 52 9b 3d fc aa 2e be 2c 5a 8e be
       0.21013327 0.0758408 -0.17057413 -0.2780317
000120 24 e4 fb bd 46 e8 24 be 9c de 41 be ea 65 9c be
       -0.12299374 -0.1610423 -0.18932575 -0.30546504
000130 b5 86 8f be 2c 42 8b be 18 0d c5 bd 63 01 86 be
       -0.2803246 -0.27198923 -0.09621638 -0.26172933
000140 7a d0 49 be 60 6e 8c be 4a b1 1d be 64 bd 97 be
       -0.19708434 -0.2742796 -0.15399662 -0.2963668
000150 1e 59 f4 3d cf 4f 2a be 4a ac 89 be 93 b2 5c be
       0.1193106 -0.16632007 -0.2688926 -0.21552496
000160 dd 0e f0 3d 09 d1 a7 be c2 0b 0c 3e 98 96 4b 3e
       0.11721585 -0.3277667 0.1367636 0.19881666
000170 66 92 f6 3d 90 0d 5a 3d cc 79 5f 3e e6 96 2b 3e
       0.12039642 0.05323559 0.21823806 0.16756782
000180 b8 57 87 be 77 f2 5a be 97 cc 37 be 57 76 d8 bd
       -0.26434112 -0.21381555 -0.17949139 -0.105694465
000190 5f 86 7c be 72 ba 8d be dd 44 49 be 9d 2b 39 be
       -0.24660634 -0.2768131 -0.19655176 -0.18083043
0001a0 52 3e a0 be ee 62 8d 3e 36 91 6f 3e da 91 76 be
       -0.31297547 0.2761454 0.23395237 -0.24079075
0001b0 f7 30 40 be 4c 44 45 be e3 be a7 be 1c 57 9a be
       -0.18768679 -0.19264334 -0.32762823 -0.30144584
0001c0 db 60 bb 3d 94 17 ef 3e 53 fa 20 be 99 2d 8b be
       0.09149333 0.46697676 -0.15720491 -0.27183226
0001d0 e5 26 80 be 66 84 9c be 80 cd 30 be 81 9b 8c be
       -0.25029674 -0.30569762 -0.17265892 -0.2746239
0001e0 9c 29 51 be f9 57 64 3c d3 01 7b 3d 91 31 fa bc
       -0.20426029 0.01393699 0.061281037 -0.030541213
0001f0 fc 51 37 be 87 6d 20 3d a4 1b 76 be fc 9e d2 3e
       -0.17902368 0.039166953 -0.24033982 0.4113692
000200 96 95 95 be 4a 0d 73 be bc d5 40 3e e5 c8 28 be
       -0.29215688 -0.23735538 0.18831533 -0.16482885
000210 98 66 a9 be 5a 51 e1 3d 72 06 56 be 85 62 37 be
       -0.33086085 0.11001845 -0.20900896 -0.17908676
000220 bb c4 75 be 7e 60 a3 3d 57 0c c8 bd d9 36 dc bd
       -0.24000828 0.07977389 -0.09767979 -0.10752649
000230 f3 af f0 bd 6e 6b a5 be 79 35 c0 3e 40 b0 ef bd
       -0.1175231 -0.32308525 0.37540796 -0.11703539
000240 62 01 98 3e 4b f1 56 be 4c 4a 2b 3e 53 78 9c 3c
       0.29688555 -0.20990483 0.16727561 0.019100344
000250 2e fa 2b be 32 ac 54 3e 57 b3 28 be da 34 60 be
       -0.16794655 0.20768812 -0.16474663 -0.21895161
000260 06 c3 34 3e be 7b 79 be c3 eb 4e be fb 0a aa be
       0.1765252 -0.2436361 -0.20207123 -0.33211502
000270 e0 84 01 bc 92 9d 9d be 28 cc 1a be 87 7a 86 be
       -0.007905215 -0.3078428 -0.15116942 -0.26265356
000280 fb 06 4b be 03 a7 8b be 27 5b 11 3e 67 4c 7c be
       -0.19826882 -0.27275857 0.14194928 -0.2463852
000290 77 8f 9f 3d 58 8f d3 bd 71 81 84 3e 4c 6b 6d be
       0.077910356 -0.10330075 0.25880006 -0.23185462
0002a0 d1 c1 07 3d 5c d0 6a 3e 0d 56 50 be d0 ae 83 be
       0.033143822 0.22931045 -0.20345326 -0.2571931
0002b0 7d c9 6e be 6c 7a a8 be 0f c5 80 3e 19 b6 8f 3e
       -0.23319049 -0.329059 0.25150344 0.28068617
0002c0 a7 7d ff bc 27 d3 5a be 15 71 40 be a4 a3 8e be
       -0.031187845 -0.2136961 -0.18793137 -0.27859223
0002d0 fc 93 a3 3d 85 48 a3 be 3c 80 a4 be 27 2a a3 be
       0.0798721 -0.31891266 -0.32129085 -0.31868097
0002e0 5c c5 2b be 0f 6d 90 be 20 a0 62 3e 44 ed 6e be
       -0.16774505 -0.28208205 0.22131395 -0.23332697
0002f0 9b c3 2f be e8 c8 62 be 90 c9 39 be 42 0b 5f be
       -0.17164461 -0.22146952 -0.18143296 -0.21781638
000300 05 f0 73 be 1c aa a4 be 32 37 46 be 7c a8 80 be
       -0.23822029 -0.32161033 -0.19356993 -0.25128543
000310 6a 50 00 3d aa 88 a9 be 8a 5c 94 be 01 ed 8c be
       0.03132669 -0.3311208 -0.28976852 -0.2752457
000320 ad 7e 5e be e6 16 77 be 29 d2 85 3d 44 8b 5f be
       -0.2172801 -0.24129829 0.065342255 -0.2183047
000330 84 89 34 be ac e1 41 be 12 bc 6f be 48 e0 ed 3d
       -0.17630583 -0.18933743 -0.23411587 0.11615044
000340 93 a7 6d be 87 05 32 be d8 82 47 be c8 36 95 be
       -0.23208456 -0.17384921 -0.19483507 -0.29143357
000350 db ce 96 be ee 6e ad 3d 46 83 2d be 75 0d b9 3e
       -0.29454693 0.08468424 -0.16944608 0.3614308
000360 9b ef 8d be 3e c8 af 3e df e6 93 be e4 b7 4c be
       -0.27721867 0.3433246 -0.28887078 -0.19992024
000370 ab 81 95 be ad a8 92 be d9 f8 26 be 5a d8 5d 3d
       -0.2920049 -0.28644314 -0.16305865 0.054161407
000380 e7 02 a7 be d5 ff a1 be 7d 14 94 be 23 4f 84 be
       -0.32619402 -0.31640497 -0.2892188 -0.25841627
000390 70 d8 07 be 85 f1 3b be 71 fe b1 3d 94 3d ef bd
       -0.13266158 -0.18353851 0.08691109 -0.11681667
0003a0 0d 0a b5 bb d9 fa 9b be 12 85 6b be e4 ae 03 be
       -0.00552488 -0.3046482 -0.22999981 -0.12859684
0003b0 80 7e a0 be 98 7a 06 3e b9 64 40 3e 61 3c a5 be
       -0.31346512 0.13132703 0.18788423 -0.32272628
0003c0 c0 50 ed 3d a5 cc 16 be d8 03 e7 bb 03 40 33 3e
       0.115876675 -0.14726503 -0.0070500188 0.17504887
0003d0 57 0e 8c 3e bd 8d 56 be 66 e7 24 be dd 4c a3 be
       0.2735469 -0.20952506 -0.16103896 -0.3189458
0003e0 0e 4a 0a 39 2d 16 bd bc b0 d1 82 be e9 22 27 3e
       0.00013188293 -0.023081863 -0.25550604 0.16321911
0003f0 76 f1 0a 3e 78 dd 89 3e b7 5d 95 be d4 40 35 be
       0.13568673 0.2692678 -0.2917306 -0.17700511

bn1.weight f4 [400]
000000 a8 f3 ac 3f 4e 1d 80 3f d4 74 6b 3f 3f c1 7e 3f
       1.3511858 1.0008943 0.9197514 0.9951362
000010 3b 52 69 3f 63 41 7c 3f 1a 99 7b 3f bf 78 a6 3f
       0.911411 0.9853727 0.9828049 1.3005599
000020 2f 51 a2 3f db a5 bd 3f 20 a0 62 3f c9 c5 72 3f
       1.2681025 1.481624 0.8852558 0.94833046
000030 47 11 78 3f 09 08 65 3f 8a 7e 95 3f f1 84 69 3f
       0.96901363 0.89465386 1.1679242 0.9121848
000040 ea 46 8d 3f ba 02 67 3f 91 03 b1 3f 35 0f 6f 3f
       1.1037266 0.90238535 1.3829213 0.9338258
000050 24 9d 7e 3f a2 80 6f 3f e7 18 7d 3f 0b e6 7c 3f
       0.9945853 0.93555653 0.9886612 0.9878852
000060 64 a1 55 3f 99 09 97 3f 0e 13 97 3f 52 e6 75 3f
       0.8344939 1.1799804 1.180269 0.96054566
000070 79 c2 7f 3f 50 69 7a 3f 38 2a 64 3f fe a5 7c 3f
       0.99906117 0.97816944 0.8912692 0.98690784
000080 e1 51 7d 3f 89 c5 7e 3f f3 32 65 3f 59 70 6e 3f
       0.9895306 0.99520165 0.8953087 0.9314018
000090 fa 20 63 3f 6f 6f ab 3f db 94 75 3f a9 a0 a6 3f
       0.88722193 1.3393382 0.9593026 1.301778
0000a0 02 29 56 3f 51 39 7c 3f bb 41 9a 3f 6d c3 7a 3f
       0.8365632 0.9852496 1.2051309 0.97954446
0000b0 7c 75 6e 3f 26 7c 7c 3f fe 55 95 3f c8 c6 96 3f
       0.93148017 0.98626935 1.1666868 1.1779413
0000c0 0e b8 a3 3f 4e 98 ba 3f af 6e 70 3f 3e e8 73 3f
       1.2790544 1.457773 0.9391889 0.9527625
0000d0 e7 73 b2 3f 10 8b 90 3f b1 b9 64 3f ea 0c 63 3f
       1.394162 1.1292439 0.8934584 0.8869158
0000e0 8b ca 88 3f 3c de 8c 3f 71 c1 75 3f f4 d8 a1 3f
       1.0686811 1.100532 0.95998293 1.2644334
0000f0 50 e3 6e 3f a0 6f 70 3f b2 70 af 3f 77 ae 80 3f
       0.933156 0.93920326 1.3706267 1.0053242
000100 a2 85 a1 3f 5a d4 bb 3f 75 b5 7d 3f 19 4d af 3f
       1.2618906 1.467418 0.99105006 1.3695403
000110 35 80 a4 3f 58 df a8 3f 10 d4 63 3f ce 66 81 3f
       1.2851626 1.3193159 0.88995457 1.0109499
000120 83 a8 65 3f ad 67 67 3f 2d 2d 6f 3f 00 f1 7a 3f
       0.89710253 0.9039257 0.9342831 0.98023987
000130 fb 0e 7d 3f 4e 12 7b 3f 2e b5 8a 3f 31 c8 7b 3f
       0.98850983 0.98074806 1.0836542 0.9835234
000140 2e e0 79 3f c3 7f 7d 3f ec 26 64 3f 78 c9 7e 3f
       0.97607696 0.99023074 0.8912189 0.99526167
000150 6e ca 9a 3f 0e 04 5e 3f c9 f2 7c 3f 0b 55 6e 3f
       1.2093027 0.86724937 0.9880796 0.93098515
000160 ba 74 a0 3f 53 22 7f 3f 75 41 9a 3f 05 6c a1 3f
       1.2535622 0.9966175 1.2051226 1.261109
000170 c9 ba 8e 3f 8f ef 8a 3f 1d 40 a8 3f 85 65 a0 3f
       1.1150752 1.0854357 1.3144566 1.2530981
000180 2a 08 7c 3f 1e 05 77 3f 0f 98 77 3f 9d ae 60 3f
       0.9844996 0.96492183 0.967164 0.8776644
000190 5d 39 72 3f 17 a3 7e 3f f3 01 67 3f 8d a6 6a 3f
       0.9461878 0.99467605 0.9023735 0.91660386
0001a0 f8 c5 7f 3f 4e 00 aa 3f 60 66 a0 3f 93 40 7f 3f
       0.9991145 1.3281343 1.2531242 0.9970791
0001b0 b3 a4 6d 3f 6c fd 77 3f 34 b1 7c 3f 1b 2a 7f 3f
       0.92829436 0.96871066 0.9870789 0.9967362
0001c0 e3 7e a5 3f 8d 6b c3 3f 16 87 67 3f 89 e6 7d 3f
       1.2929348 1.5267197 0.904405 0.99179894
0001d0 2f 0a 77 3f 5c b4 7e 3f f9 8a 73 3f 7e 91 7c 3f
       0.96499914 0.99493957 0.9513393 0.98659503
0001e0 e9 e1 7a 3f 66 43 88 3f ce 37 93 3f a1 74 89 3f
       0.9800096 1.0645568 1.1501405 1.0738717
0001f0 df e9 66 3f 73 b2 a2 3f 4a ae 7e 3f 70 10 b9 3f
       0.9020061 1.2710708 0.99484694 1.4458141
000200 9c c3 7e 3f 63 66 72 3f 7c bd a2 3f 4b dd 61 3f
       0.99517226 0.9468748 1.2714076 0.8822829
000210 35 0b 7f 3f 2f 96 a5 3f cc 3a 71 3f 37 71 66 3f
       0.99626476 1.2936457 0.9423034 0.900165
000220 34 0b 7a 3f cb 16 89 3f 1e e2 5f 3f af 1a 7d 3f
       0.97673345 1.0710081 0.874544 0.9886884
000230 db e7 66 3f 02 ef 7b 3f 68 80 b3 3f df ad 69 3f
       0.90197533 0.9841157 1.4023561 0.9128093
000240 7a a5 b0 3f 10 5a 69 3f 20 e7 98 3f b1 f9 91 3f
       1.38005 0.9115305 1.1945534 1.1404325
000250 00 fc 62 3f b7 dd 95 3f 31 fb 5e 3f 75 9e 7d 3f
       0.8866577 1.1708287 0.8710204 0.9906991
000260 1b 4f 9f 3f 98 d3 6a 3f 99 df 6a 3f 41 c8 7c 3f
       1.2446016 0.91729116 0.9174743 0.98743063
000270 89 47 99 3f 93 24 7e 3f 1f cf 66 3f ed 1b 7e 3f
       1.1974956 0.9927456 0.9015979 0.9926136
000280 90 ce 70 3f e3 32 7e 3f 76 26 96 3f 69 20 7b 3f
       0.9406519 0.99296397 1.1730487 0.9809633
000290 80 ca 98 3f b6 77 6b 3f 14 92 a7 3f 07 b3 64 3f
       1.1936798 0.9197954 1.3091455 0.89335674
0002a0 78 16 8b 3f a7 43 9e 3f 0f 05 6e 3f 95 ed 7d 3f
       1.0866232 1.2364396 0.9297647 0.99190646
0002b0 3a 2c 79 3f 2a 18 7e 3f f5 e8 a4 3f d3 68 a8 3f
       0.9733311 0.9925562 1.2883593 1.315699
0002c0 c5 f4 8d 3f 12 bc 78 3f ae 76 6d 3f fc c6 7a 3f
       1.1090323 0.9716197 0.92759216 0.97959876
0002d0 09 9b a0 3f ed ba 7c 3f 91 3d 7a 3f 7c aa 7f 3f
       1.2547313 0.98722726 0.9775019 0.99869514
0002e0 3c 88 6d 3f cb c9 7a 3f d9 d7 a5 3f 71 34 73 3f
       0.92786 0.9796416 1.2956496 0.95001894
0002f0 c6 92 69 3f 14 54 78 3f e6 ff 72 3f b8 ff 7a 3f
       0.91239583 0.97003293 0.9492172 0.98046446
000300 1d 13 73 3f 59 eb 7d 3f fc 47 6a 3f 0c 97 7d 3f
       0.9495104 0.9918724 0.9151609 0.99058604
000310 22 a4 91 3f 71 48 7e 3f ba 2d 7e 3f cc f7 7e 3f
       1.1378214 0.99329287 0.99288523 0.9959686
000320 4e d9 67 3f ac 60 80 3f e5 f2 92 3f e3 22 75 3f
       0.90565956 1.0029502 1.1480376 0.9575636
000330 40 94 6e 3f b4 11 73 3f 98 e4 63 3f 00 99 9f 3f
       0.9319496 0.9494889 0.8902068 1.2468567
000340 87 aa 70 3f 2b 7f 6b 3f f5 2b 75 3f 29 0f 7e 3f
       0.94010204 0.9199092 0.957702 0.9924188
000350 aa ec 7e 3f b9 8a 93 3f 06 76 70 3f e4 cc b3 3f
       0.9957987 1.152671 0.9393009 1.4046903
000360 8b 53 80 3f c6 00 af 3f 01 c3 7d 3f 6f 13 7b 3f
       1.0025495 1.3672111 0.9912568 0.9807653
000370 42 d3 7d 3f 14 51 7c 3f 6c 1e 72 3f ac 6f 9f 3f
       0.9915048 0.98561215 0.9457767 1.2455955
000380 61 3d 7d 3f 43 e3 7d 3f 38 d0 7b 3f 3e 58 79 3f
       0.9892178 0.991749 0.9836459 0.9740027
000390 f1 af 52 3f b0 ee 57 3f e6 4a 8c 3f 9a cf 6c 3f
       0.82299715 0.84348583 1.0960357 0.92504275
0003a0 09 e0 89 3f da a9 7e 3f 5d 28 65 3f 55 6e 60 3f
       1.0771495 0.9947792 0.89514714 0.87668353
0003b0 c0 51 7c 3f fb ad 99 3f 3d 5a 9f 3f aa ff 7d 3f
       0.9856224 1.200622 1.2449414 0.9921824
0003c0 15 b2 70 3f 2b 7a 6b 3f 7a 17 91 3f 46 ab 96 3f
       0.9402173 0.9198329 1.133529 1.1771019
0003d0 47 6b a1 3f c9 01 74 3f 21 83 68 3f 44 07 80 3f
       1.2610863 0.95315224 0.90825087 1.0002217
0003e0 7e 20 a4 3f cc 7c 90 3f 26 ad 7d 3f bc 6a 9a 3f
       1.2822416 1.1288085 0.9909233 1.2063823
0003f0 75 53 94 3f a0 42 9f 3f 49 56 7e 3f 5b 38 6f 3f
       1.1587969 1.2442207 0.9935041 0.93445367

bn1.bias f4 [400]
000000 8c b4 ee 3d 78 7a a6 3b 14 67 96 bd 43 3c 5b bb
       0.1165553 0.0050805174 -0.07343879 -0.0033452667
000010 78 da 24 bd 11 d7 5a bc 24 ce 9e bc e8 a4 0e 3e
       -0.04024741 -0.01335694 -0.019385405 0.13930094
000020 e7 1e 71 3e b9 ef e8 3e 47 61 52 be aa fa aa bc
       0.23546945 0.45495394 -0.20544921 -0.020871479
000030 ac 72 7d bc 88 3e 67 bd aa 53 3f bd 89 e1 58 bd
       -0.015469234 -0.05645612 -0.046710648 -0.052949462
000040 23 2a 21 3d 00 bd 1d be 3d b3 8b 3d 9b 22 59 bd
       0.039346825 -0.15404129 0.06821296 -0.053011518
000050 13 18 05 bb d2 cb fa bc 06 32 3a bc da a5 6e bb
       -0.0020308539 -0.030614767 -0.011364466 -0.0036414773
000060 6f 2a 0e be 47 73 ba 3d e2 55 88 3d 14 de e9 bc
       -0.13883375 0.09104019 0.06657006 -0.028548278
000070 f5 7d 9c 3b 43 12 2a bd a9 54 6e bd 37 08 90 bc
       0.0047757574 -0.041521322 -0.058186207 -0.017582042
000080 2c 70 76 bc a8 af 5a bc cf d9 ca bd 43 e5 2b bd
       -0.015041392 -0.013347544 -0.09904825 -0.041966688
000090 1b f6 84 bd 57 89 7f 3e b4 2b 29 bd 87 7d 25 3e
       -0.064922534 0.24954735 -0.041301444 0.16161166
0000a0 f8 06 c5 bd 67 ca 65 bc 77 80 1f 3c 3f b4 8e ba
       -0.0962047 -0.014025307 0.009735218 -0.0010887458
0000b0 db 6f 4f bd 4c d9 9d bc 0e 75 f9 bc 21 43 1b bd
       -0.050643783 -0.019268654 -0.030451324 -0.037905816
0000c0 29 96 62 3e ae 17 ab 3e 01 c8 5f bc d4 c2 11 bd
       0.22127594 0.33416504 -0.0136585245 -0.035586193
0000d0 f9 e5 fd 3d 52 7e 28 3d a5 28 ab bd 45 9a 71 bd
       0.123973794 0.041136093 -0.08357362 -0.058985014
0000e0 e2 ea 48 bd 3f 1c 6f bc 7f e7 1b bd d8 4f 57 3e
       -0.049052127 -0.014594137 -0.03806257 0.21026552
0000f0 d6 f4 1d bd 5d db 23 bd 19 0e 93 3e 11 3c 34 bd
       -0.038563572 -0.040004123 0.28721693 -0.044002596
000100 56 90 54 3e 07 69 12 3e 3e 8f 5c bc e2 89 9b 3e
       0.20758185 0.14297877 -0.013461886 0.30378634
000110 45 37 69 3e be f8 d5 3d 76 b0 8a bd a0 2a fb 3b
       0.2277499 0.104478344 -0.067719385 0.0076649934
000120 55 da 23 be 08 1b 4d bd 8d 7d 56 bd 3d 87 de bc
       -0.16001256 -0.050074607 -0.05236583 -0.027164096
000130 69 60 ad bc ab b3 a0 bc 14 6e d3 bd 36 3e 1e bc
       -0.021164136 -0.019616922 -0.1032373 -0.009658387
000140 00 67 b1 bc 48 f6 4f bc b2 7b 51 bd a3 60 a8 3b
       -0.02165556 -0.012692995 -0.051143356 0.005138473
000150 bf d2 c9 3d 7a 2a a0 bd bf 83 16 bc 67 c1 48 bd
       0.0985465 -0.07820602 -0.009186684 -0.049012568
000160 1b 9f d8 3d a3 37 9e bb 2a fd 54 3d c1 23 59 3e
       0.10577222 -0.0048284098 0.05199925 0.21205045
000170 13 cd 30 3d 39 b7 3c 3d e3 20 43 3e 72 01 ad 3d
       0.043164324 0.046073172 0.19055514 0.08447541
000180 1c 5c 6f bc b7 7b 4d bb 6d 46 77 bc cb 99 04 bc
       -0.014609363 -0.0031354257 -0.015092474 -0.008093308
000190 74 23 09 bd e6 09 c0 ba c8 f4 47 bd de 22 96 bd
       -0.033481076 -0.0014651387 -0.048817426 -0.07330869
0001a0 63 f1 81 bb 3a 4b 5b 3e d0 7f 5d 3e 57 5a 62 bc
       -0.003965543 0.21415415 0.21630788 -0.013815484
0001b0 26 d7 a2 bd cc b9 01 bd 56 3b 0c bc 66 39 ea bb
       -0.079511926 -0.03167133 -0.008559069 -0.0071479557
0001c0 77 9f a7 3d 4b 8d e2 3e a5 c1 e7 bc b2 b6 1c bc
       0.081847124 0.44248423 -0.02829058 -0.009565042
0001d0 0a 53 1f bd 30 67 9e bb e2 dc c3 bc 03 20 84 bc
       -0.03889755 -0.0048340783 -0.023909036 -0.016128546
0001e0 5a 2d 06 bc d1 47 2d 3e 3c 7f 63 3c 92 f6 90 bd
       -0.008189524 0.16921927 0.0138853155 -0.070782796
0001f0 fc b3 99 bd cb 46 04 3b 04 b8 de bb b8 21 b6 3e
       -0.075050324 0.0020183797 -0.0067968387 0.355726
000200 04 8e c0 bb 50 e2 44 bd 7e 09 31 3e 3d 1f 84 bd
       -0.0058763046 -0.04806739 0.17288777 -0.06451271
000210 c2 ea 26 bc 22 71 0c 3e ec 26 3d bd e7 f7 1c bd
       -0.010187807 0.13715032 -0.046179697 -0.038322356
000220 93 89 c9 bc d9 69 51 3d 13 b1 20 be a6 e6 28 be
       -0.024601733 0.051126335 -0.15692548 -0.16494235
000230 24 b3 a6 bc ed 70 3d bc a9 c1 b1 3e 29 d4 36 bd
       -0.020349093 -0.011562568 0.34718063 -0.044635925
000240 fd d8 9c 3e 8f 60 68 bd a7 0c 15 3e e1 06 06 bc
       0.306343 -0.05673271 0.14555608 -0.008180351
000250 f0 47 71 bd 33 8a 78 3c 4d 53 99 bd fb de 86 bc
       -0.058906496 0.015169668 -0.074865915 -0.016463747
000260 2c 54 da 3d a4 b9 e3 bc 09 68 84 bd ec 80 72 bc
       0.10660586 -0.027798481 -0.06465156 -0.014801245
000270 59 3c 29 bc 8c b7 bd bb 7a ac cb bd 66 6a cd bb
       -0.010329329 -0.0057897028 -0.09945007 -0.006268787
000280 be 6e 89 bc 48 51 20 3c 9b 2a c7 3d e0 2b d9 bc
       -0.016776439 0.009785004 0.09724923 -0.026510179
000290 1d 7c fb 3c 11 7a f1 bc cb 80 90 3e 43 e9 b3 bd
       0.03069883 -0.029477151 0.2822326 -0.087847255
0002a0 c8 b9 ee bb 2c dd 2c 3e cf 1c 64 bd 9f 35 06 bc
       -0.0072853304 0.16881245 -0.055691537 -0.008191495
0002b0 61 91 9e bc ea de 0b bc bc 84 52 3e f9 50 8c 3e
       -0.019356431 -0.008537034 0.20558447 0.27405527
0002c0 85 ad ab bc 47 37 43 bd 80 30 6b bd 0c 64 2b bc
       -0.020956764 -0.04766014 -0.0574193 -0.010460865
0002d0 25 f9 93 3d 83 b7 37 bc 25 b3 f2 bc be 5f cd 3a
       0.07225255 -0.011213186 -0.029626438 0.0015668792
0002e0 2d 4e 4b bd 0b d5 75 bc 1c 5d 2b 3e aa e1 63 bd
       -0.0496351 -0.015004407 0.16734737 -0.055635132
0002f0 67 44 4e bd a3 8c 6d bc 5c f4 21 bd 07 9d d5 bc
       -0.050358202 -0.014498862 -0.03953968 -0.026075853
000300 44 2a 16 bd 35 6d 14 bb 04 04 a1 bd 62 85 7b 3c
       -0.0366614 -0.00226481 -0.07862094 0.015351625
000310 db b1 bd bc c9 df bf bb 13 79 0b ba 74 de 6c bb
       -0.023156097 -0.0058555347 -0.00053204707 -0.0036143335
000320 fa 85 4f bd 8e 52 22 bb 8f 25 88 3d 58 80 82 bc
       -0.05066488 -0.0024768445 0.06647789 -0.01593034
000330 a1 c1 9b bd 33 15 89 bd 45 3c 37 bd c9 fd 0a 3e
       -0.07605291 -0.066934966 -0.044735212 0.13573374
000340 46 bb bc bc d9 91 15 bd b6 3a 24 3c 62 0d 0b bc
       -0.023038518 -0.036516044 0.010023763 -0.008487077
000350 28 50 e7 bb f3 68 11 3d f1 e0 05 bd ef ea ae 3e
       -0.007059116 0.035500478 -0.032685224 0.34163615
000360 ef 0a 0a 3b 50 d2 a1 3e 8f d6 8b bc 91 ed a7 bc
       0.0021063646 0.31605768 -0.017070083 -0.020499023
000370 68 68 ab bb 0a 16 18 bc 4b 7f 07 3e e6 6b 93 3d
       -0.005230952 -0.009282598 0.13232152 0.07198314
000380 d2 34 0c bc f8 bc c3 bb ca 68 7b bc 4f 6e 10 bd
       -0.008557515 -0.0059734546 -0.015344808 -0.03526145
000390 81 da 0a be 4c c2 56 bd 50 f4 7a 3d e6 42 c7 bd
       -0.13559915 -0.05243139 0.06126815 -0.09729557
0003a0 d2 3f da 3b c4 5b 29 bc 73 9e 8e bd ff 39 de bd
       0.00666044 -0.01033682 -0.069638155 -0.108509056
0003b0 e4 5f ce bc 5c 26 ff 3d 05 82 0b 3e 96 65 09 bc
       -0.025192209 0.12458488 0.13623817 -0.008386036
0003c0 35 44 ca bd 7a 5c c5 3d 1c 8c 5f bd a4 0e 12 3e
       -0.09876291 0.09636779 -0.054576978 0.14263397
0003d0 d3 0c 6f 3e b9 25 9e bc 27 77 9c bd 97 75 c4 bb
       0.23344736 -0.019305097 -0.07639914 -0.005995463
0003e0 04 ad 08 3b ac a1 22 bd a5 a7 7a bc a4 0b 28 3e
       0.0020855078 -0.039704964 -0.015298759 0.1641069
0003f0 a5 85 f9 3c 1e 3a 71 3e 02 b0 98 3b e3 42 83 bd
       0.030459234 0.23557326 0.0046596536 -0.06409242

layer2.weight f4 [300, 400]
000000 86 eb 94 3f 40 ec 8d 3c 5e fc 0f 3d 8f 7b 85 bb
       1.1634376 0.017324567 0.035152785 -0.004073567
000010 37 52 be 3e 8a 20 aa bc e5 dd 66 bc 72 00 85 3f
       0.371721 -0.020767469 -0.01409099 1.0390761
000020 04 72 93 3f 78 d9 8d 3f 83 b3 32 3f ed 1c 53 bd
       1.151917 1.1081991 0.69805163 -0.051541258
000030 cc 15 92 3d 5f 32 be 3e 0a 44 6c 3f 16 b0 5e 3e
       0.07133064 0.37147805 0.9229132 0.21746859
000040 67 98 95 3f 61 02 57 3f 81 33 8b 3f 0d 80 a3 3e
       1.1687135 0.83988005 1.0875093 0.31933632
000050 ad 9d 34 3d ae fa 20 bd ba 2d 38 bd 3f 6a 22 3d
       0.044095684 -0.039301567 -0.044965483 0.039652105
000060 da 6a 08 3f 9b cf 34 3f 73 c1 75 3f 83 9f 95 3c
       0.5328804 0.7062928 0.95998305 0.018264538
000070 db c1 5c 3d f6 9d 58 3d 67 c7 c4 3e 21 c4 a1 bc
       0.053895812 0.05288502 0.38433382 -0.019746842
000080 73 c7 0e 3c 95 01 8a 3c 2c 25 94 3e 23 13 d0 3e
       0.008714545 0.016846457 0.2893461 0.406396
000090 08 b9 f4 3d 8f a0 8c 3f e6 13 e4 bc 6d 4a 90 3f
       0.119493544 1.0986499 -0.02784152 1.1272713
0000a0 dd 78 00 3f 1c 63 0f 3d 35 ab 8c 3f 95 5a 74 bc
       0.5018442 0.035006627 1.0989748 -0.014914175
0000b0 4f 0a 82 3e 7a 3b 29 bd 84 4b 96 3f 53 db 89 3f
       0.2539849 -0.041316487 1.1741796 1.0770057
0000c0 43 e5 8e 3f f9 94 9e 3f af c8 2f 3d d1 39 b6 3d
       1.1163715 1.2389213 0.042915996 0.08897746
0000d0 b7 e8 80 3f ae 9a 8f 3f bd 72 bd 3e 9a 9a 88 3e
       1.0071019 1.121908 0.370016 0.26680452
0000e0 42 e7 66 3f bf 46 91 3f 65 41 2b 3d bc d0 8e 3f
       0.9019662 1.1349715 0.041810412 1.1157451
0000f0 f1 49 c6 3e 81 7a 5a 3d 7d 29 9a 3f ec 3f 5d 3f
       0.38728288 0.053339485 1.2043911 0.8642566
000100 23 57 8e 3f c4 7d 9b 3f 5a dc 2a 3c 76 85 98 3f
       1.1120342 1.2147756 0.0104285125 1.1915729
000110 79 86 95 3f df ce 86 3f 38 e7 b2 3e a4 ec d2 3a
       1.1681663 1.0531882 0.3494203 0.0016092253
000120 88 34 4f 3f 26 f2 68 3e 36 34 a1 3d 1a dc b6 bc
       0.8093953 0.22748622 0.078712866 -0.02232175
000130 65 a1 12 bc b1 2f 7e 3d 11 56 81 3f cb 7b 2a bd
       -0.008949612 0.0620572 1.010439 -0.041621964
000140 c8 3d a0 3d 57 94 9e 3b e0 d1 d4 3e af ff 75 bc
       0.07824284 0.004839461 0.41566372 -0.015014573
000150 ba e4 94 3f 75 9b df 3d 85 b9 18 bc 0b c9 a8 bc
       1.1632302 0.10918323 -0.009321575 -0.020603677
000160 30 89 8b 3f 94 8a 4e bd 5f 90 94 3f c9 21 8f 3f
       1.0901241 -0.050425127 1.1606559 1.1182185
000170 f4 79 8f 3f 72 85 89 3f 46 d2 91 3f e1 ba 5c 3f
       1.1209092 1.0743849 1.1392295 0.86222655
000180 a5 4a e4 3c ae ee 45 3d c0 65 1d bd 64 b5 f5 3e
       0.027867625 0.048323326 -0.038427114 0.47989953
000190 65 65 80 bd f2 29 18 3d 79 c6 c2 3e e1 48 23 3d
       -0.062693395 0.037149377 0.38042048 0.039864425
0001a0 ca 9c 2c bd 49 51 90 3f c8 dc 8c 3f ae d1 36 bd
       -0.042141713 1.1274806 1.1004877 -0.04463356
0001b0 21 06 eb 3d a3 cb 18 3d 61 ec d0 3a cd ce 63 3d
       0.11475778 0.037303578 0.0015939587 0.055617142
0001c0 3f ad 98 3f 33 52 9a 3f a3 0c d9 3e 2e 79 d8 3c
       1.192787 1.2056335 0.42392454 0.02642497
0001d0 62 06 20 3d 2a f0 97 3c ed 63 7b 3c 77 6c 27 bd
       0.039068587 0.018547136 0.015343648 -0.040874925
0001e0 02 53 3d 3d 4f 95 28 3e 27 50 8d 3f f3 99 51 3f
       0.04622174 0.16463207 1.1040086 0.8187553
0001f0 35 21 8c 3e 8e 5a 8b 3f 73 f0 d7 bb 14 6f 96 3f
       0.27369085 1.088701 -0.006589943 1.1752648
000200 5c 1f 09 3d fa 5a 92 3e 02 df 8e 3f b2 fb 61 3e
       0.033477172 0.28585035 1.1161807 0.2206867
000210 28 3f 3e bd 71 56 8c 3f df 1a 42 bd 99 94 d7 3e
       -0.04644695 1.096388 -0.047388908 0.4210556
000220 d4 1d 76 3d 8e c7 8b 3f ac 9e 75 3f 6b 19 60 3f
       0.06008704 1.0920274 0.9594524 0.87538785
000230 47 35 bd 3e 47 0d 21 3d d2 55 97 3f 88 df 03 3f
       0.3695471 0.039319303 1.1823065 0.51512957
000240 24 7f 93 3f 22 6e c2 3e 8d 97 8d 3f ec 76 91 3f
       1.1523175 0.3797465 1.1061875 1.1364417
000250 82 ea d6 3e ab 1b 49 3f 5f 0f 9d 3e 5b 45 ce bc
       0.4197579 0.7855784 0.3067579 -0.025179556
000260 ec 2c 95 3f bb 30 d9 3e d8 e1 c9 3d fb d8 66 bd
       1.1654334 0.4241999 0.098575294 -0.056359272
000270 b5 ed 9c 3f 84 3c 8f bb 5c a9 a1 3d 3c 55 a5 3c
       1.2260042 -0.0043712277 0.07893631 0.020182244
000280 66 66 c3 3e 3a 43 31 bd 79 8b 8e 3f 7a 91 1a 3d
       0.3816406 -0.043277003 1.1136314 0.037736394
000290 a8 32 92 3f 3a 9c a1 3e b7 66 8b 3f a9 ca 57 3e
       1.1421709 0.31564504 1.0890721 0.21073402
0002a0 a7 ff 94 3f fa a8 98 3f 15 97 53 3e 11 32 2b 3d
       1.1640519 1.1926568 0.20663102 0.041795794
0002b0 1d 6a 0f bd 6e e8 91 3c bf 07 95 3f 1e eb 8c 3f
       -0.035013307 0.017811026 1.1642989 1.1009252
0002c0 90 36 95 3f 6f 50 c5 3b 11 78 42 3c 78 de f2 3c
       1.1657276 0.0060215513 0.011869446 0.029647097
0002d0 ea 7b 90 3f 5f b2 7e 3d c7 3c 0e bc dc ce 02 3c
       1.1287816 0.062181827 -0.008681483 0.007983889
0002e0 89 e7 c8 3e 6b 18 37 3a e2 7d 87 3f 6b 2e 2b bd
       0.39239147 0.00069845346 1.0585291 -0.041792314
0002f0 e1 43 da 3e 4c 6f 42 3d 1d a6 09 3d 92 70 7d bc
       0.42629912 0.047469422 0.033605684 -0.015468733
000300 9d 02 3c bc 1d f3 94 bc d3 19 1b 3d 45 56 6d 3c
       -0.011475232 -0.018182332 0.037866425 0.0144859
000310 83 4e 8c 3f f4 2d b0 3c 96 ca 44 bc 0d 6c c4 bb
       1.096146 0.021506287 -0.012011191 -0.005994326
000320 d0 83 c8 3e ea 14 7c 3d 5a 29 89 3f 81 88 8c 3d
       0.39163065 0.061543383 1.0715744 0.068619736
000330 e4 49 44 3c 73 a8 dc 3d a8 88 a6 3e cc 2a 94 3f
       0.0119805075 0.10774317 0.32526135 1.157556
000340 5a 29 67 3d ed 49 cb 3e 6a e9 ee 3c 62 c1 40 bd
       0.05643592 0.39704838 0.029164035 -0.047059424
000350 37 36 1d bd 65 52 95 3f bb 8e 6a bc 9c e8 8a 3f
       -0.03838178 1.166577 -0.014316256 1.0852237
000360 0a bf 1f 3d 06 8f 8a 3f 7d 6a d6 bc f9 54 38 3d
       0.03900055 1.0824897 -0.026173824 0.04500291
000370 e3 02 be bc 54 bb ba bc df 3a fc 3d 7e 59 91 3f
       -0.023194736 -0.022794403 0.12315916 1.1355436
000380 3f 2e d5 3c b7 fc 92 3c 92 8b a9 bc 64 0f 5a 3d
       0.026023028 0.01794277 -0.020696435 0.053237334
000390 db 7f 7d 3e db 89 f0 3d c6 66 92 3f 13 d2 18 3f
       0.24755804 0.11745044 1.1437614 0.5969555
0003a0 74 ba 95 3f 5d 66 2e bd e8 2a c4 3e cd 46 9d 3e
       1.1697526 -0.04257809 0.38313985 0.3071808
0003b0 63 c8 2a 3d 0c 35 8b 3f f4 bc 97 3f 2c 8a a0 3b
       0.04169501 1.0875564 1.1854539 0.004899284
0003c0 8b 78 1d 3f f7 a0 b1 3d 1d c6 8d 3f 1a 67 8a 3f
       0.6151206 0.0867328 1.1076084 1.0812714
0003d0 f8 2f 96 3f f9 d0 c6 3e 6e 2b d7 3e fe 99 2b bd
       1.1733389 0.38831308 0.42025322 -0.041894905
0003e0 9c 7c 9f 3f 47 bd 94 3f 2a 03 7c 3c 38 d9 8e 3f
       1.2459903 1.1620263 0.015381614 1.116004
0003f0 24 8c 8d 3f 75 43 8f 3f 5e 39 2d 3b b0 e4 b7 bc
       1.1058393 1.1192461 0.0026431899 -0.022447914

layer2.bias f4 [300]
000000 7b d9 8e 3f 19 bb a8 3f a4 49 8d 3f 91 88 91 3f
       1.116012 1.3182098 1.1038098 1.1369802
000010 0c 66 85 3f ad 2a 9e bf ae de 8c 3f 2c 8a 8f 3f
       1.0421767 -1.2356774 1.1005456 1.1214042
000020 b1 c1 7e 3f 1b d2 91 3f 27 e7 87 3f 25 06 97 bf
       0.995143 1.1392244 1.0617417 -1.179875
000030 2e 74 8d 3f d3 39 8d 3f 48 91 87 3f a0 ea 94 3f
       1.105108 1.1033272 1.0591211 1.1634102
000040 87 60 8a 3f fe de 85 3f 17 f4 72 3f ca 76 85 3f
       1.0810708 1.0458677 0.949037 1.0426877
000050 87 12 87 3f 8b a1 82 3f 75 39 81 3f 7b f4 83 3f
       1.0552529 1.0205549 1.009566 1.0308985
000060 98 2a 82 3f a0 c4 87 3f d4 94 9a 3f 0a af 92 3f
       1.0169249 1.060688 1.2076669 1.1459668
000070 5b 7d 95 3f 52 f1 88 3f 63 34 7a 3f 07 29 8c 3f
       1.167888 1.0698645 0.97736186 1.095002
000080 fa 16 87 3f 23 d3 89 3f 33 b3 8d 3f c6 15 91 3f
       1.0553887 1.0767559 1.1070312 1.133477
000090 40 57 76 3f 21 43 84 3f b9 53 8f 3f 8b 3a 87 3f
       0.9622688 1.0332986 1.1197425 1.0564741
0000a0 1a c1 91 3f 81 a8 91 3f 76 ac 94 3f 25 2f 85 3f
       1.1387055 1.1379548 1.1615131 1.0405012
0000b0 7c 51 91 3f 82 f1 98 3f f2 8c 76 3f ce b8 9b bf
       1.1352992 1.1948702 0.96308815 -1.2165773
0000c0 a9 e4 80 3f 99 ca 90 3f 3f 7a 8c 3f 26 70 87 3f
       1.0069782 1.1311828 1.0974807 1.05811
0000d0 3e ea 8d 3f 59 69 8c 3f 24 a7 9b 3f 9a 43 98 bf
       1.108711 1.096965 1.2160382 -1.189563
0000e0 06 e6 8b 3f 27 8b 98 bf e9 58 90 3f 4b b3 89 3f
       1.0929573 -1.1917466 1.1277133 1.0757841
0000f0 79 02 86 3f 0d 6e 98 3f 18 b9 88 3f 1f 16 89 3f
       1.0469505 1.1908585 1.0681486 1.0709876
000100 6c 97 85 3f 75 0e 87 3f 9e 9b 8d 3f d8 8e 9a 3f
       1.0436835 1.0551287 1.1063116 1.2074842
000110 aa 3a 85 3f cf f3 91 3f ea 1c 9a bf 07 3a 94 3f
       1.0408528 1.140253 -1.2040074 1.1580209
000120 41 89 8a 3f 77 b8 88 3f 06 44 8b 3f 0b fa 8a 3f
       1.0823137 1.0681294 1.0880134 1.0857557
000130 46 2c 8c 3f 1d bb 84 3f e5 ba 96 3f f7 bc 8c 3f
       1.0951011 1.0369602 1.1775786 1.0995167
000140 5f 80 93 3f f6 8d 86 3f 61 07 82 3f 1b e0 93 3f
       1.1523551 1.0512073 1.0158502 1.1552767
000150 a1 83 8a 3f 71 87 94 3f 27 9f 92 3f e9 62 6e 3f
       1.082142 1.1603833 1.145482 0.93119675
000160 7a 5f 92 3f b8 fd 85 3f 80 08 95 3f a2 50 93 3f
       1.1435387 1.0468054 1.1643219 1.1508982
000170 58 7c 8e 3f 51 d6 6d 3f 9d b6 8d 3f db ac 88 3f
       1.1131697 0.92905146 1.1071354 1.0677751
000180 33 2d 87 3f 7a 46 8c 3f 15 c3 82 3f 13 6c 7b 3f
       1.0560669 1.0959008 1.0215784 0.98211783
000190 86 84 86 3f 73 4d 85 3f 67 ac 92 3f 13 c9 90 3f
       1.0509193 1.0414261 1.1458863 1.1311363
0001a0 b7 be 98 3f bb 96 87 3f b8 1a 95 3f 35 85 93 3f
       1.1933202 1.0592874 1.1648779 1.1525027
0001b0 e9 bc 83 3f 42 fc 93 3f 29 1d 96 3f 7e 4a 8d 3f
       1.0292026 1.1561358 1.1727649 1.1038358
0001c0 cc da 8a 3f 58 27 8f 3f 8a 5e 8c 3f aa 54 9b bf
       1.0848022 1.1183882 1.0966351 -1.2135212
0001d0 41 93 8e 3f 48 b4 93 3f 62 98 8e 3f 61 66 91 3f
       1.1138688 1.1539392 1.1140254 1.1359369
0001e0 ff b2 97 3f 38 a0 88 3f 55 b1 73 3f 77 c5 8d 3f
       1.18515 1.0673895 0.9519246 1.1075886
0001f0 82 98 7a 3f 44 38 9f bf 14 08 94 3f fa 56 7c 3f
       0.9788896 -1.2439046 1.1564965 0.98570216
000200 3e fd 8b 3f 3b 46 96 3f a4 7f 89 3f c8 2f 85 3f
       1.0936658 1.1740183 1.0742078 1.0405207
000210 b3 23 91 3f 82 29 91 3f 0e b6 90 3f b7 12 83 3f
       1.133902 1.1340792 1.1305559 1.0240086
000220 e9 bf 89 3f 42 fb 87 3f 97 70 7c 3f 7f ba 8f 3f
       1.0761691 1.0623553 0.986093 1.1228789
000230 4b 49 87 3f 1b 90 8a 3f 35 c3 8b 3f 09 79 91 3f
       1.0569242 1.0825227 1.0918947 1.1365062
000240 85 46 92 3f fe 79 86 3f b6 f4 86 3f 61 1d 90 3f
       1.1427771 1.0505979 1.054343 1.1258966
000250 c8 4a 90 3f f8 fd 8b 3f 6d 52 85 3f 5d f3 8b 3f
       1.1272821 1.093688 1.0415779 1.0933644
000260 dd a7 95 3f c0 3a a0 bf f6 28 83 3f 84 45 8b 3f
       1.1691853 -1.2517929 1.0246875 1.088059
000270 5a c9 91 3f 03 85 92 3f 9c e7 8d 3f 71 81 7e 3f
       1.1389573 1.1446842 1.1086307 0.9941626
000280 07 b3 90 3f 58 b8 8a 3f 6b a3 90 3f 5d 05 92 3f
       1.1304635 1.0837507 1.1299871 1.1407887
000290 f9 91 8d 3f 80 5d 90 3f 2b 60 8c 3f 26 e6 81 3f
       1.1060172 1.1278534 1.0966848 1.0148361
0002a0 23 b7 99 3f 3a ae 8b 3f fe 9f 81 3f 22 e1 87 3f
       1.2009014 1.0912545 1.0126951 1.061558
0002b0 e6 b3 8d 3f a4 5f 90 3f c7 54 88 3f a2 d5 8e 3f
       1.1070526 1.1279187 1.0650872 1.1158946
0002c0 23 d6 87 3f ad c4 90 3f 12 ec 9d bf df 87 87 3f
       1.0612224 1.1310021 -1.2337668 1.058834
0002d0 67 4e 91 3f 26 a1 8c 3f 10 35 89 3f e7 c2 91 3f
       1.1352051 1.0986679 1.0719318 1.1387604
0002e0 59 ca 9c bf 61 6b 96 3f 19 d8 89 3f 4f ed 9c bf
       -1.2249252 1.175152 1.0769073 -1.2259921
0002f0 e7 39 83 3f 01 a2 92 3f 85 fe 76 3f d8 e1 92 3f
       1.0252045 1.145569 0.96482116 1.1475172
000300 9f 2f 93 bf aa 6a 92 3f 10 69 84 3f 6d 98 8d 3f
       -1.1498908 1.1438801 1.0344563 1.1062142
000310 47 4a 8b 3f 21 8e 8f 3f 61 55 89 3f 9b 80 85 3f
       1.0882043 1.1215249 1.072918 1.0429872
000320 d8 3c 8b 3f fd f9 93 3f a6 77 79 3f d2 2a 94 3f
       1.0877943 1.1560665 0.97448194 1.1575568
000330 fd e7 9d 3f da 87 8b 3f 69 6d 93 3f fa d8 88 3f
       1.2336422 1.0900834 1.1517764 1.0691216
000340 89 30 85 3f d8 03 9c 3f 94 9f 8b 3f 5c 21 8e 3f
       1.0405437 1.2188673 1.0908074 1.110393
000350 42 14 8b 3f 33 2f 9e bf 39 89 85 3f 66 df 9e 3f
       1.0865557 -1.2358154 1.0432502 1.2411926
000360 06 bb 93 3f 2b c9 81 3f c0 3f 8b 3f 6a 2f 94 3f
       1.154145 1.0139517 1.087883 1.157697
000370 52 7c 8a 3f ae 94 8c 3f ea cf 8e 3f b7 17 84 3f
       1.081919 1.0982873 1.11572 1.0319737
000380 82 7d 96 3f 95 3a 7d 3f 6a 78 8f 3f 89 c5 90 3f
       1.1757052 0.98917514 1.1208622 1.1310283
000390 bd 60 8b 3f b5 a9 89 3f 31 17 85 3f a0 dd 8a 3f
       1.0888897 1.0754915 1.0397702 1.0848885
0003a0 5c 9b 87 3f 4d 4d 91 3f bf 58 78 3f 6b b5 88 3f
       1.0594287 1.1351715 0.97010416 1.0680364
0003b0 2e 00 91 3f f3 01 a2 bf d5 0a 83 3f bc f7 84 3f
       1.132818 -1.2656845 1.0237681 1.0388103
0003c0 54 94 8c 3f f1 ff 89 3f 99 d4 9e 3f 81 9f 76 3f
       1.0982766 1.0781232 1.240863 0.96337134
0003d0 a7 27 99 3f a0 d7 91 3f 96 ce 8f 3f 0d 67 8f 3f
       1.1965226 1.1393929 1.123492 1.1203324
0003e0 f1 91 87 3f 0e 9d 95 3f 3f c0 96 3f 92 cf 93 3f
       1.0591413 1.1688554 1.1777419 1.154772
0003f0 b4 1f 8d 3f 98 17 95 3f f3 a6 91 3f 5c 77 93 3f
       1.10253 1.1647825 1.1379074 1.15208

bn2.weight f4 [300]
000000 e8 41 49 3f c9 34 7d 3f 9c 56 36 3f b7 6d 4a 3f
       0.7861619 0.9890867 0.71225905 0.7907366
000010 2b 34 52 3f 00 00 80 3f 60 36 35 3f 9b 16 3b 3f
       0.8211085 1.0 0.70786095 0.7308137
000020 ce ad 6c 3f ee 6d 47 3f 54 76 43 3f 00 00 80 3f
       0.92452705 0.77902114 0.7635243 1.0
000030 d9 1a 49 3f 4c 61 3e 3f 4b 91 6b 3f a6 86 37 3f
       0.7855659 0.74367213 0.92018574 0.7168983
000040 97 aa 4c 3f 6c 68 4d 3f a2 8f 69 3f c5 20 54 3f
       0.799478 0.8023746 0.9123479 0.828625
000050 1f 62 4c 3f b9 e3 59 3f 32 90 63 3f 42 42 5a 3f
       0.7983722 0.851131 0.888919 0.8525735
000060 cc 65 5b 3f ba b7 45 3f 0e c3 28 3f f6 2b 2e 3f
       0.85702205 0.7723347 0.6592263 0.6803583
000070 49 4c 39 3f 98 76 42 3f 56 a5 6e 3f f8 99 41 3f
       0.72382027 0.7596221 0.9322103 0.7562556
000080 83 b3 55 3f 90 7d 48 3f 98 b7 52 3f 54 8f 52 3f
       0.8347704 0.78316593 0.8231139 0.8224995
000090 2e fc 5f 3f fd df 4c 3f dc 31 4c 3f e7 5a 4c 3f
       0.8749417 0.8002928 0.7976358 0.79826206
0000a0 74 cd 3c 3f c9 9f 33 3f 99 a0 48 3f d5 ea 43 3f
       0.73750997 0.7016569 0.7837005 0.765302
0000b0 19 1e 3a 3f 62 d2 3a 3f 91 7c 61 3f 00 00 80 3f
       0.72702175 0.7297727 0.880807 1.0
0000c0 11 9d 52 3f 97 13 4c 3f 6b 83 46 3f 50 97 41 3f
       0.82270914 0.7971739 0.7754428 0.7562151
0000d0 a2 7b 45 3f 8e 8a 45 3f dd d6 38 3f e2 69 7f 3f
       0.77141774 0.7716454 0.72202855 0.9977094
0000e0 68 da 3a 3f 00 00 80 3f 16 a3 46 3f 55 b8 58 3f
       0.7298951 1.0 0.775926 0.8465627
0000f0 31 d7 68 3f 32 c3 2d 3f 6c cc 47 3f 7a ec 53 3f
       0.90953356 0.6787597 0.780463 0.8278271
000100 ca 77 4b 3f f9 50 53 3f 3f 00 57 3f e5 7d 2c 3f
       0.7947966 0.8254543 0.8398475 0.673796
000110 23 42 4e 3f 60 2c 4f 3f 61 ff 7f 3f 8a 3f 24 3f
       0.80569667 0.80927086 0.9999905 0.6415945
000120 22 01 46 3f db 2d 48 3f 29 db 33 3f bb 9d 43 3f
       0.7734548 0.7819497 0.70256287 0.7641255
000130 70 37 42 3f 4a fc 4f 3f 33 5a 7e 3f 54 e9 3f 3f
       0.7586584 0.8124434 0.99356383 0.74965405
000140 25 13 3e 3f cd cd 4d 3f 04 b6 50 3f d3 23 3f 3f
       0.7424796 0.8039215 0.81527734 0.7466404
000150 1a 4b 4b 3f fe 5b 43 3f b9 ad 3a 3f 25 dd 80 3f
       0.7941147 0.76312244 0.7292133 1.0067488
000160 0f 72 44 3f 31 a9 57 3f 6b ee 2f 3f 97 42 3e 3f
       0.7673654 0.8424254 0.6872317 0.7432036
000170 e1 72 3f 3f 82 37 8b 3f 9f c6 5f 3f 14 99 3d 3f
       0.74784666 1.0876315 0.87412447 0.74061704
000180 bc c3 46 3f e5 bf 43 3f f3 e4 5b 3f 27 5c 6d 3f
       0.77642417 0.7646468 0.85896224 0.9271874
000190 44 73 50 3f 77 9e 4d 3f b1 93 42 3f eb 6d 4f 3f
       0.8142588 0.80319923 0.7600661 0.81027097
0001a0 ed ff 2a 3f 1f f7 51 3f 57 7f 44 3f bf 65 34 3f
       0.6679676 0.820177 0.76756805 0.7046775
0001b0 a2 98 44 3f cb 81 41 3f dc 88 2b 3f 01 ec 46 3f
       0.767954 0.75588673 0.67005706 0.77703863
0001c0 44 5c 47 3f 32 77 32 3f 3a 1c 46 3f 00 00 80 3f
       0.7787516 0.6971313 0.7738682 1.0
0001d0 5c bb 4f 3f ac 1f 35 3f 1d bc 4c 3f 3f db 45 3f
       0.8114526 0.7075145 0.7997454 0.7728767
0001e0 f1 f7 3b 3f c9 8d 3c 3f f0 52 66 3f 84 a1 48 3f
       0.73425204 0.73653847 0.899703 0.78371453
0001f0 f5 ef 64 3f a6 0a 80 3f 75 99 49 3f db 94 5b 3f
       0.89428645 1.000325 0.7874978 0.8577401
000200 3a 6b 55 3f a6 ee 42 3f d3 49 41 3f 59 9d 4b 3f
       0.8336674 0.761454 0.7550327 0.7953697
000210 21 0f 45 3f cb 49 4b 3f e5 d1 46 3f bf 53 55 3f
       0.7697621 0.79409474 0.77664024 0.8333091
000220 0f 85 45 3f e6 8a 58 3f 5e d7 55 3f 9d b8 33 3f
       0.77156156 0.8458694 0.8353175 0.7020357
000230 2c 6f 4e 3f 62 76 49 3f 17 8d 4c 3f d4 d6 44 3f
       0.80638385 0.7869626 0.79902786 0.768903
000240 91 ea 49 3f b6 6d 4e 3f 22 14 5e 3f 66 fc 45 3f
       0.78873545 0.80636156 0.8674947 0.77338254
000250 f8 8c 3b 3f 9c e4 42 3f 27 c1 49 3f b4 35 3d 3f
       0.73261976 0.7613008 0.7881035 0.7391007
000260 80 70 3a 3f 00 00 80 3f b3 33 6c 3f 3f 77 3e 3f
       0.7282791 1.0 0.92266387 0.74400705
000270 60 10 46 3f 5a 83 49 3f ac 6d 44 3f d7 1d 54 3f
       0.77368736 0.7871605 0.76729846 0.8285803
000280 15 5d 49 3f bd ce 44 3f ef f5 4b 3f 4b b5 36 3f
       0.78657657 0.7687796 0.7967214 0.7137038
000290 06 fc 4a 3f 8f a9 38 3f fb 1d 45 3f 9c 90 56 3f
       0.7929081 0.72133726 0.7699887 0.83814406
0002a0 d2 1f 28 3f e3 bd 44 3f 77 18 67 3f 01 c7 5f 3f
       0.65673554 0.76852244 0.90271705 0.8741303
0002b0 b4 fb 48 3f 38 3e 3d 3f 43 24 44 3f 41 66 40 3f
       0.7850907 0.73923063 0.7661783 0.7515603
0002c0 f2 df 47 3f 4c 71 3d 3f 00 00 80 3f 4f 72 4c 3f
       0.7807609 0.74001 1.0 0.7986192
0002d0 24 ca 4e 3f bf 84 51 3f fe f6 4b 3f 4f a2 4b 3f
       0.8077719 0.8184318 0.79673755 0.7954454
0002e0 00 00 80 3f 10 86 34 3f 8c 8a 47 3f 00 d9 7f 3f
       1.0 0.70517063 0.7794578 0.9994049
0002f0 a3 61 4f 3f e8 6e 39 3f d9 08 86 3f ef c7 4c 3f
       0.81008357 0.72434855 1.047145 0.79992574
000300 00 00 80 3f 1f 14 3a 3f f0 f4 57 3f c1 de 46 3f
       1.0 0.7268695 0.8435812 0.77683645
000310 5c 12 42 3f aa 0b 50 3f 6c c8 4c 3f 74 d4 4f 3f
       0.75809264 0.812678 0.7999332 0.8118355
000320 02 99 5e 3f 50 c3 46 3f e8 60 7b 3f 44 2e 45 3f
       0.8695222 0.77641773 0.9819474 0.7702372
000330 0f 9d 24 3f ec d2 49 3f ca 08 4c 3f c4 84 56 3f
       0.6430215 0.78837466 0.7970091 0.83796334
000340 9d f7 43 3f 32 8c 26 3f be 2c 4c 3f 8e 7b 55 3f
       0.765497 0.6505767 0.7975577 0.83391654
000350 3e 5a 46 3f 08 da 7e 3f 9b 2f 47 3f ec be 27 3f
       0.7748145 0.9955144 0.77807015 0.655257
000360 5f 18 2f 3f b5 0a 54 3f 84 7f 42 3f 22 78 4f 3f
       0.6839656 0.8282884 0.75975823 0.81042683
000370 97 b1 42 3f 37 b6 42 3f de 81 46 3f 18 f3 49 3f
       0.7605223 0.7605929 0.7754191 0.78886557
000380 52 3f 42 3f a3 48 5c 3f 72 ef 5f 3f c2 11 3f 3f
       0.7587787 0.86048335 0.8747474 0.7463647
000390 39 e8 46 3f b6 e1 44 3f 93 51 57 3f af ab 4b 3f
       0.77698094 0.7690691 0.8410885 0.79558843
0003a0 0a 9d 4e 3f 34 aa 47 3f 58 a8 7f 3f df e8 4f 3f
       0.8070837 0.77994084 0.9986625 0.8121471
0003b0 23 57 3e 3f dd 1d 80 3f d8 69 5e 3f fb dc 51 3f
       0.7435171 1.0009114 0.86880255 0.81977814
0003c0 e5 26 50 3f c0 d0 41 3f 3d 19 6c 3f 26 8d 5f 3f
       0.8130935 0.7570915 0.9222601 0.8732475
0003d0 0f 01 36 3f 18 5c 52 3f 1d 2c 42 3f 20 20 38 3f
       0.71095365 0.82171774 0.7584856 0.7192402
0003e0 7d 3b 44 3f 40 e8 42 3f 1f 21 6d 3f 16 eb 45 3f
       0.7665327 0.76135635 0.92628664 0.7731184
0003f0 6d bc 4c 3f 52 0b 3d 3f 42 e1 4a 3f 3c 22 44 3f
       0.79975015 0.738454 0.79249966 0.7661474
