DDPG/checkpoints/colabv3/final/actor.ckpt (torch, 527895 bytes, 6 tensors)

l1.weight f4 [400, 24]
000000 b9 4b 01 3e a9 7e 8d 3d 7c bf 60 be 5c cc b6 3f
       0.12626542 0.06908924 -0.21948045 1.4281116
000010 68 3f 41 3e 51 1d 09 3e 1d 13 71 bd d7 85 1c 3e
       0.18871844 0.1339009 -0.05885612 0.15285431
000020 e8 c1 09 3e 7d 2c 03 bd 9b f6 25 be b1 93 57 be
       0.13452876 -0.03202485 -0.16207354 -0.21052434
000030 c4 7f 9c 3d 92 98 cc 3e d4 f9 b5 3c 77 f7 55 3e
       0.07641557 0.39960152 0.022213854 0.20895182
000040 ad f3 04 3e 8e ea ce bd 97 58 af 3d a9 44 40 3d
       0.1298358 -0.101033315 0.08561819 0.04694048
000050 d1 fc 1b 3e 83 bc c1 3d 27 84 10 bd 7f 25 1a 3d
       0.1523316 0.09459784 -0.03528228 0.037633415
000060 d7 9d d2 3e 01 e4 98 3f 73 a5 5f bf 00 77 2c be
       0.41136047 1.1944581 -0.8736183 -0.1684227
000070 45 bc 87 bd 9c 0c ea 3d 4d 04 2b 3e 71 c2 05 3d
       -0.066277064 0.11428186 0.1670086 0.032656137
000080 60 3d dc bd 3a 2c ab 3e 2e aa 78 bd a0 0e 21 be
       -0.10753894 0.3343218 -0.06070917 -0.15728235
000090 15 8b 8c 3a a2 7b 3d 3e 22 91 60 bd 4b 64 0d be
       0.0010722602 0.18504193 -0.05482591 -0.1380779
0000a0 d4 6a 95 be ff 3b 73 be 9e 11 fb bd 8c c3 b8 3c
       -0.29183066 -0.23753355 -0.122592196 0.022554182
0000b0 28 28 e9 bd 97 ed b8 bd e2 26 47 be d0 93 5b 3e
       -0.11384612 -0.09029692 -0.19448426 0.21443105
0000c0 44 3c dc 3e 2f 88 40 3f a1 dc 33 bf 75 a6 d3 3f
       0.4301473 0.752078 -0.7025853 1.6535174
0000d0 b9 56 0f bd 94 95 59 be 26 69 03 3e a2 7f be bd
       -0.034994815 -0.21248466 0.1283308 -0.09301688
0000e0 72 c4 76 bd 7a 1f 03 be 69 db f0 3d 2b 28 0e 3e
       -0.06024594 -0.12804976 0.11760599 0.1388251
0000f0 89 62 c0 3a 93 db 45 3c 7f c8 68 be e0 78 89 3d
       0.0014677803 0.012076276 -0.22732733 0.06712508
000100 7b 6e 73 bd 6d a1 96 3d 13 a4 9f bd 11 02 45 bd
       -0.059431534 0.07355008 -0.077949665 -0.048097674
000110 c7 ff 10 3e 69 32 4e bd d9 f3 ad 3b d3 29 c9 3d
       0.14160071 -0.050341044 0.00530861 0.098224305
000120 f4 89 eb bc 47 c7 2c bf f2 ed 6b be 9d 17 0b be
       -0.028752305 -0.67491573 -0.23039988 -0.13583227
000130 b2 5f 84 3e 86 ca e5 3d 8f 0c fd 3d 83 c1 aa 3d
       0.2585426 0.11220269 0.12355911 0.08337691
000140 00 22 a0 3e cf 79 76 3e 42 a5 ad 3a 57 b5 05 3f
       0.3127594 0.24069904 0.0013248103 0.5222983
000150 87 1f 61 3e bf 48 af be 4f 21 06 be b8 03 d8 bc
       0.21984683 -0.34235188 -0.13098644 -0.02636896
000160 55 64 b4 bc 98 6e 10 be 15 34 d9 3d e8 2a ba 3d
       -0.022020498 -0.14104688 0.10605637 0.09090215
000170 5a d3 aa 3d 27 50 56 be c0 2d 96 3c 9e f6 e6 bd
       0.08341093 -0.20929013 0.018332362 -0.11277507
000180 d6 b5 70 be fa a4 dc bd 75 22 82 be 0b f7 cc bb
       -0.23506865 -0.10773654 -0.25416914 -0.0062550358
000190 2c 46 da be c3 94 c8 b9 ad 0e 4b bd c6 20 df bc
       -0.42631662 -0.0003825781 -0.049574543 -0.027237307
0001a0 47 35 d7 3e a3 42 7a 3e 0b 51 ba 3d bf 09 b4 3e
       0.42032835 0.24439482 0.09097489 0.35163686
0001b0 74 bb 0b 3e 84 93 35 bd 20 47 06 be 72 5d a7 be
       0.13645726 -0.044330135 -0.1311307 -0.3268848
0001c0 d5 aa ee bc ca d4 8a be 40 4d a1 bb 66 1e 5e 3d
       -0.029134193 -0.2711547 -0.004922539 0.05422821
0001d0 c2 d3 b7 bd 1d 52 65 be 28 16 3c be f1 1d 52 be
       -0.089759365 -0.22394605 -0.18367827 -0.20519234
0001e0 9e 2a 5a be 7b 88 06 3f 2e f4 94 be 65 21 12 bf
       -0.2130532 0.52552 -0.29092544 -0.57082206
0001f0 28 af 17 bf 0d 2c d6 be ad 73 b4 3e 9e 75 8f be
       -0.5925164 -0.41830483 0.35244504 -0.28019422
000200 aa d7 0c bd b0 2e d7 3e 54 fe ac 3d d7 db a0 bd
       -0.03438536 0.42027807 0.08446947 -0.07854431
000210 8b f8 c4 3d 6c 7c eb 3d 13 98 5d be b5 4c 26 be
       0.09617718 0.11498341 -0.21640043 -0.16240199
000220 98 e8 3e be cd ef 61 3d 7b 6a 18 be b1 c3 c3 3d
       -0.18643415 0.055160332 -0.14884369 0.095588095
000230 67 dc 8c be 58 60 78 be 59 0b b5 3b c6 8b d7 3d
       -0.27511904 -0.24255502 0.0055250344 0.105247065
000240 6f 14 9d be 98 0c 90 bf 0d d6 a3 3e e4 f4 ca bd
       -0.30679652 -1.1253843 0.31999245 -0.099099904
000250 48 bd 13 3e e0 0e aa be 15 17 75 3e 1b 7f f4 bc
       0.14427674 -0.33214474 0.23934586 -0.029845765
000260 3f 80 90 3c 27 3d 73 3e f2 d9 de 3d ce 89 a7 3c
       0.017639278 0.23753797 0.108814135 0.020451453
000270 9f 9b e5 bc 55 3e 0a be ac 03 9b 3e 37 66 3b 3e
       -0.028028307 -0.1350034 0.3027624 0.1830071
000280 fc f9 97 3e ca 73 09 3e 2c ed 88 3e ec 0f 15 3e
       0.2968291 0.13423076 0.26743448 0.14556855
000290 9f cf 83 3b 4e 5c 08 3e 8f 1f 9e 3c 4f b6 cf 3b
       0.004022553 0.13316461 0.019302158 0.0063388715
0002a0 12 cc 45 3e b2 0a 06 3f 4a 8e 80 be 87 5e 5a bf
       0.19316128 0.5236007 -0.25108558 -0.8530049
0002b0 a2 3e 7c be 1d cb 2e 3e d7 ea 58 3e 7e ed b1 3d
       -0.24633268 0.17069669 0.21183334 0.08687876
0002c0 53 8b fe 3d 4b 9a cd be eb 5a ac bd e0 ec 1c 3f
       0.12428918 -0.4015678 -0.08415779 0.6129894
0002d0 26 ae 0a 3d da 97 22 be 83 8c 3f 3e 2c 9b 86 bc
       0.033857487 -0.1587824 0.18705945 -0.016431414
0002e0 39 73 3d be 0c 35 7f 3a 69 eb 24 be 8a e4 e5 3d
       -0.18500985 0.00097353826 -0.16105427 0.11225231
0002f0 ce 15 40 bc bb bc 40 be ea 6e 20 3e 3c bc 88 3d
       -0.011723949 -0.18821995 0.1566731 0.06676528
000300 46 49 a7 be 09 49 50 bf a8 65 d1 3e 07 4e 17 3e
       -0.3267309 -0.8136144 0.4089787 0.14775859
000310 2d 43 d5 be 6d b6 81 3e 40 f6 89 3d d4 7c e7 bd
       -0.41652814 0.25334492 0.067364216 -0.11303106
000320 26 97 d7 bd ff 5c bc 3e 55 9e 9c 3e 34 f8 04 3e
       -0.10526876 0.367897 0.30589548 0.12985307
000330 7b 16 dd 3d 2c 7d 12 bd 0b b3 84 bd c2 b1 12 3e
       0.107953034 -0.035763904 -0.06479462 0.14325622
000340 22 e5 2c be c6 f3 96 bd a6 ad e9 bd 6c 30 55 bd
       -0.16884282 -0.07370715 -0.11410074 -0.05204813
000350 1b 44 3d be 91 0e 54 3c 68 49 8a bd 6d c9 19 3e
       -0.18483011 0.012942926 -0.067522824 0.15018244
000360 be 59 c3 be d5 db 25 bf 40 89 90 bd 3b 56 07 bf
       -0.38154405 -0.6478856 -0.07057428 -0.5286595
000370 94 bb 9d 3e 2e c5 54 be 59 f7 b8 3e 47 cd 52 3d
       0.30807173 -0.20778343 0.3612621 0.0514653
000380 d9 56 ce be c9 10 b5 3e 7c 1e 65 be 34 92 e1 be
       -0.40300635 0.3536437 -0.2237491 -0.44056857
000390 8d 30 87 be 2c 57 2d 3e 66 0d e3 bc a0 5d 1b 3e
       -0.2640423 0.16927785 -0.02771635 0.15172434
0003a0 05 9f 25 be 33 55 19 3e 26 22 f4 bd af a4 78 bd
       -0.16173942 0.14973907 -0.11920576 -0.06070393
0003b0 8b de ff 3d 19 0a 14 3e cc c2 d7 3c 2c 33 06 3e
       0.124936186 0.14456977 0.026338004 0.13105458
0003c0 52 01 0c 3e ae 6c 34 3f 89 01 c6 3d 7e 5d 1f 3f
       0.13672379 0.7047833 0.096682616 0.6225203
0003d0 3e f2 92 bd 83 20 5b be 6d ec ce bd 0d 9f 4c 3e
       -0.0717511 -0.21399121 -0.101036884 0.19982548
0003e0 37 65 43 3e 1b 5d c2 3e 6a 1d 1b be 9a 9c a1 bd
       0.19081579 0.3796166 -0.1514794 -0.078911975
0003f0 02 24 2a 3f 3e 8c b2 bd 2d 2f 32 bc 17 a3 29 3e
       0.66461194 -0.08718155 -0.010875505 0.1656612

l1.bias f4 [400]
000000 af bc 2e be 0e d1 84 3e a3 a1 0b 3d 0d 8d 03 be
       -0.17064165 0.25940746 0.034089696 -0.12846775
000010 d7 ca 6b 3d 4b 42 95 3e 3d d3 cf 3d 72 36 0e be
       0.05756649 0.2915214 0.101477124 -0.13887957
000020 9f d6 e7 3d df b9 8e 3d a1 be 6f be f0 b5 01 be
       0.113202326 0.06969046 -0.23412563 -0.1266706
000030 f0 94 11 3e e5 4a 8a be 75 24 1d be c9 cd 0d be
       0.14216971 -0.27010265 -0.15345939 -0.13848032
000040 f2 99 0b bd 2a 13 37 3d 1b 6b 49 3e a5 b8 56 3a
       -0.03408236 0.04469601 0.19669764 0.00081909663
000050 ab da b0 bd 7a a0 09 be da a1 e8 3d c9 66 00 3e
       -0.086354576 -0.13440123 0.11358996 0.1253921
000060 6a 79 0f 3e 13 58 b3 3e a0 3f 97 3d e9 d8 4b 3e
       0.1401116 0.35028133 0.073851824 0.19906963
000070 f8 d6 f0 bd 79 6d 23 3e 2a aa 35 3c e9 e2 1b be
       -0.11759752 0.15959729 0.011087934 -0.15223278
000080 a0 a8 19 3c 52 3d fe ba db b2 21 3c f5 b4 0c 3e
       0.009378582 -0.0019396937 0.009869303 0.13740905
000090 25 82 c8 be 53 e2 cb 3a c5 73 e2 bd 57 5f e2 bd
       -0.39161792 0.0015555121 -0.110572375 -0.11053341
0000a0 52 75 6f 3d 95 22 2e be 1b 32 a1 3d 06 61 c4 3d
       0.058461495 -0.1700538 0.07870885 0.09588818
0000b0 17 a5 be 3d 00 a7 1d 3e 6e aa 2d 3d 0b 0d 87 3c
       0.09308832 0.15395737 0.042398863 0.016485712
0000c0 67 9e 15 3d a7 80 1f bd 8b ac 53 3c c2 90 0a 3e
       0.036528017 -0.03894105 0.012919555 0.13531783
0000d0 86 53 03 be c0 50 dc 3c b7 a3 43 3e ba d6 5f be
       -0.1282483 0.026893973 0.19105421 -0.21859255
0000e0 f6 d1 8b 3e 74 9f e3 be ce 1b de bd ce 39 26 3e
       0.27308625 -0.4445759 -0.10845147 0.16232988
0000f0 33 a4 3d be d6 27 26 be 7e 4c 38 bd 8b be e9 3d
       -0.18519668 -0.16226134 -0.044994824 0.11413296
000100 8f 94 a3 bb c4 83 9c 3e d9 72 f3 3d 79 0e fc 3d
       -0.004992075 0.3056928 0.1188714 0.12307448
000110 b9 da 1e 3e 14 7b 23 3e 4a fd 1c be 2e 6b 33 3e
       0.15513124 0.1596492 -0.15330997 0.17521355
000120 ac 20 34 3e 67 b1 4a 3e 56 2b 4e be fe aa bb be
       0.17590588 0.19794236 -0.20133719 -0.36653894
000130 3b 81 22 3e 07 8e 0b bd f0 19 20 be 43 fa 89 3c
       0.1586961 -0.034070995 -0.15634894 0.016842967
000140 4b 63 11 be 01 00 70 be 2d 11 b2 bd d1 20 b0 bd
       -0.14198034 -0.23437501 -0.08694682 -0.08600009
000150 4b b3 e2 bc e3 ff fd bd 2e c6 7b be 7a 44 a0 3b
       -0.027673384 -0.12402322 -0.24587318 0.0048909755
000160 12 aa 0a be f0 58 7d bd 12 34 d4 bd 8a 5d 15 bb
       -0.13541439 -0.061852396 -0.10361494 -0.002279135
000170 54 a0 aa be b7 51 93 bd f9 9a 40 3d 56 9f 97 3e
       -0.33325446 -0.0719332 0.047022793 0.2961375
000180 ed 46 01 3e 3e c2 50 be b7 d5 89 3d 76 1b 7b be
       0.12624712 -0.20386598 0.06730216 -0.24522194
000190 75 c4 75 3e 38 a0 5c 3e 43 e2 09 be a3 e7 d4 bb
       0.24000724 0.21545494 -0.13465218 -0.00649734
0001a0 06 fc 29 3d 6b 6c 85 3e 5f 77 3e be 53 dc 98 3d
       0.041500114 0.2605928 -0.18600224 0.074638985
0001b0 13 48 a5 3d b2 ef 06 3e c5 f3 90 bd 2d 79 8f 3d
       0.08070388 0.13177374 -0.07077745 0.07005534
0001c0 00 02 40 bd c0 24 5f bd fe b7 f0 bd ef 8b ee 3b
       -0.046876907 -0.054478407 -0.11753844 0.007279865
0001d0 e1 95 27 be d2 09 4f be e9 23 30 be a3 7a 9b 3d
       -0.16365768 -0.2021859 -0.17201199 0.075917505
0001e0 8e 25 c4 3d 4d 2a b1 bd 37 db 42 bd ec a4 00 3d
       0.095774755 -0.08650646 -0.04757234 0.03140728
0001f0 08 12 22 be bd 8a 20 be 5a 4d c9 3d de 79 fd bc
       -0.15827191 -0.15677924 0.09829207 -0.0309419
000200 c7 a4 94 3d 7d 43 05 3e a0 1f b9 3d 0f d1 7f be
       0.07257991 0.13014026 0.09039235 -0.24982093
000210 cf 78 3f 3e ab 33 46 3d 8f 2b 85 3c 81 e1 ca 3d
       0.18698429 0.04838912 0.016256122 0.09906293
000220 6d 2d 83 be cf 79 c9 3c 21 af 85 be b7 3c 5d 3d
       -0.25620595 0.024594216 -0.26110175 0.05401298
000230 46 08 98 bd c8 79 8c 3b fd 38 0c be c9 0a 7b bd
       -0.07423453 0.0042869784 -0.13693614 -0.061289582
000240 ee 74 4a bd 1b 42 5c 3e 24 09 21 3e 42 8e 7e bd
       -0.04942792 0.21509592 0.15726143 -0.062147386
000250 a7 4f 97 3e 06 ab 82 be 2d d8 ee bc e0 68 ed 3d
       0.29552957 -0.25521106 -0.029155815 0.11592269
000260 dc 1c 4c be b5 37 ec bd 09 5f 94 be f0 d9 66 bd
       -0.19932884 -0.11534063 -0.28978756 -0.056360185
000270 c2 0f 7f be 78 2f 77 3e 0b db 51 be b7 fc 1b 3e
       -0.24908355 0.24139202 -0.20493715 0.15233122
000280 0f f8 ba be 11 c2 ae 3d 2f e5 db 3d b7 60 c8 bd
       -0.3651738 0.08533109 0.10737073 -0.09784072
000290 d2 23 db bd d0 0e 63 be 2a 08 44 be c3 87 e1 bd
       -0.107001916 -0.2217362 -0.1914374 -0.110122226
0002a0 da 82 89 bd 05 4a 8d 3e b2 e4 1b 3e cd f2 8c 3c
       -0.06714411 0.27595535 0.15223959 0.01720562
0002b0 9c fc 69 bd 1d a4 8d 3c 31 2c 58 3d 89 16 09 3d
       -0.057125673 0.01729017 0.05277652 0.033468757
0002c0 dc 77 df 3e b6 65 ab bd bb 82 8f bd b2 a9 71 3d
       0.43646133 -0.08369009 -0.07007357 0.058999725
0002d0 f5 10 18 3c 9c f8 87 bd cb 0c 8f 3d 3e f4 9e 3d
       0.009281387 -0.06639215 0.06984862 0.07761429
0002e0 37 90 91 bd 74 37 f9 3d 06 8e 27 be ba 80 7a 3e
       -0.07107585 0.1216878 -0.16362771 0.24463168
0002f0 c1 a5 c6 bd 9b 9a d0 bd 40 7d 46 3d 99 10 22 be
       -0.09699584 -0.10185739 0.04845929 -0.15826644
000300 a2 ce 68 3e f4 bc ba bd 97 a6 72 3e e5 95 0f 3c
       0.22735074 -0.09118071 0.23696361 0.008763765
000310 69 49 9e 3d 7f 98 6b 3e 47 ef 95 3d 42 d5 ab bd
       0.077288456 0.23007391 0.07321029 -0.08390285
000320 90 fa 6e bd 44 3f 36 3d 94 66 f1 bc 26 9d 30 bc
       -0.058344424 0.04449393 -0.029467858 -0.010779655
000330 f5 6f e4 3d b1 bf 20 3e 98 b4 11 be f8 8b 38 bd
       0.111541666 0.15698124 -0.14229047 -0.04505536
000340 78 39 c9 3b 0e d6 97 3e 36 a0 a3 3d 8a 49 d0 3c
       0.006140884 0.29655498 0.07989542 0.025425691
000350 3e 8d d8 bc d6 af 6e be e8 75 0d be 89 7c 4a be
       -0.026434537 -0.23309264 -0.13814509 -0.19774069
000360 83 f6 0b be 84 30 35 3e f2 36 e5 bd 97 1b 8e 3d
       -0.13668256 0.17694288 -0.111921206 0.06938856
000370 49 18 21 3e 41 a3 97 3e 90 e5 25 3e 85 6d e5 3d
       0.1573192 0.2961674 0.16200852 0.1120253
000380 24 1f 08 3e 81 8c 01 3e 37 85 9a 3d b0 da ca bd
       0.13293129 0.12651254 0.0754494 -0.099049926
000390 5b 03 87 bd ea 69 3d be ff 86 20 bd f0 d0 a6 bc
       -0.06592437 -0.18497434 -0.039191242 -0.020363301
0003a0 26 de 27 be 5d d9 12 3e ee c2 d8 3c 2f 3e 36 3d
       -0.16393337 0.1434073 0.026460137 0.044492897
0003b0 97 6b fe bd 36 25 2a 3d 92 f0 91 3b a1 c0 39 be
       -0.12422865 0.041539393 0.004453727 -0.18139888
0003c0 5b 81 61 3e e1 0f 39 3e fd b6 5f be 6e 85 d9 3d
       0.22022001 0.18072464 -0.21847148 0.10621153
0003d0 12 29 62 3d d3 a3 b0 3c a8 86 da 3b 71 7a 48 3d
       0.05521495 0.021562492 0.0066688843 0.048944894
0003e0 62 b1 b9 3d fc cf df 3c 2b 06 89 be 87 f4 bb bd
       0.09067036 0.027320854 -0.26762518 -0.09177499
0003f0 2b 86 38 be 96 e8 17 bd a8 fd 93 bd e8 25 df 3c
       -0.18019931 -0.037087046 -0.072261155 0.027239755

l2.weight f4 [300, 400]
000000 cb 1b 6f be ef c0 cf 3c fa 90 04 3e 90 69 86 3e
       -0.23350446 0.025360553 0.12945929 0.26252413
000010 b0 f4 dd 3e 62 d0 35 be 0f 53 8a 3c a8 9c 1b 3e
       0.43350744 -0.17755273 0.016885309 0.15196478
000020 8e 42 b3 3e 12 16 05 be 91 14 7b 3c f8 86 d1 3d
       0.35011715 -0.129967 0.015324728 0.10230821
000030 3c dc 67 3d ba 80 ba 3d ea 20 d1 bd fa e0 08 bb
       0.056606516 0.09106584 -0.10211356 -0.002088605
000040 f8 05 81 3e bc 23 9d 3a 5d 7d 76 3d fd 2f 89 3e
       0.25199866 0.0011988799 0.06017815 0.26794425
000050 2c 17 1e bd 58 55 ff 3c 6c bc 81 3c cb fb e2 3d
       -0.038596317 0.031168625 0.015836917 0.11083182
000060 80 c1 5b 3e f3 cd 8b 3e f5 3c 8a 3d 19 df 3b 3e
       0.21460533 0.27305564 0.06749908 0.18346824
000070 21 0e 30 3e 8d ee 55 3e 7a 9a 68 be 37 a3 30 be
       0.1719289 0.20891781 -0.22715178 -0.17249762
000080 c2 36 3f be 59 74 1d 3d a1 27 1b 3d e4 4d 00 3c
       -0.18673232 0.038441036 0.03787959 0.007831071
000090 b9 54 ac 3d 17 82 8a be 24 96 4c bd 05 30 4f be
       0.08414597 -0.27052376 -0.049947873 -0.20233162
0000a0 0b 00 e2 bc 01 d1 3d 3e b3 f9 7d 3d 78 1c f1 3d
       -0.027587911 0.1853676 0.06200571 0.11773008
0000b0 77 f1 09 3e c2 be 0d 3d bc 9a c3 3d 69 24 93 3e
       0.13471018 0.03460575 0.095509976 0.28738716
0000c0 02 f7 d8 3c 0c a6 62 3e 5f c1 52 3d 4d 02 3e 3d
       0.02648497 0.22133654 0.051453944 0.046388913
0000d0 d7 d9 df bd 0e 5e 66 3b b4 db 14 3e 0c a7 63 bd
       -0.109302215 0.0035151276 0.14536935 -0.05557923
0000e0 20 08 8c 3e 83 6f 6f be 2e c1 5e bc 8a 79 b8 3d
       0.2734995 -0.23382382 -0.013595862 0.09007557
0000f0 2d 07 b1 3d a3 62 79 3d 3a 9b 53 be 00 5c 2b 3e
       0.08643947 0.060885083 -0.20664683 0.16734314
000100 40 b5 9f bc 30 b6 92 3e 7b d9 c5 3d f7 16 0f 3e
       -0.019495606 0.28654623 0.09660622 0.13973604
000110 34 01 76 ba c0 4d c6 3d b0 82 95 be 4d fb 41 3d
       -0.00093843346 0.096827984 -0.2920127 0.0473588
000120 ba 77 35 3d f8 52 b8 3d 11 1e 70 3e f2 47 8d bc
       0.044303633 0.090002 0.2344897 -0.01724622
000130 1d a7 f2 bd 38 53 d9 3c e1 c7 75 be 48 5d 93 3d
       -0.118482806 0.02652894 -0.24002029 0.07195526
000140 01 fe fa bd a9 f7 3d be 6e 41 cd 3d f6 82 1d 3d
       -0.12255479 -0.18551506 0.10022245 0.038454972
000150 2b 1c d0 bd 91 29 4c 3e fa a7 2a be 41 18 0a be
       -0.101616226 0.19937731 -0.1666564 -0.13485815
000160 0f 37 9b be 58 e7 9b bd 3b 78 f9 3d 0a f0 1b 3e
       -0.30315444 -0.07612485 0.12181135 0.15228286
000170 a9 f7 0b be d5 84 29 bd 90 99 80 bd 37 6a f2 3b
       -0.13668694 -0.041386444 -0.0627929 0.0073979157
000180 87 fa d0 bd 8d fa 05 bc b4 40 90 3d c4 22 62 be
       -0.10204034 -0.008177412 0.07043591 -0.22083575
000190 aa ef 23 3e b1 25 02 bd 11 6a 45 bd d7 31 aa 3d
       0.16009393 -0.031774227 -0.048196856 0.083102874
0001a0 8a 49 f2 bc 10 d4 07 3e 55 fa 22 3d 8f 06 8f 3d
       -0.029576082 0.13264489 0.039789516 0.06983673
0001b0 ae f2 2b be f9 b3 0c be 08 0d 16 3d bd da d7 bc
       -0.16791794 -0.13740529 0.03663352 -0.02634942
0001c0 11 fa 33 be 7f 85 e8 bb 95 73 4c 3d 3c 3f 49 be
       -0.17575862 -0.007095992 0.049914915 -0.19653028
0001d0 bc 71 31 3c 05 fe 1f be 88 bf 08 3e 78 4e 15 be
       0.010830339 -0.15624245 0.13354313 -0.14580715
0001e0 b5 fc e2 3d 6f 50 6b bd 67 46 93 3e 56 c4 62 3e
       0.11083356 -0.057449754 0.2876465 0.22145209
0001f0 a4 06 84 3d 16 cc f1 3c 09 b7 4c 3e 8e 37 7e bd
       0.06446579 0.029516261 0.19991697 -0.0620647
000200 40 45 24 bd 24 c0 08 3e da 4b 1a 3e 46 d1 f4 bd
       -0.040105104 0.13354546 0.15067998 -0.11953978
000210 1e b1 e5 bd 37 23 bd bd 97 b9 d7 bd ff 59 88 bc
       -0.11215423 -0.09235232 -0.10533445 -0.016644476
000220 f4 2b fd bd 02 8e 1e 3d 8c 79 9f bb f1 ed e5 bd
       -0.12361899 0.038709648 -0.0048667844 -0.11227024
000230 88 2a e0 bd 46 85 81 3d af 19 08 bd 75 41 2d 3e
       -0.10945612 0.06324248 -0.03322762 0.16919501
000240 32 56 1d be e9 db 36 bd be 34 89 3d 40 e3 33 bd
       -0.15364912 -0.044643316 0.06699513 -0.043917894
000250 3e 9c 38 3e 2d 57 30 bd c4 ca 2b bd 3c 0d 96 bd
       0.18028352 -0.043051887 -0.04194142 -0.07326743
000260 7f 07 06 be ff ae 84 3e b3 0e 56 be fe 18 0f 3e
       -0.13088797 0.2591476 -0.20904045 0.13974378
000270 2f 74 68 3b 35 ff 47 3e be 8e 86 bd 93 3c 19 3e
       0.0035469641 0.19530948 -0.06570195 0.14964513
000280 85 7e 15 3d 49 9b 62 be 55 93 81 3e c6 10 05 3e
       0.03649761 -0.22129549 0.25307718 0.1299468
000290 6c ba 8c 3e 00 32 6b 3e 5a 10 fd bd 97 1b ca 3d
       0.2748598 0.22968292 -0.123566344 0.098685436
0002a0 4e 64 a5 bc 78 f9 72 3c c2 40 13 be 10 b7 de 3c
       -0.02018943 0.014829986 -0.14380172 0.0271869
0002b0 3d 6c cb bd fe ff b2 3d 6d 7a 02 3e f8 6c 31 be
       -0.09932754 0.08740233 0.12742014 -0.17326725
0002c0 11 2e d4 bd 10 0f 82 3d 08 3b 10 3e d8 8a a4 3d
       -0.10360349 0.06350529 0.14085019 0.08034295
0002d0 e1 d9 46 3e 46 36 1d bd 2c cf 43 3e 79 e9 13 3e
       0.19419052 -0.038381837 0.19121999 0.14444532
0002e0 4d 86 15 be 62 ce a8 bc be e2 b9 be 95 67 43 3e
       -0.14602013 -0.020606223 -0.36305803 0.19082482
0002f0 6f a1 c1 bc 7d 3c fe 3c 61 05 15 3e 92 6c 61 be
       -0.023636548 0.031034702 0.14552833 -0.22014073
000300 6b 6f 0a bd f5 a8 52 3d 4c 21 3e 3e 70 fd 09 3e
       -0.033797663 0.05143066 0.18567389 0.13475585
000310 3f 2a 44 3d 42 3b 1b bd a8 6a 06 3e f5 47 b1 3d
       0.04789185 -0.03789831 0.13126624 0.08656303
000320 9e f6 ea 3b 78 48 1a 3d 01 53 f2 3d d2 9f 9f 3d
       0.0071705123 0.037666768 0.11832238 0.07794155
000330 f7 f3 be 3d dc bb c0 bc 7e e6 0d 3e 99 be c2 3d
       0.09323876 -0.023527078 0.13857457 0.0950901
000340 ce 60 f1 bc 6d 0f 36 3e b7 f6 c9 bc f5 a7 2a 3e
       -0.029465105 0.17779322 -0.024653776 0.16665633
000350 9b 89 ee 3d e9 f4 f4 3d f6 75 20 be cc 0e 4d be
       0.1164734 0.119607754 -0.15669999 -0.20025176
000360 ae 48 8d 3d 1d 71 37 be 47 37 12 3d 76 50 03 3e
       0.06898628 -0.17914243 0.035697248 0.12823662
000370 3c 9c 6c 3d 0d 9e 21 3d 46 c7 42 3e c7 01 e1 bd
       0.057766184 0.03945737 0.1902133 -0.10986667
000380 b9 44 1b be 5d ec 29 bd c7 e8 13 3e 8b 2d 80 bd
       -0.15162934 -0.04148518 0.14444266 -0.06258687
000390 69 50 59 3e 53 f3 ff bd 9b 97 c3 be 5b f1 01 be
       0.2122208 -0.12497582 -0.38201603 -0.12689726
0003a0 61 28 ba bd 10 e8 13 3d e1 5c 94 3d 88 ff 9f 3d
       -0.09089733 0.036109984 0.07244278 0.078124106
0003b0 b4 19 ad 3d 2a 74 48 3c e8 17 59 bd e9 3b 1f 3e
       0.08452168 0.012234727 -0.053001314 0.15550198
0003c0 00 18 b9 3d 7e c6 49 3e 65 23 b1 bc d5 8c 3f bd
       0.09037781 0.19704625 -0.021623323 -0.046765167
0003d0 6e 2e 90 3e 95 cb f5 bb a0 37 9d 3e 78 eb 2f bd
       0.28160423 -0.0075010755 0.307065 -0.04294917
0003e0 6e 92 f0 3d 0e fc 2d 3e 80 06 f1 bc 0e 81 33 3d
       0.11746679 0.16990682 -0.029422045 0.043824248
0003f0 be ed 93 3c 1e c0 06 be 59 90 52 bd ad b9 8a 37
       0.0180577 -0.13159224 -0.051407192 1.6537344e-05

l2.bias f4 [300]
000000 3b 54 4f 3c 31 9c fd 3c 19 52 72 3d 4e 08 16 3d
       0.012654359 0.030958267 0.059160326 0.036629014
000010 af f5 b8 3c 5e 90 7d bd b9 d0 30 3d 94 cb 3d 3d
       0.022578089 -0.061905257 0.043167803 0.046336725
000020 cd 76 26 bc 03 fa 5f bc 15 e7 af 3d 06 a3 e1 bc
       -0.01016016 -0.013670447 0.08588997 -0.027543556
000030 14 8a 50 bd b8 f1 ff 3c ec 73 81 bd b7 c4 ef 3c
       -0.05091293 0.03124319 -0.063209385 0.029268606
000040 a1 5a 21 bd db 05 3f bd 8f 66 78 3b 31 13 de 3d
       -0.03939307 -0.046636444 0.0037902927 0.10843504
000050 a8 93 52 bd 9d 67 bf bc 58 60 9d bb a5 9b 35 bd
       -0.051410347 -0.023364836 -0.004802745 -0.044337887
000060 bc b3 a9 bc db e2 24 bd ee 7a 9e 3d 67 b6 76 3d
       -0.020715587 -0.04025541 0.07738291 0.060232546
000070 3c 86 e9 3c 1f c2 93 bb 41 b4 ad bd 73 10 8a 3d
       0.02850639 -0.004509225 -0.08481646 0.06741419
000080 94 bb f9 bd 6d 80 6a 3d 84 b8 4b 3d 41 b6 76 bc
       -0.12193981 0.057251383 0.049736515 -0.015058101
000090 5d 41 01 3e e8 1f 8c 3c 5b e1 17 3e e3 8c ab 3d
       0.1262259 0.017105058 0.1483206 0.083764814
0000a0 96 74 bc bb 42 4e 1f 3c 7a cb 90 3c 71 5a a8 3c
       -0.005751203 0.009723248 0.01767515 0.020550938
0000b0 b4 a7 88 bd ee b3 1f bd 31 34 18 be 84 a0 06 bb
       -0.06672612 -0.038989954 -0.1486366 -0.0020542452
0000c0 9d e2 44 3d 87 49 03 be 80 e3 10 3d 85 77 0f be
       0.048067678 -0.12821017 0.03537321 -0.14010437
0000d0 0f e8 86 bd c4 fb 17 bd 2a e3 93 bc b7 d4 a3 3d
       -0.065872304 -0.037105337 -0.018052656 0.079995565
0000e0 06 13 65 bd fd a5 fe bc da a4 25 3c 0b 0a e0 bb
       -0.055926345 -0.031085009 0.010110104 -0.0068371347
0000f0 fc e8 a1 3c b9 7d 70 bd d1 f0 83 bd ae a0 36 3d
       0.019764416 -0.05871365 -0.064424165 0.04458683
000100 d2 15 58 3a df 74 21 bd 48 05 64 3d 95 a0 a9 bc
       0.00082429976 -0.039418098 0.0556691 -0.020706454
000110 da bf c1 bd 7a 03 27 3d 11 ef 2b bd 24 c3 95 3c
       -0.09460421 0.0407748 -0.04197604 0.018281527
000120 42 7b c2 3d ae a1 38 bc 80 ad 9b bd d3 ae e2 bc
       0.09496166 -0.011269016 -0.07601452 -0.027671253
000130 a0 47 65 bd a8 2a cf 3d 45 28 d5 3c 62 94 e2 3d
       -0.05597651 0.10115558 0.026020179 0.11063458
000140 4d d4 25 3d 43 70 b5 bc b1 c9 3d bd cc 99 5e 3d
       0.04048567 -0.022148257 -0.046334926 0.05434589
000150 6c aa 1f be 22 f8 d3 3d 14 88 33 bc e4 71 18 bd
       -0.15592355 0.10350062 -0.0109577365 -0.03721799
000160 62 3e 6e 3c 97 42 7d bd bb 1d 3a be e3 f5 b2 bd
       0.01454124 -0.061831083 -0.18175404 -0.087383054
000170 8a 3b 79 bc 73 8f 2a 3c 20 b5 29 bd 99 10 bc bd
       -0.015211949 0.0104101775 -0.0414325 -0.09182853
000180 be 2f 93 bc 91 44 03 3e 61 48 df 3d cb dc 58 bd
       -0.017967101 0.12819125 0.10902477 -0.05294494
000190 bf e0 7f 3d 2f b9 42 bd c6 83 f3 bd 41 d4 26 3c
       0.062470194 -0.047539886 -0.11890368 0.010182441
0001a0 fd 9d 00 3c e2 95 3a bd 8d 5a 44 bd 71 0c b9 bc
       0.007850167 -0.045553096 -0.04793792 -0.02258894
0001b0 84 5c 38 bd db 8c 0d 3d ea 8c 0d bd 01 bc 53 3b
       -0.045010105 0.03455816 -0.034558214 0.0032308104
0001c0 b0 52 23 3d 17 fd e2 3c fb 46 08 bd 41 5e 5d bd
       0.03987378 0.027708573 -0.033270817 -0.054044966
0001d0 3e 4e d1 ba ff b7 f5 3c ee f6 f9 3c b7 ef 78 bd
       -0.0015968753 0.029994963 0.030513253 -0.060775485
0001e0 d8 e1 8f bd 4e ae 0f bd f4 1d 59 39 4c ae ba bb
       -0.07025498 -0.03507834 0.00020705891 -0.0056970473
0001f0 02 61 56 bd 60 b2 19 3d 95 4c cd bd 90 d2 8f bc
       -0.052338608 0.037523627 -0.100243725 -0.017556459
000200 5f e5 94 3d 89 d8 84 bd 06 9f f4 bd cf 7b 81 3b
       0.072703116 -0.06486613 -0.11944394 0.0039515267
000210 46 98 8f 3d ed 06 37 bd 8a 07 c4 bc 1f d1 06 bc
       0.07011466 -0.04468434 -0.023929376 -0.008228569
000220 6e 34 37 bd 40 3c 8d 3d 5d 9f 77 3c af 21 da 3d
       -0.044727735 0.068962574 0.015113679 0.10650956
000230 9c e9 00 be 46 d8 07 3e 64 ed 63 bc f9 59 50 3c
       -0.12589115 0.13266096 -0.013911579 0.012716764
000240 11 e2 ab bd 72 d8 ac 3d 88 6e 19 3d 0b 64 98 3c
       -0.08392728 0.08439721 0.037458926 0.018602392
000250 3a 45 13 bd 40 79 e0 3d 34 8c 76 3d e2 03 a3 bc
       -0.03595469 0.109606266 0.060192302 -0.019899312
000260 cd a1 dc 3c 3e 6b 64 bd 19 71 08 bd 8e c9 12 bd
       0.026932621 -0.055766337 -0.033310983 -0.03583675
000270 54 94 7d bd 81 ff e5 bc cf c9 ac 3d a0 07 f6 bc
       -0.061909035 -0.028075935 0.084369294 -0.030032933
000280 f2 7b a4 bb 27 0a 31 bd a3 85 db bc 16 ec 80 3d
       -0.0050196582 -0.043222573 -0.026797121 0.0629503
000290 5f 3b 20 bd 02 cc 09 bd aa aa da bc 26 68 33 3d
       -0.03911912 -0.033641823 -0.026692707 0.043800496
0002a0 d5 a1 44 3c 26 7b aa 3b ba f3 a5 3c 11 e0 bd bd
       0.012001474 0.0052026687 0.02025782 -0.09271253
0002b0 f2 ef 62 bd 22 fb 14 3d 67 47 62 bd b8 4d b6 3c
       -0.05540461 0.03637231 -0.055243876 0.022253856
0002c0 c7 f8 c4 bb ec fc e5 bc 74 78 59 bc 2a 04 0c bd
       -0.006011102 -0.028074704 -0.013273347 -0.03418366
0002d0 b5 ed 4b 3c 38 2d 0a 3d 91 1a ce 3d 93 33 f7 3c
       0.0124468105 0.03373453 0.10063661 0.03017596
0002e0 51 2f b5 bd 11 d4 2f 3d 0e d0 37 3d 44 b6 e6 bd
       -0.088469155 0.04292685 0.04487615 -0.11265233
0002f0 fc f6 21 3b 2f 28 07 bd 19 3b ec 3c 27 bc 2c bd
       0.0024713865 -0.032997306 0.028836774 -0.042171624
000300 00 af 04 3e 0b 74 36 3d e2 d0 10 bd ec e6 a7 3c
       0.12957382 0.04454426 -0.035355456 0.020495854
000310 69 c0 d3 bd 78 08 88 3a ed fb 59 3c 2e ad 8f bd
       -0.10339434 0.00103785 0.013304693 -0.07015453
000320 83 fc 17 3d 52 41 d7 3b 1d 38 97 3d d8 d3 cf bb
       0.03710605 0.006569066 0.0738375 -0.0063423924
000330 95 7d 83 bd b4 01 7d bc 7e 92 a7 3d f0 69 6b 3c
       -0.06420437 -0.015442301 0.08182238 0.014368519
000340 be 56 30 3d 72 82 47 3d 01 ff 1e 3d cd 2e a1 bc
       0.043051474 0.048708387 0.03881741 -0.019675637
000350 ca 2a 28 bd 64 06 5e 3d d5 01 e4 bc 02 10 78 bc
       -0.04105643 0.054205313 -0.027832905 -0.015140535
000360 40 01 45 bb 92 12 81 bc ab af ba bc 6f 6e f7 3b
       -0.003006056 -0.015755925 -0.022788843 0.0075510065
000370 b4 03 b5 bc 46 26 f4 3c 36 3c f6 bc 09 6e 63 bc
       -0.022096492 0.029803406 -0.030058008 -0.013881215
000380 d8 c6 3e 3c 14 c4 44 bd bf e9 fa 3b 6d 68 4f bc
       0.011644088 -0.048038557 0.0076572592 -0.012659174
000390 18 1d 9f bd 8b e0 47 3d 53 c9 7c bc bc 96 a2 3c
       -0.07769221 0.048798125 -0.015428859 0.019847266
0003a0 8f 6b bc 3d 58 b1 91 bc 48 f5 43 bc b9 6f 1b be
       0.09200203 -0.01778476 -0.011960335 -0.15179338
0003b0 f7 c9 94 3d 8e 60 8a 3c f5 05 31 3d 8e b3 15 3d
       0.07265084 0.016891744 0.04321857 0.03654819
0003c0 a2 5e 31 bd 1a 03 1d bd a0 a3 79 bd 0e 58 fb bd
       -0.04330314 -0.038333036 -0.06094706 -0.122726545
0003d0 f5 e3 dd bc 6e aa 5f bd c6 08 03 3c cf 0e e4 bd
       -0.027086237 -0.054605894 0.007997697 -0.11135637
0003e0 b7 51 1b bd 6f 66 17 3d da fe 05 bc 84 18 b9 3d
       -0.037919726 0.036962923 -0.008178437 0.09037879
0003f0 ed c8 fa 3d bf 43 ea bd 41 99 f2 3d ef 3c d1 bc
       0.12245355 -0.11438703 0.11845637 -0.02554175

l3.weight f4 [4, 300]
000000 de 9c ed 3e 35 ae a0 bc 61 f6 99 be 73 d9 07 bd
       0.46408743 -0.019614318 -0.30070785 -0.03316636
000010 dc 77 21 bf ff e1 84 3e e0 77 10 bf be c8 60 bf
       -0.63073516 0.2595367 -0.56432915 -0.8780631
000020 46 2b 0b 3c d4 66 27 3e e6 14 db 3d 39 74 64 be
       0.008494204 0.1634782 0.106973454 -0.2230996
000030 34 b8 8f 3d c5 72 b1 bb 2d 21 49 3e 40 18 2b bf
       0.07017556 -0.005415293 0.19641562 -0.6683388
000040 ba 66 7a 3e a8 43 e1 3c 04 4d 23 3d 15 c9 cb be
       0.2445325 0.027498081 0.03986837 -0.3980185
000050 1a f2 2a 3e 89 1d 03 bf e2 07 22 3e 6f cc 25 be
       0.16693917 -0.5121694 0.1582332 -0.16191266
000060 c1 6b fc 3e cb dd 84 bd ad 34 77 be 6f a8 81 3e
       0.4930096 -0.06487616 -0.24141188 0.25323817
000070 8e 92 e0 3c 05 b0 cf bd d1 86 aa 3e 7e f3 a9 3e
       0.027413633 -0.10140995 0.33305982 0.33193582
000080 d1 fc 80 bf 82 0d fd 3e cf 68 eb 3e 2a 8b c7 3e
       -1.0077153 0.49424368 0.459784 0.3897336
000090 87 bb 30 3e 9f c7 d6 be ee 03 92 be c3 90 43 be
       0.17259036 -0.41949174 -0.28518623 -0.19098191
0000a0 90 60 4f bd 26 ca 11 3f af b0 73 bd 83 d2 3b be
       -0.0506292 0.5694908 -0.05949467 -0.18342023
0000b0 91 94 cd 3e e5 e5 9d 3e 7f b1 ce be 95 a2 06 3e
       0.4015241 0.30839458 -0.40369794 0.13147958
0000c0 04 11 6f 3e e5 3b 36 bf 69 da 1c bf ad 78 19 bf
       0.23346335 -0.7118514 -0.6127077 -0.5994976
0000d0 8c bf ac b9 48 27 1d 3f 13 60 29 3f 4e e8 60 bd
       -0.0003294911 0.61388063 0.6616222 -0.054909043
0000e0 49 ee a6 3e 97 8f 05 bf b2 7f 65 3c a0 9e 1d bf
       0.32603672 -0.52172226 0.014007496 -0.6157017
0000f0 56 53 4d be 4b 3b 30 3e db d4 a0 bd 9d 50 93 3e
       -0.20051321 0.17210118 -0.07853099 0.2877244
000100 7a f2 f1 be 01 17 2e 3e 16 97 9b ba 5b 69 a5 3b
       -0.47255307 0.17000963 -0.0011870589 0.0050479597
000110 6e 43 b0 3d 5d 9c bb 3d 69 a7 3c bd 17 91 37 3c
       0.08606611 0.09160683 -0.046058092 0.011204026
000120 3a 53 57 be 18 b6 22 3f 77 c3 21 be 5b b2 d4 3c
       -0.21027842 0.63559103 -0.1579722 0.025963953
000130 61 52 ff 3d 20 cb 7d ba e2 bf 8d 3e 67 15 8d be
       0.124668844 -0.0009681452 0.27685457 -0.2755539
000140 0a 43 26 3d d5 a1 da 3e c8 32 0e be a5 57 92 3e
       0.040591277 0.42701593 -0.13886559 0.28582492
000150 cc d6 8e be 32 32 2c be c6 a6 40 3e 43 51 65 3e
       -0.27898252 -0.16816023 0.18813619 0.2239428
000160 14 c1 89 3e 6a 9c eb 3c 11 d4 f4 be c9 18 e5 3e
       0.2690512 0.028761107 -0.47818044 0.44745472
000170 d9 3b 0b bd 31 f8 22 bd c1 29 77 be 1f 40 25 be
       -0.033992622 -0.039787475 -0.24137022 -0.16137742
000180 4b e8 88 be ee b8 87 be 63 7a b0 bd ec 70 81 3e
       -0.26739725 -0.26508278 -0.086170934 0.25281465
000190 53 6f 44 bd a6 11 ac be 24 d8 ca 3d a0 a1 0c 3e
       -0.04795773 -0.33607215 0.09904507 0.1373353
0001a0 91 d2 9e 3e 91 05 e7 be 93 f6 29 bd 28 88 2b bf
       0.31020024 -0.45121434 -0.041494917 -0.6700463
0001b0 a3 c0 1d bd ec 1e 05 3c ac 49 e5 3d 4c 2b 96 bc
       -0.03851379 0.008125048 0.111956924 -0.018331192
0001c0 76 bc ad be 91 2a 2b 3f 93 97 99 bc a1 6f 6f bd
       -0.33932847 0.66861826 -0.018749034 -0.058456067
0001d0 33 62 b9 bf 0a 8f 02 bf c0 11 95 3c fb fe 48 3d
       -1.4483093 -0.5099951 0.01819694 0.049071293
0001e0 bd aa a6 3e fc 1b 41 be a5 d8 4c 3f 8b 0f 64 3e
       0.32552138 -0.18858331 0.80018073 0.22271554
0001f0 2f 9c aa bb 92 40 30 3d a5 a2 f6 3d 01 2c d5 3d
       -0.005206607 0.04303033 0.12042741 0.10408784
000200 3f e4 1b be 90 ca 9f 3e bc b5 71 3f 00 5e 72 be
       -0.15223788 0.3120923 0.9441793 -0.2366867
000210 d5 29 79 bc 5f a3 03 bf a1 3f f5 3e 86 7a 94 be
       -0.015207727 -0.5142116 0.47900108 -0.28999728
000220 dd 69 3c 3d 4c b1 17 be 1e ef d5 3d f2 9f c7 bd
       0.045999397 -0.14813727 0.104459986 -0.09747304
000230 39 2e 58 3e bd 3e a0 bd f8 2a 90 bf 82 2b b9 3e
       0.21111383 -0.078244664 -1.1263113 0.36166006
000240 a8 fc 83 3d 19 50 8e be c1 05 06 be 57 63 fd bd
       0.06444675 -0.27795485 -0.13088132 -0.12372463
000250 94 ad 1f 3d e8 c0 09 3f c7 25 70 be 6f 9e 9e 3e
       0.038983896 0.53809977 -0.23451911 0.3098025
000260 32 53 32 bf 1f c9 f7 3c 89 20 cd bd e5 2b bd 3e
       -0.69658196 0.03024727 -0.10015971 0.3694755
000270 c0 c2 51 be 6c 29 7f bc ca ac 0d 3d 61 09 a5 3c
       -0.20484447 -0.015573841 0.034588613 0.020146074
000280 00 f4 f6 be 55 47 68 3d 8f 62 25 3d 5c 7e 1d 3e
       -0.48233032 0.056708653 0.040377196 0.15380234
000290 63 bc 7b 3e 06 28 50 3d 25 a0 e5 3c 4b 70 f4 be
       0.24583583 0.05081942 0.028030464 -0.47741923
0002a0 d0 c1 28 be 9f 34 01 3f f5 21 45 bc 3a 34 b2 3c
       -0.16480184 0.5047092 -0.012032022 0.02175342
0002b0 b2 8c 31 3d 0e ce ff bd cf 31 f9 be bc 32 37 be
       0.043347068 -0.12490474 -0.48670813 -0.17890447
0002c0 74 0e 59 bd 9d 45 d1 be 1a 9f 32 3d 21 18 63 3d
       -0.0529923 -0.40873423 0.043608762 0.055442933
0002d0 41 ec b0 3e 7c 03 8c 3e 1c bb e0 be 02 14 3d 3e
       0.34555247 0.27346408 -0.43892753 0.18464664
0002e0 35 10 b4 3e 3f 4e 99 3e f8 5a 8a be 71 5d 31 be
       0.35168615 0.2994251 -0.2702253 -0.17320801
0002f0 b7 eb f4 3e 19 5b 69 bc 50 47 ab 3e 69 88 67 bd
       0.47836086 -0.014242911 0.33452845 -0.056526575
000300 8f e9 9c 3e 37 d6 66 3d 3b 55 0f 3d 81 b2 80 3d
       0.3064694 0.056356635 0.03499339 0.06284047
000310 d6 f5 0c be 9e bd 3c be 8a cb 72 3e dd 39 8a be
       -0.13765654 -0.18431708 0.23710456 -0.2699727
000320 81 7b 87 3e 42 f9 38 3c 46 33 d6 3e 3e 73 56 3e
       0.26461414 0.011289896 0.41835994 0.20942399
000330 cd 9d 46 3e e1 09 bd bd ce e3 71 3e db 7f 07 bf
       0.19396134 -0.092304 0.23622057 -0.52929467
000340 d8 14 22 3e 13 3b a2 3e 1b c1 96 be 16 c0 1b 3e
       0.15828264 0.31685695 -0.29444203 0.15209994
000350 7f ce c8 3e 5d 7e 9d be 74 36 a3 3e 2a bb 0a be
       0.39220044 -0.3076047 0.31877482 -0.1354796
000360 00 92 21 bf 79 71 2a bf 71 3c 40 be 4a 84 ae 3d
       -0.63113403 -0.66579396 -0.18773057 0.08521326
000370 9c 8e 18 3d 09 c4 f7 3d b3 b5 cd 3e 16 97 27 3d
       0.037245378 0.120979376 0.40177688 0.04091557
000380 d4 0f bb 3d 8f f3 4f 3d c7 ee 3d ba 4a df fa bd
       0.09133878 0.050769385 -0.00072453584 -0.1224962
000390 d4 e6 1e 3d a5 cb fb be 7d 59 e7 39 77 ab ba be
       0.038794354 -0.49178806 0.00044126427 -0.36458942
0003a0 bf 19 30 bf 55 20 2e 3d 5d 6c 8e 3d cb 64 56 be
       -0.68789285 0.042511303 0.069542624 -0.20936887
0003b0 6d 5c 8e be 3b fa f9 3d f7 43 46 be b6 f4 ee 3e
       -0.2780489 0.12205931 -0.19361864 0.46671075
0003c0 30 55 11 bf 17 3e 35 be 0f 3e da be de 55 18 be
       -0.5677061 -0.17699467 -0.42625472 -0.14876506
0003d0 0a 66 56 be 84 1a 42 3c 0d 38 8e be 10 d1 b0 be
       -0.20937362 0.011847142 -0.27777138 -0.34534502
0003e0 88 33 e4 39 4e 50 92 3e 46 02 76 3f 22 a0 2e 3e
       0.00043525943 0.28576893 0.9609722 0.17053273
0003f0 cf 7a ff be f4 8a 88 3e 64 be 74 bd 50 1a 95 be
       -0.49898383 0.26668513 -0.059751883 -0.29121637

l3.bias f4 [4]
000000 d0 5f 0f bd 52 9e 14 bd e8 ee ad bd 14 28 c3 3b
       -0.035003483 -0.0362838 -0.084928334 0.0059557054
