DDPG/checkpoints/colabv2/v4/target_critic.ckpt (torch, 537409 bytes, 11 tensors)

layer1.weight f4 [400, 24]
0.06809461 1.3118218 0.84563637 3.4690826 -0.010425803 0.44962296 -0.24797021 0.63855475
-0.09881407 -0.053620767 0.03983782 -1.0107567 1.318592 0.14592062 0.22723661 0.25843957
0.2656388 0.18103497 0.20807615 0.21143775 0.21186249 0.19918256 0.20885307 0.2222317
0.19382279 2.2903981 -0.10433006 -0.08574951 -0.12342645 -0.18282175 -0.1931478 0.33229107
0.5268443 0.020617113 0.44132662 0.034089427 -1.3440908 0.39025706 0.19566198 0.17508624
0.21175385 0.16813758 0.2061814 0.22958782 0.1897205 0.18720923 0.14539532 0.05485762
-0.092964545 -0.15480994 0.18023728 -0.4168697 -0.18723474 0.19355871 0.046984326 0.086796984
-0.05849957 0.07546794 1.1496701 -0.19002353 0.2652848 0.0789585 -0.18410632 -0.1779733
-0.23503876 -0.16447136 -0.205627 -0.20411289 -0.1776608 -0.16758884 -0.21097776 -0.089272805
1.2595139 2.6256618 -2.044141 -1.185355 0.3551168 -0.18299103 -0.1673414 -0.18811136
0.19024943 0.54721314 -0.10933292 0.39029688 -0.065908745 0.07689558 0.44326827 0.41944394
0.44571915 0.45089996 0.44237855 0.44608977 0.42274457 0.46819085 0.26908904 0.07351403
-0.024467552 3.1693268 0.39786404 0.11971197 -1.3752941 -0.45875135 -0.20010328 -0.28478795
-0.024162607 1.5420139 0.4869567 0.33536714 -0.005953824 0.2331239 0.250579 0.22301875
0.23610945 0.24962845 0.19704746 0.2525765 0.23464102 0.1792985 0.14407302 0.11340933
0.15538162 5.021409 -1.9851987 -1.5233651 0.2257879 -0.61571527 -0.66301036 1.1697416
-0.16622077 -0.46487394 1.2405738 -0.19239447 -0.3590215 0.036873046 0.4542666 0.48302013
0.49046132 0.43861926 0.43859825 0.453599 0.42549542 0.49955478 0.3099694 -0.24454348
0.17925191 -3.7830744 7.1068087 -0.31183937 -0.21512532 0.0210675 0.004643156 0.1171707
0.152838 -0.0054916954 -0.048108645 -0.15750441 -0.01880625 0.11467778 0.34026483 0.26999992
0.25637203 0.31535214 0.25591826 0.3193309 0.25865212 0.2920616 0.5128367 -0.11841821
-0.99312556 -2.2862284 1.3887031 -1.2779354 -0.31096452 0.3687822 -0.24277154 0.006292398
0.19256957 -0.6080092 -0.30233037 -0.012115598 -0.60888934 0.15855631 0.2152816 0.21173185
0.19242287 0.17165174 0.18506879 0.191953 0.15442035 0.18352643 0.27342004 0.40837255
0.1981004 4.644644 0.44681168 1.6236656 -0.21584879 1.1168686 0.26532707 -0.26961517
0.15301147 0.33949006 0.476395 0.80161524 1.8073719 -0.09507443 0.27331775 0.3116938
0.2800939 0.3142033 0.26744074 0.27211875 0.29105413 0.2776514 0.36721596 0.18760686
-0.32467043 -0.46176425 -0.05719562 -1.005134 -0.16833243 0.0052679414 -0.24516344 -0.6056716
0.2020039 -0.22696796 -0.022574123 -0.084159285 0.2240838 0.13343145 0.24578322 0.25287914
0.31280744 0.2938633 0.25462285 0.33821175 0.26661396 0.2919459 0.23859979 0.3293828
0.19293945 2.8896432 0.30114692 -1.8775287 0.038730823 0.5750532 -0.02019019 -0.63128835
0.22899564 0.060606007 0.059252873 -0.26168433 0.4653998 0.033204257 0.03450134 0.11689992
00000000: 3075 8b3d c7e9 a73f a07b 583f 7305 5e40
00000010: fdd0 2abc fb34 e63e e7eb 7dbe 5378 233f
00000020: 085f cabd 73a1 5bbd fb2c 233d 7a60 81bf
00000030: 9fc7 a83f 376c 153e b7b0 683e 3152 843e
00000040: cf01 883e 3b61 393e ea11 553e 2383 583e
00000050: 7bf2 583e 83f6 4b3e 94dd 553e b590 633e
00000060: 7b79 463e e295 1240 00ab d5bd 709d afbd
00000070: 02c7 fcbd a035 3bbe 89c8 45be 0e22 aa3e
00000080: 45df 063f 38e5 a83c 90f5 e13e 5ba1 0b3d
00000090: 2b0b acbf c6cf c73e 9d5b 483e cf49 333e
000000a0: 00d6 583e 422c 2c3e 3821 533e 1219 6b3e
000000b0: 1746 423e c7b3 3f3e 83e2 143e 62b2 603d
000000c0: 3264 bebd 7f86 1ebe 1f90 383e f26f d5be
000000d0: 77ba 3fbe 4134 463e a372 403d 9ec2 b13d
000000e0: 3f9d 6fbd ef8e 9a3d 6428 933f 8795 42be
000000f0: 69d3 873e feb4 a13d 5e86 3cbe a23e 36be
00000100: 00ae 70be 2e6b 28be e28f 52be f802 51be
00000110: b6ec 35be 699c 2bbe 8e0a 58be a9d4 b6bd
00000120: c037 a13f d80a 2840 35d3 02c0 b6b9 97bf
00000130: dfd1 b53e 0062 3bbe 8b5b 2bbe 44a0 40be
00000140: bfd0 423e 2916 0c3f f0e9 dfbd fed4 c73e
00000150: 2afb 86bd 6e7b 9d3d 0ff4 e23e 5bc1 d63e
00000160: 4d35 e43e 5cdc e63e 717f e23e e165 e43e
00000170: fa71 d83e b6b6 ef3e 0ac6 893e 868e 963d
00000180: 2d70 c8bc 40d6 4a40 d6b4 cb3e 8d2b f53d
00000190: a309 b0bf 75e1 eabe e0e7 4cbe bacf 91be
000001a0: a9f0 c5bc b660 c53f 6352 f93e 3eb5 ab3e
000001b0: 4c18 c3bb 08b8 6e3e e44b 803e 075f 643e
000001c0: adc6 713e 9a9e 7f3e cfc6 493e b551 813e
000001d0: bc45 703e 079a 373e e187 133e 2743 e83d
000001e0: 5c1c 1f3e 62af a040 fe1a febf a1fd c2bf
000001f0: f134 673e 849f 1dbf 0cbb 29bf 18ba 953f
00000200: c735 2abe f503 eebe 1fcb 9e3f 0e03 45be
00000210: abd1 b7be 3108 173d a295 e83e 6a4e f73e
00000220: bf1d fb3e b492 e03e f38f e03e 213e e83e
00000230: 89da d93e a5c5 ff3e 4fb4 9e3e 9b69 7abe
00000240: d08d 373e e41d 72c0 fa6a e340 69a9 9fbe
00000250: d049 5cbe c095 ac3c 9e25 983b 31f7 ef3d
00000260: 9181 1c3e aef3 b3bb 920d 45bd d648 21be
00000270: 910f 9abc 2fdc ea3d 3137 ae3e 6e3d 8a3e
00000280: 3243 833e d675 a13e b807 833e 577f a33e
00000290: 0d6e 843e 1989 953e 4449 033f 3f85 f2bd
000002a0: 7a3d 7ebf 9151 12c0 06c1 b13f 6393 a3bf
000002b0: be36 9fbe 05d1 bc3e 1a99 78be 7630 ce3b
000002c0: f530 453e 7ea6 1bbf 0ccb 9abe 8080 46bc
000002d0: 2ce0 1bbf 965c 223e c872 5c3e 3cd0 583e
000002e0: 800a 453e 79c5 2f3e ac82 3d3e 548f 443e
000002f0: 5e20 1e3e 5aee 3b3e b6fd 8b3e 3516 d13e
00000300: d5da 4a3e eca0 9440 80c4 e43e 46d4 cf3f
00000310: 7707 5dbe 8df5 8e3f f3d8 873e 000b 8abe
00000320: 0aaf 1c3e a4d1 ad3e 0cea f33e a836 4d3f
00000330: f657 e73f 62b6 c2bd 4ef0 8b3e 5496 9f3e
00000340: 7868 8f3e 41df a03e feed 883e 2653 8b3e
00000350: 0c05 953e 5328 8e3e bb03 bc3e 031c 403e
00000360: 343b a6be 5d6c ecbe f445 6abd 3ba8 80bf
00000370: 565f 2cbe b29e ac3b 200c 7bbe 4b0d 1bbf
00000380: 1cda 4e3e 4a6a 68be 5eed b8bc b45b acbd
00000390: 3976 653e 41a2 083e 99ae 7b3e 6079 813e
000003a0: 4c28 a03e 4075 963e ed5d 823e 172a ad3e
000003b0: a081 883e ef79 953e 8153 743e dda4 a83e
000003c0: eb91 453e eaef 3840 ee2f 9a3e dc52 f0bf
000003d0: 36a4 1e3d b036 133f e665 a5bc 1d9c 21bf
000003e0: d57d 6a3e 013e 783d 24b3 723d 7dfb 85be
000003f0: e248 ee3e 3001 083d 4751 0d3d 3a69 ef3d

layer1.bias f4 [400]
0.043400858 0.053166967 0.6454755 0.1833498 0.05955517 -0.200147 -0.031178202 0.48833618
-0.087886415 0.3093841 0.42434052 0.17334078 0.042860743 -0.01638182 0.30397624 -0.1854262
0.09639113 0.4600097 0.4334616 0.0908323 0.5115263 0.04112965 0.5680845 0.069254525
-0.3097472 -0.1366271 0.4590733 -0.19761199 0.2839553 0.19037314 0.03532194 0.30636185
0.10465262 0.07584849 0.23877193 0.30070877 0.20198557 -0.76534146 0.21194193 0.6414288
-0.045385122 0.28280702 0.3709723 0.30682787 0.23324692 0.0050633517 0.40005702 0.042033438
0.18541043 0.6755851 0.5836653 0.25846958 0.47056687 0.30764666 0.2029892 0.117567696
-0.08975027 0.15479605 0.19888599 -0.050109055 0.4353501 -0.23691793 0.2680966 0.10740895
-0.04472211 0.175604 -0.14076135 0.42382768 -0.15754497 0.24734318 -0.09000497 0.19245428
0.049387652 -0.36290014 0.32620597 -0.33747536 0.5617421 0.4398321 0.4330919 0.2076231
0.17029575 0.72243965 0.5615865 0.038056824 0.49795988 0.08067735 0.119613774 0.14084445
0.27389702 -0.5242099 0.26641288 0.37771958 -0.03305128 0.2498622 0.6908625 0.08577496
0.3211327 0.029996263 -0.07618531 0.2229813 -0.09643417 0.39162925 0.2168836 0.16897237
0.14341521 0.22158118 0.1742977 0.15896982 -0.3222854 0.6466964 0.6500766 0.1973007
0.0327733 -0.38574845 0.057046827 0.17356364 0.21779512 0.15484028 0.18592106 0.06256524
0.25104216 0.38150573 0.54673946 -0.100858845 0.1342904 -0.16415572 0.35743603 0.47727147
0.061121292 0.20664823 0.16811942 0.3061056 0.16390583 0.82328683 -0.12814051 0.18377553
0.21410558 -0.0071778814 0.2749527 0.07752652 0.11155916 0.19004616 0.6249258 0.6169715
0.011821314 0.038918488 -0.16574016 0.051675174 0.48254812 0.16408989 0.29806256 0.18235324
0.29261258 0.022131165 0.6306043 -0.012016755 0.18482244 0.23605043 0.5482094 0.4489813
0.1866585 0.34921125 0.16433713 0.7055274 0.41456175 0.1700077 0.049825195 0.47958356
0.11287929 0.51827663 0.5617713 0.098922744 0.3439012 0.35499898 0.4008094 0.2260849
0.66264033 0.38884383 0.1340271 0.18045445 0.53442806 0.053960357 -0.562073 0.28868958
-0.00011512977 0.123004586 0.33605677 0.251798 0.042030804 0.50796765 0.35451362 0.10963793
0.04541819 0.27945393 0.11841974 -0.0655523 0.3359754 -0.12530853 0.26575562 0.13525218
0.06963591 -0.19926472 -0.1530759 0.2187043 0.098988265 0.050401647 0.33435363 -0.13647547
0.49012443 -0.65540195 0.2097385 0.34392518 -0.22738458 0.16475853 0.06281169 -0.1949801
0.08106642 0.57116544 1.1441538 -0.012578512 0.12194533 0.5021218 -0.16706814 -0.534544
0.30264664 0.2732646 0.5549876 -0.10135873 0.13030599 0.5570703 0.34444356 0.16834477
0.45006016 0.052393768 0.08556042 0.39420813 -0.18797922 0.1043266 -0.0046586967 0.28304827
0.18959345 -0.20643193 0.6730062 0.13621645 -0.59359777 0.6027554 -0.028447837 0.6998282
0.6139023 0.23151752 0.07130837 0.48897532 0.52639073 -0.007413425 0.038182143 -0.008622078
00000000: 19c5 313d 9bc5 593d e23d 253f 0dc0 3b3e
00000010: 1ff0 733d 56f3 4cbe 6e69 ffbc 3307 fa3e
00000020: cbfd b3bd 9867 9e3e 2943 d93e 3f80 313e
00000030: bf8e 2f3d 2b33 86bc c6a2 9b3e 5ee0 3dbe
00000040: b668 c53d 6486 eb3e aeee dd3e 4906 ba3d
00000050: 63f3 023f 9077 283d fc6d 113f 51d5 8d3d
00000060: 2f97 9ebe f9e7 0bbe a80b eb3e cc5a 4abe
00000070: 9762 913e 2df1 423e bdad 103d 76db 9c3e
00000080: 1d54 d63d 7456 9b3d a180 743e 80f6 993e
00000090: 4ed5 4e3e 6bed 43bf 4e07 593e ae34 243f
000000a0: c0e5 39bd 15cc 903e 15f0 bd3e 8b18 9d3e
000000b0: 48d8 6e3e 79ea a53b 46d4 cc3e 412b 2c3d
000000c0: 3bdc 3d3e 25f3 2c3f 176b 153f 2056 843e
000000d0: 24ee f03e dd83 9d3e 67dc 4f3e 55c7 f03d
000000e0: fdce b7bd db82 1e3e c5a8 4b3e 273f 4dbd
000000f0: 35e6 de3e 9d9a 72be f543 893e 39f9 db3d
00000100: 882e 37bd 89d1 333e be23 10be f1ff d83e
00000110: 7853 21be 8847 7d3e 8754 b8bd bc12 453e
00000120: b54a 4a3d 0cce b9be 7804 a73e 92c9 acbe
00000130: 55ce 0f3f ac31 e13e 39be dd3e 269b 543e
00000140: 0262 2e3e cef1 383f 22c4 0f3f 79e1 1b3d
00000150: 99f4 fe3e 2b3a a53d 11f8 f43d 8739 103e
00000160: 3b3c 8c3e 9f32 06bf 4567 883e 7664 c13e
00000170: c760 07bd e0db 7f3e 5ddc 303f c8aa af3d
00000180: 816b a43e b9ba f53c 0b07 9cbd 3655 643e
00000190: 477f c5bd a183 c83e bc16 5e3e 1807 2d3e
000001a0: 70db 123e 2de6 623e 197b 323e fcc8 223e
000001b0: 9802 a5be e58d 253f 6c6b 263f 3209 4a3e
000001c0: 4c3d 063d d280 c5be efa9 693d abba 313e
000001d0: af05 5f3e 738e 1e3e 1762 3e3e 3422 803d
000001e0: 9988 803e b854 c33e 1ef7 0b3f 158f cebd
000001f0: 6c83 093e 7018 28be db01 b73e ed5c f43e
00000200: 525a 7a3d 989b 533e 7f27 2c3e e0b9 9c3e
00000210: eed6 273e edc2 523f 4437 03be a72f 3c3e
00000220: 7e3e 5b3e 6f34 ebbb 9ac6 8c3e 39c6 9e3d
00000230: 2179 e43d 769b 423e 23fb 1f3f d8f1 1d3f
00000240: 2fae 413c fe68 1f3d cab7 29be 59a9 533d
00000250: 8c10 f73e 2e07 283e a89b 983e cfba 3a3e
00000260: 51d1 953e 6b4c b53c 496f 213f ece1 44bc
00000270: 1842 3d3e 34b7 713e 7457 0c3f e1e0 e53e
00000280: 6823 3f3e d1cb b23e fe47 283e 729d 343f
00000290: 7041 d43e 8016 2e3e 8115 4c3d fa8b f53e
000002a0: 422d e73d c7ad 043f 3ed0 0f3f 0298 ca3d
000002b0: d113 b03e 6dc2 b53e e436 cd3e cd82 673e
000002c0: cca2 293f 8a16 c73e 663e 093e 0dc9 383e
000002d0: 47d0 083f 8905 5d3d 04e4 0fbf 1fcf 933e
000002e0: d371 f1b8 d4e9 fb3d a20f ac3e abeb 803e
000002f0: 7e28 2c3d 2b0a 023f cf82 b53e da89 e03d
00000300: 6d08 3a3d 9614 8f3e 0c86 f23d 4940 86bd
00000310: f804 ac3e e150 00be 1f11 883e 8c7f 0a3e
00000320: 469d 8e3d 0d0c 4cbe eebf 1cbe 05f4 5f3e
00000330: 5cba ca3d f571 4e3d 6630 ab3e 3ac0 0bbe
00000340: 97f1 fa3e 6cc8 27bf b0c5 563e f616 b03e
00000350: 81d7 68be 76b6 283e 6aa3 803d dda8 47be
00000360: 2706 a63d e637 123f a273 923f 1a16 4ebc
00000370: 79be f93d 0e8b 003f e913 2bbe e0d7 08bf
00000380: 80f4 9a3e 56e9 8b3e ab13 0e3f 2a95 cfbd
00000390: ef6e 053e 299c 0e3f e85a b03e 9262 2c3e
000003a0: 496e e63e d99a 563d 4d3a af3d a6d5 c93e
000003b0: a07d 40be 2fa9 d53d fba7 98bb b4eb 903e
000003c0: c924 423e e462 53be 224a 2c3f 537c 0b3e
000003d0: 06f6 17bf 2e4e 1a3f 700b e9bc f127 333f
000003e0: b328 1d3f ee12 6d3e 1f0a 923d f95a fa3e
000003f0: 8bc1 063f 51ec f2bb e164 1c3d 9e43 0dbc

bn1.weight f4 [400]
0.95721453 0.7083534 1.1881522 0.29467425 1.6408064 0.8124712 2.3659418 0.09058905
1.320764 0.37496272 0.6846205 1.4201598 1.4097042 1.2371322 0.36781007 0.9306226
1.7397133 0.33913988 0.3358914 0.94322693 0.51937175 0.79775083 1.3509141 0.8693989
1.0997121 1.0845643 1.2297384 1.1577466 0.28466052 1.0427473 0.9756889 1.3635775
1.6255732 2.1516566 0.90956783 0.33255348 1.579624 2.0214481 0.32903677 1.4378562
0.8393298 1.1632601 0.362684 0.59378666 0.2722626 0.91036797 0.38646656 0.67331785
0.29044226 1.7960205 1.4588947 0.33252367 0.5612453 0.30903915 0.37082016 1.1344292
1.3541015 0.7857842 2.3181636 0.98779565 0.3030786 1.6508173 0.34077904 1.1000106
0.58677334 0.7910871 1.1483759 0.912764 1.0381522 0.5672422 1.0102875 0.588849
1.0983845 0.96292454 0.33767954 1.1790811 0.42431602 0.3923675 1.5589993 0.663034
0.52958184 0.8237174 0.39409608 1.4737699 0.69508415 2.002151 0.65261734 0.9936975
0.72472316 0.96796983 0.7420426 0.8640327 1.7415411 1.5608821 2.5851002 0.9221801
0.6618264 1.1385689 0.6032296 0.75837064 0.64474833 0.3438189 0.3107677 0.33040768
0.26603383 0.3262353 0.90363955 0.6289327 0.99184006 0.38876137 2.3279033 0.47513002
0.54147655 0.9435449 1.3379472 1.0063267 0.32245037 1.1161133 1.1178148 0.6261448
0.7910087 0.3314508 0.5619572 1.3010968 1.0846494 1.0328201 0.74457806 0.16654496
0.7972622 1.4872092 0.7500003 0.20141414 1.4002547 0.4692585 0.7259066 0.63656807
0.57501304 1.2787575 0.7000127 0.7369027 0.42072967 1.2393842 0.8597635 0.84589666
0.58500344 0.6698876 0.99490637 0.7346737 0.5564352 1.3457913 1.3671122 0.59790015
0.32537103 0.80331606 1.6440425 1.4113927 0.30924776 0.657239 0.45575786 0.72987217
0.31094652 1.862695 1.167772 0.21458693 0.6067715 0.6944047 1.522391 0.9131456
0.9870587 0.6380269 0.6650718 1.1904668 0.32659295 0.3560082 0.2852864 1.0296093
1.9008693 1.1626238 0.79390883 1.3423351 1.6807203 0.7723058 1.7063179 0.36107463
1.6420778 1.5893662 0.34477258 0.6497379 1.4426945 0.9738582 0.3205132 0.94063884
0.6693764 0.29002503 0.6962188 0.91978437 1.1643511 1.2606388 0.3206324 1.4462276
0.847723 0.7478346 0.8878982 0.3504053 1.0661669 1.3408551 0.3336264 1.1705568
1.5176474 1.3948317 1.1751146 0.9928552 1.4329226 0.80667144 1.0861031 1.2502006
1.1347005 2.004121 2.3247135 1.281754 0.23351824 1.8684675 0.8028025 1.9581745
0.60965884 0.34498122 1.4329334 1.0930661 1.2760719 0.80886036 0.30933717 0.73643744
1.4357065 1.4367776 0.84794384 2.0712059 0.9716951 0.75898063 1.0081729 1.4078357
0.49146247 0.68319887 1.7986557 0.93749034 2.0228503 0.869116 0.791141 2.4568102
1.357544 0.37400904 1.0876454 1.2743554 0.63453233 1.4756176 1.7309117 1.2368033
00000000: 030c 753f a656 353f 5f15 983f 8bdf 963e
00000010: f205 d23f 1dfe 4f3f 976b 1740 c086 b93d
00000020: cb0e a93f 1dfb bf3e 4a43 2f3f ccc7 b53f
00000030: 3071 b43f 595a 9e3f 9a51 bc3e 483d 6e3f
00000040: edae de3f bea3 ad3e f5f9 ab3e 5277 713f
00000050: 8cf5 043f 6639 4c3f c1ea ac3f ed90 5e3f
00000060: 5ec3 8c3f 01d3 8a3f 1168 9d3f 0a31 943f
00000070: 06bf 913e be78 853f bfc6 793f b589 ae3f
00000080: c812 d03f beb4 0940 70d9 683f 7344 aa3e
00000090: 1f31 ca3f 685f 0140 8277 a83e ac0b b83f
000000a0: 51de 563f b5e5 943f b8b1 b93e 6702 183f
000000b0: 0166 8b3e e00d 693f f2de c53e 8f5e 2c3f
000000c0: d9b4 943e 00e4 e53f 10bd ba3f 8b40 aa3e
000000d0: c6ad 0f3f 613a 9e3e 24dc bd3e fa34 913f
000000e0: 3353 ad3f 2729 493f cb5c 1440 2de0 7c3f
000000f0: 1e2d 9b3e fb4d d33f 977a ae3e 26cd 8c3f
00000100: c736 163f af84 4a3f fbfd 923f e7aa 693f
00000110: 2ce2 843f c936 113f 1a51 813f cfbe 163f
00000120: dd97 8c3f 3982 763f 55e4 ac3e 21ec 963f
00000130: f33f d93e 65e4 c83e 4a8d c73f 99bc 293f
00000140: ad92 073f 25df 523f f6c6 c93e 7ea4 bc3f
00000150: 09f1 313f 3e23 0040 ee11 273f f662 7e3f
00000160: 7587 393f dfcc 773f 81f6 3d3f 3f31 5d3f
00000170: d2ea de3f fcca c73f 4872 2540 ff13 6c3f
00000180: 746d 293f a0bc 913f 416d 1a3f 9424 423f
00000190: 3a0e 253f 0809 b03e f21c 9f3e 322b a93e
000001a0: 9635 883e 5008 a73e ec54 673f bc01 213f
000001b0: 3be9 7d3f bb0b c73e 5efc 1440 3e44 f33e
000001c0: 359e 0a3f 298c 713f db41 ab3f 50cf 803f
000001d0: 3718 a53e cddc 8e3f 8e14 8f3f 074b 203f
000001e0: 8c7f 4a3f ebb3 a93e 6ddc 0f3f 578a a63f
000001f0: cbd5 8a3f 7333 843f ab9c 3e3f c38a 2a3e
00000200: 6019 4c3f df5c be3f 0500 403f 823f 4e3e
00000210: 8c3b b33f a642 f03e 04d5 393f 20f6 223f
00000220: 0e34 133f 53ae a33f 0834 333f a8a5 3c3f
00000230: e169 d73e 24a4 9e3f 7619 5c3f af8c 583f
00000240: c9c2 153f c17d 2b3f 2fb2 7e3f 9313 3c3f
00000250: 8a72 0e3f e442 ac3f 88fd ae3f fc0f 193f
00000260: 0897 a63e 1fa6 4d3f fc6f d23f 84a8 b43f
00000270: b955 9e3e d140 283f 1859 e93e e7d8 3a3f
00000280: 6234 9f3e ca6c ee3f 8e79 953f adbc 5b3e
00000290: 6155 1b3f 82c4 313f b5dd c23f e9c3 693f
000002a0: e1af 7c3f bb55 233f 2542 2a3f 3761 983f
000002b0: 3137 a73e b546 b63e 0f11 923e 3dca 833f
000002c0: af4f f33f dbd0 943f 9c3d 4b3f a3d1 ab3f
000002d0: d821 d73f d5b5 453f a068 da3f c6de b83e
000002e0: 9b2f d23f 5a70 cb3f 0886 b03e 3955 263f
000002f0: 37aa b83f c54e 793f 4e1a a43e b5cd 703f
00000300: 405c 2b3f 297e 943e 653b 323f fd76 6b3f
00000310: 7509 953f 9d5c a13f ee29 a43e fc1d b93f
00000320: 6004 593f 1772 3f3f 4c4d 633f 5368 b33e
00000330: 2878 883f 24a1 ab3f 14d1 aa3e ced4 953f
00000340: 4542 c23f d889 b23f 286a 963f c22b 7e3f
00000350: 026a b73f 0582 4e3f 6d05 8b3f 9306 a03f
00000360: de3d 913f 8543 0040 1bc8 1440 8410 a43f
00000370: 681f 6f3e f129 ef3f 7784 4d3f 76a5 fa3f
00000380: 9a12 1c3f 61a1 b03e 5d6a b73f 97e9 8b3f
00000390: 5356 a33f 7911 4f3f 7161 9e3e 2a87 3c3f
000003a0: 3bc5 b73f 54e8 b73f d912 593f a38e 0440
000003b0: 03c1 783f 8e4c 423f cf0b 813f f633 b43f
000003c0: f8a0 fb3e 1fe6 2e3f 5a3a e63f 5eff 6f3f
000003d0: 6176 0140 637e 5e3f 3788 4a3f 613c 1d40
000003e0: 00c4 ad3f 1d7e bf3e f737 8b3f 141e a33f
000003f0: b670 223f 0ae1 bc3f 848e dd3f 924f 9e3f

bn1.bias f4 [400]
-0.4463586 -0.6924709 0.037371602 -0.60359424 -0.2649039 -0.716226 -0.24022982 -0.29258808
-0.21629347 -0.5996007 -0.43043366 -0.23213984 0.113040335 -0.21561822 -0.7041486 -0.20617981
0.4112901 -0.58308995 -0.6275556 -0.29877028 -0.6371521 -0.5939502 0.24475622 -0.068025276
-0.06440363 -0.5635164 -0.46416423 -0.82712764 -0.6617691 0.1534256 -0.9269878 0.24378419
-0.41994905 0.078085504 0.109325565 -0.6638553 -0.19363105 -0.32507074 -0.58744115 0.4013635
-0.78613865 -0.3662814 -0.68060446 -0.71059704 -0.6373905 0.16144104 -0.64013237 -0.15832952
-0.67154443 0.32452974 0.39060995 -0.53230613 -0.6073089 -0.6159326 -0.5320081 -0.45553124
-0.55254894 -0.40680355 -0.069350615 -0.626574 -0.5691423 -0.8130924 -0.6435299 -0.5934377
-0.1825505 -0.73693687 -0.5076493 -0.69298106 -0.6986288 -0.69004416 -0.006754532 -0.739149
-0.36013955 -0.5269029 -0.7036121 -0.1838263 -0.65670264 -0.73222274 0.55095714 -0.57987034
-0.57292616 -0.7404714 -0.717679 0.34173396 -0.77005184 -0.15603843 -0.9468497 -0.2619413
-0.840063 -0.3486473 -0.68005234 -0.7801596 0.2936308 0.17664248 0.35405782 -0.43009368
-0.69008696 0.09342492 -0.84209627 0.006144215 -0.63750553 -0.43626693 -0.60121 -0.6450796
-0.66421294 -0.52533233 -0.5663198 -0.079620145 -0.5210916 -0.64251655 0.46236736 -0.3531503
0.16566716 -0.47630402 -0.45255888 0.16523589 -0.6438279 0.10557297 0.2181461 -0.85450655
-0.23232761 -0.6155749 -0.5710657 -0.35901445 -0.3952591 -0.7010761 -0.66238874 -0.33100376
-0.17389405 0.33141917 -0.7393867 -0.33592123 0.31005785 -0.6692794 -0.75471747 -0.4606502
-0.6676758 0.17122088 -0.70735985 -0.8775435 -0.06877315 0.15883777 -0.38620225 -0.08092412
-0.42851108 -0.8347253 -0.6084104 -0.6657185 -0.557989 0.35134172 -0.09185534 -0.7452481
-0.4857394 0.084861256 0.15290664 -0.22560889 -0.5782023 -0.85638076 -0.59387857 -0.4605026
-0.6185552 0.18289767 0.24582477 -0.45420817 -0.64832807 -0.87490106 -0.386072 -0.75143737
-0.30393535 -0.57602364 -0.62751114 -0.7701128 -0.6021041 -0.6474042 -0.5450617 -0.0070707086
-0.31315106 0.17092672 -0.11957098 -0.56733865 0.1414052 -0.9152782 -0.30485606 -0.6305359
0.47028702 0.45862734 -0.72608334 0.25602844 -0.38489416 0.16853434 -0.7804435 -0.6793834
-0.24449445 -0.5869643 0.11056792 -0.40572459 -0.40332255 0.06093714 -0.69032013 -0.3683856
-0.9565087 -0.5146508 -0.41755033 -0.6395363 0.1364847 -0.54191816 -0.44920132 -0.74626416
0.48302776 -0.3885606 -0.13372801 -0.66532606 -0.021788133 -0.6309102 0.09277289 -0.40488645
-0.59769005 0.29513943 0.6525269 0.10629531 -0.04082116 0.56480974 -0.6302659 -0.402564
-0.6692922 -0.5858914 0.40336186 -0.3471489 -0.68364847 -0.658413 -0.6118794 -0.41964826
0.32078838 -0.50849825 -0.53823256 -0.2874562 -0.855534 -0.8804487 -0.5808384 0.25856063
-0.16469854 -0.5868691 0.42427614 -0.7152769 -0.4173638 -0.7114288 -0.5762685 0.3828848
-0.3336391 -0.7717411 -0.35571322 0.49417204 -0.91150105 -0.377729 -0.2332788 -0.103256434
00000000: 1d89 e4be c645 31bf f712 193d 2785 1abf
00000010: 7ca1 87be 965a 37bf cefe 75be 1bce 95be
00000020: 097c 5dbe 6e7f 19bf cd61 dcbe 11b6 6dbe
00000030: b181 e73d 06cb 5cbe 1543 34bf cd20 53be
00000040: 9e94 d23e 6245 15bf 7ca7 20bf 6bf8 98be
00000050: 661c 23bf 1f0d 18bf 60a1 7a3e d650 8bbd
00000060: 0de6 83bd 9c42 10bf efa6 edbe a3be 53bf
00000070: b369 29bf 9a1b 1d3e 134f 6dbf 90a2 793e
00000080: 9003 d7be 4beb 9f3d 15e6 df3d 6cf2 29bf
00000090: 3847 46be ac6f a6be 8b62 16bf 847f cd3e
000000a0: 6240 49bf 3c89 bbbe 183c 2ebf b0e9 35bf
000000b0: 062c 23bf cd50 253e b7df 23bf 2221 22be
000000c0: 56ea 2bbf c328 a63e 07fe c73e 3745 08bf
000000d0: 9978 1bbf c2ad 1dbf af31 08bf 643b e9be
000000e0: d973 0dbf 8e48 d0be b207 8ebd 2767 20bf
000000f0: 4fb3 11bf d326 50bf 60be 24bf 88eb 17bf
00000100: 85ee 3abe e5a7 3cbf 4ef5 01bf 3567 31bf
00000110: 56d9 32bf bca6 30bf 1f55 ddbb de38 3dbf
00000120: 3664 b8be 1ce3 06bf ec1f 34bf f63c 3cbe
00000130: aa1d 28bf f372 3bbf 870b 0d3f 6272 14bf
00000140: 4aab 12bf 898f 3dbf d0b9 37bf c1f7 ae3e
00000150: 1e22 45bf 8ac8 1fbe be64 72bf 2c1d 86be
00000160: 5e0e 57bf e681 b2be e917 2ebf 8ab8 47bf
00000170: c756 963e c4e1 343e 1147 b53e 3d35 dcbe
00000180: 8aa9 30bf 9155 bf3d 9f93 57bf 6955 c93b
00000190: 9033 23bf 615e dfbe e6e8 19bf f023 25bf
000001a0: dc09 2abf 2e7c 06bf 56fa 10bf e30f a3bd
000001b0: 4266 05bf f77b 24bf 6abb ec3e 1ed0 b4be
000001c0: a7a4 293e 1fde f3be ccb5 e7be 9933 293e
000001d0: e8d1 24bf a436 d83d b161 5f3e f1c0 5abf
000001e0: 4ae7 6dbe 5196 1dbf 5d31 12bf bed0 b7be
000001f0: 675f cabe b979 33bf 4f92 29bf 5379 a9be
00000200: 4811 32be c6af a93e 7248 3dbf defd abbe
00000210: e7bf 9e3e e555 2bbf 2a35 41bf 58da ebbe
00000220: cdec 2abf 8754 2f3e 8915 35bf b1a6 60bf
00000230: f0d8 8cbd 5ea6 223e 4dbc c5be 8cbb a5bd
00000240: ce65 dbbe 8fb0 55bf c9c0 1bbf 876c 2abf
00000250: 5ed8 0ebf 10e3 b33e a71e bcbd 94c8 3ebf
00000260: d6b2 f8be bdcb ad3d 8f93 1c3e 0406 67be
00000270: 1105 14bf c53b 5bbf 6d08 18bf ffc6 ebbe
00000280: a259 1ebf 8749 3b3e 7db9 7b3e f98d e8be
00000290: d4f8 25bf 84f9 5fbf 3bab c5be 335e 40bf
000002a0: 6a9d 9bbe 4976 13bf 92a4 20bf 1d26 45bf
000002b0: 7f23 1abf 48bc 25bf 2a89 0bbf 67b1 e7bb
000002c0: 5655 a0be 6a07 2f3e a1e1 f4bd 1b3d 11bf
000002d0: 86cc 103e ac4f 6abf 1816 9cbe cd6a 21bf
000002e0: 76c9 f03e 34d1 ea3e 99e0 39bf 2916 833e
000002f0: d910 c5be 4494 2c3e 25cb 47bf 12ec 2dbf
00000300: c15c 7abe 4b43 16bf 6f71 e23d 22bb cfbe
00000310: 4b80 cebe 3999 793d d2b8 30bf 0a9d bcbe
00000320: c1dd 74bf 28c0 03bf 28c9 d5be a7b8 23bf
00000330: a5c2 0b3e 26bb 0abf b7fd e5be 2b0b 3fbf
00000340: 6a4f f73e 6af1 c6be ffef 08be cf52 2abf
00000350: 077d b2bc 5583 21bf b7ff bd3d 474d cfbe
00000360: 3702 19bf 841c 973e 010c 273f 5bb1 d93d
00000370: 1734 27bd 5f97 103f 1b59 21bf de1c cebe
00000380: bc56 2bbf fbfc 15bf 7285 ce3e 80bd b1be
00000390: 9603 2fbf c18d 28bf 21a4 1cbf 23dc d6be
000003a0: 603e a43e f12c 02bf 9cc9 09bf 762d 93be
000003b0: 4704 5bbf 1665 61bf d3b1 14bf 0f62 843e
000003c0: bca6 28be 0e3d 16bf b93a d93e 631c 37bf
000003d0: b5b0 d5be 3320 36bf 5586 13bf 7a09 c43e
000003e0: bed2 aabe d390 45bf 0b20 b6be 1e04 fd3e
000003f0: 2258 69bf b265 c1be a3e0 6ebe 1c78 d3bd

layer2.weight f4 [300, 400]
-0.45951068 -0.02714501 -0.9705404 0.014682024 0.56434196 0.889451 -1.112416 -0.13109465
0.23284897 -0.083250135 -0.24503963 -0.3541247 0.54612523 -0.5994274 -0.3568725 0.053644747
-0.31313294 0.30450916 0.16156791 -0.22369713 -0.2077472 -0.16556546 -0.4247365 -0.28135425
0.34091914 0.3975845 0.80390626 -0.24840875 0.079539694 -0.604534 0.91973627 -0.8660035
0.43594652 0.5868383 -0.51234967 0.14176401 -0.2605138 0.9431044 -0.16155303 0.20865272
-0.15890963 -0.36789197 -0.017046215 -0.37352377 0.08094042 -0.18407175 -0.49432257 -0.91406214
-0.001268536 0.79252857 -0.682053 0.08947145 -0.17343491 0.117784016 -0.015734896 -0.73686683
0.6232329 -1.0557452 -1.9115977 0.3736198 -0.07898834 0.32833883 -0.07892875 -0.25454134
0.58946544 0.70580333 0.44065994 0.27781582 -0.16533503 -0.07549697 -0.5990332 0.46352243
0.061766554 0.45066035 -0.1469944 0.028022237 -0.16031621 -0.1989256 0.49632663 -0.38256434
-0.5461101 -0.43905795 -0.067179024 0.02534072 0.39443704 -1.4105316 -0.7452492 0.12284275
0.3324059 0.1017102 0.2941825 -0.16202933 -0.21627752 0.40182275 1.0137799 -0.4761113
0.49600512 0.5220156 0.48953542 0.26283598 0.09181049 -0.09391206 -0.1812973 0.0050909077
0.07498734 -0.06288743 0.1635111 -0.40288657 0.61794716 -0.20493086 0.83587676 -0.084551625
-0.0106987525 -0.09437199 0.14373437 -0.8406728 0.06270117 -0.63073456 -0.6878502 0.28647357
-0.11217219 0.054868646 0.10423045 0.44557983 -0.3130408 0.4598707 0.09594846 0.4723878
0.15083002 -0.33877835 -0.06933893 -0.08549278 -1.590482 -0.5426179 0.03414366 -0.6249264
0.6007871 -0.7649431 0.27949974 1.0388458 -0.5632861 -0.83926105 -0.5976485 -0.90368515
-0.49941453 1.0377486 -0.58334684 -0.058292646 -0.034101985 0.019366285 0.16781643 0.17031343
0.07645512 -0.5655232 0.92856663 0.062546 -0.05845987 0.5503665 -0.04564843 -0.74669814
-0.04071981 -0.750253 -1.0990407 -0.8028551 1.161384 0.17679916 0.46603882 0.91600746
0.08308177 -0.5324947 0.6952001 -1.241187 -0.004398926 0.035601195 -0.013340902 -0.63098365
0.9223038 -0.67789966 -0.5326269 0.96568775 0.80248374 0.17595305 0.47879273 0.17909192
-0.46914282 -0.12560754 -0.19834447 -0.35082862 0.61630875 0.024761822 -0.081655696 0.07096973
-0.8006959 0.01906535 -0.4774421 -0.2758545 0.4493701 -0.43576998 0.0015608586 -0.7454879
1.6143205 0.51974356 -0.6647753 0.20566101 0.5939139 0.15765275 -0.15672497 0.53701997
0.6213849 0.55510664 -0.016910985 0.42581052 0.8686255 0.60758364 -1.3529472 -0.36239058
0.11395737 0.020943316 -0.90759194 -0.7698427 -0.119329095 0.41037777 0.5978301 1.3007169
-1.0632473 -0.18199767 0.25768098 -0.63448226 -1.8844856 0.041946273 0.08401756 -0.76846313
-1.3083705 0.79572505 -0.8452731 0.39930862 -0.3415154 1.4783233 0.8230314 -0.9727766
-0.33100393 -0.067517325 -0.4041781 0.18461211 1.4657785 1.1823412 -0.23324808 0.9177922
-0.083879605 -0.12647523 -0.55052596 -0.65278184 0.21243837 -0.044000227 0.27164352 0.29308668
00000000: fc44 ebbe 365f debc 5675 78bf df8c 703c
00000010: b778 103f 10b3 633f a663 8ebf ad3d 06be
00000020: f66f 6e3e 0c7f aabd abeb 7abe d54f b5be
00000030: ddce 0b3f 1374 19bf feb7 b6be 98ba 5b3d
00000040: f652 a0be a0e8 9b3e 0f72 253e dc10 65be
00000050: afbb 54be fe89 29be 1077 d9be aa0d 90be
00000060: f48c ae3e 3290 cb3e cdcc 4d3f dd5e 7ebe
00000070: b5e5 a23d bdc2 1abf d673 6b3f 68b2 5dbf
00000080: 6234 df3e 093b 163f 5929 03bf 962a 113e
00000090: 1162 85be 4a6f 713f 286e 25be 0fa9 553e
000000a0: 35b9 22be 565c bcbe 81a4 8bbc 823e bfbe
000000b0: 17c4 a53d 4e7d 3cbe d917 fdbe faff 69bf
000000c0: 0145 a6ba 27e3 4a3f 079b 2ebf cf3c b73d
000000d0: ec98 31be bf38 f13d 78e6 80bc 4ea3 3cbf
000000e0: 318c 1f3f a922 87bf 3caf f4bf 184b bf3e
000000f0: a4c4 a1bd 071c a83e 65a5 a1bd 3e53 82be
00000100: 35e7 163f 87af 343f 2e9e e13e e03d 8e3e
00000110: 964d 29be 289e 9abd 3d5a 19bf d052 ed3e
00000120: edfe 7c3d f4bc e63e b385 16be e48e e53c
00000130: ef29 24be 27b3 4bbe 861e fe3e 79df c3be
00000140: dfcd 0bbf 34cc e0be 2895 89bd 5797 cf3c
00000150: a7f3 c93e 4d8c b4bf a7c8 3ebf fb94 fb3d
00000160: 1b31 aa3e 704d d03d 179f 963e 04eb 25be
00000170: db77 5dbe b6bb cd3e 8ac3 813f dcc4 f3be
00000180: 62f4 fd3e d0a2 053f 63a4 fa3e 7092 863e
00000190: 2307 bc3d f754 c0bd 00a6 39be a1d1 a63b
000001a0: f692 993d 20cb 80bd 746f 273e 2647 cebe
000001b0: c931 1e3f 65d9 51be 05fc 553f 6729 adbd
000001c0: d249 2fbc 1a46 c1bd 1a2f 133e 5536 57bf
000001d0: 7969 803d d277 21bf f316 30bf aaac 923e
000001e0: 88ba e5bd f2bd 603d c676 d53d 0a23 e43e
000001f0: e246 a0be 2c74 eb3e a080 c43d d0dc f13e
00000200: 2f73 1a3e 5b74 adbe 9201 8ebd d716 afbd
00000210: ea94 cbbf 02e9 0abf 39da 0b3d 2dfb 1fbf
00000220: 2fcd 193f 50d3 43bf 971a 8f3e e6f8 843f
00000230: 8533 10bf d0d9 56bf 7eff 18bf e957 67bf
00000240: 43b3 ffbe f2d4 843f 3856 15bf 45c4 6ebd
00000250: 86ae 0bbd 0ba6 9e3c 12d8 2b3e a566 2e3e
00000260: 8194 9c3d 21c6 10bf 8bb6 6d3f 1e18 803d
00000270: 9e73 6fbd d2e4 0c3f d9f9 3abd 9c27 3fbf
00000280: d1c9 26bd 9510 40bf 5ead 8cbf e987 4dbf
00000290: 3ba8 943f d70a 353e a49c ee3e 777f 6a3f
000002a0: c626 aa3d 9351 08bf a2f8 313f 37df 9ebf
000002b0: de24 90bb 8fd2 113d cc93 5abc 2588 21bf
000002c0: 1a1c 6c3f d58a 2dbf 3d5a 08bf 5037 773f
000002d0: 936f 4d3f 092d 343e 5224 f53e df63 373e
000002e0: 7d33 f0be 439f 00be d01a 4bbe cf9f b3be
000002f0: 69c6 1d3f 4ed9 ca3c 1a3b a7bd 9458 913d
00000300: 68fa 4cbf f02e 9c3c 4a73 f4be cd3c 8dbe
00000310: d613 e63e 3e1d dfbe b995 cc3a 4cd8 3ebf
00000320: 0ea2 ce3f ea0d 053f b72e 2abf cd98 523e
00000330: be0a 183f b96f 213e 837c 20be 247a 093f
00000340: 1513 1f3f 781b 0e3f e888 8abc d603 da3e
00000350: 3e5e 5e3f 9a8a 1b3f 602d adbf 428b b9be
00000360: 7b62 e93d 5191 ab3c f257 68bf 6914 45bf
00000370: d062 f4bd 091d d23e 650b 193f e47d a63f
00000380: 7d18 88bf 995d 3abe c3ee 833e 6e6d 22bf
00000390: d336 f1bf dbcf 2b3d 6611 ac3d 00ba 44bf
000003a0: af78 a7bf a3b4 4b3f d163 58bf 2e72 cc3e
000003b0: 1bdb aebe b339 bd3f 30b2 523f e307 79bf
000003c0: 5979 a9be 8646 8abd 6ff0 cebe f50a 3d3e
000003d0: a19e bb3f f556 973f 96d8 6ebe 6ef4 6a3f
000003e0: 12c9 abbd b982 01be 45ef 0cbf b61c 27bf
000003f0: 7289 593e 9539 34bd dc14 8b3e 750f 963e

layer2.bias f4 [300]
0.18243606 0.29517552 0.6043475 -0.32411253 0.13122348 0.1793699 -0.08370621 0.28928167
0.1387338 0.2433388 0.14909478 -0.30475503 0.1727291 0.1564546 -0.37212262 0.27655697
-0.19421624 -0.11604934 -0.51764035 0.28595993 0.4475645 -0.412661 0.24971317 0.5111812
0.12648958 0.47615382 0.07140965 0.046682157 -0.3165437 0.49759912 -0.10029955 -0.4756373
-0.34126917 0.49700996 -0.17440407 -0.6360899 -0.18736503 -0.26788193 0.34348625 -0.35230958
0.46752626 0.042760815 -0.26832142 -0.21739474 0.41165778 0.40084907 -0.2127822 0.5412297
0.1949038 0.26021725 -0.02589921 0.14849167 -0.41307604 0.06717964 0.62915254 0.08625309
0.26408908 0.17326927 0.5593788 0.28670377 0.23660131 0.23329012 0.115927696 -0.29485258
-0.14564574 0.2617263 0.3780259 -0.27285212 0.49845105 0.08387552 0.24522088 -0.24498545
0.13157238 0.09292876 0.22502588 0.1794364 -0.43678883 0.31244916 0.23718365 -0.35200968
0.02321295 -0.018232454 0.08986251 0.11098658 0.13834935 -0.088590324 0.31209862 -0.017736621
0.117428824 0.45658302 -0.40996072 0.16412984 -0.044701982 -0.1604098 -0.38864666 -0.24350038
-0.107856214 -0.22770643 -0.18810007 0.31540465 0.3462111 0.19512324 0.10889501 0.22267771
-0.15334308 0.07768125 0.21751915 0.2442137 -0.16032013 -0.052843608 0.26376107 0.12071512
-0.47944888 0.15592532 -0.15314001 -0.2928705 -0.28232962 -0.1320233 0.13284147 -0.31543875
0.47165465 0.55200076 -0.54171365 0.11311617 0.21807376 0.40788704 0.084114626 -0.033057027
0.061263584 -0.1576293 -0.3561155 -0.20177135 0.6377828 0.46079496 0.20893158 0.032919507
0.33206034 0.11291214 0.15136835 0.47995642 -0.40889928 -0.039307646 0.0007635494 0.3032324
0.08242871 0.35574278 -0.17646901 0.10581843 0.13377768 -0.618986 0.2797057 0.27909008
0.17066173 -0.17773198 0.15251435 -0.31526408 0.25168726 0.36009428 0.21436878 0.111972846
-0.37748852 0.030902868 -0.1401839 0.116432294 0.23744233 0.0007085496 -0.051770497 0.037070777
0.15250173 0.1179056 -0.15229614 -0.25370714 -0.3182217 0.45103562 0.349277 0.27798507
0.36471736 0.4875106 0.11909614 -0.26423913 -0.4105768 0.51890695 0.41947147 0.15220928
-0.15093441 0.3757651 -0.30735278 0.21942954 -0.22970803 -0.31754875 -0.3791332 0.37458754
-0.18002027 0.24314335 -0.1359579 -0.3441564 -0.22812946 -0.3799156 0.14632496 0.15505911
-0.21182096 -0.28169546 -0.24574153 -0.10206342 0.28370228 0.017787127 -0.15333447 -0.27669647
0.4047801 -0.031840496 0.05090365 -0.16376477 -0.29058808 0.5608689 0.11124601 -0.01829238
0.13652092 0.13385332 -0.14425941 -0.32603717 0.22347406 0.5213905 -0.3411248 0.18430059
-0.14701302 -0.17158774 0.16596356 0.008514586 0.19312194 -0.30338886 -0.28968585 -0.2759383
0.08527613 -0.008321024 0.27101693 0.28202567 0.28044984 0.11746078 -0.10769321 0.6122052
0.25145006 0.3732246 0.42748827 -0.2712489 0.2877153 0.13076992 -0.18385302 -0.28754047
-0.51338637 -0.34906477 0.41914257 0.06434529 0.26942313 0.17672062 0.25011292 0.6114101
00000000: 85d0 3a3e 3f21 973e 85b6 1a3f 14f2 a5be
00000010: 735f 063e beac 373e 296e abbd ba1c 943e
00000020: 3c10 0e3e ce2d 793e 4dac 183e da08 9cbe
00000030: e6df 303e a235 203e db86 bebe e098 8d3e
00000040: 9fe0 46be 47ab edbd 1484 04bf 5769 923e
00000050: 2d27 e53e 4d48 d3be cfb4 7f3e c5dc 023f
00000060: 7c86 013e 6fca f33e 393f 923d ca35 3f3d
00000070: 0412 a2be 50c5 fe3e da69 cdbd bb86 f3be
00000080: d5ba aebe 1778 fe3e fb96 32be cad6 22bf
00000090: 9edc 3fbe d227 89be 6edd af3e ec61 b4be
000000a0: 9a5f ef3e f725 2f3d 6d61 89be ba9c 5ebe
000000b0: cfc4 d23e 173c cd3e 94e3 59be 088e 0a3f
000000c0: dd94 473e 323b 853e 942a d4bc 330e 183e
000000d0: b47e d3be 7b95 893d 2410 213f 76a5 b03d
000000e0: af36 873e 806d 313e 7333 0f3f d6ca 923e
000000f0: 9d47 723e 9be3 6e3e 806b ed3d ebf6 96be
00000100: 2824 15be fd00 863e 9c8c c13e 46b3 8bbe
00000110: fa34 ff3e eec6 ab3d 2f1b 7b3e 77dd 7abe
00000120: e9ba 063e 6f51 be3d 2f6d 663e 2dbe 373e
00000130: c9a2 dfbe 56f9 9f3e 45e0 723e 9d3a b4be
00000140: 1629 be3c 3a5c 95bc d609 b83d ef4c e33d
00000150: 74ab 0d3e d86e b5bd 64cb 9f3e 644c 91bc
00000160: 867e f03d 40c5 e93e 5fe6 d1be a711 283e
00000170: 6d19 37bd 7742 24be b2fc c6be 2a58 79be
00000180: b8e3 dcbd e02b 69be 4e9d 40be b87c a13e
00000190: 9542 b13e 63ce 473e 5904 df3d a005 643e
000001a0: f805 1dbe 5917 9f3d 57bd 5e3e 2813 7a3e
000001b0: f62a 24be 8a72 58bd b10b 873e 7d39 f73d
000001c0: 537a f5be e3aa 1f3e bcd0 1cbe 1ff3 95be
000001d0: 828d 90be 1e31 07be 9807 083e 3081 a1be
000001e0: b87c f13e ec4f 0d3f bfad 0abf 73a9 e73d
000001f0: ba4e 5f3e 92d6 d03e 4a44 ac3d ce66 07bd
00000200: 86ef 7a3d 9369 21be c554 b6be 269d 4ebe
00000210: bc45 233f 51ed eb3e 29f2 553e 9bd6 063d
00000220: d003 aa3e 7b3e e73d 4e00 1b3e d9bc f53e
00000230: 3f5b d1be 0e01 21bd ef28 483a 4741 9b3e
00000240: 62d0 a83d eb23 b63e 4bb4 34be 55b7 d83d
00000250: 04fd 083e de75 1ebf 9635 8f3e e5e4 8e3e
00000260: f3c1 2e3e 5fff 35be b92c 1c3e 4b6a a1be
00000270: 27dd 803e 475e b83e 7d83 5b3e 0552 e53d
00000280: 2d46 c1be 0328 fd3c 5e8c 0fbe 0e74 ee3d
00000290: 1524 733e f5bd 393a 4d0d 54bd 87d7 173d
000002a0: 6a29 1c3e 7e78 f13d 85f3 1bbe e7e5 81be
000002b0: f4ed a2be 24ee e63e 6fd4 b23e 0f54 8e3e
000002c0: 3cbc ba3e fd9a f93e ade8 f33d 5a4a 87be
000002d0: 1f37 d2be 16d7 043f f7c4 d63e c0dc 1b3e
000002e0: 8d8e 1abe 4864 c03e 585d 9dbe 23b2 603e
000002f0: 9538 6bbe c095 a2be bf1d c2be f0c9 bf3e
00000300: 3c57 38be 92fa 783e 8c38 0bbe 4535 b0be
00000310: c59a 69be 4c84 c2be 36d6 153e d1c7 1e3e
00000320: 98e7 58be 633a 90be aba3 7bbe a006 d1bd
00000330: 6d41 913e 4fb6 913c b603 1dbe 29ab 8dbe
00000340: 563f cf3e 2e6b 02bd 5880 503d f4b1 27be
00000350: f6c7 94be 1b95 0f3f f3d4 e33d e7d9 95bc
00000360: 24cc 0b3e d810 093e bdb8 13be 58ee a6be
00000370: 62d6 643e d979 053f e9a7 aebe 4bb9 3c3e
00000380: 958a 16be b2b4 2fbe 5af2 293e c380 0b3c
00000390: c2c1 453e c955 9bbe b451 94be c947 8dbe
000003a0: 40a5 ae3d e754 08bc bbc2 8a3e ab65 903e
000003b0: 1f97 8f3e 478f f03d 428e dcbd 7bb9 1c3f
000003c0: 10be 803e 4b17 bf3e bedf da3e 23e1 8abe
000003d0: 6b4f 933e 8de8 053e f743 3cbe 8138 93be
000003e0: 4a6d 03bf 9eb8 b2be db99 d63e 77c7 833d
000003f0: d4f1 893e 40f6 343e cd0e 803e 5f85 1c3f

bn2.weight f4 [300]
1.0806549 1.0749698 0.37436667 2.2688026 0.30093282 1.6209004 1.7768315 0.31148297
0.2722626 1.8422723 1.4954878 1.5853525 1.4017597 1.9898709 1.5493017 1.4607768
1.040566 1.9562976 2.3060684 0.88703483 0.798883 1.695271 0.27819335 0.22013023
1.0376706 0.3620113 1.4919814 1.3579478 2.1899705 0.52548134 1.1853307 1.9742843
2.2241607 0.64770037 1.2448901 2.8699093 1.3657016 1.4909621 0.50048244 1.2236831
0.9938636 2.9493322 1.840208 1.4576263 1.3434591 1.4529277 1.2183931 0.48484558
0.24088782 0.58607316 1.8323469 0.39096677 2.43011 0.27840197 0.591022 0.32388088
1.3215885 1.3313259 0.45438695 1.3966049 1.3897008 1.1673805 0.21110001 1.5884606
2.4262822 1.2856374 1.0188519 1.2365128 0.44255528 1.3787555 1.482262 1.3907565
1.0901146 0.31163198 1.3819873 1.4862565 2.6040683 1.5754528 1.4205904 2.1815534
0.49601743 2.8655636 1.5404639 0.3480211 0.25980508 1.0354444 1.0921019 2.7154999
1.4940233 1.0287303 2.6972623 0.88402605 1.497262 1.5969075 1.40356 1.8017683
0.46251398 0.8955569 0.7718814 0.2902458 1.647961 1.4273348 1.0013175 0.32110924
1.2659968 1.3114915 0.26531857 1.3718194 1.2639961 1.3377503 1.5531379 0.6996082
1.8894694 0.24537313 0.93399775 1.1393213 1.3889252 0.25393394 0.24660994 1.3284642
0.25074506 0.2782423 2.9810677 0.27849138 1.1646968 1.494518 0.88035935 1.6514452
0.29231983 1.0935978 1.3920083 2.2337494 0.21972789 0.5825017 1.6895332 0.28024974
1.8194625 1.2326711 0.35338557 0.70609874 0.6114043 1.7908267 1.1793813 0.29825056
0.38646656 1.1396364 1.3596822 0.94572014 0.33788815 3.359771 1.2258556 1.2634023
0.24351045 1.4372789 0.27968347 2.7165337 1.308603 1.638586 0.25166893 0.39678708
1.744672 0.9884221 1.1410099 0.2589408 0.25396374 0.38691363 1.1204352 1.9314595
0.29488286 1.6015494 1.9373194 2.3923156 1.3064877 0.76537955 0.9498411 1.1910269
1.5031223 0.3524915 0.32906657 1.2472892 1.8574877 0.5202437 1.5044225 2.263854
3.22528 1.4640727 1.482519 0.20181647 1.5031862 2.455138 2.8216162 0.6486163
3.0840137 3.5956855 1.1290421 2.731512 1.4939773 2.8125465 0.28901172 1.2704992
1.4897323 1.3820988 1.5120924 1.5338558 1.4764369 1.3819522 1.800705 2.142762
0.21366304 4.3379693 1.1554163 1.6949917 1.5052027 0.3791947 1.3536203 1.6069114
0.8076489 0.24970941 1.1450875 3.0133455 0.7134985 0.65606534 2.032134 3.7951372
2.4204173 0.29002503 1.4220724 1.6268038 1.293978 2.7240043 2.4611635 2.232179
1.6979411 0.55307585 1.424593 1.3930191 1.64024 1.5017452 1.3099649 0.2995321
0.43266076 0.935327 0.7914478 1.5628352 1.4130225 0.24926238 2.3724263 1.2571791
2.8271768 2.201947 1.4569079 0.38203207 1.8394893 0.2556923 0.9190609 0.421753
00000000: e652 8a3f 9c98 893f fdac bf3e 1034 1140
00000010: de13 9a3e aa79 cf3f 376f e33f b27a 9f3e
00000020: 0166 8b3e 94cf eb3f 256c bf3f d5ec ca3f
00000030: dd6c b33f 17b4 fe3f 854f c63f bcfa ba3f
00000040: 4431 853f f667 fa3f a096 1340 b714 633f
00000050: 9983 4c3f a4fe d83f 5c6f 8e3e d269 613e
00000060: 64d2 843f 8c59 b93e 3ff9 be3f 3cd1 ad3f
00000070: 7a28 0c40 f285 063f ebb8 973f 59b5 fc3f
00000080: a658 0e40 b1cf 253f 8f58 9f3f 98ac 3740
00000090: 4fcf ae3f d9d7 be3f 9e1f 003f a6a1 9c3f
000000a0: d86d 7e3f dcc1 3c40 f08b eb3f 8093 ba3f
000000b0: 78f6 ab3f 89f9 b93f 4ef4 9b3f ae3d f83e
000000c0: 4cab 763e e408 163f 588a ea3f cc2c c83e
000000d0: ec86 1b40 b48a 8e3e 384d 173f b7d3 a53e
000000e0: d029 a93f e368 aa3f 68a5 e83e f3c3 b23f
000000f0: b7e1 b13f b96c 953f 9a2a 583e ad52 cb3f
00000100: 3548 1b40 c48f a43f bd69 823f 0d46 9e3f
00000110: 9b96 e23e 0f7b b03f c3ba bd3f 4f04 b23f
00000120: e088 8b3f 3a8e 9f3e f6e4 b03f a73d be3f
00000130: 0ea9 2640 70a8 c93f e8d5 b53f 929e 0b40
00000140: fff5 fd3e 6565 3740 ec2d c53f d22f b23e
00000150: 2c05 853e 7189 843f ffc9 8b3f c0ca 2d40
00000160: 283c bf3f 6fad 833f f29f 2c40 884f 623f
00000170: 48a6 bf3f 7767 cc3f dba7 b33f 58a0 e63f
00000180: a2ce ec3e 3843 653f 059a 453f 199b 943e
00000190: 63f0 d23f e8b2 b63f 2c2b 803f 6e68 a43e
000001a0: 2f0c a23f f4de a73f d6d7 873e c797 af3f
000001b0: a0ca a13f 673b ab3f 39cd c63f 8619 333f
000001c0: 22da f13f 1843 7b3e 7a1a 6f3f 48d5 913f
000001d0: 4dc8 b13f a103 823e 5187 7c3e 1d0b aa3f
000001e0: a861 803e c675 8e3e d0c9 3e40 6c96 8e3e
000001f0: c914 953f 5e4c bf3f 3b5f 613f 8e62 d33f
00000200: f2aa 953e 03fb 8b3f 542d b23f c0f5 0e40
00000210: 5900 613e d51e 153f a042 d83f e57c 8f3e
00000220: 26e4 e83f 2bc8 9d3f f4ee b43e e3c2 343f
00000230: fe84 1c3f cf39 e53f f7f5 963f 4cb4 983e
00000240: f2de c53e 9bdf 913f 110a ae3f b71a 723f
00000250: adff ac3e 7d06 5740 d6e8 9c3f 2bb7 a13f
00000260: ce5a 793e c1f8 b73f ac32 8f3e b0db 2d40
00000270: 4e80 a73f 30bd d13f c0da 803e ad27 cb3e
00000280: 6951 df3f 3b09 7d3f 9d0c 923f e393 843e
00000290: 8907 823e 8b19 c63e 6c6a 8f3f 113a f73f
000002a0: e3fa 963e 92ff cc3f 15fa f73f b31b 1940
000002b0: fd3a a73f eaef 433f c928 733f 9273 983f
000002c0: 5066 c03f c479 b43e 6a7b a83e 2ca7 9f3f
000002d0: 28c2 ed3f b12e 053f eb90 c03f fce2 1040
000002e0: fd6a 4e40 bc66 bb3f 2fc3 bd3f faa8 4e3e
000002f0: 6868 c03f fb20 1d40 5c95 3440 b80b 263f
00000300: 7b60 4540 b61f 6640 7484 903f 18d1 2e40
00000310: a63a bf3f c300 3440 58f9 933e b89f a23f
00000320: 8caf be3f 9de8 b03f 3e8c c13f 6355 c43f
00000330: e2fb bc3f cfe3 b03f 807d e63f 0323 0940
00000340: 7cca 5a3e a5d0 8a40 aee4 933f 7df5 d83f
00000350: 7baa c03f cf25 c23e 6e43 ad3f 46af cd3f
00000360: 14c2 4e3f d3b3 7f3e 3a92 923f a7da 4040
00000370: d6a7 363f e6f3 273f 7c0e 0240 87e3 7240
00000380: 1ee8 1a40 297e 943e 7806 b63f 1b3b d03f
00000390: 12a1 a53f 1656 2e40 b483 1d40 05dc 0e40
000003a0: 2256 d93f 6196 0d3f 1059 b63f 734e b23f
000003b0: 62f3 d13f 3039 c03f eeac a73f 455c 993e
000003c0: b685 dd3e 9771 6f3f 539c 4a3f fc0a c83f
000003d0: ecdd b43f a33e 7f3e d5d5 1740 3feb a03f
000003e0: 77f0 3440 b3ec 0c40 f57b ba3f b599 c33e
000003f0: 6374 eb3f 1aea 823e 9347 6b3f 02f0 d73e

bn2.bias f4 [300]
-0.69350624 -0.882477 -1.0174048 -0.40047544 -0.60365385 -0.41628784 0.5370466 -0.7270967
-0.56425464 0.46673694 0.30060595 0.15534325 0.122483 -0.34745595 0.026326865 0.03403291
-0.17367794 0.107768685 0.7612948 -0.4500712 -0.057284236 0.6761858 -0.62976104 -0.6770281
-0.6445432 -0.528545 0.14063402 -0.22061752 0.46630552 -0.38096547 0.08260225 0.591129
0.5378692 -0.21622904 0.14107694 0.9235163 0.11761224 0.12923397 -0.9658707 0.10379874
0.07810722 -0.268083 0.8560022 0.19060867 -0.31154954 0.092115134 0.118484676 -0.40591457
-0.589587 -0.31920356 -0.18678872 -0.6201049 0.58433354 -0.653484 -0.16747697 -0.6156941
-0.22643094 -0.4129176 -1.0574597 -0.09825014 -0.23773228 -0.27957273 -0.5740299 0.21917973
0.19854717 0.2747434 -0.69113225 0.12408366 -1.0268224 -0.7363567 0.14900583 0.19455062
-0.32067478 -0.6284497 -0.03052618 0.2171055 1.0553256 0.037382964 -0.114203356 0.07814292
-0.59213036 0.09804169 0.26019603 -0.6197473 -0.5320081 -0.37469235 -0.057890017 0.40441206
-0.18054956 0.17820464 0.70580834 -0.5654827 0.24108021 0.13462347 0.032757394 0.6381376
-0.65216947 -0.43181443 -0.47914767 -0.57126224 0.08675755 0.1476041 0.07962901 -0.6506229
0.11505737 -0.53333634 -0.57754666 -0.13280512 -0.13181642 0.15461288 -0.16974376 -0.19621481
0.6056003 -0.5546582 -0.5654798 0.11699997 0.15523276 -0.76446927 -0.52861065 0.15926291
-0.7474817 -0.5806759 0.79850894 -0.59387857 -0.44471923 -0.20346442 -0.6879165 0.3476643
-0.56765217 -0.3286534 -1.116686 0.19688885 -0.7318055 -0.2960857 -0.3291851 -0.8067891
0.43302163 -0.38531166 -0.6536032 -0.14483744 -0.81843174 0.05585736 -0.24425305 -0.6346487
-0.660279 -0.6349567 0.10320241 -0.9371489 -0.62970144 0.9343354 0.116510846 -0.28711656
-0.5550158 0.14964287 -0.60609764 0.87098 0.12804042 0.1261317 -0.603177 -0.59795344
0.121031106 -0.15777566 0.14820987 -0.5798713 -0.6750015 -0.6258867 0.12636428 0.08836854
-0.6183764 -0.23780516 0.5562868 0.07035935 0.08421337 -0.08997128 -0.7791133 -0.20067063
-0.25795224 -0.9711808 -0.647285 -0.029788494 0.5818697 -0.3774952 -0.09423543 -0.15021308
0.311122 -0.12444479 0.23813461 -0.5751625 0.15631874 0.7767576 1.0199059 -0.9356962
0.091862895 -0.058411684 -0.43784246 0.4320759 -0.029248327 -0.3705808 -0.6448412 0.07130472
0.15406133 0.084489405 0.1935909 0.1511155 0.26066163 -0.43657425 0.65834886 -0.0842331
-0.56198967 0.061008275 -0.5640011 -0.012339674 0.19318491 -0.9845324 -0.44294778 0.08695687
-0.30995408 -0.517822 -0.43562254 0.38241285 -0.95504194 -0.1785978 0.49263588 0.1301724
-0.43827128 -0.6435299 0.022693891 0.13944416 0.051042076 0.9440498 0.43102247 0.56319094
-0.13732478 -0.6696016 -0.16440174 0.04920514 0.14934996 -0.06609969 -0.41249123 -0.90239614
-0.7794898 -0.6679589 -0.0887987 0.3452336 -0.12412453 -0.5409489 0.20831431 0.09879354
0.54655504 -0.24526574 -0.043887533 -0.57307315 0.5890624 -0.5621089 -0.047411058 -1.0654469
00000000: a089 31bf 03ea 61bf 523a 82bf 1e0b cdbe
00000010: 0f89 1abf ae23 d5be e37b 093f 0223 3abf
00000020: fe72 10bf 25f8 ee3e 06e9 993e 4d12 1f3e
00000030: 5ed8 fa3d bfe5 b1be 70ab d73c 1866 0b3d
00000040: a1d8 31be d4b5 dc3d 37e4 423f bb6f e6be
00000050: e0a2 6abd 831a 2d3f 0538 21bf b751 2dbf
00000060: c800 25bf ba4e 07bf 5d02 103e 8fe9 61be
00000070: 99bf ee3e e80d c3be 5e2b a93d 3b54 173f
00000080: ccb1 093f 256b 5dbe 7976 103e 906b 6c3f
00000090: b0de f03d e955 043e 4d43 77bf 6f94 d43d
000000a0: aef6 9f3d 2d42 89be f622 5b3f eb2e 433e
000000b0: 6c83 9fbe dca6 bc3d 18a8 f23d 09d4 cfbe
000000c0: 2cef 16bf a66e a3be 8b45 3fbe 32bf 1ebf
000000d0: e296 153f ba4a 27bf 157f 2bbe 219e 1dbf
000000e0: 83dd 67be f069 d3be d75a 87bf 5f37 c9bd
000000f0: 1770 73be 2824 8fbe a0f3 12bf a770 603e
00000100: f34f 4b3e 2bab 8c3e 0bee 30bf 931f fe3d
00000110: eb6e 83bf df81 3cbf fc94 183e 4738 473e
00000120: 7c2f a4be 14e2 20bf 0a12 fabc e750 5e3e
00000130: e914 873f e11e 193d 73e3 e9bd 6509 a03d
00000140: db95 17bf 15ca c83d 6a38 853e c2a7 1ebf
00000150: af31 08bf add7 bfbe 151e 6dbd 190f cf3e
00000160: fce1 38be 477b 363e dbaf 343f 79c3 10bf
00000170: bbdd 763e bcda 093e 9e2c 063d fc5c 233f
00000180: 94f4 26bf c816 ddbe d852 f5be 3e3e 12bf
00000190: f1ad b13d 8725 173e 8914 a33d 398f 26bf
000001a0: 33a3 eb3d bb88 08bf 19da 13bf 11fe 07be
000001b0: e2fa 06be d752 1e3e 4fd1 2dbe 89ec 48be
000001c0: 9f08 1b3f 14fe 0dbf 49c3 10bf ae9d ef3d
000001d0: 56f5 1e3e 42b4 43bf 0753 07bf d115 233e
000001e0: f65a 3fbf 2da7 14bf 156b 4c3f 6d08 18bf
000001f0: 3db2 e3be fa58 50be 4c1b 30bf 0e01 b23e
00000200: a751 11bf 4245 a8be 91ef 8ebf 3b9d 493e
00000210: 9b57 3bbf 8b98 97be f38a a8be bb89 4ebf
00000220: 03b5 dd3e 9247 c5be 8a52 27bf 4450 14be
00000230: be84 51bf b0ca 643d 791d 7abe 5678 22bf
00000240: 0b08 29bf 868c 22bf c95b d33d fee8 6fbf
00000250: 1d34 21bf 9b30 6f3f 3d9d ee3d f100 93be
00000260: 8415 0ebf fb3b 193e 3729 1bbf 8cf8 5e3f
00000270: 071d 033e ab28 013e cf69 1abf 7a13 19bf
00000280: 28df f73d f18f 21be 54c4 173e 7272 14bf
00000290: e6cc 2cbf 1c3a 20bf a365 013e 91fa b43d
000002a0: ea4d 1ebf 3283 73be d068 0e3f 9018 903d
000002b0: 0f78 ac3d dd42 b8bd f873 47bf 9a7c 4dbe
000002c0: 5112 84be 4e9f 78bf 78b4 25bf 0007 f4bc
000002d0: 6af5 143f 0d47 c1be 81fe c0bd 75d1 19be
000002e0: 624b 9f3e e9dc febd 8fd9 733e d93d 13bf
000002f0: 0512 203e 96d9 463f 478c 823f c989 6fbf
00000300: 9d22 bc3d 1741 6fbd e32c e0be 0d39 dd3e
00000310: 309a efbc c4bc bdbe 5014 25bf 3608 923d
00000320: 41c2 1d3e c808 ad3d b13c 463e 06be 1a3e
00000330: 7175 853e a986 dfbe 8d89 283f 6782 acbd
00000340: 8ede 0fbf d0e3 793d 6062 10bf 582c 4abc
00000350: 44d2 453e 510a 7cbf 0dca e2be 7216 b23d
00000360: 4db2 9ebe fc8f 04bf eb09 dfbe 9ecb c33e
00000370: a17d 74bf 57e2 36be c53a fc3e ea4b 053e
00000380: 1865 e0be 60be 24bf 8ae8 b93c 73ca 0e3e
00000390: 7f11 513d 3fad 713f faae dc3e 482d 103f
000003a0: de9e 0cbe 036b 2bbf ee58 28be 548b 493d
000003b0: 32ef 183e 465f 87bd 0d32 d3be 6f03 67bf
000003c0: a58c 47bf 5bff 2abf 18dc b5bd 75c2 b03e
000003d0: 0035 febd a17b 0abf 5950 553e 4454 ca3d
000003e0: 08eb 0b3f f126 7bbe 6ac3 33bd ecb4 12bf
000003f0: cbcc 163f 5ee6 0fbf 1932 42bd 9060 88bf
