DDPG/local_checkpoint/Walker2d-v2/target_critic3.ckpt (torch, 720343 bytes, 5 tensors)

l1.weight f4 [800, 23]
000000 50 31 35 be f9 ef 01 3f ec c8 85 3f 70 ec 4a 3f
       -0.17694592 0.50756794 1.0451941 0.79267025
000010 38 2c c9 3d 3c d7 86 bf b5 6d 3d be 7f 76 d1 be
       0.09822887 -1.0534434 -0.18498881 -0.40910718
000020 37 e2 e4 be 68 82 59 be 26 01 ba 3c 90 03 1b bd
       -0.44703838 -0.21241152 0.022705626 -0.037845194
000030 19 bf 4b be bc 2e 08 3c ab d1 8c 3d 4f 74 06 3c
       -0.19897117 0.008311924 0.068759285 0.008206441
000040 95 c1 c9 bd f6 a2 b6 bc 8b 82 c7 3c 4c 5d 87 be
       -0.09851376 -0.022294503 0.02435424 -0.26438367
000050 16 1f e3 3d 2d e8 f5 3d 1d 90 8c bd 2b 9b 42 3d
       0.110899135 0.12007175 -0.06863425 0.04751126
000060 0f 71 30 3f ee 72 3f c0 f6 c3 8d be 6e e8 3f be
       0.68922514 -2.9913898 -0.2768857 -0.18741009
000070 ae eb a7 40 15 ce 8d 3f 76 89 de 3e fa 3a 42 be
       5.2475195 1.1078516 0.4346425 -0.1896781
000080 82 1b f8 3d 4c 74 bc 3d 94 9a 30 3c c3 27 83 3b
       0.12114622 0.09201869 0.010779042 0.0040025427
000090 20 fb 3f bc 47 63 59 bd 94 18 c7 bc 5d 96 65 3c
       -0.011717588 -0.053073194 -0.024303712 0.0140129
0000a0 89 83 dc 3c e3 a7 05 3d 65 09 84 bd 0d ae 86 3d
       0.02691819 0.032630812 -0.06447104 0.06576166
0000b0 30 2d 38 3c 3a 06 b5 3d 63 d4 c9 bd b1 15 be 3e
       0.011241242 0.08839078 -0.09854963 0.37125924
0000c0 97 5f f2 bb 26 99 1e 3f 08 43 c7 3e 96 0c 8b bf
       -0.007396649 0.61952436 0.38918328 -1.0863216
0000d0 d8 a8 37 bf 63 d6 5d bf 29 64 0f be 0f ae 6a be
       -0.7174201 -0.86655253 -0.14003052 -0.2291796
0000e0 0a 59 31 be e0 05 fe bc 1c ec 98 bc ac 3f 9e bc
       -0.17319122 -0.03100866 -0.018667273 -0.01931747
0000f0 82 5b b8 3e ff f4 35 3e a8 2a 5c 3d 45 01 26 be
       0.36007315 0.1776924 0.053751618 -0.16211422
000100 2d 07 11 3d 48 0c e3 3e 2f 6d 62 be 60 0d bf bc
       0.035407234 0.44345307 -0.22111963 -0.023321807
000110 a7 64 7c 3e b1 e1 08 bf 4a 55 0f 3e 03 60 c6 3f
       0.24647771 -0.5346938 0.13997379 1.549805
000120 38 59 85 3f c7 e3 ce 3d 80 a8 59 bf fd 7b 4a bf
       1.0417852 0.10102039 -0.85022736 -0.7909544
000130 91 88 14 3f 8b 6d ac be 19 a3 f3 3d 23 13 a2 bc
       0.58020884 -0.33677325 0.11896343 -0.019784516
000140 5a 88 f2 3b 03 50 e8 bd c0 a8 12 3d f0 62 b6 bd
       0.0074015083 -0.11343386 0.035805464 -0.089055896
000150 aa c1 ae bd 0d f7 4b be 5c 66 9c bd 87 53 82 3c
       -0.08533032 -0.19918461 -0.07636711 0.01590897
000160 35 dc 8b 3e da 63 19 3e 1b 82 c8 bd 50 cd 08 bf
       0.27316442 0.14979497 -0.09790441 -0.5343828
000170 5c 0b 2b bf 92 03 02 be 01 3a e5 3f df d8 a8 3e
       -0.6681421 -0.12696674 1.7908326 0.3297796
000180 47 c2 9e bd 35 6a 9d bd f4 fc 10 3f 1b 2e b6 3e
       -0.07751899 -0.07686273 0.56635976 0.3558205
000190 f4 72 6a be bd d5 7a be fc cf 91 3e 39 50 78 be
       -0.22895414 -0.24495597 0.28478992 -0.24249353
0001a0 00 00 28 be 99 1a 81 bd 8d 5a 4c bc 8e d8 97 3c
       -0.1640625 -0.06303901 -0.012472761 0.018535879
0001b0 ba 27 a8 bd 7c f5 23 bf 9e 5d 44 3c b3 31 7a be
       -0.08210702 -0.64046454 0.011985211 -0.24433021
0001c0 77 68 0a bf 7c 35 ab bc 6e 2f ee be 8e 23 95 3e
       -0.5406565 -0.020899527 -0.4652056 0.2912869
0001d0 ca 52 32 bc b0 27 ea 3d bc d4 7f be 05 91 4b 3c
       -0.010883996 0.11433351 -0.24983495 0.012424712
0001e0 bf bc 48 3e 78 31 06 bf fd 6c d3 3e ce e6 aa 3e
       0.19603251 -0.52419233 0.4129409 0.33379215
0001f0 27 0f 0f be 7e bc 36 3e ae bc fa bd b1 13 5b 3c
       -0.13970624 0.17845342 -0.12243019 0.013371394
000200 42 07 5e 3c 74 84 58 bd 36 c5 f0 bc a1 4c 95 3d
       0.013551535 -0.052860692 -0.029390913 0.072900064
000210 ba ff ca bd 42 de e6 3c f6 e4 9b 3c 7f a9 6e 3d
       -0.09912057 0.028182153 0.019030076 0.058267113
000220 08 f1 12 3d 68 f0 23 be dc 79 96 be 12 47 ee 3e
       0.035874397 -0.16009676 -0.29389846 0.46538597
000230 fc e8 12 bb 12 62 2e bd 32 4f 3d 3f 4e 13 fd be
       -0.0022416702 -0.042573996 0.7394897 -0.4942879
000240 24 16 3f 3f 43 06 2e bf fa d8 34 be 8b e1 26 3e
       0.7464316 -0.67978305 -0.17660895 0.16296975
000250 8f 2f f1 bc 13 fc 1b be e3 34 40 be 3d 5f 26 bd
       -0.029441623 -0.15232877 -0.18770175 -0.04061817
000260 10 c2 d2 3e e2 2c ad 3d 62 3e 79 3d 25 ae 81 3a
       0.41163683 0.08455826 0.06085051 0.0009893818
000270 c8 16 1e bf 02 e9 f3 be e4 94 a5 3c 91 84 5e bd
       -0.6175351 -0.47638708 0.020212598 -0.054325644
000280 3f 0f 3a 3e 64 19 9d 3e 37 d4 84 bd 11 17 18 bd
       0.18169878 0.30683434 -0.06485789 -0.037131373
000290 76 36 b6 3d e3 91 aa 3d 3a c8 42 be bb 32 f1 3d
       0.08897106 0.08328607 -0.19021693 0.11777254
0002a0 09 2a d1 3e 7c 13 c5 3e c2 25 b6 be bf a8 fc bd
       0.40852383 0.38491428 -0.35575682 -0.12336873
0002b0 1d f0 b5 3c 90 40 c1 bd 5c 0e 3e 3d e8 f5 d9 3d
       0.022209221 -0.094361424 0.046400413 0.10642606
0002c0 65 3c 49 3e 18 bc 9a 3d 66 57 f0 3d a4 89 c2 3d
       0.19651945 0.07555407 0.1173542 0.09498909
0002d0 fa 4b c8 3d 5b 16 f1 bd 66 9d 5d bd de 96 6b be
       0.097801164 -0.11771842 -0.054105185 -0.2300677
0002e0 35 64 18 bf 4b 12 56 bf f1 51 5f 3f cc cd a1 3e
       -0.59527904 -0.8362166 0.8723441 0.31602323
0002f0 b7 33 95 3d 19 fe ad 3e 11 9c d1 3d 05 98 8c be
       0.072852544 0.33982924 0.102348454 -0.27459732
000300 84 90 3a bf 6f 4b 10 3e f7 6f 2c be d6 e6 4e 3e
       -0.72876763 0.14091276 -0.16839586 0.20205244
000310 f9 c6 96 3e 77 44 8a bd d3 51 91 bd d0 cc 1c 3e
       0.2944868 -0.0675134 -0.07095685 0.15312505
000320 8a 85 52 bd 0f bb 6e be d2 3e bc be 7d cb 51 3e
       -0.051396884 -0.23313545 -0.36766678 0.20487781
000330 5d 5c da be 55 d9 be be 7b 1e f6 bd e7 7b 18 bf
       -0.42648593 -0.37275186 -0.120175324 -0.5956406
000340 7b 62 89 3c cc dd 95 3f 17 31 85 3f b4 c8 20 3f
       0.016770592 1.1708312 1.0405606 0.6280625
000350 9e ee 73 bf 3c a7 39 3f 7c de 28 bf 24 44 fd 3d
       -0.95285976 0.72520804 -0.65964484 0.123665124
000360 b2 0c b5 3e 9c df a1 be 14 61 24 3d a5 db 6d 3d
       0.35361248 -0.31615913 0.040131643 0.058070797
000370 ed 7b 41 bc 74 f9 ec 3c 45 2a 52 be 86 0a 43 bd
       -0.011809331 0.028927542 -0.20523937 -0.047617458
000380 8f d1 6b 3e b4 ed 97 be 49 c3 9a bc 84 11 31 be
       0.23029159 -0.2967354 -0.018891947 -0.17291838
000390 9f e9 d7 be 77 d4 b3 3e 12 73 22 bf f3 ce 60 bf
       -0.42170426 0.35123035 -0.63456833 -0.8781578
0003a0 19 86 8c 3f b8 ac 87 3f 37 6e 1b 3f 6a 7d 7c 3e
       1.0978423 1.0599585 0.6071505 0.24657217
0003b0 f8 1b e5 3e 8f 8d 23 3f 3c 6a 07 bf 87 e9 8b be
       0.447479 0.63887876 -0.52896476 -0.27326605
0003c0 8a e7 86 bd 5e 42 12 bd 37 45 c4 bd 11 01 15 bd
       -0.06587131 -0.035707824 -0.09583514 -0.03637797
0003d0 d1 1a f1 3d 35 c4 49 bb ad be f8 3d 55 9d 37 be
       0.11772693 -0.0030787115 0.121457435 -0.17931111
0003e0 95 dd 23 be 46 57 60 3e 1a 1c d1 3e cf f6 9e be
       -0.16002496 0.21908292 0.40841752 -0.31047675
0003f0 8e c4 11 3e 04 16 b8 be a2 25 29 c0 c1 c8 18 40
       0.14235136 -0.35954297 -2.642922 2.387253

l1.bias f4 [800]
000000 78 39 a4 be fc fc df be c0 25 de 3d 98 98 23 bf
       -0.32075095 -0.437477 0.10847044 -0.63904715
000010 ef 41 aa be 35 04 0f 3f 11 d3 29 bd ef b2 c9 3e
       -0.33253428 0.55865794 -0.041461054 0.39394328
000020 27 80 ca be 75 4f e7 be 1e 36 4b bf 5f e5 93 be
       -0.39550897 -0.45177808 -0.7937945 -0.28885934
000030 aa 1a fc be f1 72 ef be 8f 83 23 3f f6 db b0 3e
       -0.49239093 -0.4676738 0.6387262 0.34542817
000040 6a fe 72 be 17 dc da 3e f4 1b 01 be 17 16 9b be
       -0.23729864 0.4274604 -0.1260832 -0.3029029
000050 88 76 e3 be ee 60 8a be de 88 a7 bc ba fd f0 be
       -0.4442637 -0.27027076 -0.020451006 -0.47068578
000060 fc 44 c9 be 98 88 8d 3d a5 67 61 3e 84 27 c3 be
       -0.39310443 0.06910819 0.22012194 -0.38116086
000070 7c 55 11 bf 49 4e 07 be c6 38 8e be 0b 84 dc 3e
       -0.56771064 -0.13213457 -0.2777769 0.4306949
000080 6c c0 e5 be fa d6 fc be c7 51 a9 be 5e f1 02 bf
       -0.4487337 -0.49382764 -0.33070204 -0.5114955
000090 2a 64 5d be c7 28 15 be a4 6d 96 be bf 4e 2d bf
       -0.21620241 -0.14566337 -0.29380524 -0.6769828
0000a0 20 49 e2 bd 90 ec 02 bf b8 0d bd bd 3a b3 84 3d
       -0.11049104 -0.51142216 -0.09231132 0.06479497
0000b0 a3 cd ef be 7c 56 92 3d 81 57 54 be a7 ae ea be
       -0.46836576 0.07145402 -0.20736505 -0.45836374
0000c0 a3 ca 8c be 89 14 22 3f 95 7a d5 be bb d9 1e bf
       -0.2749835 0.63312584 -0.41695085 -0.6205098
0000d0 5f 47 c3 be d3 7d fe 3d f3 42 11 bf ec 34 0b 3e
       -0.3814039 0.12426343 -0.5674278 0.13594407
0000e0 cf 17 18 3f 46 da b8 be a4 09 ca be 2e e2 6e be
       0.5941133 -0.3610403 -0.3946048 -0.23328468
0000f0 45 38 81 be 5c 1f 03 bf ea 6d e5 be 29 66 e5 be
       -0.25238243 -0.51219726 -0.4481042 -0.44804505
000100 05 9e db 3e 5a b2 29 bf 00 18 18 be 68 b7 cb 3e
       0.42893997 -0.6628777 -0.14852905 0.39788365
000110 26 9a f9 be b5 6c 69 3e 8e 62 b7 be 7c 70 cf be
       -0.48750418 0.22795375 -0.3581738 -0.40515506
000120 eb 65 76 3d 80 b7 4a bf 49 8e c9 be d2 1c e3 bd
       0.06015579 -0.7918625 -0.39366367 -0.110894814
000130 f4 c8 3a be 87 ef f6 be a5 78 c4 be 6a f8 df 3e
       -0.1824072 -0.4822962 -0.38373294 0.43744212
000140 1f 7b f7 3e 2d a7 61 3e 31 d3 76 3d 19 05 f7 be
       0.4833612 0.22036429 0.06026 -0.48246077
000150 72 a4 4f 3e e7 dd ac bd d6 dd 83 bf 8d 9a b4 be
       0.20277575 -0.08440762 -1.0302074 -0.35274163
000160 7f c5 09 bf 6f 08 9d be d8 91 26 be b6 d3 fd be
       -0.5381698 -0.30670497 -0.16266572 -0.49575585
000170 06 61 a0 be 98 ab 11 bf c7 26 a8 3d 4c 76 de be
       -0.31324023 -0.56902456 0.08210521 -0.43449628
000180 5d 45 ad be 02 4d 4d be 0b 5c ba be 16 46 63 bd
       -0.33841982 -0.20048907 -0.36398348 -0.05548676
000190 e7 d8 76 be 5b 9e c0 3e 29 ef 8b be 2e 6f 43 3d
       -0.24106179 0.37620816 -0.27330902 0.04771345
0001a0 dc fd db be d8 4d b4 be 8e e6 06 bf b3 eb 9e 3e
       -0.42967117 -0.3521564 -0.5269555 0.310392
0001b0 2b d4 b9 be 4d d0 87 bd ba 99 07 bf 63 93 06 bf
       -0.36294684 -0.06631527 -0.52968943 -0.52568644
0001c0 fd 27 13 bf da 34 d3 be 67 00 00 bf 43 af ea bd
       -0.5748289 -0.4125126 -0.50000614 -0.1145921
0001d0 e8 d9 e5 3d ec e6 de 3e 92 be 48 bf 60 01 11 bf
       0.11223203 0.43535554 -0.7841579 -0.56642723
0001e0 d7 77 bf bd 7d dc 49 3d 4d 90 69 be 43 f1 cf be
       -0.093490295 0.04928254 -0.22808953 -0.40613756
0001f0 82 4c ca be 84 38 28 bf a5 e7 1e bf f3 5e d8 be
       -0.39511496 -0.65711236 -0.6207221 -0.4225994
000200 9a e9 8f be 4a 2e 69 be dd d6 e2 be b1 ed a0 be
       -0.2810791 -0.22771564 -0.44304553 -0.31431344
000210 94 50 0a 3e 58 41 49 bf 8f 8c 2d bf 8c 01 3b bf
       0.135073 -0.7861533 -0.677926 -0.73049235
000220 34 54 c2 bd 82 88 4d be 32 89 17 bf 9e 28 b6 be
       -0.09488717 -0.20071605 -0.5919372 -0.35577863
000230 40 a7 06 3e b7 22 5d 3d bd 43 98 be c3 c0 a3 be
       0.13149738 0.053988185 -0.2973918 -0.31983003
000240 21 76 e5 be 68 18 8c 3d a3 82 e8 3c bb db a3 be
       -0.44816688 0.068405926 0.028382605 -0.3200358
000250 c6 9f de bd 52 be f7 be 4b 8e 32 bf 9f e2 0b bf
       -0.10870318 -0.4838739 -0.6974837 -0.5464267
000260 ae 53 34 3f 6f 95 e8 be 38 c5 81 be 03 c4 e4 be
       0.70440185 -0.4542651 -0.25345778 -0.44680795
000270 8d 63 93 be 2d be 56 bf b9 11 55 bf 31 94 a5 be
       -0.2878689 -0.83883935 -0.8323017 -0.32339624
000280 30 fd 2d bf 4a 5d 62 bf a7 a3 22 bd 4a c0 d9 3e
       -0.6796446 -0.884236 -0.039706852 0.42529517
000290 c0 d9 25 bd bd d2 06 bf 6a a4 e2 bd ae 07 da bd
       -0.040490866 -0.5266531 -0.11066516 -0.10645996
0002a0 e2 bf 50 bf b6 44 15 bf e6 5b da be 86 16 b4 3e
       -0.8154279 -0.5830797 -0.42648238 0.35173434
0002b0 de 62 10 bf 51 e9 ad 3e 50 72 07 bf a8 66 af be
       -0.5640086 0.3396707 -0.529088 -0.34258008
0002c0 62 4e bc be 03 3d 8e 3e 66 e5 e9 be bf 96 df be
       -0.3677855 0.27780923 -0.4568283 -0.43669698
0002d0 70 49 ca be 34 d9 2a bf 2e ad 1b bf ad 47 bd be
       -0.39509153 -0.66737676 -0.60811126 -0.36968747
0002e0 f1 05 13 bf ac 88 13 3d 07 7f 5f bd 31 76 4b bf
       -0.5743094 0.036019012 -0.054564502 -0.7947722
0002f0 01 ee 54 bf 39 f8 97 3e 84 b7 15 bf 77 f1 dc be
       -0.83175665 0.29681566 -0.5848315 -0.43152973
000300 4e aa e9 be ac f6 7e 3d f7 38 70 bd 76 53 01 bf
       -0.45637745 0.062246963 -0.058648076 -0.50517976
000310 07 35 0f bf ef c0 fb be 3b 1c 2e bf f3 d1 ee be
       -0.5594029 -0.49170634 -0.68011826 -0.46644554
000320 70 ef 01 bf b2 21 96 be 19 4f 7f be 8b ac 06 bf
       -0.5075598 -0.29322582 -0.24932517 -0.5260703
000330 3d 66 0a be a0 ca d4 be 71 97 d5 be 95 8c 7c be
       -0.13515563 -0.4156084 -0.41717103 -0.24663003
000340 ea a8 40 bf 82 2f 15 3f c8 4f eb be 52 9a f3 bd
       -0.7525774 0.58275616 -0.45959306 -0.11894669
000350 f3 20 06 bf 45 b7 e3 be a3 3c cd be 6d c3 61 bc
       -0.52394027 -0.4447576 -0.40085325 -0.013779503
000360 11 49 1e 3f 8d 73 28 be 27 66 f2 be 0f d4 3a 3f
       0.6183024 -0.16450329 -0.4734356 0.72979826
000370 31 25 02 bf 4a d5 3d bf 01 a0 96 be b4 e3 cc bc
       -0.50838 -0.7415358 -0.29418948 -0.025010921
000380 8e 98 1b be 45 17 39 bf a4 1e a5 be d9 1c 85 be
       -0.15194914 -0.7230113 -0.3224994 -0.25998572
000390 f2 a4 05 bf 9f c9 41 bd c3 ed 6e 3e 28 94 b1 be
       -0.5220481 -0.04731142 0.23332886 -0.34683347
0003a0 73 9c ba be 6e 22 af 3e 45 5f a3 3e 8e a9 b5 3e
       -0.36447486 0.34205955 0.31908622 0.35480922
0003b0 2f 59 7a be d3 62 8a be 87 0b ca 3d c4 33 d8 be
       -0.24448083 -0.27028522 0.0986548 -0.42226994
0003c0 a6 09 21 bf 70 34 d4 bd 60 e1 d6 be d5 3e 10 bf
       -0.6290535 -0.10361564 -0.41968822 -0.56345874
0003d0 eb 0c fb be 0d 8d 0f bf d8 e9 07 bf fe 8f ea bd
       -0.49033293 -0.560746 -0.5309119 -0.114532456
0003e0 49 ca ff be 43 07 00 bf 7a 08 e5 bd 25 d9 b7 be
       -0.4995902 -0.5001108 -0.111832574 -0.35907856
0003f0 ef 00 e8 3c e6 79 4d be e6 65 16 bf 69 88 05 bf
       0.028320758 -0.20066032 -0.58749235 -0.5216127

l2.weight f4 [200, 800]
000000 d0 68 93 bd 05 50 e4 bc 5c e9 eb 3b 50 ba de bd
       -0.07197726 -0.027870188 0.0071994495 -0.1087538
000010 e8 66 e8 bc 00 fc d5 3c 47 56 1a bd cf f3 66 bc
       -0.028369382 0.02612114 -0.037679937 -0.014096214
000020 fe cf 79 3b 54 a0 8d bd b8 f5 11 bc 23 87 a8 bd
       0.0038118358 -0.06915346 -0.008908682 -0.082289
000030 aa a2 7c bc 50 ec b9 3c 47 74 5c bd 68 ff ae bb
       -0.0154196415 0.02269569 -0.05382183 -0.0053405054
000040 ae 3d 86 bb 33 76 4e bd f0 cd 08 bd 9d 66 23 3d
       -0.0040967083 -0.050405692 -0.033399522 0.03989278
000050 02 57 ea bc 55 b8 50 ba ea a3 ba bc a8 8a b9 bc
       -0.028605942 -0.0007962038 -0.022783238 -0.022649124
000060 66 cd 53 bd ed 2a ab bd 36 24 23 bc 37 a8 f0 bc
       -0.051709555 -0.08357797 -0.009957364 -0.029377086
000070 c3 ce 82 3d d1 b2 31 bc f6 cc 48 bd 4a 67 d7 bc
       0.06387093 -0.010845856 -0.04902359 -0.02629437
000080 b1 27 df 3c b5 09 64 3d 58 b1 ca bd 57 12 5e bc
       0.027240606 0.05567332 -0.09897107 -0.013554177
000090 4a 49 95 bb bb 51 74 3d d6 1c ae 3c ff a6 c0 bb
       -0.004555856 0.059648257 0.021253984 -0.0058792825
0000a0 47 ac 36 bc 4c 59 84 bc 92 de d6 bb c1 75 43 bc
       -0.011149473 -0.016155861 -0.006557294 -0.01192993
0000b0 fa 87 69 bd 7d 4d 5a bd 33 09 bd 3c 23 e8 3b bd
       -0.057014443 -0.053296555 0.023075676 -0.04587568
0000c0 07 60 d3 bb 5b 86 83 bc a7 37 79 bd 4d 55 5a bd
       -0.0064506563 -0.016055277 -0.06084409 -0.053304005
0000d0 ae d8 c8 3d 09 36 13 bd 3e 5a 36 bd af cc ca 3c
       0.09806953 -0.035940204 -0.044519655 0.024755804
0000e0 03 89 45 bd 8e 23 36 bd 90 e4 55 3c ce 0e 86 bd
       -0.048226368 -0.0444675 0.013054982 -0.065457925
0000f0 d0 54 7a bd 15 fd 06 bd 53 b3 d8 bc e1 40 44 3d
       -0.06111604 -0.0329562 -0.026452696 0.047913436
000100 ca a3 82 3c c6 90 70 3c 4a ac fd 3b 32 ec 81 bc
       0.015947241 0.014682954 0.0077414857 -0.015859697
000110 c3 40 8c bd c4 3b 5b 3c 59 fb 68 bd 36 47 5d 3c
       -0.0684829 0.013380948 -0.05688033 0.013505748
000120 a7 08 c1 bb e8 a4 41 bc a9 de 80 bd 3e 22 5c bd
       -0.005890924 -0.011819102 -0.06292469 -0.053743593
000130 23 00 ff 3c b8 52 fb 3c aa a5 9f 3c d5 bc a1 bc
       0.031127995 0.030679092 0.019488174 -0.019743362
000140 88 31 c2 bc 9c a6 d1 3c d3 61 8d bc 2b 06 0c bd
       -0.023705259 0.02559214 -0.01725856 -0.03418557
000150 88 4d 2f bd 44 be b3 bc 84 1b 8d bd e8 ee df ba
       -0.04279855 -0.021941312 -0.06890014 -0.0017084749
000160 94 b4 96 3d b3 96 8c bb 7d 1e 22 bd 39 44 81 bb
       0.07358661 -0.0042904257 -0.039579857 -0.0039449004
000170 7e 39 88 3c 83 82 1f bd 6d bf 47 bd 70 0c 89 bd
       0.016628977 -0.038942825 -0.048766542 -0.066918254
000180 c8 d3 c1 bd ac c0 05 3d 30 6a 89 bd f6 11 6f bd
       -0.09464222 0.03265445 -0.06709707 -0.05836674
000190 70 85 df bb 57 45 c0 bc 70 2a cb bc 63 95 32 bc
       -0.006821327 -0.023470564 -0.02480051 -0.010899874
0001a0 db b3 0d 3d 7d 58 d1 bd cb 8e e2 bc 71 7a 68 bb
       0.03459535 -0.10221956 -0.02765598 -0.0035473371
0001b0 1a d6 e9 bc 02 cd 1d bd ee 96 b5 3c 49 5c 60 bc
       -0.028544474 -0.03852559 0.022166695 -0.0136938775
0001c0 9f 94 d4 3c b1 dc 39 bd 6a bb d6 bc 95 c0 db 3b
       0.025949774 -0.045376483 -0.026212413 0.006706307
0001d0 57 0b 11 bd 16 48 2c bc c6 5c 40 bd df 7b 7a bd
       -0.035411205 -0.0105152335 -0.046963476 -0.06115329
0001e0 db 70 3c ba ff 7d 07 bd 3f e7 a5 bd a6 da 8f bb
       -0.00071884476 -0.033079144 -0.08100747 -0.0043900786
0001f0 33 e0 03 3d 23 06 fe bc 27 0d 12 3d bf 98 36 3c
       0.032196235 -0.031008786 0.035657074 0.011144816
000200 f3 21 97 3c cd ec 19 3b 6a f3 b0 bc eb 0f 45 3c
       0.018448805 0.0023487092 -0.021600444 0.012027721
000210 3d b6 d1 b9 fd 67 99 bb f8 9c 09 bd 2c b7 bc bc
       -0.00039999365 -0.004681586 -0.033596963 -0.023036562
000220 cb 20 83 bd e7 83 5c 3d c1 b3 9c bc f6 f9 2b 3d
       -0.06402739 0.05383673 -0.019128682 0.04198643
000230 a1 5f 9d bc 51 37 5f bc 16 48 2c bd 7c 6f 46 bd
       -0.019210638 -0.013624028 -0.042060934 -0.048446164
000240 0b 1e 17 3c 84 cc 3d 3b d4 6c 04 bc fe 6c 11 3d
       0.009223471 0.0028961012 -0.008082587 0.035504334
000250 16 c5 ac bd 1b 08 c5 bc 25 ad 85 bd ec 4c 17 bd
       -0.08436029 -0.024051717 -0.06527165 -0.036938593
000260 6c f2 29 bd ee 52 dd bc 40 cb 38 bd 00 45 26 3c
       -0.041490957 -0.027017083 -0.04511571 0.010148287
000270 ca cc 3b bd 85 d7 b4 3c 03 ce eb bd 71 ea 9c bb
       -0.0458496 0.022075424 -0.11513903 -0.00478869
000280 9a cf c3 3b a9 18 b0 3d db 76 bb 3d 97 a7 11 ba
       0.005975676 0.085984536 0.09153529 -0.0005556284
000290 d6 ac 79 b9 82 4a c5 3b 64 f0 c6 bc ed 35 a2 bc
       -0.00023810877 0.006020845 -0.024284549 -0.019801104
0002a0 45 f5 86 bc 37 5d 4b bd be 7c c9 3b e5 8d 05 bd
       -0.016474376 -0.049649443 0.0061489036 -0.032606024
0002b0 bf d7 dd 3c ab 1c 21 3d 70 f0 9b bd c8 9e 0a 3d
       0.027080415 0.03933398 -0.07614219 0.03384283
0002c0 25 ba d1 bc 3f 0f 11 bd 13 2d c6 3c 96 16 f8 bc
       -0.025601456 -0.03541493 0.024191415 -0.030284207
0002d0 5d 65 e5 3c 2a 7a 6a bd b5 5d ab bb c1 91 b0 bd
       0.028002435 -0.05724541 -0.0052296766 -0.0862155
0002e0 76 ba 24 3d d3 d9 15 bd 23 a8 8d 3c 6d d0 bd bd
       0.040216886 -0.036584686 0.017292088 -0.0926827
0002f0 25 6a b4 bb e0 95 12 bd a9 d5 5e bd 78 ae 26 3d
       -0.0055058175 -0.035787463 -0.05440298 0.04069373
000300 92 60 4f 3a 60 59 67 bd 1f 1c 25 3d eb 65 e1 bd
       0.00079108134 -0.05648172 0.04031002 -0.110057674
000310 dd 9e 6d bb 8b 57 9f bc b1 ad 01 3c 44 01 85 bd
       -0.003625802 -0.019450923 0.007914946 -0.06494382
000320 96 5f 48 bd 78 71 54 3b 28 9b 08 3d 89 20 cc bc
       -0.048919283 0.0032416265 0.033351094 -0.024917858
000330 9e 0a 08 3c d1 df 94 3a 97 1f 9a 3d 03 71 82 bc
       0.008303313 0.0011358206 0.075255565 -0.015923029
000340 45 7e 85 bd 6d 5e b4 bc 5f 3d fa 3c cc 16 5a bd
       -0.065182246 -0.022017682 0.030546842 -0.053244397
000350 de 0d 1b ba 41 0e 8a bc 94 92 aa bc a9 a6 26 bd
       -0.0005914847 -0.0168525 -0.020821847 -0.040686283
000360 a9 c4 68 bd 6b 09 1f be 02 73 d7 bc c8 00 25 bd
       -0.056828175 -0.15530936 -0.026299957 -0.04028395
000370 b0 bb 54 3c 43 63 9f 3c 08 3c 92 3b 5c 77 e2 bc
       0.012984201 0.019456511 0.0044627227 -0.027644806
000380 40 8b 8a 3c e1 ce 3a 3d 47 c8 a3 bc 94 98 a9 3c
       0.016912103 0.04560745 -0.01999296 0.020702638
000390 b4 f1 20 bd 9e 71 9a 3c 36 51 06 bd 1c 3a 20 bc
       -0.039293006 0.018853005 -0.032792293 -0.009779479
0003a0 64 c7 8d bc c6 01 2c bd ab 56 d0 3c 85 81 18 bd
       -0.01730699 -0.04199388 0.025431952 -0.037232894
0003b0 7c fd 3c bd d6 4f 10 3d f6 87 22 bb 81 9f 93 bd
       -0.04614018 0.035232387 -0.0024800277 -0.07208157
0003c0 c3 4d 58 bd c8 5b b9 3c 79 6b d5 bc 2d 39 35 bd
       -0.052808534 0.022626773 -0.026052224 -0.04424398
0003d0 9f 83 5e bd cb 3e 45 bc 9c 34 48 bc 3a 29 e2 3c
       -0.054324742 -0.012038897 -0.012219574 0.027607549
0003e0 86 16 5c 3c 33 04 c5 bc d2 c3 a7 bc 77 e7 07 bb
       0.013433104 -0.024049854 -0.020479117 -0.002073733
0003f0 6b a4 e1 bb d2 0e cd bd 92 39 eb bc 9e 2e c9 3c
       -0.006886055 -0.100125924 -0.028713975 0.024558362

l2.bias f4 [200]
000000 bd 6c 5a bd e3 94 ae be b6 b3 7e 3c 2b 6c 03 bf
       -0.053326357 -0.34097967 0.015545776 -0.51336926
000010 48 50 9b bc dd be 84 bc d3 3a a9 bc 1e 62 52 bd
       -0.01895918 -0.016204292 -0.020657932 -0.051363103
000020 95 9d a1 bc a6 ad ac bb ce 1e 93 be 7c 46 0d bd
       -0.019728461 -0.005269724 -0.2873444 -0.034491047
000030 14 09 05 3c 07 31 9b 3c 3b 4b ce bc 63 1b d6 3e
       0.00811984 0.018944276 -0.025182357 0.4181777
000040 d5 62 5b bc e4 18 d9 3c 89 d5 a6 bc 82 a0 61 bc
       -0.013390263 0.026501127 -0.020365493 -0.013771178
000050 64 4a 8d bb 17 7c 2b 3f c2 fd ba bc 37 c8 87 bd
       -0.0043118466 0.6698622 -0.02282608 -0.06629985
000060 a5 31 a3 be fc 8f 04 bd c7 02 7a bd cf 52 25 3c
       -0.31873813 -0.032363877 -0.061037805 0.010090544
000070 c2 98 fd bc 93 f0 d8 3e 28 14 df ba 56 07 e7 3b
       -0.03095663 0.42371044 -0.0017019557 0.007050435
000080 54 57 3d bd 2e b6 b5 3c ed 03 80 3c 2b 02 9f 3e
       -0.04622586 0.022181597 0.015626872 0.31056342
000090 5b fe 0b bd f8 a1 3d bd 26 26 dc bb 10 45 42 bc
       -0.03417812 -0.046297044 -0.006718415 -0.011857286
0000a0 4a e5 92 3e 5b 8c 82 bd 7c 9c 29 3c d3 f8 21 be
       0.2869056 -0.06374427 0.01035225 -0.15817575
0000b0 dc 14 21 bd 4a d7 f5 bd 02 4a 30 3f b8 23 c3 3b
       -0.039326534 -0.12003954 0.68862927 0.0059551857
0000c0 7d 34 90 3c a9 68 cd 3b b7 a7 24 3f d7 cc 90 bc
       0.017603153 0.00626858 0.6431841 -0.0176758
0000d0 d8 e9 a4 be 54 68 b3 bc 11 34 4c bc 87 77 ef bc
       -0.3220966 -0.021900333 -0.0124635855 -0.0292318
0000e0 2c f1 6b bb 28 b9 ca 3a dd 64 3e bd 67 c0 07 bd
       -0.0036001904 0.0015466558 -0.04648291 -0.033142474
0000f0 10 87 53 be 1f 49 88 bc c9 16 93 bd f8 77 fa bc
       -0.20656991 -0.01663643 -0.0718208 -0.030574784
000100 71 ea 9c 3b 72 77 24 3f c1 13 f2 3e c7 ea 36 3c
       0.00478869 0.6424476 0.47280696 0.011164374
000110 73 8f ad bd 11 be 78 be c4 b7 8d 3c 8c 35 94 be
       -0.084746264 -0.24291255 0.01729954 -0.28947103
000120 e9 de 01 3f 22 40 e3 3e 6f b2 b6 bd f1 1d 26 bd
       0.5073076 0.44384867 -0.08920752 -0.040555898
000130 fd b2 3e bd 8f 3b f9 bc 36 d0 5b bc d2 e4 0c 3c
       -0.046557415 -0.030423908 -0.013416341 0.008599477
000140 48 c3 f2 3c 0e a0 0f bd 98 f6 66 bd 9f 55 ad bc
       0.029634133 -0.03506475 -0.056387514 -0.021158991
000150 fc b3 2b 3f 31 2c 30 bd 4b 2c a1 bc dc 84 ba 3e
       0.6707151 -0.043010894 -0.01967444 0.3642949
000160 04 86 f4 bc 3e 1c a9 3e 90 9d f5 bb c2 8b 31 bd
       -0.02984906 0.3302936 -0.0074955896 -0.043346174
000170 19 54 2c be e2 78 1e bd ce 04 bd bd 3c 23 63 bd
       -0.16828956 -0.0386895 -0.09229432 -0.055453524
000180 9e de 2b bd f8 dc 37 3c 97 f2 36 3c 0e 19 2d 3f
       -0.04196035 0.011222117 0.011166236 0.67616355
000190 34 e0 38 be 83 c7 45 bd ed c3 98 bd 7f 1f f0 bc
       -0.18054277 -0.048285972 -0.07459245 -0.029311894
0001a0 13 b4 8f 3c 07 d8 07 3f 98 a1 12 bd a9 43 83 3d
       0.01754192 0.53064007 -0.03579864 0.064093895
0001b0 63 fc 44 bd cc 70 20 bd ad b6 20 3f 09 27 f2 bb
       -0.048092257 -0.03917007 0.6277874 -0.0073899073
0001c0 2c fe ec 3d e9 fd 80 bc a8 40 0b 3f a1 aa 42 bd
       0.11571917 -0.015746074 0.5439553 -0.047526006
0001d0 da 9a 7c bd 15 af 3e bd d8 60 35 be 79 f9 4b bc
       -0.061671115 -0.04655369 -0.17712724 -0.012449616
0001e0 8b 01 83 bd ff 97 0e 3f aa 8c 2a 3f a9 5e b6 3e
       -0.06396779 0.5570068 0.66620886 0.35619095
0001f0 e0 e8 a0 3c d7 4b e6 3c 46 bd 2c bd c5 25 ed bd
       0.019642293 0.028112335 -0.042172693 -0.115794696
000200 2c 5b ad 3e 26 11 d6 bb cf 69 9a bd 4a 31 20 3f
       0.3385862 -0.006532806 -0.07539713 0.6257521
000210 e8 a9 39 3c ab 78 1c 3f ed c9 17 bd 9d 6e f7 bc
       0.011332013 0.61121625 -0.037057806 -0.030204112
000220 8c 5c 17 bd 6f 19 1f 3f b9 6e 68 bd a1 ed 93 bd
       -0.036953494 0.62148184 -0.05674622 -0.072230585
000230 ad 3f db bd 00 e6 e7 bc a2 75 0b bd 3d 29 0b be
       -0.107055046 -0.028307915 -0.03404773 -0.1358995
000240 fb 9b 82 3c ed 5e 5b bc 73 0f de 3e 0a 0a fe 3b
       0.015943518 -0.013389331 0.43371162 0.0077526616
000250 c5 b8 5b 3c 6f f8 ef bb 4c 1b ab 3c 8e da 65 bc
       0.013410752 -0.0073233168 0.02088704 -0.014029158
000260 e7 59 9c 3c 8c 5c 17 be ee 8a b7 3b 5b 50 fe bb
       0.019085838 -0.14781398 0.0056012785 -0.007761044
000270 e2 17 8b bd 03 9c c6 3e 69 2a d8 3e e5 27 ac 3e
       -0.06791665 0.38790902 0.42219856 0.33624187
000280 27 ef d6 3e d6 4f 10 bd 90 f5 ff bc fd 56 a3 3c
       0.41979334 -0.035232387 -0.031245023 0.01993894
000290 d5 30 b2 3c 18 f1 88 bd 14 01 6d be a9 29 a6 bd
       0.0217518 -0.0668661 -0.23144943 -0.08113415
0002a0 3e 12 84 bd da bf 0b bd 20 af 13 3d de 2f 87 3c
       -0.06448792 -0.03411851 0.036055684 0.016502317
0002b0 ba d8 1d bd 98 c1 fd bd cc 97 04 bd 84 00 6e bc
       -0.038536765 -0.12390441 -0.032371327 -0.01452649
0002c0 66 a3 0d 3f 23 fb 8d 3d e0 2c 27 3f eb 9d 3b bd
       0.5532745 0.06932666 0.6530285 -0.0458049
0002d0 34 ed cf bc f2 5c cd 3c 9d 3f bf 3c 8a f9 b2 3e
       -0.025381662 0.025068734 0.023345763 0.34956008
0002e0 7a 52 70 bc 2c cf 1c bd 37 c3 af be 09 a8 26 3f
       -0.014668101 -0.038283512 -0.34328625 0.6510015
0002f0 bc e3 a5 bd 8f b2 36 be 4c 21 2a bd 58 71 1c 3b
       -0.081000775 -0.17841552 -0.04153566 0.002387127
000300 50 19 9d 3a 66 49 86 bd dd 35 06 3c 12 ff 14 bd
       0.0011985693 -0.065569684 0.008191553 -0.036376067
000310 05 8d ab bd f1 e5 4b bd 79 3c 1d bb 64 3e 2a 3f
       -0.08376507 -0.049779836 -0.0023992343 0.6650145

l3.weight f4 [1, 200]
000000 f8 9e de bb 51 fa e0 be fb 5c bc be 9f e8 82 be
       -0.006793853 -0.43940976 -0.36789688 -0.255681
000010 b2 0a 6b bd 4b c0 16 3c 66 2d 99 3b a0 3c 66 bc
       -0.057383247 0.00920112 0.0046746014 -0.01405254
000020 ab 22 20 bd e5 c7 34 ba 82 e3 6d be 7b a7 20 bd
       -0.039095562 -0.00068962417 -0.23231319 -0.03922222
000030 cc b5 c6 bc ec fd 47 bc 8c d3 98 3c b7 fd f0 3e
       -0.02425661 -0.012206536 0.01865556 0.4706857
000040 3c 2c 85 3b b0 a8 89 3c 38 2e 93 bc be 48 19 bb
       0.004064111 0.01680407 -0.017966375 -0.0023389305
000050 d2 72 03 bf d8 b5 90 3e 7d a1 a1 bc 0f 22 08 3c
       -0.51347077 0.28263736 -0.019730324 0.008308901
000060 47 31 8c be 7d 1a f8 bc 6c a3 da bb bf a3 2d bd
       -0.27381346 -0.030286068 -0.0066723134 -0.04239249
000070 95 e2 c7 bc 4c b8 80 3e 83 12 eb bc b0 1a 13 3d
       -0.024400035 0.25140607 -0.02869535 0.035914123
000080 3f 4e b8 ba c5 c2 84 bb 69 b2 02 bf e7 90 fc 3e
       -0.0014061405 -0.0040515386 -0.5105348 0.49329302
000090 7b 46 8d 3c cb 34 c5 3e 4b 29 fe 3c 35 da 84 bd
       0.017245522 0.3851684 0.03102555 -0.06486932
0000a0 bb bb 09 3f a3 49 76 bc aa 55 02 bd 64 75 be be
       0.5380208 -0.015032205 -0.031819977 -0.37198937
0000b0 dc ed bc 3c 2a a2 ed be dd 58 79 3e 43 0d 83 3b
       0.023062639 -0.46412784 0.24350305 0.0039993837
0000c0 b1 80 1e 3c 79 69 80 bd e5 17 3e 3e f2 34 62 3d
       0.009674237 -0.06270117 0.18563803 0.055226274
0000d0 77 57 cc be 8b 6d 0d 3d f2 a5 1d bc c4 ac 16 3d
       -0.3991048 0.034528296 -0.009622084 0.036785856
0000e0 67 c0 07 3d 04 b5 21 bd d0 fc 08 bd d8 34 71 bc
       0.033142474 -0.03947927 -0.033444226 -0.014722072
0000f0 ae 13 71 be ab 22 20 3c ab d9 cf 3c 10 05 14 3d
       -0.23542663 0.0097738905 0.025372347 0.03613764
000100 df eb 2e bd 79 a3 5e 3e 41 fd 87 3e 90 51 67 bd
       -0.042705413 0.21742047 0.26560405 -0.05647427
000110 41 90 49 c0 14 32 9f be 28 a2 d5 bc d5 16 38 bf
       -3.1494296 -0.31092894 -0.026078299 -0.7190984
000120 35 90 b5 3e dc eb 99 3e c1 6c 31 bf b6 f7 66 bc
       0.35461584 0.3006276 -0.6930657 -0.014097145
000130 62 2b fd 3c ab bb 0d bc d5 c1 99 3b 38 01 30 bc
       0.030904476 -0.008650701 0.004692296 -0.010742478
000140 74 fb 59 3d 89 81 5f bd 2b a4 6b 3c 77 16 80 bb
       0.05321832 -0.054566894 0.014382402 -0.003908928
000150 51 0a 59 3e 1a ad 30 3d b8 ac 41 bd 69 ee 36 3f
       0.21195342 0.043133833 -0.047283858 0.71457535
000160 66 bb d5 be ed d9 e7 3e 60 34 b2 39 4b 32 a0 bb
       -0.41744536 0.45283452 0.00033989828 -0.004888808
000170 32 b3 11 bf ef b1 9b 3a bd db a4 be 7a d5 8a bc
       -0.56914055 0.001187859 -0.32198897 -0.016947497
000180 c6 94 9a bc b8 d9 24 bd cb 3e 45 bd ee fb 44 3e
       -0.018869769 -0.040246695 -0.048155587 0.19236729
000190 69 b3 37 3f b8 8a d5 3b 6b 14 96 bb 11 ef 25 bc
       0.71758133 0.0065167807 -0.0045800707 -0.010127799
0001a0 31 a2 3d 3f 09 09 74 3e 07 b9 92 bc 46 f6 4d be
       0.7407561 0.23831572 -0.017910494 -0.20113477
0001b0 3c 6c 33 bc c5 0c 23 bb c3 82 62 3e a8 36 f2 bc
       -0.010951098 -0.0024879437 0.22120194 -0.029567078
0001c0 92 dd 34 3f 8e cf 6e 3d 72 81 7b 3e 2e 28 bf 3c
       0.7065059 0.05830341 0.24561098 0.023334589
0001d0 ba cc 1f 3d 00 0d cc 3c 43 e1 cb be 2c cf 7f bd
       0.0390136 0.024908543 -0.398203 -0.062453434
0001e0 12 1d d7 bb 6a 77 b7 3e bf e3 7f 3e a2 f0 c5 3e
       -0.0065647447 0.35833293 0.24989222 0.3866015
0001f0 0c 9a a8 3e e6 ea 6e 3c 14 88 da 39 16 42 ad bc
       0.32930028 0.014582371 0.00041681586 -0.021149676
000200 61 0b 50 3f 90 8e e7 3e 0c e0 3d bb c7 b2 3a 3e
       0.8126736 0.45225954 -0.0028972654 0.1823226
000210 f5 b0 5b 3c 96 89 42 3e db 54 cf bc e3 93 04 3a
       0.013408889 0.18997797 -0.025309017 0.0005057437
000220 01 0d cc bc ff 5e 40 3e a8 a8 7b 3c 9e 77 19 3b
       -0.024908544 0.18786238 0.015360035 0.0023417245
000230 18 a8 38 bc fc 1f 50 bc f1 d9 4d 3b fb 9e b7 be
       -0.011270545 -0.012702938 0.003141042 -0.3586348
000240 ac 18 77 bc 82 de ba bc de 5d 36 3f 79 3c 9d bb
       -0.015081566 -0.022811178 0.7123698 -0.0047984687
000250 b0 7d 7b bc 49 f0 55 bd 04 49 97 bb a8 b3 72 3b
       -0.01534979 -0.052231107 -0.0046168584 0.0037033353
000260 7b 86 3b bd b7 5e 79 3c 1a 6f 57 3c f7 05 71 bd
       -0.045782547 0.015220336 0.013149047 -0.05884358
000270 09 52 80 bb a7 da 4b 3e 7e 02 28 3f 42 3b dd 3e
       -0.0039160294 0.19907628 0.656288 0.43209273
000280 4a dd 7d 3e 92 39 eb 3c 36 e8 20 bc d7 d9 dc bb
       0.24791446 0.028713975 -0.009820988 -0.0067398357
000290 76 af 03 bf f7 1c 66 3d 11 22 95 be 62 d3 8b bc
       -0.5143961 0.056179967 -0.29127553 -0.017068569
0002a0 6c 76 92 be c1 2c f3 3a 56 16 08 3b 24 30 05 bd
       -0.28605974 0.0018552766 0.0020765266 -0.032516614
0002b0 81 79 7d bc 04 c0 ef 3e 8b ad 3b bc e3 72 9f bc
       -0.015470863 0.46826184 -0.01145495 -0.019463962
0002c0 77 b6 81 3e e8 3c c5 3e af 05 85 3e de 7f 24 3c
       0.25334522 0.3852303 0.259809 0.010040252
0002d0 4d 65 49 bb 4c 71 c7 bc d9 87 31 bc 7e 5a 4c 3f
       -0.0030730546 -0.024346016 -0.010835611 0.7982558
0002e0 77 61 50 ba 0a dd f0 bc f0 4e 00 bf 65 79 7e 3e
       -0.00079490937 -0.029402275 -0.5012045 0.24850996
0002f0 0b 6b ad be bc 9b 32 bf 25 9c 0f 3b 76 d1 99 bc
       -0.3387073 -0.6976888 0.0021913138 -0.018776637
000300 7e 23 1a bd 5d 81 d2 3c e7 70 11 bb ad 18 77 3d
       -0.037631504 0.02569645 -0.002219254 0.060326267
000310 4c 2b 07 bf f1 8f 2f bb d9 60 cd 3b c8 1a 80 3e
       -0.5280044 -0.0026788677 0.0062676487 0.25020432
