DDPG/checkpoints/colabv2/target_actor.ckpt (torch, 534407 bytes, 10 tensors)

layer1.weight f4 [400, 24]
00000000: 3e2b 9f3d b358 3d39 3516 d13d c035 d1bd
00000010: 70d5 d53c 0294 12bd f648 6bbd 7aa8 8dbc
00000020: 948e 133e 99d6 9bbd aa96 89bd d533 0fbe
00000030: f390 283b c913 143e ca06 ca3d 9ac1 163e
00000040: f6eb 273e ecfd 8f3d 320b 273e 42c2 0b3e
00000050: aa50 1d3e 04ff 123e 6024 143e 554b 103e
00000060: 84ee 48be 216f 183d 1437 06be 5aaf 983d
00000070: 17a0 5b3c c035 ce3d cb9f 8e3d f778 d43c
00000080: 71ef 21be 7d72 273d 0634 823d ac62 ec3d
00000090: fb79 37bd 1eaa 09be 01a0 e8bd 5099 44be
000000a0: f8f2 35be ebe1 34be f1c2 33be 44c2 2dbe
000000b0: f1b2 e2bd 4239 51be c7e0 21be 29f1 49be
000000c0: db44 9ebd 7638 4d3d e84d 6fbd 4d8f a83d
000000d0: 9b8c 4bbd 9300 593d 4316 573d 0d97 c9ba
000000e0: 58a0 77bd f6a1 af3d d415 023d 88a5 6a3d
000000f0: 7097 0eb9 78f3 cdbd bad3 96bd 1967 3ebd
00000100: 28c3 07be e584 8dbd ee58 e3bd 3908 a2bd
00000110: 3a9e c0bd 8024 ffbd 2182 15be 7226 71bd
00000120: 9533 febd c94e be3d eb28 bfbd bbc6 283e
00000130: d830 9f3b ea68 893d a48b 593d 646c 78bd
00000140: e623 d2bd f0f5 b13d dcbc 173d 546f b33d
00000150: e4f4 6fbd d0ac b6bd dc56 28be 17e6 d3bd
00000160: 8bde 3abe 07df 0bbe db6e f1bd 7a9f 4ebe
00000170: ef4c 34be ca3a 38be 7d85 48be 798b 4bbe
00000180: b84a 0dbd 61aa c53b bd75 d4bc 700e 9d3d
00000190: d1be f6bc 9e07 6d3c bac8 6c3d fd29 863d
000001a0: 4186 a6bd 7887 c3bc f243 9d3d 001b 933d
000001b0: 34cb 0abd 4ed7 65bd 004a c6bd 85a9 afbd
000001c0: 4337 bbbd 0b16 8abd f10a 86bd 9fbd ddbd
000001d0: cf3d cfbc f79f d5bc 48b3 e8bd 5821 9bbd
000001e0: 79ea 12be a38d b33d d59a d1bd 089c 2a3e
000001f0: c7cb 3abc 351a 0d3d a0c3 5a3c d0eb 18bb
00000200: a160 ebbd 3ead 0a3d 2503 3f3d c0ce cc3d
00000210: 1a75 ebbc 98c6 40be 80fe 33be 61ae 4ebe
00000220: 76c9 45be 5bb2 15be dbca 16be f25a efbd
00000230: 0a81 41be 4ebb 18be fe36 4ebe f5c7 56be
00000240: 7449 d4bd 1976 6f3d 183e f0bd 6c40 d63d
00000250: 4be5 8cbd 1693 de3d 448e 653c 4857 323d
00000260: 7eb9 09be 95d4 993d 2c68 c83d 21a7 a73d
00000270: 97e1 8cbb 8c46 23be 3b4d efbd e62b 3ebe
00000280: 1f90 2ebe 2d09 d8bd 66ca 02be e4a7 22be
00000290: 9254 dbbd 936d 04be 7ce8 3dbe 8761 3dbe
000002a0: f2b0 183d ef1c 653d 6d35 9e3c 0fdf c5bb
000002b0: 2bae 8a3d 8147 423d 671f 19bd 4328 303d
000002c0: 448b e53b d3ea 05bc fbaf c2bc f50c 3cbc
000002d0: 4d8b 8ebc 7fc6 a83d 652a 583d 5e76 9d3d
000002e0: bd6f bebb 5d11 143d f114 b83d bacc 403d
000002f0: 64cb b73d 7033 a13d a6b3 a03d 3a4f b73c
00000300: 7815 5e3e 1a55 0cbe 0332 5c3e 9f78 4cbe
00000310: 93ed 433d 0542 bbbd 498e 34be 1029 90bc
00000320: 58b1 883e ad4a 0abd 9945 05be e32b 77be
00000330: bcef 92bd b040 893e 6b3d 493e d22a 703e
00000340: f42a 8c3e b1ef 823e b13a 893e 022f 8a3e
00000350: f57f 683e f13c 843e 29e0 8f3e 139b 773e
00000360: 8ccb 003e e2bf 72bd bcd1 0a3e 9b40 b9bd
00000370: 9d37 5e3d 9c3d 8cbd 3bff 9cbd 4f78 2dbd
00000380: 0971 a93d f056 eebc 6c9e 92bd e24b e5bd
00000390: 20e9 fbbc 040d 0e3e f369 003e e4ae 1e3e
000003a0: 2cf4 fa3d 0def a93d 2e26 1f3e 2f59 ae3d
000003b0: 78c9 233e 1367 cd3d 1bc3 b63d 28c7 113e
000003c0: 9c27 2c3c 93df 653c 247e 7f3c d701 013d
000003d0: c945 fc3c 8901 373d 6b22 213d 2b42 033d
000003e0: 965e 0bbc 6088 d73c 96c5 743c 33b6 003d
000003f0: 3c06 fc3c 53de 3f3c cf21 8b3b ee84 46bd
0.0777192 0.00018057488 0.10209314 -0.1021533 0.026102751 -0.035785682 -0.057442628 -0.01729225
0.14409858 -0.07609291 -0.0671819 -0.13984616 0.0025721162 0.14460672 0.09864576 0.1472229
0.16398606 0.07030854 0.16312864 0.13648322 0.15362802 0.14355093 0.14467001 0.14091237
-0.19622236 0.037215356 -0.13106948 0.07455321 0.013404868 0.10068846 0.06964072 0.025936587
-0.15813996 0.04088067 0.06357579 0.11542258 -0.044794064 -0.13443801 -0.11358643 -0.19199109
-0.17768466 -0.17664306 -0.17554833 -0.16968638 -0.110692866 -0.20431998 -0.15808402 -0.19720902
-0.07727977 0.050102673 -0.058423907 0.082304575 -0.04969464 0.052979063 0.052511465 -0.00153801
-0.06045565 0.085758135 0.0317591 0.05728677 -0.0001359859 -0.100562036 -0.073646024 -0.04648504
-0.1325804 -0.06910113 -0.11100946 -0.079117246 -0.09405179 -0.12458134 -0.14600421 -0.058874555
-0.12412182 0.09292371 -0.09333976 0.1648206 0.0048581176 0.06709464 0.053111687 -0.060650244
-0.10260753 0.08689487 0.037045345 0.087614685 -0.058583155 -0.0891968 -0.16439384 -0.103466205
-0.18248956 -0.13659297 -0.11788722 -0.20178023 -0.17607473 -0.17991176 -0.19582172 -0.19877423
-0.034495085 0.0060322736 -0.025935048 0.07668769 -0.030120285 0.014467148 0.057808615 0.065509774
-0.08131076 -0.023868307 0.07678975 0.07182884 -0.033885196 -0.056113534 -0.09682083 -0.08577255
-0.091414 -0.067424856 -0.06545056 -0.10827183 -0.025298027 -0.026077254 -0.1136232 -0.07574719
-0.14347257 0.087672494 -0.1023461 0.16661084 -0.011401123 0.03444882 0.013352305 -0.0023333915
-0.1149304 0.033856623 0.04663386 0.10000372 -0.028742362 -0.18825758 -0.17577553 -0.20183708
-0.19315132 -0.14618818 -0.1472582 -0.11687268 -0.18896881 -0.14915201 -0.20138165 -0.20974715
-0.103655726 0.058462236 -0.117305934 0.10461506 -0.06879672 0.10867898 0.01401097 0.04354027
-0.13449666 0.0751125 0.09785494 0.08186174 -0.0042993533 -0.1594488 -0.116846524 -0.18571433
-0.17047165 -0.10548625 -0.12772521 -0.15884358 -0.1070949 -0.12932424 -0.18545717 -0.18494235
0.037278123 0.055935796 0.019312585 -0.0060385535 0.06771501 0.047431473 -0.037383463 0.043007147
0.007005127 -0.008173662 -0.023765555 -0.011477699 -0.017400408 0.08240985 0.052774806 0.076885924
-0.00581166 0.03614937 0.08988369 0.047070242 0.089743406 0.07871139 0.07846765 0.022376645
0.21687877 -0.13704339 0.21503453 -0.19967888 0.04783399 -0.091434516 -0.17632402 -0.017597705
0.26697803 -0.033762623 -0.1301483 -0.24137835 -0.07174632 0.26807165 0.19652335 0.23453835
0.2737652 0.25573495 0.2680259 0.2698899 0.22705062 0.25827745 0.28100708 0.2418025
0.12577647 -0.059265025 0.1355657 -0.09045526 0.054252256 -0.068476886 -0.07665869 -0.042351063
0.08273513 -0.02909419 -0.07159123 -0.11196114 -0.030750811 0.13872153 0.12540416 0.15496403
0.12253603 0.082975484 0.15541908 0.08513104 0.15994823 0.100294255 0.08923932 0.14236128
0.0105074905 0.014030355 0.015594039 0.031495895 0.030794995 0.0446792 0.039339464 0.032045525
-0.008506438 0.026310146 0.014939686 0.03142376 0.030764692 0.011710721 0.0042459737 -0.048466615

layer1.bias f4 [400]
00000000: b9e3 fb3d 1638 27be a79f c7bd 9900 52be
00000010: 5736 26bd 2dea 18be 6d14 bebd 3507 bc3d
00000020: 46e8 653e 78a6 143e c83c 1d3c dacf 05be
00000030: 5e3d 10be fc79 f3bd 6686 8d3c c2e6 7dbd
00000040: 3a2f 6a3d 3a3b 993c 2901 2d3d c485 2ebd
00000050: 0c03 33be f2e5 bcbd d650 18be e31f 07be
00000060: 9458 13bd 3d3f eebb 47ec 62bc 358b f6bd
00000070: de46 41be eb92 20be 51e2 a1bd e696 31be
00000080: c940 23be 893b 3ebe f7a6 b6bc b151 76bd
00000090: 7946 09bd 4c30 1e3e 86df 95bd 321c 113d
000000a0: dec7 d7bc cd56 04be b144 3dbd ae4c d0bd
000000b0: 3227 8ebd ae50 57be 3a1e 823d ab3a 1b3e
000000c0: dab2 923d fd6e 28bc dae5 adbd 3633 14be
000000d0: e4d8 1ebd 28f9 903d 02a6 96bd 9edd 80bd
000000e0: 24e1 023e 96fe d93d a659 b4bd 2c5c 073e
000000f0: 2fc6 8dbd d265 d7bd a3d7 243e 04aa a3bd
00000100: 6679 423e e5af 693d 29f3 40be 8ef4 503e
00000110: e1c0 8b3d b258 1ebd 63ee 8bbd 9dd1 29be
00000120: 697e 60bd 53b4 77bd d743 a9bd 6227 43be
00000130: e459 2bbe 9b6f 23be da45 9a3d bb36 17be
00000140: 4075 b3bd 8b29 21be 97af 59bd 5724 3dbe
00000150: 1cfa f43d bf78 67bd dfa2 1cbe 7a5d e2bd
00000160: 64f0 75bd eee7 57be b792 133e 7d26 bc3d
00000170: f7f6 1c3e f630 0c3c 1cda 953d c3e9 5bbc
00000180: d5df 19be 0516 debd b6c4 9abd 4ade 71bd
00000190: 65db 0cbe 400f 25be 616d adbd a74b 97bd
000001a0: 1deb 4abe c528 af3d 1840 203e 70d7 05be
000001b0: 9299 aebd 3351 a5bd 7349 58be 5a64 3ebe
000001c0: 2b0d 49bd 14ad 053e 46ca 62bd 30d2 23be
000001d0: fa24 11be b92d 42be aecd 85bd c168 23be
000001e0: 1781 c8bd 5510 9ebc 0731 ad3c a897 27bc
000001f0: 373b a6bd b781 91bc ef54 febd 782f 673e
00000200: 4339 34be eea1 01be 8c93 093e f2b6 71bd
00000210: 56bd 58be f333 873d 6b5c d3bd 736c 8bbd
00000220: 9444 02be 9e89 013e 420b 013d b90b 01bc
00000230: a526 66bd 98b4 4ebe fd9a 373d abd9 a0bc
00000240: 0e78 693d 1204 c4bd 16fb 343e 5d9c 2c3d
00000250: 6a48 76bd 6a11 f2bc 8b07 70bd 7d26 d8bd
00000260: f185 643d b943 0bbe 9f9d c9bd 4338 5cbe
00000270: a9ec 973d f2e4 45be 17e3 36bd 0892 17be
00000280: dc0b ddbd ca11 29be c9a5 c93d 131a 08be
00000290: 12c0 d13d a8c6 4cbd a7dc 213c 8d50 01be
000002a0: 3ffe 083e c96b 483e 5dbd d7bd d53b 10be
000002b0: b1ba f9bd 7bbe 58be b512 b13d 37ae 343e
000002c0: a419 183e f905 eabd 72e0 a9bd e2b0 2dbe
000002d0: 6ca3 853d a03f 51be 89a7 54be 4567 4ebe
000002e0: 59be 94bd b7a0 30be 87af 673d 51af 02be
000002f0: e723 82bd c832 e1bd b60d 9ebd e0ea e0bd
00000300: f459 07be c9c6 51be f53d b4bd f672 10be
00000310: 57a0 223e 31c9 5bbe 4a1c 32be 2a1f 24be
00000320: 294d efbd 79ed 00be da7f fb3c a244 03be
00000330: 54b1 90bd 3f9a acbd 73b8 06be 8d12 5b3d
00000340: 458b 01be 769a 83bd d89c cbbd 3a07 37be
00000350: 0756 38be f664 583d bec6 83bd 17d3 d83d
00000360: d632 24be fe1c 943e eb5c 31be dbfc aebd
00000370: 81e3 33be 7bd3 33be ca3f 97bd 444c c03d
00000380: e1e3 56be 8814 4cbe 942e 36be 2bc9 12be
00000390: 5bfa cdbc fba9 a5bd 5534 343e f055 69bd
000003a0: 85f3 663d dad5 41be 3c76 eabd cbd0 febc
000003b0: ca2a 4abe e7cb d73c 4360 9b3d 2b37 54be
000003c0: 745b a8bc ac14 99bd e555 9e3d 385f 3b3e
000003d0: 8515 2b3e 9fb4 e1bd 184a adbd 6591 4fbe
000003e0: 2a99 923d 360d 01bd f463 10be ed40 1b3e
000003f0: e97f c03d 6401 ff3d 1352 36be 0302 8ebd
0.12299294 -0.16329989 -0.09747248 -0.2050804 -0.040579166 -0.14933081 -0.0928124 0.09181062
0.22451887 0.14516628 0.009597011 -0.1306757 -0.1408591 -0.11888501 0.017276 -0.061987646
0.057173945 0.018705 0.042237435 -0.042608038 -0.17481631 -0.09223546 -0.14874586 -0.13195758
-0.035973147 -0.007270722 -0.013850278 -0.120382704 -0.1887469 -0.15681045 -0.079044946 -0.1734272
-0.15942682 -0.18577398 -0.022296412 -0.0601365 -0.033514474 0.15448111 -0.07318024 0.03542728
-0.026340421 -0.12923737 -0.046208087 -0.101708755 -0.0694107 -0.2102687 0.063534215 0.15159099
0.071630195 -0.010280368 -0.08491106 -0.1447266 -0.03878106 0.07078773 -0.07355882 -0.0629227
0.12781197 0.106442615 -0.088061616 0.13218755 -0.06922566 -0.105174676 0.16097884 -0.07991412
0.18991622 0.05705251 -0.18842758 0.2040579 0.06823898 -0.038658805 -0.06832578 -0.16583867
-0.054808054 -0.060474705 -0.082648925 -0.19057992 -0.1673351 -0.15960543 0.075328544 -0.14766972
-0.08762598 -0.15738504 -0.05314597 -0.18470894 0.11961767 -0.056511637 -0.15296505 -0.110529855
-0.060043707 -0.21084568 0.14411436 0.091870286 0.15328585 0.008556595 0.07316992 -0.013422432
-0.15026791 -0.10844044 -0.07557051 -0.059049882 -0.13755567 -0.16119099 -0.08468128 -0.073874764
-0.19816251 0.08552698 0.1564945 -0.13070464 -0.08525385 -0.08072128 -0.21121769 -0.18592969
-0.049084824 0.13054305 -0.055368684 -0.15998149 -0.14174262 -0.18962754 -0.06533371 -0.15957929
-0.09790247 -0.019294897 0.021141542 -0.010229029 -0.08116763 -0.017762048 -0.124185435 0.22576702
-0.17599969 -0.12659428 0.13435191 -0.05901236 -0.21165976 0.066017054 -0.10320362 -0.068077944
-0.12721473 0.12650153 0.031504877 -0.00787633 -0.056189198 -0.20186079 0.044825543 -0.019635042
0.05699926 -0.09571089 0.17673907 0.042141307 -0.060127653 -0.02954932 -0.058600944 -0.10554216
0.0557918 -0.13600053 -0.09844517 -0.21505837 0.07418186 -0.19325617 -0.044650164 -0.148018
-0.107932776 -0.16510692 0.09846074 -0.13291197 0.10241713 -0.04999414 0.009879268 -0.12628384
0.13378237 0.19572367 -0.10534165 -0.14085324 -0.12193812 -0.21166413 0.08646146 0.17644583
0.14853531 -0.114269204 -0.08294763 -0.16962007 0.06525311 -0.20434427 -0.20767035 -0.20156582
-0.072628684 -0.17248808 0.05656388 -0.1276219 -0.06354504 -0.10996014 -0.07717459 -0.10982299
-0.13217908 -0.20485987 -0.0880088 -0.14106354 0.15881477 -0.21463467 -0.17393604 -0.16027513
-0.11684639 -0.12590589 0.030700613 -0.1281915 -0.07065073 -0.084278576 -0.131563 0.05348449
-0.12650783 -0.064259455 -0.09942025 -0.1787385 -0.18001567 0.05283066 -0.064343914 0.10587137
-0.16035017 0.2892837 -0.17320602 -0.08544322 -0.17567255 -0.17561142 -0.07385214 0.093895465
-0.20985366 -0.19929707 -0.17791206 -0.14334552 -0.025143793 -0.08089062 0.17598088 -0.056966722
0.056384582 -0.18929234 -0.11448333 -0.03110542 -0.19742885 0.026342345 0.0758672 -0.2072417
-0.02055142 -0.07474646 0.07731227 0.18298042 0.16707428 -0.11020779 -0.08461398 -0.20270307
0.0715812 -0.03150674 -0.14100629 0.15161486 0.09399397 0.12451437 -0.17804746 -0.069339775

bn1.weight f4 [400]
00000000: 9fbf 8d3f e1ab 803f 828f 6b3f 8ac5 7e3f
00000010: e1ae 693f e844 7c3f f09c 7b3f 9355 813f
00000020: 68ff 9e3f 1351 8b3f 04e6 783f 30c7 723f
00000030: c60e 783f e81a 663f a8e4 813f d890 6e3f
00000040: dbb6 883f 913a 733f 5dfd 823f 6300 6f3f
00000050: 7a9e 7e3f c696 6f3f c11b 7d3f e2ec 7c3f
00000060: db10 653f 7943 7d3f 875b 723f fbe7 753f
00000070: 5ac2 7f3f 3f6c 7a3f 3920 643f 79aa 7c3f
00000080: 5956 7d3f 72c9 7e3f 6db6 6b3f a915 6f3f
00000090: 6346 633f f922 943f 4f04 763f 8970 863f
000000a0: 8031 5a3f 183d 7c3f 0278 6b3f 48be 7a3f
000000b0: 6742 6e3f 817f 7c3f d228 8b3f 12eb 8d3f
000000c0: 1e15 803f a75c 763f 000c 713f 11f0 733f
000000d0: e68c 783f 87bf 823f 351c 663f 765d 673f
000000e0: c57a 893f 1507 8c3f d3c4 753f 36cf 913f
000000f0: d6bd 6f3f de8c 703f bbaf 903f 6981 6b3f
00000100: 2ce0 923f d9b4 863f 02b8 7d3f ca26 973f
00000110: c202 893f 84be 643f 65b8 633f 6167 813f
00000120: 214c 613f e5f8 653f 8d4c 6f3f f7f4 7a3f
00000130: 0910 7d3f 3714 7b3f c64e 823f d0cb 7b3f
00000140: 86e3 793f 5181 7d3f 7320 663f c292 7e3f
00000150: 94b6 8f3f 6f0e 5e3f b1f4 7c3f 8e52 6e3f
00000160: 6f2b 693f 4b23 7f3f f9b8 893f 7d77 8e3f
00000170: 098d 903f 6799 713f f69e 873f 2f95 5d3f
00000180: 500a 7c3f 2505 773f fe20 793f ced7 5d3f
00000190: 4846 723f 4aa6 7e3f 568a 663f dab0 6a3f
000001a0: 74c3 7f3f 2767 833f 0bfb 903f 5b4a 7f3f
000001b0: aca6 6d3f f506 783f 62ae 7c3f 1b2b 7f3f
000001c0: df9b 663f bb43 903f f0ce 683f e3e6 7d3f
000001d0: f40c 773f eab5 7e3f 9689 733f c19e 7c3f
000001e0: 70e1 7a3f 66ca 6a3f dfaf 793f 075b 663f
000001f0: feeb 663f 81a0 763f 02b2 7e3f e3da 983f
00000200: 8ac5 7e3f 48c3 723f df65 8f3f 5df5 613f
00000210: f307 7f3f 28f5 893f a73c 713f 604d 693f
00000220: 7e0e 7a3f 3458 8e3f 1925 823f 44a7 783f
00000230: 4e14 663f d91d 7c3f 8991 7d3f d23c 6a3f
00000240: 7046 873f 1d3a 6a3f 8d33 903f 98c1 7f3f
00000250: f08c 633f efcf 633f 6ab9 5f3f 91a0 7d3f
00000260: 645c 7e3f c2b4 6a3f d3db 6a3f b9c9 7c3f
00000270: d2ac 893f 4a29 7e3f 5dda 673f 921d 7e3f
00000280: 8677 6f3f 02b8 7d3f c235 853f d723 7b3f
00000290: 87c9 863f aa5d 6f3f 7813 823f 6d8c 653f
000002a0: cc2b 8b3f e3a2 923f 3df7 6d3f b2ee 7d3f
000002b0: d62f 793f aa19 7e3f dd26 853f 8fce 923f
000002c0: d760 923f aed4 793f e473 6d3f ffc9 7a3f
000002d0: b79e 843f 01be 7c3f 4741 7a3f 03ac 7f3f
000002e0: 84f0 723f e7cd 7a3f b6f1 853f 7938 733f
000002f0: efac 693f fd58 783f 9020 733f af00 7b3f
00000300: 6a11 733f b2ee 7d3f 494b 6a3f d418 7e3f
00000310: d85c 8d3f 724c 7e3f 332d 7e3f 3bfc 7e3f
00000320: 0a2c 6a3f a861 803f eda7 843f d27f 743f
00000330: f594 6e3f 5115 733f 93e2 643f 483a 863f
00000340: 1fac 703f fafe 6a3f 3eff 763f f30d 7e3f
00000350: 83f0 7e3f 1d93 843f 5679 703f d196 8b3f
00000360: 0952 803f ab08 a43f a2c7 7d3f 61b4 7b3f
00000370: 42d7 7d3f f119 7c3f d40b 6a3f fdea 883f
00000380: e93e 7d3f e2e6 7d3f 70db 7b3f ce5a 793f
00000390: ae50 623f 02b9 643f 9402 923f 6e7f 723f
000003a0: 5240 883f 1aae 7e3f 1e40 663f c57e 603f
000003b0: 8854 7c3f ddb8 823f cbeb 843f 3a02 7e3f
000003c0: f06f 753f f097 673f c7bb 813f 909b 903f
000003d0: 10c4 8d3f 7eb5 733f 46e9 733f ee06 803f
000003e0: 56de 843f a629 733f 32b0 7d3f aac2 913f
000003f0: 5596 853f 419c 8a3f 2a58 7e3f ed3c 6f3f
1.1074103 1.0052453 0.9201585 0.9952017 0.9128247 0.9854264 0.9828634 1.010424
1.2421694 1.0884117 0.97225976 0.94835186 0.9689754 0.89884806 1.0147905 0.93189764
1.0680803 0.9501124 1.023357 0.93359965 0.99460566 0.93589437 0.98870474 0.98798954
0.89478844 0.9893108 0.9467091 0.960571 0.9990593 0.9782142 0.8911167 0.9869762
0.9895988 0.9952613 0.92075235 0.93392426 0.88779277 1.1573173 0.96100324 1.0503093
0.8523178 0.9853072 0.9197999 0.97946596 0.9307007 0.98632056 1.0871832 1.1087363
1.0006444 0.96235126 0.94158936 0.9528819 0.97089994 1.02147 0.8988679 0.90376985
1.0740591 1.0939661 0.96003455 1.1391361 0.9364904 0.93964946 1.1303629 0.9199434
1.1474662 1.052394 0.991089 1.1808712 1.0703967 0.89353204 0.8895324 1.0109674
0.8800679 0.8983291 0.9347618 0.98030037 0.9885259 0.9807772 1.018029 0.9835787
0.976128 0.99025446 0.89893264 0.99442685 1.1227593 0.86740774 0.9881087 0.9309472
0.910819 0.9966323 1.0759574 1.1130215 1.129304 0.943747 1.0595386 0.8655576
0.98453236 0.96492225 0.9731597 0.86657417 0.9463849 0.99472487 0.90054834 0.91676104
0.9990761 1.0265855 1.1326612 0.9972283 0.92832446 0.96885616 0.9870359 0.9967515
0.9008159 1.127067 0.9094076 0.9918043 0.9650414 0.9949633 0.95131814 0.9867974
0.9800024 0.91715086 0.97533983 0.89982647 0.90203846 0.9633866 0.9949037 1.1941799
0.9952017 0.94829226 1.1202964 0.8826502 0.99621505 1.0777941 0.94233173 0.9113369
0.97678363 1.1120667 1.0167571 0.9713023 0.8987473 0.98483044 0.99050194 0.91499054
1.0568371 0.91494924 1.1265732 0.99904776 0.8888693 0.88989156 0.87392294 0.9907313
0.99359727 0.91682065 0.91741675 0.98745304 1.0755866 0.9928175 0.9056757 0.9926387
0.93541753 0.991089 1.040703 0.9810156 1.0530251 0.93502295 1.0162191 0.896674
1.0872741 1.1455959 0.9295538 0.99192345 0.97338617 0.9925791 1.0402485 1.1469287
1.1435803 0.9759015 0.9275496 0.9796447 1.0360936 0.9872742 0.97755855 0.99871844
0.9489825 0.9797043 1.0464389 0.95008045 0.912795 0.97010785 0.9497156 0.9804792
0.94948447 0.99192345 0.91521126 0.99256635 1.1043959 0.99335396 0.9928772 0.99603623
0.9147345 1.0029802 1.0363747 0.9550754 0.9319604 0.949544 0.89408225 1.0486536
0.94012636 0.91795313 0.9648322 0.99240035 0.9958574 1.0357395 0.93935144 1.09054
1.0025035 1.2815145 0.9913274 0.9832211 0.9915658 0.98477083 0.914243 1.0696713
0.9892412 0.99180424 0.9838171 0.9740418 0.8840436 0.893448 1.1407037 0.9472569
1.0644629 0.9948441 0.89941585 0.87693435 0.98566484 1.0212666 1.0384458 0.9922215
0.9587393 0.90466213 1.013543 1.1297474 1.1075459 0.9519881 0.9527782 1.0002115
1.0380352 0.94985425 0.9909698 1.1387532 1.0436503 1.0828935 0.9935328 0.9345234

bn1.bias f4 [400]
00000000: d96f 023e fd02 6e3c 682c 92bd c53b 5bbb
00000010: 1008 0ebd 35d6 5abc eaca 9ebc 94d1 5c3d
00000020: 0247 813e 6a96 e83d 0b87 60bc 25f8 aabc
00000030: 9975 7dbc c45b 3fbd e700 883d bed5 89bc
00000040: 0403 ca3d fff7 683b 537f 603d 8689 5ebd
00000050: cd14 05bb cb00 ecbc a232 3abc 10fc 71bb
00000060: 7327 88bd c75c 633b 8407 45bc eadd e9bc
00000070: 117d 9c3b ac11 2abd d254 87bd 9e05 90bc
00000080: b470 76bc 0cb3 5abc cf97 52bd a20a eabc
00000090: e269 7dbd 19e6 423e 25b0 0dbd 24d2 b23d
000000a0: eb7d b3bd eeca 65bc f072 12bd 5ee9 2ebb
000000b0: 4ca2 5ebd bad8 9dbc dcb3 d13d 8d31 f93d
000000c0: 200e 713d 338e e1bc 39ae 87bc e4ff 0ebd
000000d0: 2c6b bfbc a30d 1f3d dac8 84bd ed40 f9bc
000000e0: 522b ac3d 638f 003e b8e4 1bbd 4349 313e
000000f0: de0a f8bc 7da1 21bd 4ea8 223e 01cf 91bd
00000100: 0250 323e 3395 893d 9f8f 5cbc e552 493e
00000110: f2ea e33d bbf4 ddbc 8037 8bbd a72b fb3b
00000120: 9aa6 a6bd 14e3 58bd bd77 51bd 8887 debc
00000130: 6f5d adbc 34b3 a0bc dbd6 1c3d 4a3e 1ebc
00000140: b264 b1bc 04f5 4fbc 38b9 0bbd f3dd 1f3b
00000150: b59a 0d3e 6c40 9bbd cb81 16bc 25c5 48bd
00000160: 3a78 29bd 7a36 9ebb c551 ea3d d3b5 073e
00000170: 9f9d 143e c4a7 2c3c 4b6a 993d 8bf8 88bd
00000180: 2e5c 6fbc 327c 4dbb 3dd0 54bc 25bb 83bd
00000190: 22b4 0bbd d706 c0ba 9cb2 4fbd 1282 94bd
000001a0: 01f4 81bb 39b4 773d 4eff 1f3e 35a9 77bc
000001b0: 16d6 a2bd d148 fcbc da3c 0cbc c237 eabb
000001c0: c0b1 5dbd afc6 1b3e d66b c5bc a8b7 1cbc
000001d0: bb4f 1fbd 5a65 9ebb 6fb3 c9bc ba46 7dbc
000001e0: 0d2e 06bc 1463 09bd c261 613c 8e1c 3abd
000001f0: 7c8e 99bd 1104 b0bb 68b6 debb 84ee 4d3e
00000200: a78b c0bb 6395 32bd 4d49 163e 9c87 77bd
00000210: db81 32bc 28e3 d53d 8c24 3dbd c358 cfbc
00000220: 7788 c9bc f6d9 083e 312d 583d f99f 41bb
00000230: c5bd 0cbd 6861 95bb 613e 9f3c 1469 2cbd
00000240: 01aa b63d 5f94 26bd dd92 163e de08 133d
00000250: 0e35 5abd 081c 7cbd a424 93bd d6dd 86bc
00000260: 07f3 7f3c 9071 06bd 34da 84bd e180 72bc
00000270: 02b9 c43d 15b5 bdbb 237b aebd aa68 cdbb
00000280: 8f9d 09bd c0d7 d53b e1d5 943d 6c2c d9bc
00000290: 91b5 9b3d 7cc0 e1bc 863b 183d 57de adbd
000002a0: 4118 dc3d f281 1f3e e299 67bd de35 06bc
000002b0: 3994 9ebc 1bdf 0bbc dc03 8c3d e415 2b3e
000002c0: 4d57 2b3e 1e37 a5bc b675 6ebd 9d61 2bbc
000002d0: 7f07 9f3d e8b5 37bc a9b3 f2bc f25c cd3a
000002e0: 82ea c9bc 74d4 75bc 8cfb 993d bdde 63bd
000002f0: 52cf 45bd acbd 62bc 6b40 18bd 599a d5bc
00000300: da2b 16bd 896e 14bb 5401 a1bd 0037 973c
00000310: 1219 053e c6df bfbb 8979 0bba 8cdb 6cbb
00000320: 4ba4 29bd 4551 22bb b314 8b3d 6b9c 50bc
00000330: d0e0 9bbd 4014 89bd 745f 06bd 8f11 a63d
00000340: 14bb bcbc b1ed 2fbd 25ac a8bb 2a0c 0bbc
00000350: 8f51 e7bb 7a6b 5c3d eddf 05bd 813f e03d
00000360: 590a 0a3b c3ed 943e 62d3 8bbc f79e 11bc
00000370: 8565 abbb b1dd 3bbc 98f6 2ebc 4acb b43d
00000380: 0b35 0cbc 12bc c3bb 6a8e 73bc 2e6b 10bd
00000390: 50dc 74bd 1c91 0cbd 925a 263e a1bb 50bc
000003a0: 666a e33d 135a 29bc 259e 64bd 089e dcbd
000003b0: c35e cebc f6f5 4b3d e8b5 653d 6062 09bc
000003c0: 92b5 f7bb 327f cabc 1a71 213d 6fe4 223e
000003d0: 4247 123e 8c59 a2bc b201 73bc aa73 c4bb
000003e0: 0bd1 5b3d 86f5 70bc d8a6 7abc 4e17 2d3e
000003f0: 5432 9b3d 4372 013e 4cb4 983b 0b40 83bd
0.12737979 0.01452708 -0.07137376 -0.0033452373 -0.034675658 -0.013356735 -0.019383866 0.053910807
0.25249487 0.11356814 -0.013704072 -0.020870278 -0.015469932 -0.046718374 0.06640797 -0.016825553
0.098638564 0.0035548208 0.054808926 -0.05433037 -0.0020306588 -0.028808972 -0.011364611 -0.0036923923
-0.06648149 0.003469275 -0.012025718 -0.0285482 0.0047756513 -0.04152076 -0.06607975 -0.017580803
-0.015041519 -0.013348352 -0.051414307 -0.028569523 -0.061868556 0.19033088 -0.034591813 0.087314874
-0.08764251 -0.014025433 -0.035754144 -0.002668939 -0.054353997 -0.019268382 0.102393836 0.12167654
0.05885136 -0.027533626 -0.016562568 -0.034912005 -0.023366533 0.038831364 -0.06483622 -0.030426467
0.084067 0.12554698 -0.03805992 0.17313103 -0.03027862 -0.039460648 0.15884516 -0.07119561
0.17413333 0.067179106 -0.013461976 0.19660528 0.11128797 -0.027094236 -0.06797695 0.007665116
-0.081372455 -0.052950934 -0.051139582 -0.027164236 -0.021162717 -0.0196167 0.03829084 -0.009658406
-0.02165446 -0.012692694 -0.034112185 0.0024393767 0.13828547 -0.07580647 -0.0091862185 -0.049016137
-0.041374423 -0.0048282715 0.114413776 0.13252954 0.14513253 0.010538045 0.07490977 -0.06688031
-0.01460938 -0.0031354544 -0.012989101 -0.06432179 -0.034107335 -0.0014650476 -0.050707445 -0.072513714
-0.003965855 0.060474608 0.15624735 -0.015116026 -0.0795099 -0.03079644 -0.00855943 -0.00714776
-0.054124594 0.1521251 -0.024099272 -0.009565271 -0.038894396 -0.0048338594 -0.024621693 -0.015458757
-0.00818969 -0.033541754 0.013756217 -0.045437388 -0.0749788 -0.0053715785 -0.006796647 0.20110518
-0.005876023 -0.043599498 0.146764 -0.06043206 -0.010895218 0.10443717 -0.046177432 -0.02531088
-0.024601204 0.13364395 0.052777473 -0.0029544814 -0.034360666 -0.004558731 0.019438924 -0.042092398
0.089191444 -0.04066884 0.14704461 0.03589713 -0.053273253 -0.06155017 -0.07184723 -0.016463201
0.015621907 -0.032823145 -0.064869314 -0.014801235 0.096056 -0.005789409 -0.0851958 -0.0062685804
-0.033597525 0.0065259635 0.07267357 -0.02651044 0.076029904 -0.027557604 0.03716614 -0.084896736
0.107468136 0.15576914 -0.05654324 -0.008191554 -0.019357787 -0.008537079 0.068366736 0.1670757
0.16732521 -0.020167883 -0.058217727 -0.010460285 0.07765102 -0.011212803 -0.029626684 0.0015667959
-0.024647955 -0.015004266 0.07518682 -0.05563234 -0.04829342 -0.013839167 -0.03717081 -0.026074575
-0.036662914 -0.0022648892 -0.078615814 0.018458843 0.12997845 -0.0058555333 -0.00053205393 -0.0036141602
-0.041416448 -0.0024767679 0.067910574 -0.012732605 -0.07611239 -0.066933155 -0.032805875 0.08108818
-0.023038425 -0.04295129 -0.0051474744 -0.008486787 -0.007059283 0.053813435 -0.032684255 0.109496124
0.0021063297 0.29087648 -0.017068569 -0.008887998 -0.005230608 -0.01146643 -0.01067891 0.08827837
-0.008557568 -0.0059733475 -0.014865497 -0.035258465 -0.05978042 -0.034318075 0.16245487 -0.012740047
0.11104278 -0.010336417 -0.05581488 -0.107723296 -0.02519167 0.049795114 0.056081682 -0.008385271
-0.0075594867 -0.024718855 0.039414503 0.15907453 0.14284995 -0.01981809 -0.014831947 -0.0059952335
0.053666156 -0.014706975 -0.015298568 0.16903421 0.07577959 0.12641244 0.004660165 -0.064086996

layer2.weight f4 [300, 400]
00000000: 0ee4 103f 9297 933c 0ea0 0f3d 447e 85bb
00000010: de56 be3e 4b21 aabc 5fdc 66bc aeac ed3e
00000020: 96a4 193f ad09 093f 217f fb3e 9f1d 53bd
00000030: df18 923d 4d7c be3e b27c d53e b8dc 5d3e
00000040: ea0f 193f 4066 ee3e 2d65 073f af80 a33e
00000050: d4a0 343d 6428 21bd 182b 38bd bc3d 223d
00000060: fdd4 083f 8ea7 1b3f 04c0 be3e 3b9f 953c
00000070: 67c2 5c3d e39b 583d 23dd c43e 8cc8 a1bc
00000080: 34c9 0e3c 8802 8a3c 1886 913e f913 d03e
00000090: 2294 f43d 2427 0a3f 6002 e3bc 585e 1a3f
000000a0: 6302 013f 7465 0f3d ed83 0d3f 3b8a 75bc
000000b0: e607 823e ba3e 29bd 80c7 193f 50a7 0b3f
000000c0: 6fe0 053f b8a5 143f 38dd 2b3d 1537 b63d
000000d0: a0f3 f13e 4047 0d3f 7c7a bd3e 3dc4 863e
000000e0: cce9 cd3e bb37 0e3f 753e 2b3d 856f 0b3f
000000f0: 8444 c63e 2432 5a3d 1943 143f da15 943e
00000100: 5a22 093f 6c5d 0b3f cddc 2a3c 1e4b 203f
00000110: 76fc 193f c01b 003f 3aef b23e bdee d23a
00000120: f756 be3e 9d0a 693e 6bfd a03d 0edf b6bc
00000130: 98a1 12bc 332d 7e3d 5d3b 073f 0b7f 2abd
00000140: eb41 a03d 2198 9e3b 1d36 d53e 6cf9 76bc
00000150: 1161 143f 5989 df3d 35b8 18bc 72cd a8bc
00000160: 020e 003f bb89 4ebd 0624 123f b948 0d3f
00000170: d194 0b3f 1290 f23e 54ce 0e3f ba56 e83e
00000180: 1c4c e43c 94ee 453d 6356 1cbd 3b48 f63e
00000190: 7094 80bd ad27 183d 2db5 c23e 5d47 233d
000001a0: 1e9a 2cbd d53a 133f a2bf 063f c7ea 36bd
000001b0: cb06 eb3d d4c7 183d 1deb d03a 04d3 633d
000001c0: 2a69 103f 11f4 1a3f cc1c d93e bb78 d83c
000001d0: 5307 203d fcf0 973c 5574 783c f969 27bd
000001e0: 6c53 3d3d 024d 1e3e 8e5d 063f 2ffd 923e
000001f0: 8321 8c3e 8b75 ec3e 03f0 d7bb ec5e 163f
00000200: f71f 093d 5f57 923e 8e06 0a3f 0f13 623e
00000210: 9d45 3ebd 7c2d 073f ff1d 42bd 48d9 d73e
00000220: c41a 763d 80ff 093f 1cdd 043f e6c1 f53e
00000230: 51cf bc3e 9d72 213d 4bb3 183f 6bdd 033f
00000240: a301 163f 8f6a c23e 8a94 093f ff03 123f
00000250: fdde d63e 07f4 033f 661f 9d3e 5247 cebc
00000260: 0129 133f 6c2c d93e 4ee2 c93d 5edc 66bd
00000270: 1313 1a3f 7d3a 8fbb 1938 a23d b756 a53c
00000280: 1991 c33e e36f 30bd b4e6 0b3f c694 1a3d
00000290: e7ff 0b3f ea75 a23e 9099 023f b2a9 573e
000002a0: 035e 1e3f d788 1b3f b796 533e bc32 2b3d
000002b0: 5e69 0fbd 18e6 913c edae 0d3f c0b6 063f
000002c0: a70e 183f 4d28 c63b d877 423c 88e2 f23c
000002d0: 04df 093f 03b2 7e3d 7c40 0ebc c3ce 023c
000002e0: 8627 d03e a619 373a 8da8 063f bc32 2bbd
000002f0: ac45 da3e 0970 423d 91d7 093d ca6d 7dbc
00000300: 93ff 3bbc 5af3 94bc 9719 1b3d 5e62 713c
00000310: 780b 063f 312c b03c 82cd 44bc c16f c4bb
00000320: 26c5 c83e 0816 7c3d 5c40 053f bff6 8d3d
00000330: b248 443c 0fa7 dc3d 18bf a63e 821b 0f3f
00000340: 9826 673d 0f3a cb3e dcd3 013d 56c2 40bd
00000350: 9038 1dbd 81ef 193f 9991 6abc 982e 063f
00000360: 02c1 1f3d b830 073f 486d d6bc d1ad 393d
00000370: 1c07 bebc 5c0c babc 2b37 df3d e7cf 083f
00000380: f82c d53c 71fb 923c 0c85 a9bc fc0e 5a3d
00000390: 8e36 4e3e 4e60 eb3d 9a7a 193f a1eb f93e
000003a0: 92cb 193f 0f67 2ebd e915 c43e 3048 9d3e
000003b0: 5dc5 2a3d 590a 063f 8b0c 183f 238c a03b
000003c0: 8627 d43e 08ce a63d 9e61 0b3f 87c4 013f
000003d0: c8ce 173f bcb7 c63e 4b21 c83e 349c 2bbd
000003e0: 5532 0f3f b164 063f 8102 7c3c 05d6 0e3f
000003f0: c173 113f ad83 123f 463a 2d3b afe8 b7bc
0.56597984 0.01801661 0.03506475 -0.00407389 0.3717565 -0.020767828 -0.0140906265 0.46420807
0.60016763 0.5353039 0.4912043 -0.05154192 0.0713365 0.3720421 0.41696697 0.21666229
0.5978991 0.46562386 0.52888757 0.31934115 0.04409869 -0.03934516 -0.044962972 0.039609656
0.53449994 0.60802543 0.3725587 0.018264404 0.053896334 0.05288304 0.38449964 -0.019748949
0.008714963 0.01684691 0.28422618 0.40640238 0.119423166 0.53965974 -0.027711093 0.6030021
0.50394267 0.035008863 0.5527943 -0.01498657 0.2539665 -0.041319586 0.6007004 0.54552174
0.52295583 0.58065367 0.041959018 0.08897225 0.47256184 0.55186844 0.3700751 0.26321593
0.40217435 0.5555379 0.04180761 0.5446704 0.38724148 0.053270474 0.5791488 0.2892292
0.5356804 0.54439425 0.01042862 0.6261462 0.6015085 0.50042343 0.3494814 0.0016092878
0.37175724 0.22757955 0.07860836 -0.022323158 -0.00894966 0.062054824 0.52824956 -0.041625064
0.07825073 0.0048399125 0.41642848 -0.015074115 0.5796061 0.10914869 -0.009321262 -0.020605776
0.50021374 -0.05042432 0.5708622 0.5518909 0.5452395 0.47375542 0.5578358 0.45378667
0.027868323 0.04832323 -0.038168322 0.48101982 -0.06278312 0.037147213 0.3802885 0.03986298
-0.042139165 0.57511646 0.5263616 -0.044657495 0.11475905 0.037299946 0.001593921 0.055621162
0.5641047 0.60528666 0.42404783 0.026424756 0.039069485 0.018547527 0.0151644545 -0.040872548
0.046222135 0.15459064 0.52486503 0.2870879 0.27369317 0.46183428 -0.006589891 0.5873859
0.03347775 0.28582284 0.5391625 0.22077583 -0.046453107 0.5280378 -0.047391888 0.4215796
0.06008412 0.5390549 0.51899886 0.47999495 0.3687692 0.039415944 0.5964858 0.5150973
0.5859625 0.37971923 0.5374228 0.5703735 0.41967002 0.5154423 0.30688018 -0.025180493
0.5748444 0.42416704 0.09857617 -0.056362502 0.60185355 -0.004370986 0.07920856 0.02018295
0.38196638 -0.043075453 0.546489 0.037739538 0.5468735 0.31730586 0.5101557 0.21060827
0.618622 0.60755676 0.20662962 0.04179643 -0.035012595 0.017809913 0.5534504 0.52622604
0.5939736 0.0060472847 0.011869393 0.029649034 0.5385592 0.062181484 -0.008682366 0.007983866
0.40655154 0.0006984718 0.5260094 -0.04179643 0.4263128 0.047470126 0.033652846 -0.01546807
-0.011474508 -0.018182445 0.0378662 0.014732925 0.5236125 0.021505447 -0.0120118875 -0.0059947674
0.39212912 0.061544448 0.5205133 0.06931829 0.011980223 0.107740514 0.32567668 0.5590135
0.05643329 0.39692733 0.031696185 -0.047060333 -0.03838402 0.6013108 -0.01431694 0.52414846
0.039002426 0.52808714 -0.026175156 0.04533178 -0.02319675 -0.022710972 0.10899194 0.53442234
0.02602242 0.017942162 -0.020693325 0.053236946 0.20137998 0.11492978 0.599527 0.48812583
0.6007625 -0.042578753 0.38297966 0.30719137 0.041692127 0.5235954 0.5939414 0.004899518
0.41436404 0.08144766 0.54445827 0.506905 0.592999 0.38812053 0.390879 -0.041897014
0.55936176 0.5249739 0.015381456 0.5579532 0.5681725 0.5723217 0.0026432439 -0.02244982

layer2.bias f4 [300]
00000000: 4059 0f3f 8fee 103f 2ce6 0e3f 9aa8 143f
00000010: a554 023f f97f 98bf 5660 0c3f fded 113f
00000020: 4166 033f 6175 153f 750c 083f fa8e 91bf
00000030: 0ab9 0c3f d4f4 0c3f 1361 0b3f fe31 1c3f
00000040: 02c0 093f 7ea9 f93e ee0e de3e d402 013f
00000050: 8c7b 063f a31b f33e c52e f83e 0738 f33e
00000060: b0f0 f33e 5118 013f fb11 293f 7ed7 183f
00000070: 7b85 1d3f 58d8 033f 2d69 f03e 05ae 0b3f
00000080: d379 fd3e 0141 063f 257a 123f b5e6 123f
00000090: e3a1 ee3e 1b7b f23e 99d1 1b3f a257 ff3e
000000a0: 1c7c 153f 823d 163f 1ce0 1b3f 2d40 093f
000000b0: 1375 153f 5fab 243f 75ab e93e 067e 93bf
000000c0: b128 f13e 2f65 143f 9ae2 0b3f f9ab 003f
000000d0: fc7e 123f 30be 0a3f a964 2a3f c9e8 92bf
000000e0: 2209 0a3f 666b 92bf 6305 123f d2bb 103f
000000f0: 8a35 063f 0536 243f 3cfb 023f 9213 0e3f
00000100: b08e f93e 4612 ff3e 134e 0e3f fe00 293f
00000110: 4554 073f d5ef 143f 4f28 94bf c1c1 1c3f
00000120: 6adc 063f b094 033f 88bc 093f 1c11 083f
00000130: dfdc 0a3f c21d 043f 1be0 003f 7493 0c3f
00000140: 672a 193f a4b6 003f 8565 e93e 82e0 193f
00000150: d178 063f d946 1c3f 0ec6 2b3f 1494 f53e
00000160: 9f69 183f 9cbc 023f 41dc 1d3f efea 183f
00000170: c891 0e3f 893f 033f d3e6 153f 4f74 033f
00000180: 8d24 003f 5f63 0b3f 0fb1 fb3e 952d e03e
00000190: 4417 fe3e 6bd2 083f 5159 173f bf9c 163f
000001a0: f376 253f 18fe ff3e 1020 1c3f 87c9 193f
000001b0: df5a 003f ede6 193f 6565 203f b31b 0d3f
000001c0: 76ea 073f 9ff2 113f bbfd 0d3f a748 96bf
000001d0: 475e 163f 00bb 273f b38a 0e3f 2972 143f
000001e0: 2311 223f 7517 033f 6c8d da3e 3c4c 0c3f
000001f0: 233c ee3e abcc 98bf 783a 193f 1508 ea3e
00000200: ab89 0e3f fa1f 1f3f 75fb 043f a4c8 f63e
00000210: aabe 133f 84f3 153f a846 133f e246 003f
00000220: 652c 053f de1c 013f e0b7 043f 7b03 123f
00000230: 7132 0a3f 78e2 063f 7009 0a3f 42de 143f
00000240: a1c4 1c3f 99af fc3e 85d0 023f 6593 113f
00000250: ad02 133f 9199 093f d28d fa3e 9b23 0a3f
00000260: 95f9 1d3f 02f3 9abf 9d60 0a3f 2101 0a3f
00000270: c066 153f 6004 163f 2795 0d3f 1997 f03e
00000280: 02c7 163f 512e 073f 20fa 123f 6a99 163f
00000290: 236a 0c3f 3696 133f b084 103f 4ec8 033f
000002a0: b6cc 273f 96fe 0b3f 68f5 ee3e dc15 123f
000002b0: e356 103f 1adf 123f 882e 023f b5fa 0f3f
000002c0: 4e0f 013f 49f1 133f 4f74 98bf 7b1a 033f
000002d0: d556 173f 8f8e 0e3f 07be 193f b743 183f
000002e0: 5ca0 95bf efeb 1f3f d03b 053f 620b 98bf
000002f0: 7723 f43e 9fde 173f 7407 0d3f 4e5c 173f
00000300: 9d40 8dbf eb30 173f d002 f43e a7c3 0c3f
00000310: 1097 083f b8e8 113f a973 033f 3b71 1c3f
00000320: 55d3 143f 2fc5 1a3f e8e5 0f3f fa74 1b3f
00000330: 431f 303f 13ec 0c3f 17f7 173f 5994 113f
00000340: 3b75 f73e bd43 2c3f 2dd0 083f c45f 0d3f
00000350: c325 083f 780e 99bf 8213 fc3e 5550 323f
00000360: 4f73 1a3f e75b 063f a6a9 083f c09e 1a3f
00000370: 4e4a 063f da0b 0b3f 20ec 0e3f d960 f23e
00000380: c5fd 1e3f 101a fc3e a988 f33e 47be 233f
00000390: 959e 083f 3a26 053f 6f11 f53e 98c3 063f
000003a0: 296e 073f 5fb8 133f c597 f43e 08be 0c3f
000003b0: b57c 143f edd3 9cbf d55f 033f 98a6 083f
000003c0: b3c8 0a3f c4d3 053f 353a 0f3f 082b 003f
000003d0: a0da 243f 7641 163f e441 113f 0306 113f
000003e0: 4ec5 003f 0420 1d3f 8ae9 0a3f 524f 1f3f
000003f0: 8ae1 0d3f 1078 1c3f a4c8 143f 7abd 183f
0.5599556 0.5661401 0.55819964 0.58069766 0.5091041 -1.1914054 0.54834497 0.57003766
0.513279 0.5838223 0.5314401 -1.1371758 0.5496985 0.5506108 0.54445 0.6101378
0.53808606 0.48762125 0.43370765 0.5039494 0.5253227 0.47482023 0.48473182 0.47503683
0.47644567 0.5042773 0.6604306 0.59703815 0.615318 0.5150199 0.46955243 0.5456241
0.49507007 0.5244294 0.5721763 0.5738328 0.46607885 0.47359547 0.60866696 0.49871546
0.583925 0.58687603 0.6088884 0.5361355 0.58381766 0.6432399 0.45638624 -1.1522834
0.47101358 0.57966894 0.5464264 0.5026241 0.5722501 0.54196453 0.66559845 -1.147729
0.53920186 -1.1439025 0.5703947 0.5653659 0.52425444 0.6414493 0.51164603 0.5549861
0.48741674 0.4981863 0.5558788 0.6601714 0.5286296 0.58178455 -1.1574801 0.61233145
0.52680075 0.51398754 0.538033 0.53151107 0.5424327 0.51607907 0.5034196 0.54912496
0.59830326 0.5027869 0.45585266 0.60108197 0.525281 0.61045605 0.6709908 0.47964537
0.59536165 0.51069045 0.61664206 0.5973348 0.55691195 0.5126882 0.58555335 0.5134935
0.5005577 0.54448503 0.49158522 0.43784776 0.49627125 0.5344607 0.5912066 0.58832926
0.6463463 0.49998546 0.60986423 0.6007313 0.5013866 0.6011799 0.62654716 0.5512039
0.53092134 0.57010835 0.55465287 -1.1740922 0.58737606 0.65519714 0.5568039 0.57986695
0.633074 0.5120767 0.4268602 0.54803824 0.46530256 -1.193746 0.5985484 0.4570929
0.55678815 0.6215817 0.5194619 0.48199952 0.57712805 0.585747 0.5752969 0.5010816
0.52020866 0.5043467 0.5184307 0.5703656 0.5398322 0.52689314 0.5392065 0.5815164
0.6123753 0.4935272 0.51099426 0.5686553 0.5742596 0.5374995 0.48936325 0.5396058
0.61708957 -1.210541 0.5405367 0.5390797 0.5835991 0.58600426 0.55305713 0.46990278
0.5889741 0.5280505 0.5741291 0.5882784 0.5484945 0.5765108 0.56452465 0.51477516
0.6554674 0.5468534 0.46671605 0.57064605 0.5638258 0.57371676 0.5085225 0.56241924
0.5041398 0.57790047 -1.1910495 0.5121228 0.5911687 0.5568628 0.60055584 0.59478325
-1.1689563 0.6246938 0.5204439 -1.1878474 0.47683308 0.5932407 0.550895 0.5912522
-1.1035343 0.5905902 0.47658396 0.5498604 0.53355503 0.56995726 0.5134836 0.61110276
0.5813497 0.6045713 0.56210184 0.6072537 0.687977 0.5504772 0.59361404 0.56866986
0.48331627 0.6729086 0.5344265 0.5522425 0.5318262 -1.195754 0.49233633 0.69653827
0.60332197 0.5248398 0.5338386 0.60398483 0.5245713 0.5431496 0.5582905 0.47339514
0.6210597 0.49238634 0.475652 0.63962215 0.53366977 0.52011454 0.47864863 0.526422
0.52902466 0.577032 0.4777204 0.54977465 0.5800279 -1.2252175 0.51318103 0.533792
0.5421249 0.52276254 0.5594819 0.5006566 0.64396095 0.58693635 0.56741166 0.566498
0.50301063 0.61376977 0.542626 0.6223041 0.5542227 0.611207 0.58118653 0.5966412

bn2.weight f4 [300]
00000000: 0d46 493f 34f2 473f 7a41 373f ee6e 4a3f
00000010: 1687 533f 0000 803f 2c39 353f 1919 3b3f
00000020: e506 5c3f 656d 473f 7998 433f 0000 803f
00000030: 7fce 4b3f dc64 3e3f 9742 543f ee8a 373f
00000040: 4126 4d3f 0372 503f 519d 6a3f e0ad 553f
00000050: 5b1b 473f ea70 583f c242 613f 9c90 633f
00000060: 756c 5c3f d672 4a3f a2c5 283f 5e30 2e3f
00000070: 1050 393f d877 423f f51d 723f 179d 413f
00000080: b0b5 553f f0eb 4a3f 974d 4b3f de3c 533f
00000090: 5972 6a3f d8e3 4c3f 21d2 4d3f 085f 4c3f
000000a0: 9bce 3c3f 32b3 333f 1e67 4a3f d2d7 443f
000000b0: 191f 3a3f b1d6 3a3f c0d7 5d3f 0000 803f
000000c0: 448b 513f f837 4c3f eb86 463f 2f99 413f
000000d0: f3d8 463f f35b 463f 309e 393f 836d 7f3f
000000e0: 81de 3a3f 0000 803f 2ba6 463f 50d0 4c3f
000000f0: 1ad0 6a3f e6c6 2d3f 0ccf 473f 5c15 483f
00000100: 8f78 4b3f dfb3 543f a3f9 583f c57e 2c3f
00000110: dad7 4e3f ca2d 4f3f ee02 803f 5e41 243f
00000120: 1b02 463f 35ec 483f 83dd 333f b9a0 433f
00000130: 6008 433f 17fe 543f 26bf 493f 7deb 3f3f
00000140: bc16 3e3f 935a 503f 954e 523f 2d28 3f3f
00000150: d014 4c3f 39df 433f 0080 3f3f e1a1 573f
00000160: 6a89 443f a27c 583f 98f1 2f3f 9c45 3e3f
00000170: 4d76 3f3f 8438 483f b884 563f bb99 3d3f
00000180: 6bc5 463f d9c4 433f fff6 5d3f c807 723f
00000190: 75d7 513f a8eb 4c3f 94ee 453f bc00 503f
000001a0: dc03 2b3f bee8 533f 824a 453f 3d66 343f
000001b0: fad6 443f a785 413f b557 2c3f 63f0 463f
000001c0: c45d 473f 9c7b 323f 731d 463f 0000 803f
000001d0: e904 4e3f 3182 353f b98f 4d3f 3475 473f
000001e0: d4fd 3b3f 1b90 3c3f e8e3 683f bdff 483f
000001f0: 6927 613f cb08 803f 3ace 4d3f f9bf 5b3f
00000200: c8b1 553f 0195 433f 0f4b 413f 9f9f 4b3f
00000210: ea0f 453f b79b 4b3f bc88 473f 2354 463f
00000220: 1b85 453f 0d2a 5c3f 8359 5c3f 5bba 333f
00000230: bd42 4d3f d578 493f 4391 503f 3ad9 443f
00000240: ecfd 473f 4a72 4e3f f046 5f3f 33fe 453f
00000250: 4a8e 3b3f 20e9 423f 8e5a 4d3f 1338 3d3f
00000260: 3a6d 3a3f 0000 803f 6357 593f 6478 3e3f
00000270: bb11 463f 8e84 493f c16f 443f 1b6e 503f
00000280: d672 4a3f 6ad1 443f c8bc 4c3f feb7 363f
00000290: e88d 4c3f ffab 383f fcb2 453f d353 543f
000002a0: c321 283f cac1 443f 4dcc 5b3f 6fa7 4b3f
000002b0: 5e86 4a3f e33f 3d3f 8925 443f 7e68 403f
000002c0: ddd0 483f ab72 3d3f 0000 803f 7876 4c3f
000002d0: 750b 493f 0895 553f aec2 513f 2ebb 4b3f
000002e0: 0000 803f 6489 343f ad5b 483f e3da 7f3f
000002f0: ede6 523f 3873 393f 5906 603f 823f 4e3f
00000300: 0000 803f 4917 3a3f 05d8 5b3f c3e0 463f
00000310: 2f16 423f dd42 523f b98f 4d3f e968 5a3f
00000320: 2b9b 4f3f 6bc5 463f a110 4e3f 2a2f 453f
00000330: 1e9f 243f 098a 473f 38d4 4c3f 1d62 523f
00000340: 91fa 433f 388f 263f c9b6 4d3f 007f 553f
00000350: 4e6b 483f fbdc 7e3f cc32 473f e9bf 273f
00000360: bf1a 2f3f b795 543f 7df4 443f a47b 513f
00000370: 70b2 423f 40ba 423f 0383 463f d6f5 493f
00000380: 2741 423f a968 4d3f 07d7 543f 9b86 403f
00000390: 7bec 463f 3281 453f ca22 583f 3faf 4b3f
000003a0: 5552 4f3f e4ab 473f 5b71 633f e323 503f
000003b0: 2459 3e3f 531c 803f 842d 513f ff16 533f
000003c0: fc96 513f c7d3 413f 30f4 553f 2255 4d3f
000003d0: 4d04 363f 3452 513f 59b0 433f 4723 383f
000003e0: f93c 443f 20e9 423f 1af7 4e3f 8d80 433f
000003f0: 2c12 513f 1b0d 3d3f 1fe4 4a3f a221 443f
0.78622514 0.7810395 0.71584284 0.79075515 0.82628 1.0 0.7079036 0.7308517
0.8594802 0.779013 0.7640453 1.0 0.79611963 0.7437265 0.8291411 0.71696365
0.80136496 0.8142397 0.91646296 0.8346844 0.77776116 0.84547293 0.8799249 0.8889253
0.8610299 0.79081476 0.65926564 0.6804255 0.7238779 0.7596412 0.9457696 0.75630325
0.8348036 0.7926626 0.7941527 0.8251475 0.9158073 0.8003516 0.80398756 0.79832506
0.73752755 0.70195305 0.79063594 0.76891816 0.727037 0.72983843 0.86657333 1.0
0.8185313 0.797729 0.7754962 0.75624365 0.7767479 0.77484053 0.72507 0.99776477
0.72995764 1.0 0.775973 0.8000536 0.9172379 0.6788162 0.78050303 0.7815759
0.7948083 0.8308696 0.84755915 0.67380935 0.80798113 0.80929244 1.0000894 0.6416224
0.7734696 0.78485423 0.70259875 0.7641712 0.76184654 0.8320021 0.78807294 0.749687
0.7425344 0.81388205 0.82151157 0.7467068 0.7971926 0.76512486 0.7480469 0.8423138
0.7677218 0.84565175 0.6872802 0.74324965 0.7478989 0.78211236 0.8379626 0.740627
0.77644986 0.7647224 0.8670501 0.94543123 0.81969386 0.8004708 0.77317166 0.8125112
0.66802764 0.8277701 0.77066815 0.70468503 0.7689053 0.7559456 0.6732133 0.7771055
0.7787745 0.6971986 0.77388686 1.0 0.8047624 0.7090178 0.8029743 0.7791321
0.73434186 0.7365739 0.9097276 0.78515226 0.8795076 1.0002683 0.803928 0.858398
0.834744 0.76399237 0.75505155 0.7954044 0.7697741 0.79534477 0.77943015 0.7747213
0.7715623 0.86001664 0.86074084 0.7020623 0.8017996 0.787 0.8147165 0.7689396
0.7812183 0.8064314 0.8721762 0.77341 0.7326399 0.7613697 0.802163 0.7391369
0.72822917 1.0 0.84898967 0.7440245 0.77370805 0.7871789 0.7673302 0.8141801
0.79081476 0.7688204 0.7997556 0.713745 0.7990403 0.72137445 0.77226233 0.82940406
0.65676516 0.768582 0.85858613 0.7955236 0.7911128 0.7392561 0.76619774 0.7515944
0.784437 0.74003094 1.0 0.7986827 0.7853311 0.8343053 0.8193768 0.7958249
1.0 0.7052214 0.78264886 0.9994337 0.82383615 0.72441435 0.87509686 0.80565655
1.0 0.7269178 0.85876495 0.7768671 0.758151 0.82133275 0.8029743 0.8531633
0.8109614 0.77644986 0.80494124 0.7702509 0.64305294 0.77945 0.8001132 0.8218096
0.7655421 0.65062284 0.80357033 0.8339691 0.78288734 0.9955594 0.77811885 0.65527207
0.68400186 0.83040947 0.7693556 0.81829286 0.76053524 0.76065445 0.7754366 0.7889074
0.75880665 0.80237824 0.83140606 0.7520539 0.7770459 0.7715026 0.84428084 0.7956428
0.80985004 0.7799666 0.8884484 0.8130476 0.7435477 1.0008644 0.81710076 0.82456964
0.8187101 0.7571377 0.83575726 0.8020803 0.7110031 0.81766057 0.7644096 0.7192883
0.76655537 0.7613697 0.808458 0.7636803 0.81668353 0.7384812 0.79254335 0.7661382

bn2.bias f4 [300]
00000000: 33cc 6abe cf0f 54be 41f6 91be 904b 68be
00000010: aafb 33be 0000 0000 bddc 8ebe 8b01 83be
00000020: b579 18be 76d8 78be 0f70 82be 0000 0000
00000030: 5e76 5bbe 747c 84be 83e9 31be 2ff3 87be
00000040: c8a6 5ebe fc30 46be b96c a5bd c0b9 1bbe
00000050: c264 4dbe c579 34be 291d 01be d5cd 17be
00000060: d5d8 0ebe cfa4 4dbe c9f4 a6be 49b6 a6be
00000070: bf5e 87be c4a8 6cbe 2f54 3cbd a7c5 6fbe
00000080: 7915 39be 05e9 51be 8826 4bbe 0e68 35be
00000090: 3fbb c9bd d573 51be 8035 5ebe 6e47 3fbe
000000a0: ea4f 73be 911a 8abe 0d14 6ebe 1f0a 77be
000000b0: 79ca 93be 6350 8cbe ead7 eabd 0000 0000
000000c0: 3729 1bbe 07f9 40be 89e8 71be f0ad 71be
000000d0: b4ae 4fbe 38a2 71be 9918 94be 9918 14bb
000000e0: c0d5 88be 0000 0000 b9f6 5fbe d31e 3cbe
000000f0: e6a5 c8bd 36a7 a2be ed53 64be 0069 67be
00000100: 79f3 4cbe 1d95 34be 6b86 1fbe 753e abbe
00000110: 8b91 4ebe be71 52be 15ed 17bb f101 b9be
00000120: 4bb7 74be e63c 66be c53f 85be a9de 80be
00000130: 5dfd 84be 7ff6 36be 88a4 5ebe 55fe 7ebe
00000140: 7457 75be 965f 48be bc38 2abe da53 81be
00000150: ece7 59be f96b 7cbe 9647 82be 3b00 29be
00000160: 8fe0 70be a874 4bbe e173 a6be bd6a 85be
00000170: f3a6 6bbe 899d 4cbe b541 3ebe 444e 7fbe
00000180: 557a 77be ff50 70be 58c6 03be 7ca7 a0bd
00000190: bd82 48be 2b90 58be 9726 67be 7688 49be
000001a0: 53fc a8be fdce 2bbe 9d7f 6dbe 3aaa 8cbe
000001b0: f10c 62be d829 7abe 8371 a9be acd9 4fbe
000001c0: 87ff 66be 1bf5 9ebe c373 67be 0000 0000
000001d0: 8066 47be 8a96 95be b420 59be f423 6cbe
000001e0: bed7 88be 9cf7 75be f17e b9bd c34d 58be
000001f0: b530 c8bd 9815 71b9 b1cb 43be a1ad 0cbe
00000200: bf42 1abe 0c92 75be f97c 72be 2c0d 59be
00000210: 34c0 6cbe 16ff 5bbe 9f1d 53be b724 4abe
00000220: 801e 69be 5b54 28be 368f 04be f814 92be
00000230: 7a3c 50be 0d97 6dbe c9e9 2fbe bfb0 79be
00000240: edd6 63be 7ae2 56be eccf 16be 281a 5ebe
00000250: 5a0f 82be e4e0 7ebe c60c 45be b230 81be
00000260: 7858 8abe 0000 0000 48a0 38be ec33 82be
00000270: dab6 69be af44 53be c41a 76be 640c 34be
00000280: 476e 5dbe ba57 73be 0284 4dbe 8614 87be
00000290: 09e2 4bbe 2bf5 95be 28d0 64be 224c 35be
000002a0: 35db afbe dccd 70be 88db 25be f44a 50be
000002b0: 1505 5bbe 94d0 83be f329 6bbe 7bda 82be
000002c0: 6263 57be d660 86be 0000 0000 dd80 44be
000002d0: b326 58be b4b6 51be e873 3dbe afbd 52be
000002e0: 0000 0000 edd4 8ebe f5c1 51be 3287 44ba
000002f0: d3ac 32be 2619 90be f42c 0ebe 6446 63be
00000300: 0000 0000 972a 91be aa8f 31be 76e4 64be
00000310: 379d 79be 6788 2dbe 9dc8 3dbe 5d6a 26be
00000320: 254e 47be 016b 73be 1394 58be c530 64be
00000330: 806d b8be 6857 63be 3c3f 50be 001e 42be
00000340: 4868 5ebe 51fd afbe adc2 5abe b83a 38be
00000350: f89e 5ebe 8b68 15bb c669 4fbe 7533 b4be
00000360: 7bad 9fbe 6077 34be f63b 71be 9b35 4fbe
00000370: 2edf 6ebe 6a0b 74be 47e0 66be 97d6 49be
00000380: 1bae 7ebe d479 50be 8b3b 32be 7f2d 7bbe
00000390: c907 72be 831d 62be 30c0 25be f9c5 42be
000003a0: af61 4fbe 740c 50be 07bf 11be 30b6 3cbe
000003b0: 7b57 83be ffe0 6fba 0a91 27be ef2a 3ebe
000003c0: 4613 49be a6c0 77be c130 1dbe d9dd 4dbe
000003d0: 8686 90be f34d 40be 90ce 67be 83af 82be
000003e0: 7c37 6cbe 1a37 7dbe cb4f 3bbe 067b 81be
000003f0: c452 50be 720b 82be d850 5ebe e8d8 71be
-0.22929458 -0.20709155 -0.2850819 -0.22685075 -0.17576471 0.0 -0.27902785 -0.25587115
-0.14890178 -0.24301323 -0.2547612 0.0 -0.21431872 -0.258762 -0.17374234 -0.26552722
-0.2174331 -0.19354624 -0.08077378 -0.15207577 -0.20057967 -0.17624576 -0.1260878 -0.14824612
-0.13949902 -0.200824 -0.3260863 -0.32560948 -0.26439473 -0.23111254 -0.04597872 -0.23415242
-0.18074597 -0.20499046 -0.19838917 -0.17715475 -0.098501675 -0.20454343 -0.21700096 -0.18679592
-0.23760954 -0.26973394 -0.23249836 -0.24124955 -0.28865412 -0.2740508 -0.114669636 0.0
-0.15152441 -0.18844996 -0.23623861 -0.23601508 -0.20281488 -0.23597038 -0.28925017 -0.002259767
-0.26725578 0.0 -0.21871461 -0.18371134 -0.097972676 -0.31768197 -0.2229764 -0.22598648
-0.20014752 -0.17635007 -0.1557862 -0.33446088 -0.20172708 -0.20551202 -0.0023182083 -0.36134294
-0.23898046 -0.22484168 -0.26025215 -0.25169876 -0.2597455 -0.17867468 -0.21742451 -0.24901707
-0.23959142 -0.19567713 -0.16623205 -0.25259286 -0.21279877 -0.24650563 -0.2544524 -0.16503994
-0.23523162 -0.1986872 -0.32510284 -0.26057997 -0.23012905 -0.1998197 -0.18579753 -0.249322
-0.2416776 -0.23468398 -0.12868631 -0.07844445 -0.19581123 -0.21148746 -0.22573315 -0.19680962
-0.33005008 -0.16778179 -0.23193212 -0.27473623 -0.22075249 -0.24430025 -0.33094415 -0.20297879
-0.22558413 -0.31046376 -0.22602753 0.0 -0.19472694 -0.29216415 -0.21203882 -0.2306059
-0.26727098 -0.24020237 -0.09057415 -0.21123414 -0.09774915 -0.00022991595 -0.19120671 -0.13738109
-0.15064524 -0.23981494 -0.23680486 -0.21196431 -0.23120195 -0.21484026 -0.20616768 -0.19740568
-0.22765541 -0.16438429 -0.12945256 -0.28531623 -0.2033557 -0.23202153 -0.17179026 -0.2438383
-0.22249956 -0.20984831 -0.14727753 -0.21689665 -0.25402337 -0.24890476 -0.19243154 -0.25232464
-0.2702062 0.0 -0.18029892 -0.25430238 -0.22823659 -0.2063167 -0.24033648 -0.17582852
-0.21624099 -0.23763934 -0.20069888 -0.26382846 -0.19910444 -0.2928861 -0.2234503 -0.17704824
-0.3434693 -0.23516029 -0.16197026 -0.20341092 -0.21388657 -0.2574507 -0.22965221 -0.25557312
-0.21034005 -0.26245755 0.0 -0.19189782 -0.21108513 -0.20479852 -0.18501246 -0.20580171
0.0 -0.27896824 -0.20484145 -0.00074969523 -0.1744874 -0.28144187 -0.13884336 -0.2219482
0.0 -0.28352806 -0.1733996 -0.22352776 -0.24376379 -0.16946565 -0.18533559 -0.16251512
-0.19463404 -0.23771288 -0.21150236 -0.22284229 -0.36021042 -0.22201312 -0.20336622 -0.18956757
-0.21719468 -0.34372953 -0.21363325 -0.1799115 -0.2174033 -0.0022797908 -0.20255193 -0.3519551
-0.31187043 -0.17623663 -0.2355803 -0.20235293 -0.23327324 -0.23832479 -0.22546493 -0.19710766
-0.24871103 -0.20358974 -0.17405526 -0.24529074 -0.23635782 -0.2208157 -0.16186595 -0.19020833
-0.20252107 -0.2031725 -0.14233027 -0.18428874 -0.2565268 -0.00091506535 -0.16363922 -0.18571065
-0.19636258 -0.24194583 -0.1535063 -0.2010416 -0.28227633 -0.18779735 -0.22637391 -0.2552453
-0.2306804 -0.24728051 -0.18292157 -0.25289172 -0.20344073 -0.25399357 -0.21710527 -0.236179
