DDPG/checkpoints/critic.ckpt (torch, 537409 bytes, 11 tensors)

layer1.weight f4 [400, 24]
000000 d9 30 11 bc fa c3 25 bc 90 12 8c bc 8d 18 69 bd
       -0.008861744 -0.010117525 -0.017098695 -0.05690818
000010 64 31 36 3c 22 92 a5 3c 99 bf 18 3d 49 10 43 bd
       0.011120174 0.020211283 0.037292097 -0.047622953
000020 53 60 f3 3c d8 27 bb 3c 92 d8 25 3d a4 dd ec 3c
       0.029709017 0.022846147 0.04048974 0.02891428
000030 a0 ac 05 bd e3 91 9d bc 16 90 c7 bc ec 03 7d bc
       -0.03263533 -0.019234603 -0.024360698 -0.01544283
000040 8a e3 ac bc 70 25 05 3d 4c e0 bf 3c 10 64 d4 bc
       -0.021104593 0.032506406 0.023422383 -0.02592662
000050 ad b0 21 3d bf 94 ab bb 0f b2 06 bd 54 b0 80 bb
       0.03947513 -0.005236238 -0.032884654 -0.00392727
000060 19 49 eb 3b 5d 26 a3 3d cb 84 9f bd b8 bf a2 3c
       0.007180345 0.079663016 -0.07789 0.01986681
000070 91 5a 89 bc d0 e5 0f bd dc b9 12 3c 80 45 d2 bc
       -0.016766818 -0.035131276 0.008955445 -0.025667906
000080 c3 58 2d 3b 31 5f 1f bd 9f 66 12 bc 22 1d 76 bb
       0.0026450611 -0.03890914 -0.0089356 -0.0037553986
000090 f9 bb 02 bc 9f f4 3c bc 4a a5 2c bd 33 15 ac bc
       -0.0079793865 -0.011532932 -0.04214982 -0.021006202
0000a0 b7 62 fc 3c f2 7b 3a bc cc d8 58 3c fe 04 bd bc
       0.03080879 -0.01138209 0.013235282 -0.02307367
0000b0 28 60 27 3d c3 18 86 bb 45 7b 4c 3d 01 a4 b0 bb
       0.040863186 -0.0040923073 0.049922246 -0.0053906445
0000c0 91 e6 ef bc 8b 7d a9 bc 1a 32 8a bc af 66 5d 3d
       -0.029284747 -0.020689746 -0.016869593 0.054053005
0000d0 4d ad c0 3c 71 8b b9 bc 4a a8 c2 bb e9 7e f0 3c
       0.023520136 -0.022649499 -0.005940472 0.02935739
0000e0 f3 b0 a1 3c 64 d6 7f bb 25 d7 74 bb f2 df 5b bc
       0.019737696 -0.00390377 -0.0037359681 -0.013420092
0000f0 c3 56 c3 ba 21 13 e0 3b 30 05 c4 bc 4e 71 21 3d
       -0.0014903176 0.006838218 -0.023928255 0.039414696
000100 ee 3f aa 3c 18 f5 22 3d 51 4e 0a bd a7 c0 d5 bc
       0.020782437 0.03978452 -0.033766095 -0.02609284
000110 2b 09 0f bd be cc 29 3d bf 84 ad 3c 5b ce 21 3c
       -0.034920853 0.041455023 0.021181462 0.009875859
000120 e6 4c 75 bc 2d 26 75 bd d5 97 83 3b 55 13 b3 bc
       -0.014971947 -0.05985086 0.0040159025 -0.021859804
000130 eb 28 38 bd 8f 70 f4 3c e7 89 d3 3c 5f 28 b4 bc
       -0.044960897 0.029838828 0.025822593 -0.021991907
000140 0e f1 07 bd aa dd fc b9 75 87 eb bb ce 06 df bc
       -0.033188872 -0.00048230338 -0.0071877786 -0.027224924
000150 91 4d 44 3c 13 4a 1c 3d 0e 3c b1 3b ff 7a 0e bc
       0.011981384 0.03815658 0.0054087704 -0.008696317
000160 d2 85 0a bd 0f 97 41 bd 2c 97 88 3c ed 25 da 3a
       -0.033819027 -0.0472632 0.016673647 0.0016643383
000170 13 42 84 3c 9e 34 b6 bc 17 68 c4 bb 55 ce 62 3b
       0.016144788 -0.022241887 -0.005993854 0.0034607847
000180 46 94 bb 3c 22 0b c3 3d 11 bc 73 bd dc e4 56 3d
       0.02289785 0.09523608 -0.059505526 0.05246435
000190 81 6a 0d bd a1 34 9b 3c 09 95 e4 3c 04 1a 27 bc
       -0.0345254 0.018945994 0.027903097 -0.010199074
0001a0 26 4c f6 3c c6 e3 28 bd ce 11 dc 3a 75 a3 8d 3c
       0.030065607 -0.041232847 0.0016789974 0.017289856
0001b0 83 5d ba 3b 29 75 22 bb 8a b2 05 3d 38 ec 77 3c
       0.005687417 -0.0024789071 0.03264097 0.0151320025
0001c0 fc 81 b0 3c 48 31 a6 3c e4 70 22 3d 0d 86 0a 3d
       0.021546356 0.020287171 0.039658442 0.033819247
0001d0 8a a6 54 bc 6e 68 61 bc e1 57 d2 3c 1e a5 36 3a
       -0.012979159 -0.013757808 0.02567667 0.00069673534
0001e0 5a 81 1c 3c 26 3a 9a 3c 5f dc 1f 3c e6 46 0b 3d
       0.009552324 0.018826555 0.00975713 0.03400316
0001f0 02 a7 f2 3b 33 f2 ad 3b fa e0 27 3c d1 ab 6d 3c
       0.007405163 0.0053084134 0.01024651 0.014506296
000200 81 ed 5e 3c 79 06 05 bd 78 a9 69 3b b5 40 ee bc
       0.01360643 -0.032476876 0.003565399 -0.02908359
000210 7e e9 d6 3c 12 81 48 3d 4c dd 4d ba b1 d5 42 3d
       0.026234385 0.048951216 -0.0007853105 0.047567073
000220 a4 58 02 bd 48 20 9c 3b 05 4b 22 bd 14 9d 3e bd
       -0.031822816 0.0047645904 -0.039622325 -0.04653652
000230 39 57 1f 3d 77 5b 24 3d 41 90 07 3d c9 3a 6b 3d
       0.03890154 0.04012629 0.033096556 0.05742911
000240 8f 84 9b bc 84 6b 91 bc de 7e 07 bd 82 36 76 bb
       -0.018984107 -0.017751463 -0.033079974 -0.003756911
000250 f7 1d 19 3d 09 97 03 bd f4 5e ff 39 d0 8a 3d bc
       0.037382092 -0.03212646 0.00048708136 -0.01156874
000260 48 04 0d 3d 1b 2b 0d 3d 49 0a cd 3b 01 13 e9 bc
       0.03442791 0.034464937 0.0062573296 -0.028451445
000270 3f 33 82 3c 08 aa 8c 3c 41 6d 91 bc ee a8 9f bc
       0.015893577 0.017170921 -0.017752292 -0.019489732
000280 75 5c 73 3c 2e 6a ee bc bf ad 49 bd 13 a1 ef bc
       0.014853586 -0.029103365 -0.049237963 -0.02925161
000290 89 ab 5a bd e0 d9 dc 3c 8d d4 75 3c e2 64 51 bd
       -0.053386245 0.02695936 0.015004289 -0.0511216
0002a0 c0 f0 12 bd c4 9c 13 bd 83 dc 66 3d f3 5b 01 3d
       -0.03587413 -0.036038175 0.05636264 0.03158183
0002b0 0f f6 96 bc 64 3f 66 3b 62 21 00 3d 94 70 6b bb
       -0.018427877 0.0035132999 0.031281836 -0.0035925256
0002c0 94 b9 34 3c 9a 5c eb bb d4 2c 53 3a 2d 5f 91 3b
       0.011030573 -0.00718267 0.0008055691 0.0044363947
0002d0 8c c9 68 bc 25 06 5e 3c 77 22 2d 3d 1d df 5e bd
       -0.014208209 0.01355127 0.042269196 -0.054411996
0002e0 ea ce 15 3d 2b 86 5d bd 96 9d 31 bd 86 2c 42 bd
       0.03657428 -0.05408303 -0.043363176 -0.047405742
0002f0 08 93 0e bc bb a1 27 bd 48 40 53 bd b7 24 b1 bc
       -0.008702047 -0.040925723 -0.051574975 -0.021623952
000300 60 89 1c 3d ad 14 92 bc de 07 47 bd 70 5f 11 bd
       0.03821695 -0.017832125 -0.048591487 -0.035491407
000310 fa 6b 49 bc 65 42 92 3b c4 90 a0 39 1a 2d ea bb
       -0.01229381 0.0044634813 0.00030625437 -0.00714649
000320 12 1d 23 bd 27 c6 f9 bc 2c f2 ef bc a9 22 50 3c
       -0.039822645 -0.030489994 -0.029290281 0.012703576
000330 91 33 91 bc 5f c6 94 bc c0 c9 29 3c 32 b2 35 3c
       -0.017724784 -0.018160997 0.010363042 0.011089848
000340 cf 2f a7 bb 56 58 f4 3c fa 52 cf 3c 63 7f 61 bc
       -0.005102135 0.029827278 0.025308121 -0.0137632815
000350 cb a4 47 3d 9d e7 83 bc bd 8a 3a 3d a5 3a 8b 3b
       0.048741143 -0.016101653 0.045542467 0.0042489343
000360 a3 ec 5f 3b 1b 2d 66 3b 67 e3 5f 3c a7 b0 62 bd
       0.0034168146 0.00351221 0.013665057 -0.05534425
000370 c2 d1 97 3c e4 58 84 bd 5b 4c cb bc 95 b1 6a 3d
       0.018532638 -0.06462267 -0.024816683 0.05729826
000380 1a ce e2 3c 45 4e 52 3c c9 b5 f4 3b 03 f8 2c bd
       0.027686168 0.012836044 0.0074679595 -0.04222871
000390 bf 54 03 3c 22 7b d2 3c 82 05 e0 bc 88 7f 1d bd
       0.0080158105 0.02569348 -0.027346376 -0.0384517
0003a0 8b 55 ad bc fd 8f 15 bb 48 20 53 3d 99 70 88 bc
       -0.021158954 -0.002282142 0.051544458 -0.016655253
0003b0 e8 5a 66 bc 5e b7 21 3c 9c e3 82 bc 57 04 ae bc
       -0.01405976 0.009870378 -0.015977673 -0.021242304
0003c0 84 5a 34 3d a3 ee 10 3c c7 72 88 bd e6 ae c3 3c
       0.044031635 0.008845958 -0.06662517 0.023887109
0003d0 a3 44 d8 bc 48 83 b4 bc 5e 42 83 3a 1c 7d 9f bb
       -0.026399916 -0.022035256 0.0010014286 -0.004867209
0003e0 1d 6b 78 39 2c 38 04 3c 41 e3 3f 3c 4c 4c 47 bd
       0.00023691026 0.008070033 0.011711896 -0.048656747
0003f0 56 2e 08 bd be 39 51 3d 95 91 03 bd 7d 99 79 bc
       -0.033247314 0.051080458 -0.03212126 -0.015234348

layer1.bias f4 [400]
000000 cc 15 a0 3c c0 62 e8 bb 95 70 e4 39 4b 3c 80 3b
       0.019541644 -0.00709185 0.0004357143 0.0039134375
000010 e2 41 d4 3c a2 ad 2c bd ed 2c 21 3d fb ca 3e 3d
       0.025910322 -0.042157777 0.039349485 0.046580296
000020 e5 47 dd 3c e5 e8 ba bc 30 4b f5 bb 1a 8f 24 bb
       0.027011821 -0.02281613 -0.0074857697 -0.002510971
000030 32 83 ee 39 92 0d e0 3c 5e fe 0f bd 96 20 3a 3d
       0.00045492646 0.02735022 -0.035154693 0.045441233
000040 a2 18 02 bd f8 1e 0c 3d f7 44 3e bd e2 98 c9 bc
       -0.031761773 0.03420922 -0.04645249 -0.024609033
000050 a3 4b 19 3d a2 b1 43 bb 95 12 99 bc 42 c6 25 3d
       0.03742565 -0.0029860516 -0.018685618 0.040472277
000060 6f 83 09 3d c1 97 c4 bc 36 34 1a 3d d4 30 6e bc
       0.03357261 -0.023998143 0.03764745 -0.014538009
000070 19 ff 7f 3c ec ff 41 3c 9b 86 ba 3c 76 ac 01 bd
       0.015624785 0.011840802 0.022769263 -0.031658612
000080 dc 9c 0d bd cd 0d 1b bd 70 3e c7 3c e5 94 9d 3b
       -0.03457342 -0.03785496 0.024321765 0.0048090094
000090 fb 30 69 3d 9b d7 60 bd 46 d7 90 bc 32 6e 4e bd
       0.056931477 -0.054893117 -0.017680775 -0.05039806
0000a0 95 6d ed 3c 09 c8 0c bd 4c 43 6e bc b5 1f 49 bb
       0.028982917 -0.034370456 -0.014542412 -0.0030689065
0000b0 f6 f6 68 3c f2 23 0f 3d 80 b4 12 3d 46 6a ed 3c
       0.014219036 0.03494639 0.03581667 0.02898134
0000c0 67 07 5e bc 10 3f 07 3c 5f 9b 46 3d 65 69 d9 3c
       -0.01355157 0.008254781 0.048488017 0.026539514
0000d0 fd d4 e8 bb da 42 3a bd 30 ae 66 3c 55 e4 5b 3d
       -0.0071054683 -0.04547391 0.0140796155 0.05368455
0000e0 fb 9b e8 bb 7b 50 ad 3c 2d 4c 14 bd bd c6 4c 3d
       -0.0070986724 0.02115654 -0.03620546 0.04999422
0000f0 6e 76 00 bd f1 a4 06 3d af d3 12 3b 48 e0 27 bc
       -0.031362943 0.032872144 0.0022404005 -0.010246344
000100 bb 63 d8 3c a2 4a 44 3d 29 12 eb 3c 29 b4 16 bd
       0.026414743 0.047922738 0.028695183 -0.036792908
000110 e9 ab bd 3a 64 22 ba bc e9 29 9e bb c2 39 03 bd
       0.0014470789 -0.022721477 -0.0048267734 -0.032037504
000120 e6 e5 af bc d5 a9 fd 3c 98 1a d0 3c 2f 68 b4 bb
       -0.021471929 0.030964771 0.025403306 -0.0055055837
000130 8c 93 df 3a 82 e3 20 3d 79 62 69 bc 37 e6 0a bd
       0.0017057522 0.03927947 -0.014244669 -0.033910956
000140 22 17 4b bd 9c 8e 34 3d 9f 7a 04 3d a2 04 52 3c
       -0.049582608 0.044081315 0.032343503 0.012818487
000150 e3 ec cd 3a b3 8b 1f bd 3e 1d 20 3d 7e b8 04 bd
       0.0015710857 -0.038951587 0.039090388 -0.032402508
000160 1b c6 b3 bc 3e 08 25 3d ba b5 08 bd 3d 62 01 3d
       -0.02194505 0.040291063 -0.033376433 0.031587828
000170 85 f4 43 3c 8e c9 22 3d d7 a3 3b 3d 1b 23 68 bc
       0.0119601535 0.039743 0.045810547 -0.014168526
000180 6e d7 d5 3c 44 bc b4 bc dc b5 2a 3d b7 b0 ae bc
       0.026103701 -0.022062428 0.04167734 -0.021324499
000190 a4 d0 78 bc 76 46 01 3b 6c 59 c8 bc d6 cb 26 3c
       -0.015186463 0.0019725836 -0.024456702 0.010180434
0001a0 ea c8 21 bd 78 f9 a5 3c 85 9b e4 bc d3 a6 e5 3c
       -0.039498247 0.020260558 -0.027906189 0.02803365
0001b0 26 36 8a bb c2 b6 17 3d a7 90 f1 bc bb af 8a 3c
       -0.004217881 0.037039526 -0.02948792 0.016929498
0001c0 1e 07 ae 3c 41 11 6d 3c 9b c6 03 3c 30 99 3e 3b
       0.021243628 0.014469446 0.008042957 0.0029083006
0001d0 9f c5 bf 3c f9 92 5a bc 57 a3 48 3d 76 49 ac bc
       0.023409663 -0.013340705 0.048983898 -0.021031123
0001e0 69 5b 72 3c 64 35 ea 3c c7 fd 1e 3d cb a6 39 3d
       0.014792302 0.028589912 0.03881624 0.04532508
0001f0 41 6e ea bc 9d de f3 3c ce 33 2b bd ec e1 95 bc
       -0.028617026 0.029769236 -0.04179745 -0.018296205
000200 bd 57 89 39 f1 c5 1c bd 85 43 b1 3c 9f 18 30 3c
       0.00026196046 -0.03827471 0.021638641 0.010748058
000210 2d 73 3f bb dd f4 95 3c 0a 47 e8 3c aa f7 11 bd
       -0.0029212937 0.018305236 0.028354187 -0.03563658
000220 f0 ff d2 bc d9 0f 01 3d 67 9a e5 bc 39 e3 97 3c
       -0.025756806 0.031509254 -0.028027726 0.018540965
000230 88 8a bd 3c 9a 96 44 bd ca 89 82 bb f6 1b 06 bc
       0.023137346 -0.047995187 -0.003983711 -0.008185377
000240 2d f8 91 bc 0d 9d b2 bc c1 31 09 3d 25 92 03 3d
       -0.017818535 -0.021803403 0.033494715 0.032121796
000250 22 22 19 3d 39 04 61 bd c4 4e 41 3d 28 17 ae 3b
       0.037386067 -0.054935668 0.047194257 0.005312819
000260 cb 7d 4c bd 6d b0 48 bd 5f 95 b5 3c 79 cd 4b 3d
       -0.049924653 -0.048996378 0.022165952 0.0497565
000270 c7 b5 94 bb 25 d1 20 3c 5c f3 44 bc 4d a9 55 bd
       -0.004538271 0.009815489 -0.012020912 -0.05216341
000280 cc cb 01 bd db 03 4e bd 1a 3d 40 3d 51 27 84 3c
       -0.031688496 -0.050296646 0.04693327 0.016132029
000290 3d 53 23 bd 43 52 9c bc c1 c0 21 3d e7 52 a2 3c
       -0.039874304 -0.019082194 0.039490465 0.019814922
0002a0 09 71 00 3d e0 c2 c7 3c 2d cd a6 bc c9 52 78 3b
       0.0313578 0.024384916 -0.020361507 0.003789114
0002b0 ab cf ca bc 37 1b bb bb dc 0e 97 bb 1f cc 0d bd
       -0.024757227 -0.0057100314 -0.0046099257 -0.034618493
0002c0 08 ff cd ba 9d d0 de 3c 81 22 b5 3c 2d 56 21 3d
       -0.0015716264 0.027199084 0.02211118 0.039388824
0002d0 22 0d a4 bc 20 8e 52 bd 24 8e 22 3d 2a 37 d6 bc
       -0.020025793 -0.051405072 0.039686337 -0.026149351
0002e0 a1 7f b3 bc 29 b2 97 bc 2f 13 ba 3c 2b 4e b6 bc
       -0.021911444 -0.01851757 0.022714226 -0.02225407
0002f0 9f 8b 25 3d c5 ad fc 3c bf c1 19 3c 8d 14 9f bc
       0.040416356 0.030844579 0.009384572 -0.019418979
000300 ed ce 81 3c 1c 3b fb 3c 5d 24 b1 bc fc ee 4c bb
       0.01584574 0.030667834 -0.021623785 -0.0031270375
000310 80 a3 d8 bc b2 8a a4 bc 92 fb 3d 3c fc ec 45 bd
       -0.02644515 -0.020085666 0.011595624 -0.04832171
000320 70 2b 4a 3d 4f 33 48 3d 58 36 23 bc 57 65 e1 3c
       0.04935783 0.048877057 -0.009961687 0.027514143
000330 22 12 36 3d 1b a8 0c bd e0 30 93 3c e7 92 e0 bc
       0.044450887 -0.034340005 0.017967641 -0.027413798
000340 8d a1 33 bd d7 93 8d 3c 4a 85 4a 3d 53 47 49 3c
       -0.04385524 0.01728241 0.04944352 0.012285071
000350 39 c2 35 3d 5f 82 a8 3c 24 22 8d 3c a2 35 4c bd
       0.04437468 0.020569978 0.017228194 -0.049855836
000360 ed 2f d9 3c 4a 39 37 bd 2d 28 12 3b 3b 5c 4a 3d
       0.02651211 -0.04473237 0.0022301779 0.049404364
000370 7e 98 35 bd 00 5c 5e 3c a6 65 3f bd d0 c7 32 bd
       -0.04433488 0.013571739 -0.0467278 -0.043647587
000380 60 6e 26 bd b3 60 a4 bc 27 38 f8 3b 36 f7 ed 3c
       -0.040632606 -0.020065641 0.0075750533 0.029048543
000390 75 9f 0d 3d 07 83 e6 bc 9d db fd bc cb 6d 19 3d
       0.0345759 -0.02813865 -0.030988509 0.037458222
0003a0 35 58 29 3d 82 6d 3f 3c 56 70 bc bc 04 99 07 3d
       0.041343886 0.011683824 -0.023002785 0.03310491
0003b0 50 11 88 3c bd f6 7b bc 62 64 b3 bc b9 dd c3 bc
       0.016609818 -0.015378651 -0.021898452 -0.023909437
0003c0 aa 6a a7 3c 2a 81 96 bc 17 45 11 bd 90 44 1a 3d
       0.020436604 -0.018372137 -0.03546628 0.037663043
0003d0 fa 28 8e 3c 54 b0 36 bd 0f 94 11 bd ff 08 50 3d
       0.017353524 -0.044601753 -0.03554159 0.05078983
0003e0 14 7b 22 3d a9 57 36 bd 56 e4 f2 3c 48 9c 80 bc
       0.039668158 -0.044517193 0.029649895 -0.01569952
0003f0 8a 41 66 bb 30 26 1b bd 31 d3 18 3d 28 78 49 3d
       -0.003513428 -0.037878215 0.037310783 0.049186856

bn1.weight f4 [400]
000000 8e 72 7e 3f 7f 4a 7e 3f da 3c 7a 3f 35 a1 7c 3f
       0.99393547 0.9933242 0.977491 0.9868348
000010 72 45 7d 3f d3 f6 7f 3f 5e c1 7e 3f db fb 87 3f
       0.9893409 0.99986 0.99513805 1.0623735
000020 93 0d 7c 3f 07 19 80 3f 30 59 83 3f c9 d1 80 3f
       0.9845821 1.0007638 1.0261593 1.0064021
000030 e0 d2 80 3f 5d e5 7c 3f 9c 40 83 3f a1 57 7e 3f
       1.0064354 0.9878748 1.0254092 0.9935246
000040 5e b0 7f 3f 9c 01 7b 3f ab 81 7a 3f 13 d3 83 3f
       0.9987849 0.9804933 0.9785411 1.029879
000050 89 5e 7f 3f 62 a1 80 3f 91 91 81 3f a3 ab 7e 3f
       0.99753624 1.004925 1.0122548 0.99480647
000060 36 c2 7c 3f 9b 69 7f 3f 43 e0 80 3f 5d 6a 84 3f
       0.9873384 0.99770516 1.0068439 1.034496
000070 92 82 86 3f 89 8c 7f 3f d8 af 7d 3f f7 31 7e 3f
       1.0508597 0.99823815 0.9909644 0.9929499
000080 5b 6d 80 3f ac f9 7c 3f f7 69 82 3f 27 a7 7e 3f
       1.0033373 0.9881847 1.0188588 0.99473804
000090 2f 50 82 3f 1d e7 80 3f ee 9f 7f 3f 55 0a 7f 3f
       1.018072 1.007053 0.9985341 0.9962514
0000a0 e0 1c 7a 3f 61 7e 85 3f 0a 92 80 3f 91 4e 7e 3f
       0.9770031 1.0429193 1.0044568 0.9933863
0000b0 5e 61 7d 3f 9d a8 7b 3f 67 83 7d 3f 13 d3 7c 3f
       0.98976696 0.9830416 0.9902863 0.98759574
0000c0 84 c9 80 3f f6 3a 80 3f 79 10 80 3f 6e 56 7f 3f
       1.0061498 1.0017993 1.0005027 0.99741256
0000d0 54 29 80 3f dd 0c 83 3f d5 04 7f 3f de 26 7f 3f
       1.0012612 1.02383 0.9961675 0.9966868
0000e0 d2 2f 7f 3f e4 41 82 3f 36 fb 85 3f 9d a0 8a 3f
       0.99682343 1.0176358 1.0467288 1.0830265
0000f0 57 6f 96 3f 8b 48 7f 3f 78 d6 81 3f 93 e0 80 3f
       1.1752728 0.99720067 1.0143576 1.0068535
000100 a7 93 7c 3f 4c fc 7e 3f 52 14 80 3f 6c 4f 82 3f
       0.986628 0.99603724 1.0006201 1.0180488
000110 b1 08 7d 3f b5 5a 84 3f 12 47 81 3f a3 8a 83 3f
       0.9884139 1.0340182 1.0099814 1.0276684
000120 e7 64 7f 3f d7 aa 81 3f 1b 6d 7c 3f 75 b9 82 3f
       0.9976334 1.0130261 0.9860398 1.0212847
000130 42 8d 7e 3f 9a 52 7f 3f fb 9a 81 3f 65 af 80 3f
       0.9943429 0.99735415 1.0125421 1.0053526
000140 cb da 80 3f 9b f5 7d 3f 22 17 7e 3f f0 e6 7d 3f
       1.006677 0.9920289 0.9925405 0.9918051
000150 e3 fe 7a 3f 49 57 81 3f ef 4f 79 3f 58 9b 7e 3f
       0.98045176 1.0104762 0.97387594 0.99455786
000160 69 d9 85 3f e9 8a 7c 3f 2d 40 81 3f 6c 79 7c 3f
       1.0456973 0.9864946 1.009771 0.98622775
000170 a1 47 7e 3f b5 4f 7c 3f f3 55 7d 3f cb c7 7e 3f
       0.9932805 0.98559123 0.98959273 0.9952361
000180 db 32 81 3f 5e 27 7d 3f 78 66 82 3f b3 3b 81 3f
       1.0093645 0.98888195 1.0187521 1.0096344
000190 97 72 7d 3f b7 8b 82 3f 91 ba 86 3f a1 da 7b 3f
       0.99002975 1.0198888 1.0525686 0.98380476
0001a0 83 05 80 3f d5 29 7b 3f d8 28 84 3f d1 bb 83 3f
       1.0001682 0.98110706 1.0324965 1.0291692
0001b0 0f f7 80 3f 16 57 83 3f 8b de 80 3f 6b 7c 7a 3f
       1.0075396 1.0260952 1.0067915 0.97846097
0001c0 14 22 7c 3f 21 fb 80 3f 6d 74 80 3f c2 45 81 3f
       0.984895 1.0076638 1.003553 1.0099413
0001d0 9f c0 81 3f 65 8c 88 3f 8e d8 80 3f 9d 3a 80 3f
       1.0136908 1.0667845 1.0066087 1.0017887
0001e0 19 1a 7e 3f 35 07 7f 3f 4e 33 7d 3f 06 72 7d 3f
       0.9925857 0.9962037 0.9890641 0.9900211
0001f0 a6 59 80 3f 50 eb 7e 3f ef 3e 7c 3f 34 b0 85 3f
       1.0027359 0.9957781 0.9853353 1.0444398
000200 ad f3 7e 3f 2f 34 7e 3f 53 e7 7d 3f 7a 6f 7a 3f
       0.9959057 0.99298376 0.991811 0.9782635
000210 0b 5a 7d 3f 53 28 80 3f bf a7 81 3f 44 b1 81 3f
       0.9896552 1.0012306 1.0129317 1.0132222
000220 e9 78 7f 3f cb 5f 7b 3f 57 8b 82 3f 58 05 81 3f
       0.9979387 0.98193043 1.0198773 1.0079756
000230 f7 55 7f 3f a4 f4 7d 3f 7f 3a 81 3f 3c 00 86 3f
       0.99740547 0.99201417 1.0095977 1.0468822
000240 fd 97 7f 3f 5d d5 7c 3f 9d 64 85 3f 09 c5 80 3f
       0.9984129 0.98763067 1.042133 1.006013
000250 04 a9 81 3f 76 8e 7b 3f 44 77 80 3f a5 ea 7f 3f
       1.0129704 0.98264253 1.0036397 0.99967414
000260 af 70 7e 3f 29 99 84 3f 6c c0 7c 3f ea 33 81 3f
       0.9939069 1.0359241 0.9873111 1.0093968
000270 c6 fe 7d 3f 41 b0 7d 3f dc a6 7d 3f fe a1 7d 3f
       0.9921688 0.9909707 0.9908273 0.99075305
000280 7a a1 84 3f 64 b0 7d 3f fc 58 7e 3f 71 59 81 3f
       1.0361779 0.99097276 0.9935453 1.010542
000290 27 b7 7f 3f 6b ae 7e 3f c3 8f 7c 3f ea 75 7e 3f
       0.99888843 0.9948489 0.9865686 0.9939867
0002a0 64 27 84 3f 01 05 85 3f 2e a8 7f 3f be c9 7d 3f
       1.0324521 1.0392152 0.99865997 0.9913596
0002b0 9b 2d 80 3f df 15 7f 3f 6c 4c 82 3f 6f 51 82 3f
       1.0013918 0.9964275 1.0179572 1.0181102
0002c0 3c d7 81 3f 9b bc 81 3f bf b3 80 3f 32 7d 89 3f
       1.0143809 1.0135683 1.0054854 1.0741332
0002d0 21 8e 7e 3f ae b7 80 3f 75 0c 7d 3f 3a 80 80 3f
       0.9943562 1.0056055 0.9884713 1.0039132
0002e0 ec de 7e 3f 0b 4e 81 3f 41 bd 7e 3f 98 0c 7f 3f
       0.995589 1.0101942 0.9950753 0.9962859
0002f0 59 6b 7c 3f 30 55 7c 3f d5 96 80 3f d9 8f 84 3f
       0.986013 0.98567486 1.004603 1.0356399
000300 4f 6e 81 3f dc 0c 81 3f c3 57 84 3f 94 d1 7b 3f
       1.0111789 1.0082049 1.0339283 0.98366666
000310 5b f5 84 3f 73 fa 7c 3f a3 01 7e 3f d1 55 83 3f
       1.0387377 0.98819655 0.9922125 1.0260564
000320 b6 83 7c 3f 5a 41 82 3f 51 86 81 3f 7c e4 7f 3f
       0.98638475 1.0176194 1.0119115 0.99958014
000330 a8 b5 7f 3f d8 98 83 3f 59 60 7c 3f ca 62 80 3f
       0.9988656 1.0281019 0.98584515 1.0030148
000340 04 c8 84 3f 1e 2e 7f 3f de 68 7e 3f 2c 13 86 3f
       1.037354 0.99679744 0.99378765 1.0474601
000350 23 3f 83 3f 07 d5 7d 3f 39 19 81 3f 0a b6 86 3f
       1.0253643 0.9915318 1.0085822 1.0524304
000360 2d e4 7d 3f 19 77 85 3f 8c 72 7d 3f e9 d9 7f 3f
       0.99176294 1.0426971 0.9900291 0.9994188
000370 ce 6b 80 3f 1f 14 80 3f a7 f0 7c 3f e1 56 80 3f
       1.0032899 1.000614 0.98804706 1.0026513
000380 30 9c 85 3f dd 7d 7e 3f 21 4c 8a 3f ea 07 80 3f
       1.043829 0.994108 1.0804483 1.0002415
000390 68 42 7e 3f 00 5f 81 3f 73 ac 7e 3f c4 53 7d 3f
       0.9932008 1.0107117 0.99481887 0.9895594
0003a0 c7 08 80 3f 04 57 7d 3f 71 31 7f 3f de 88 80 3f
       1.0002679 0.989609 0.99684817 1.0041769
0003b0 39 ec 7c 3f 3c 79 80 3f 07 4e 80 3f 2d 57 7b 3f
       0.9879795 1.0036998 1.0023812 0.98179895
0003c0 27 08 7f 3f 84 4b 7d 3f c7 30 80 3f e3 c3 79 3f
       0.99621814 0.9894335 1.0014886 0.97564524
0003d0 9b a6 7c 3f 1b 2b 81 3f 3f ba 7d 3f b7 3d 83 3f
       0.9869172 1.009128 0.99112314 1.0253209
0003e0 ca 8a 83 3f 43 ba 80 3f ae cf 82 3f be 51 85 3f
       1.027673 1.0056843 1.0219629 1.0415571
0003f0 d3 68 7f 3f f2 bc 83 3f f9 dc 7e 3f c3 9b 82 3f
       0.99769324 1.0292037 0.9955593 1.0203785

bn1.bias f4 [400]
000000 61 69 c0 39 4c ac f4 bb 7c 9e 51 bc 41 42 41 b9
       0.00036699607 -0.0074668285 -0.012794133 -0.00018430596
000010 65 f9 67 bc 0e ab da bb dc 3f 96 3a 98 96 a9 3b
       -0.014158581 -0.0066732233 0.0011463123 0.005175423
000020 29 7a 5c 3a 11 64 e4 3a c3 5e ef ba 40 aa ea 3b
       0.0008410537 0.0017424842 -0.0018262494 0.0071614087
000030 80 ff 46 bb c9 fc ed bb e1 06 a0 3a ec 66 a1 b9
       -0.0030364692 -0.0072628004 0.0012209081 -0.00030784996
000040 bf 89 96 bb a1 e9 fc bb 90 f3 85 bb bd 3f cd 39
       -0.0045940573 -0.0077182804 -0.004087873 0.00039148136
000050 39 d6 9d 3b 00 f2 5e bb 41 11 13 3c fb a3 66 3b
       0.004816797 -0.0034018755 0.008976282 0.0035192955
000060 26 ec dd ba 69 43 94 bb 65 ec 27 39 92 56 bf 3b
       -0.001693134 -0.0045246375 0.00016014425 0.0058391774
000070 43 bf 36 3a 9b e7 dd 3b f1 0e c6 bb 56 52 ec bb
       0.0006971249 0.0067719943 -0.0060442616 -0.0072119636
000080 26 47 34 bc bf 8a a4 3b fe c5 ed ba c8 3c 9f bb
       -0.011003291 0.0050214226 -0.0018140671 -0.0048595406
000090 48 a7 62 3c 3c 6f 07 bc 2e a8 d0 bb 99 d9 02 bc
       0.013833828 -0.008266266 -0.006367705 -0.00798645
0000a0 07 32 96 bc 89 54 8e bb 5b 2b 3c bc f3 2b f9 bb
       -0.018334402 -0.0043435735 -0.011484946 -0.007604116
0000b0 58 48 29 bc de 61 5d bc 1e 07 26 bb 48 51 ee bb
       -0.0103321895 -0.013512103 -0.0025333832 -0.007272873
0000c0 8e ca 91 b9 0f b7 3d 3b 0c d2 1c 3c 79 c6 b6 bb
       -0.0002780747 0.0028948223 0.009571563 -0.005577859
0000d0 e6 4a 9d b9 a6 0c a0 3b 06 1c aa bb 8a 4b 3b 3b
       -0.00030001177 0.0048843203 -0.005191329 0.002857896
0000e0 97 4b 92 3a 3f c3 e2 3b 71 04 9e 3c 2d 84 1c 3c
       0.0011161444 0.006920248 0.019289227 0.009552998
0000f0 35 aa 28 3c a3 19 1b 3b d4 4c 70 3b 9b ae 44 bb
       0.010294487 0.0023666404 0.0036666887 -0.00300113
000100 8c 7f 82 bb bf 26 52 3b 90 1e b2 b7 64 be 7f bb
       -0.00398249 0.0032066552 -2.1233485e-05 -0.0039023394
000110 02 f9 1e bb 0a e4 66 bb 74 02 80 bb 6c aa 91 3c
       -0.0024257307 -0.0035231137 -0.0039065424 0.017781459
000120 b1 6f 8f ba 50 1d 1a 3c 58 6a f5 39 cc e5 98 bb
       -0.0010943321 0.009406403 0.00046809274 -0.004666066
000130 b9 9a bf bb fa 72 b9 bb f1 18 8e 3b 6d d0 22 3c
       -0.005847302 -0.005659458 0.0043364693 0.009937388
000140 3f 0a c4 bb c3 67 b0 bb 7e 9e 36 38 51 73 4a bc
       -0.0059826667 -0.005383463 4.353979e-05 -0.012356595
000150 91 3e 3d bc e5 94 8e ba 67 7c f7 bb 6d aa ff bb
       -0.0115505615 -0.0010878114 -0.0075526717 -0.0078022988
000160 92 b4 51 3c 47 d6 cd bb 01 f9 52 ba 10 fd 3a bb
       0.012799399 -0.0062816474 -0.0008047969 -0.0028532185
000170 93 b3 73 ba e8 6c d7 bb a8 87 1b bb b8 6a 9b bb
       -0.0009296473 -0.006574262 -0.002373198 -0.0047429465
000180 c5 02 b0 3b 6b f5 a9 bb a5 09 39 ba 5c a1 ea bb
       0.005371424 -0.005186727 -0.0007058627 -0.007160349
000190 21 58 41 bc e9 9e 2a bc 3b d7 6a 3b b5 4e d9 bb
       -0.011800797 -0.010413864 0.0035833854 -0.006631697
0001a0 3f ce 3a 3b e6 df c3 bb ae 6d 7e bb 88 56 52 3c
       0.002850428 -0.0059776185 -0.0038822698 0.0128380135
0001b0 70 b5 a9 3b 2d 1e 27 3b 8e fd 11 bb 60 ea 28 bc
       0.0051790997 0.0025500164 -0.0022276375 -0.010309786
0001c0 75 f4 05 bc fa 66 15 ba f3 59 4b bb c8 30 1c bc
       -0.008175959 -0.00056992436 -0.0031028956 -0.009533115
0001d0 22 2b 6c 3b f0 72 ed 3b e7 ad d9 3b 4a 5f a2 3a
       0.0036036451 0.0072463676 0.006643045 0.0012388017
0001e0 c6 a6 5a bb 2a 78 0e bb 64 26 2a bc ea ca 88 38
       -0.0033363565 -0.0021739104 -0.01038513 6.522781e-05
0001f0 5c 6e 1c 3b 2c 25 a7 3b ee e2 24 bb f7 34 07 3c
       0.002386949 0.005100867 -0.0025159675 0.008252374
000200 79 b8 80 ba 94 f0 f9 bb cc 3a 1f bc 19 1c 00 bc
       -0.0009820602 -0.007627556 -0.009718608 -0.007819199
000210 e3 8f 7b b9 6c 18 af bb 9f 82 54 3b 23 1c 9a 3a
       -0.00023990827 -0.0053434875 0.003242649 0.0011757653
000220 7e 76 ff b9 7f 5e 04 bc 39 d5 8d 39 87 3b 25 3a
       -0.00048725674 -0.00807917 0.0002705248 0.0006303121
000230 5b 20 1f 3b 53 c1 c0 bb cf 0d d3 38 06 ca 9c ba
       0.002428076 -0.005882421 0.00010063836 -0.0011962063
000240 b8 90 07 bb a5 db 68 bb 7a e0 15 3b 87 25 85 3b
       -0.0020685624 -0.003553131 0.0022869394 0.0040633115
000250 65 da 05 3c 1a bc 45 bc ff 74 04 3c 8f 5d 0b 3c
       0.008169745 -0.012068773 0.008084535 0.008506193
000260 4b 5c 20 bc d3 97 bd 3b 1b 90 c4 ba d0 a5 be 39
       -0.009787629 0.005785921 -0.001499656 0.00036363164
000270 54 12 b4 bb 2c 8e d4 bb 56 7f ac bb 2a c5 62 bc
       -0.005495349 -0.006486675 -0.005264203 -0.013840953
000280 a0 90 bb 3b 39 6b 07 bc 81 ae f8 3a 31 cc 9a 3b
       0.0057240278 -0.00826531 0.0018972905 0.0047240485
000290 e7 6c fc bb e1 c0 3a bc f9 f6 1f 3b 57 06 1e bc
       -0.007703412 -0.011398525 0.0024408682 -0.009645066
0002a0 47 57 15 3b b9 00 91 3b fb e7 00 b9 39 65 0a bc
       0.0022787617 0.004425135 -0.0001229345 -0.008446985
0002b0 81 b1 05 3b 85 7e 6d bc cb d0 34 bc 4e 60 3b 39
       0.002039999 -0.014495497 -0.011036108 0.00017869586
0002c0 30 50 3e bc 3b 13 84 ba 60 20 82 bb 89 b7 26 3b
       -0.011615798 -0.0010076532 -0.0039711446 0.0025438985
0002d0 39 f0 49 bc 7b 07 30 bb a2 0f e8 3a b3 da 15 bc
       -0.01232534 -0.0026859927 0.0017704854 -0.00914638
0002e0 40 7b 30 bb ec de f2 38 4d dd e8 bb ab e1 93 bb
       -0.0026928931 0.00011580982 -0.0071064592 -0.0045129857
0002f0 54 fa 97 bb 9e 92 d1 3a a8 f0 a5 bb 1c ed fa b8
       -0.0046379957 0.001598913 -0.005064089 -0.00011965094
000300 6f e2 92 39 50 f2 ad b8 f8 d8 62 3a 5e fa ba bb
       0.00028015996 -8.294417e-05 0.00086535467 -0.0057061156
000310 8d 9e 8f ba 85 40 84 3a 2b b0 97 bb 1f 4b fd 3b
       -0.0010957286 0.0010090029 -0.004629155 0.0077299024
000320 98 db 84 3b 19 58 a4 3b c9 07 8f 3b d3 36 d1 3a
       0.004054498 0.005015385 0.0043649417 0.0015961773
000330 92 1e d1 bb 2f d7 1f 3b e1 51 c9 bb 57 d6 1c 3c
       -0.006381818 0.0024389734 -0.006143794 0.009572587
000340 b9 c8 5c b9 f3 c5 6d bb 3a ff 37 bb 9c ec a6 bb
       -0.0002105561 -0.0036281317 -0.002807571 -0.005094124
000350 7f 96 77 3b a6 34 33 bb c2 0d 0a bb 00 71 91 3b
       0.0037778912 -0.0027344613 -0.002106533 0.0044385195
000360 4e b5 b0 bb d9 cd da 3a 8c dc 18 bc fa 67 11 3c
       -0.005392707 0.0016693427 -0.009329926 0.008874888
000370 b6 30 08 bb 8a 75 e6 3b 84 48 a5 bc 24 ec c7 3a
       -0.0020780987 0.0070330547 -0.02017618 0.001525287
000380 c8 2c 9a 3b fd ac 3b bb b6 81 c4 3b 21 1d ac ba
       0.0047050454 -0.0028637045 0.005996908 -0.001313124
000390 3a 4d 86 3b 70 89 ca 3a f3 77 d8 bb 1c 83 fd ba
       0.0040985616 0.0015452337 -0.006606096 -0.0019341442
0003a0 9e 5f 22 bb 82 45 1f bc 4f 84 f5 bb e7 c3 77 3c
       -0.002477623 -0.009721162 -0.007492579 0.01512239
0003b0 b4 b3 f5 bb db 52 ce bb 1b 27 da bb cf 7b b8 bb
       -0.007498229 -0.0062964982 -0.0066574938 -0.0056299935
0003c0 3b f2 77 bc 42 b4 1a bb df 60 74 3b da 91 a4 bb
       -0.015133436 -0.0023605977 0.0037289185 -0.0050222697
0003d0 03 93 eb bb bd c0 e6 bb a2 b1 df ba 06 26 29 3c
       -0.007189156 -0.007042019 -0.0017066489 0.010324007
0003e0 e9 6e ed b9 6f c1 bf 3b 06 e7 ec 3b ed 7b 5d 3b
       -0.00045286797 0.0058519165 0.0072296886 0.003379579
0003f0 f2 5b 4f bc 44 d9 e0 3b 92 85 ae ba 08 ec 0e 3a
       -0.012656199 0.0068618376 -0.0013314954 0.00054520415

layer2.weight f4 [300, 400]
000000 d8 90 c8 bc 5f 54 c9 3c 2d ae bc bc 95 fa 3c bd
       -0.02448313 0.024576364 -0.023032272 -0.04613741
000010 9b 8e d6 3c a8 f1 30 3c 1a 25 1e bc ed a3 53 3b
       0.026191046 0.010799803 -0.0096524 0.0032293752
000020 80 c8 08 bd c6 90 cc bc 2f 9c 8b 3c 3a f2 1f 3d
       -0.033394337 -0.024971377 0.017042248 0.039049365
000030 78 05 ba 3c 92 56 93 bc 5c 38 e1 3c 44 14 50 bd
       0.022707686 -0.017985616 0.027492695 -0.050800577
000040 38 b6 59 3d 57 da 21 3d ae 64 3d bd bf 27 0e 3c
       0.053152293 0.039514866 -0.046238594 0.008676468
000050 af 79 1c 3d eb 4a 97 3d 0b 5b d2 ba 99 2d a4 3c
       0.038201984 0.07387336 -0.0016048861 0.020041274
000060 4d c5 db bc e9 6c 47 3d ba 99 1b 3d 30 89 a4 bd
       -0.026827479 0.04868785 0.037988402 -0.08033979
000070 f3 01 02 3c 58 19 ce bc a6 fc 00 3d 8f 46 ee bc
       0.007935035 -0.02515857 0.031490944 -0.02908638
000080 6b 07 7e 3d 91 01 68 3c 95 87 82 bd 29 e8 d1 bc
       0.062018793 0.01416053 -0.063735165 -0.025623398
000090 a0 f9 c1 bc 50 b6 0b bd 8b 7a 2c 3c e1 61 6e 3c
       -0.0236786 -0.034109414 0.010527263 0.014549703
0000a0 8b 8c 76 3d aa d7 01 bd 7b 0c 6c 3d 6b 09 bb bc
       0.060192626 -0.031699814 0.05762909 -0.02283164
0000b0 d7 52 28 3d 4f 5e 9f bc 3b fc 33 3d d7 6b 24 3d
       0.041094627 -0.01945415 0.043941718 0.040141907
0000c0 8d 92 92 3d 6a fa 60 bd 07 24 46 3d 2f 2a aa 3c
       0.071568586 -0.054926313 0.048374202 0.020772068
0000d0 04 fc f9 ba fa 7f 48 3c 41 32 1d bd 6e 53 37 3d
       -0.0019072299 0.012237543 -0.038378004 0.0447573
0000e0 a6 c3 2d 3c 6c 1f da bc e9 03 95 bb 7e f8 95 bd
       0.010605728 -0.026626311 -0.0045475853 -0.07322787
0000f0 52 8c d4 3c e1 5f 27 bd d9 31 de bb 99 9c 9c bd
       0.025945816 -0.04086292 -0.0067808446 -0.07647056
000100 0b 6e 99 3c c5 ed 82 3c 95 47 82 3d 4a a4 2f bd
       0.01872923 0.015982518 0.063613094 -0.042881288
000110 67 9c 1e 3d ae e8 11 3b b7 0c 30 3d 16 40 2c 3d
       0.038723376 0.0022263932 0.042980876 0.042053305
000120 26 ff 0a 3d 91 fa 3e bd 38 1c 39 bd 03 4b 50 3d
       0.033934735 -0.046625677 -0.045192927 0.050852787
000130 39 34 d3 bc cd 20 0e 3d 9d 89 0b 3d 15 fd af 3b
       -0.025781738 0.03469925 0.034066785 0.005370746
000140 2b 97 f4 3c 44 c4 df 3c 10 90 70 3c e6 85 63 3d
       0.029857239 0.027315266 0.014682785 0.055547617
000150 e0 88 2f bc 9e 3c 7f bc 4d e8 90 bc 02 d5 ca 3c
       -0.010713786 -0.015578417 -0.017688895 0.024759773
000160 30 d2 a8 bd dd 31 53 3d 0e 8d e6 3c aa db e3 3c
       -0.08243215 0.051561225 0.028143432 0.027814705
000170 af 93 43 3d 4f 55 26 bd 18 20 08 3c bd 88 ad bc
       0.047748264 -0.0406087 0.008308433 -0.021183366
000180 35 00 74 3c a6 78 14 bd ec 0d 18 bd 81 da 7c bb
       0.0148926275 -0.03624787 -0.037122652 -0.0038582387
000190 e5 7d 03 bc 67 1b c2 3c 85 18 41 3c 14 42 9e 3c
       -0.008025621 0.023694707 0.011785631 0.019318618
0001a0 ab 54 23 3d a0 20 40 bd 9d d5 5d bc 7b c3 78 bb
       0.039875668 -0.046906114 -0.013539699 -0.0037958312
0001b0 2b 07 f0 3c 5d 64 8a bd 49 79 c4 3c a6 2f e9 bc
       0.029300293 -0.06757424 0.023983615 -0.028465103
0001c0 f5 2a 12 3d 1f b8 c8 3c 7d 93 20 bd 42 5e 56 3d
       0.0356855 0.024501858 -0.039203156 0.052335985
0001d0 8a 6c 73 bd bb 1f 82 bd b9 4c 64 bd f1 db 23 3d
       -0.059429683 -0.06353708 -0.05573723 0.040004674
0001e0 0d 64 58 3c db 14 9c bc 25 15 08 3d 3c 46 05 bd
       0.013207448 -0.019052913 0.03322329 -0.032537684
0001f0 a2 77 5f bd 42 d7 07 bc 0d 73 a3 bc f0 55 62 bd
       -0.05455745 -0.008291068 -0.019952321 -0.055257738
000200 90 65 cf 3c cc da 34 bd bd 4d 60 3b ba 2f 80 bb
       0.025316983 -0.044153973 0.0034226023 -0.0039119394
000210 7e be 04 3d 1c b7 0b bd 97 fd 9e ba 7f 98 31 3d
       0.03240823 -0.034110174 -0.0012130019 0.043358322
000220 85 ba 6d 3d 08 8f 64 3c fb bd 42 3d 90 a7 1a bd
       0.058039207 0.013950117 0.04754446 -0.037757456
000230 21 a4 54 bd 9b 96 74 bc f7 45 24 3d 96 6b 53 bd
       -0.051914338 -0.014928485 0.040105786 -0.051616274
000240 a5 f8 02 3d 79 29 d4 bc a4 f4 9e bd 27 50 60 bd
       0.031975407 -0.025898682 -0.07761505 -0.05476394
000250 75 94 3a bb 1b 5d 49 3d 00 9a 12 3d b0 b4 da ba
       -0.0028469835 0.049161058 0.035791397 -0.0016685929
000260 8a 81 a3 bc d9 ba b0 3c 67 df 01 bd c5 b9 78 bc
       -0.01995923 0.02157347 -0.031707194 -0.01518101
000270 4b 8a 60 3d 20 c9 74 3b 87 70 22 bd 7e 84 b2 3c
       0.054819386 0.0037351325 -0.039658096 0.021791693
000280 fb 71 df bc b2 64 a2 3b 85 56 cc 3c eb 2a 13 3d
       -0.02727603 0.0049558515 0.0249436 0.0359296
000290 47 3d 28 bb 96 29 07 3c db 27 db bb 4a 26 5b 3d
       -0.002567129 0.008249661 -0.0066881008 0.053503312
0002a0 1a 4c 65 bd 63 f9 b0 bc 2a ae db 3c 24 62 69 3d
       -0.05598078 -0.021603292 0.026816446 0.05697836
0002b0 43 73 2d 3d e5 3b d5 3c 3b c3 c7 3d e6 de 4e 3d
       0.04234625 0.026029537 0.09754034 0.05050554
0002c0 18 c5 e4 3b 49 ee 86 3d 0d 3a 1a bc 44 59 52 bd
       0.006981503 0.06588418 -0.009413254 -0.05135466
0002d0 ee e5 55 3d 74 17 ce 3c 24 76 6a 3c 36 5b 46 bd
       0.05222123 0.025157668 0.0143103935 -0.04842683
0002e0 94 21 39 bc 3a 06 96 3d 2e 63 3b 3d b8 d1 88 3c
       -0.01129951 0.073254064 0.045748882 0.016701564
0002f0 7e ae 48 bd 5c 18 46 3a 46 58 96 3a 96 31 39 bd
       -0.048994534 0.00075567304 0.0011470399 -0.045213304
000300 d7 3a 85 b9 40 d1 77 bc 69 1d e3 bc 39 d3 25 3d
       -0.00025411576 -0.015125573 -0.027723985 0.04048464
000310 d0 55 75 bd 28 83 0a bd 6d d3 be 3b 8e b4 80 bc
       -0.05989629 -0.033816487 0.0058235438 -0.015711095
000320 a6 46 03 bd 59 cf 35 bd ae 5a 1d bd 82 ac 67 bc
       -0.032049797 -0.044387195 -0.038416557 -0.01414025
000330 74 3f 65 3c ad 2e b3 3c 5b 03 f6 bc 21 c7 87 3d
       0.013992179 0.021872843 -0.030030897 0.06629778
000340 b1 f0 96 3c 34 69 45 3d 3a 99 37 3d 39 85 80 3d
       0.018425317 0.048196033 0.044823863 0.0627541
000350 6f 36 98 bd 48 30 ed bc 4d 06 47 bd 72 c7 a2 3d
       -0.074322574 -0.028953686 -0.048589993 0.079481974
000360 b7 5d 76 bc 83 28 1e 3c e5 c2 4f bd 22 4e 0a 3b
       -0.015036992 0.009653213 -0.050722975 0.00211037
000370 f0 00 27 3d dc 4b 81 3b 60 6b 8f 3c bd 65 31 bd
       0.04077238 0.0039458107 0.017507255 -0.043309916
000380 33 75 45 bd d1 20 5d 3d a2 a4 a0 bd d2 f2 30 bd
       -0.048207473 0.053986374 -0.07843901 -0.04320032
000390 dc 33 46 bd bb fa 3d 3c ff d8 3c 3d 6e 13 5a bc
       -0.0483893 0.011595423 0.04610538 -0.013310296
0003a0 13 50 77 3c f3 b8 77 bc 5b 95 1c bc ff fa 11 bd
       0.015094775 -0.015119779 -0.0095570935 -0.03563976
0003b0 64 91 0e bd 20 65 47 3d ed 1f af bc 8e 2f eb bb
       -0.034806624 0.048680425 -0.021377528 -0.0071773
0003c0 f3 3d 03 3b 32 fe ba bc 98 18 8d 3c a4 82 85 bc
       0.0020025938 -0.022826288 0.017223641 -0.016297646
0003d0 77 37 37 bc 42 4f ba bc 11 4f ab bb 4e df 21 bd
       -0.011182657 -0.022742871 -0.0052279313 -0.0395196
0003e0 4a f9 c5 bb ca de 54 bc df d5 9c bd b5 d3 94 b9
       -0.0060416805 -0.01299257 -0.0765798 -0.00028386494
0003f0 d3 9a 48 3d 9f 74 a1 3a 49 8c 8d bc da a9 1a bd
       0.048975777 0.0012318081 -0.017278807 -0.03775964

layer2.bias f4 [300]
000000 b0 e9 f7 bc 8c 1a 1c bd 41 eb f6 3c 20 9a 05 bd
       -0.030262798 -0.038111255 0.030141475 -0.03261769
000010 82 8b 48 bd 46 66 0a 3d cd 00 21 bd cd ba 15 3d
       -0.04896117 0.03378894 -0.039307404 0.0365551
000020 91 e5 15 bd e6 3d 66 3d e8 2f 79 bc c7 9d 1f 3d
       -0.036595885 0.056211375 -0.015209176 0.038968828
000030 99 bc 53 3d 0e 66 08 3c ea 26 4f bc b7 2b 49 3d
       0.051693533 0.008325113 -0.012643555 0.049113955
000040 74 04 b3 bb 35 3e 53 3d ef fc 17 3d 40 a3 78 bc
       -0.0054631773 0.051572997 0.03710645 -0.015175641
000050 c6 85 11 3d cf ba 1a 3d 77 f3 3a bc 34 3f be 3c
       0.035527967 0.03777581 -0.011410586 0.023223497
000060 57 48 db bc 7e b8 99 bc 5e e6 06 bd d2 9c 85 3c
       -0.026767893 -0.01876473 -0.03293454 0.01631013
000070 c9 21 18 3d 59 cc 01 3d 22 45 d3 bb 2c 59 1a bd
       0.037141595 0.03168902 -0.0064474503 -0.037682697
000080 a4 0b 96 bc 05 9b 73 bb 3a 55 3a bd da 1c a6 bb
       -0.018316098 -0.0037171256 -0.045491435 -0.0050693573
000090 19 93 5b 3c a3 10 33 bd e6 18 d3 bc 51 4a 2b 3d
       0.01340177 -0.043717038 -0.025768708 0.04181892
0000a0 51 91 12 3d e5 15 ae 3c c1 df fe 3c 58 62 a0 bc
       0.035783116 0.021250675 0.031112554 -0.019578144
0000b0 96 88 1e bc 8b d6 3d 3d f2 d0 99 bc bf b2 2d 3c
       -0.009676119 0.046347182 -0.01877639 0.010601698
0000c0 49 33 c2 bc 24 e4 84 3b 2f 49 d8 3c f7 ab 24 3d
       -0.023706095 0.004055517 0.026402084 0.04020306
0000d0 04 55 3d bd 72 8c db 3c 3a c7 01 bd a8 3c b3 3c
       -0.046223655 0.026800368 -0.031684138 0.02187951
0000e0 29 0e 1e 3c c3 56 df bb 6e 3d 04 3d 83 d4 bf 3c
       0.009646931 -0.0068157627 0.032285146 0.023416763
0000f0 ba 06 3b bd 6d a9 45 3c e0 93 33 bd 58 71 5c 3d
       -0.04566071 0.01206432 -0.043842196 0.05381903
000100 d3 2b ec 3c 66 51 84 bb b6 0c 18 bd d6 ae 25 3d
       0.02882949 -0.0040380238 -0.037121497 0.04044994
000110 69 62 cf bc ab 67 40 bc 63 93 03 bd 62 6e e1 3c
       -0.02531548 -0.011743466 -0.03212298 0.027518455
000120 41 d1 b3 bc a5 dc e4 3b 9c b0 18 bd b0 c5 dc bc
       -0.021950366 0.0069843107 -0.037277803 -0.026949733
000130 c9 18 69 3b 93 7b b6 3c 67 e7 f7 3c 87 6c 7c bb
       0.0035567752 0.022275722 0.030261708 -0.0038516836
000140 2c b5 cb bc 76 e2 92 bc 9b 48 b0 bc c2 f5 0d 3d
       -0.024866663 -0.01793025 -0.021518996 0.0346582
000150 0e a4 10 3d 5c 54 51 bb 30 14 29 3d 23 10 35 3c
       0.035312705 -0.0031941151 0.041279018 0.011051211
000160 dd 2e c2 3c 74 95 2f bd 5c df 40 bc 3b 10 3b 3d
       0.023703987 -0.04286714 -0.011772003 0.045669775
000170 97 89 5c bd 7f 80 b9 3c ab ea 89 3c af 15 53 3d
       -0.053842153 0.02264428 0.016835531 0.05153435
000180 ee 28 2f bd e3 d2 2b bd 2f 50 5a bd 8d f6 60 bd
       -0.042763643 -0.041949164 -0.053299125 -0.05492263
000190 d0 4b 3c 3b 73 1d 6a bc 57 ea 45 3d b2 8c 76 3c
       0.0028731711 -0.014289248 0.048319187 0.015048193
0001a0 8d 77 80 3c 0a e4 5c bd c4 70 43 3d bd 48 c1 3c
       0.015682006 -0.053928412 0.047714964 0.023594255
0001b0 c6 e6 4f bc 61 da 54 3d 47 8b 8f 3c 92 fa 2d bd
       -0.012689298 0.051966075 0.017522467 -0.04247529
0001c0 1a c3 01 3c c6 39 bb 3c 48 86 42 bd ae 56 5b bd
       0.007920051 0.022854697 -0.04749134 -0.05354946
0001d0 e7 5f 30 3d ba db 3f bc 67 51 e4 bc 90 ee 53 3b
       0.04306021 -0.011710102 -0.027870847 0.003233824
0001e0 54 37 bd 3b 08 5c cb 3c a2 1b ab bc 62 6a 08 bd
       0.005774418 0.024824157 -0.0208872 -0.03330458
0001f0 2d ff 21 3c 1c 79 d8 bc cb 6a 4a bb 02 af da 3a
       0.009887499 -0.026424937 -0.0030886407 0.0016684236
000200 b4 af 1b 3d 26 00 b5 bb ec fe d9 bb 77 c9 e1 bc
       0.03800936 -0.0055236993 -0.0066527035 -0.027561886
000210 6c d2 0a b9 bd 50 45 3c 13 25 b9 bc e4 63 c9 bb
       -0.00013239094 0.012043175 -0.022600686 -0.006145941
000220 b0 bd 1f bd 0a 80 d7 bc 27 39 7d 3c 40 52 1f 3d
       -0.03899926 -0.026306171 0.015455521 0.0388968
000230 67 a1 2b bd da 3b 4c bb 82 3d e1 3b 42 c5 13 3b
       -0.041901972 -0.0031163604 0.0068737874 0.0022547995
000240 81 73 21 3d 2e fd bf 3a e6 d8 5e bd a4 fa 41 bd
       0.039416794 0.0014647597 -0.05440607 -0.04735817
000250 89 e2 40 3d d3 44 1a 3c 42 80 4f 3d db a1 a2 bc
       0.04709104 0.009415823 0.050659426 -0.01985257
000260 35 21 e8 3c 45 b7 35 ba 04 ef 48 3d b9 ae 48 bd
       0.028336147 -0.00069319113 0.049056068 -0.048994754
000270 0e b9 85 3b 02 31 86 bc 96 18 8a 3c d1 68 d6 3c
       0.004080898 -0.01638079 0.016857427 0.026173027
000280 cd 17 3b 3d 7d 03 dd bc 1a 58 2f bd 02 eb 34 3d
       0.045676995 -0.026979202 -0.04280863 0.044169433
000290 fa 80 3b bd d0 bd 4e 3d 02 b0 99 3c 59 af 3b bd
       -0.0457773 0.050473988 0.018760685 -0.04582152
0002a0 4c ca 8b 3c 51 ba 15 bc b8 8a c9 3c fa 8e c0 b8
       0.017064236 -0.00913866 0.024602279 -9.181905e-05
0002b0 35 ab 61 3d d6 10 8c bc 12 1b 66 3d 09 e6 50 3d
       0.055094916 -0.017097872 0.05617816 0.05100063
0002c0 bd e1 17 3d 6b c6 a2 bc f8 cd b3 bc ae bb b4 3c
       0.037080515 -0.019870004 -0.0219488 0.022062149
0002d0 d5 52 2d bc b5 5b ea bc 55 e5 a8 bc 5c 04 45 3d
       -0.010578831 -0.028608182 -0.020617167 0.04809986
0002e0 05 04 c3 bc 63 46 38 3c e7 38 6e 3c e4 77 12 bc
       -0.023805628 0.01124725 0.014539934 -0.008939717
0002f0 36 e3 8e 3b bd 40 39 3c b1 90 18 3d 26 98 5c 3c
       0.0043605817 0.011306939 0.037247363 0.013464009
000300 c7 f2 51 bc 56 a1 d4 3b eb 9d 0f bc 16 71 aa bc
       -0.01281423 0.0064889593 -0.008765678 -0.020805877
000310 c9 3d 57 bc 26 59 3c bd 85 2a d9 bc 61 7e 1e bc
       -0.013137289 -0.045983456 -0.026509533 -0.009673686
000320 ae db 3f bd 91 51 0d bc a6 d1 1a bd 9b 0b 00 bd
       -0.046840362 -0.008625404 -0.037797593 -0.031261068
000330 e8 21 4d bc c7 a3 5c 3d e2 08 56 3d fb 0b 25 3d
       -0.012520291 0.053867128 0.052254565 0.04029463
000340 30 d3 e6 ba 0f 1f 5d bd cc 51 22 3c 5e 6f 14 bd
       -0.0017610546 -0.053984698 0.009907197 -0.03623902
000350 74 5f 54 bc cf f1 ac 3c 8d b3 24 3d 76 bb 5d 3d
       -0.012962211 0.021111397 0.040210295 0.054133855
000360 57 9c c5 bc a1 41 16 bd c9 f7 5f 3d 50 f5 48 3d
       -0.0241224 -0.036683682 0.054679666 0.049062073
000370 15 9a 4c 3d 13 d4 11 bd fd c1 e9 3c 29 e2 79 3d
       0.04995163 -0.03560264 0.028534884 0.0610067
000380 e1 be 34 bd 13 7c 03 3d 55 dc d4 3b da d7 2b bc
       -0.04412735 0.03210075 0.006495992 -0.010488475
000390 94 18 ff 3c 94 a0 3e 3c 32 69 27 3d 03 77 22 bd
       0.03113965 0.0116349645 0.040871806 -0.03966428
0003a0 5c ed 36 bd c0 a7 21 3d 7d 6c 68 bc 25 82 ab 3c
       -0.044659957 0.03946662 -0.014186022 0.020936081
0003b0 ed 3f a3 bc e2 ea d6 3c b3 cb b0 3c f9 72 fc 3c
       -0.019927943 0.026235048 0.021581506 0.030816542
0003c0 fd a2 49 3d e7 8d 3c 3d bf 30 a9 bc 21 ba c1 bc
       0.049227703 0.046033766 -0.020653127 -0.023648323
0003d0 15 97 64 bc e6 fb c4 bc b1 9b 6b 3d 8e 36 79 bc
       -0.013952036 -0.024045896 0.057521526 -0.015210761
0003e0 f0 27 a4 bc 27 c3 2b 3c 7c d7 59 bc 55 15 fd 3c
       -0.020038575 0.01048354 -0.013296004 0.030893961
0003f0 58 fb 0b bb 24 43 17 3d 17 65 b6 bc 81 c5 02 3d
       -0.002135953 0.036929265 -0.022265 0.031926636

bn2.weight f4 [300]
000000 6c 15 a2 3f 7d e5 9c 3f 75 51 6a 3f 4b b4 85 3f
       1.2662787 1.2257534 0.91530544 1.0445646
000010 ee 5d a3 3f af 21 84 3f e1 41 ac 3f fa 4b 80 3f
       1.276304 1.032278 1.3457605 1.0023186
000020 4f 32 93 3f a5 b9 ab 3f 4b b4 a6 3f ce f6 96 3f
       1.1499728 1.3416029 1.3023771 1.1794069
000030 75 5a 86 3f 8b d9 87 3f 0d 62 7b 3f 47 b5 9d 3f
       1.0496355 1.0613264 0.9819649 1.2320946
000040 75 79 90 3f ad 8d 97 3f 1a 9b 88 3f d0 f0 b2 3f
       1.1287066 1.1840111 1.0672333 1.397974
000050 e6 78 b0 3f 1a 0c 87 3f 5e 9a 9b 3f 2f ce 8d 3f
       1.3786895 1.0550568 1.2156484 1.1078547
000060 d8 f1 b1 3f 5f 06 86 3f 23 63 81 3f e4 77 af 3f
       1.390193 1.0470694 1.0108379 1.3708463
000070 62 0e b2 3f 48 10 84 3f 6a 6d 9e 3f 63 9d 87 3f
       1.3910639 1.0317469 1.237714 1.0594906
000080 2f 31 9e 3f 51 15 9a 3f 25 69 aa 3f 1a 19 af 3f
       1.235876 1.2037755 1.3313338 1.3679535
000090 a6 d9 7b 3f c1 0b 9f 3f 7e e5 a5 3f ed 83 8b 3f
       0.9837898 1.2425462 1.296066 1.0899636
0000a0 84 a1 73 3f 33 2d 9f 3f fa 44 90 3f a7 fa a2 3f
       0.9516833 1.2435669 1.127105 1.2732743
0000b0 bf 6b b0 3f bd 27 75 3f 65 84 ab 3f bd 37 b1 3f
       1.3782881 0.9576376 1.3399779 1.3845135
0000c0 74 1d ac 3f b1 b2 b2 3f 1e 6f ae 3f 7a ed a6 3f
       1.3446488 1.3960782 1.362766 1.3041222
0000d0 ec 8c ab 3f ef 5f b1 3f 2e 51 9e 3f 70 3a 6f 3f
       1.3402381 1.3857402 1.2368524 0.93448544
0000e0 9c 5e b3 3f dd 29 a3 3f 6e 59 7d 3f 4e 21 99 3f
       1.4013247 1.2747151 0.98964584 1.1963289
0000f0 f1 d5 98 3f 0a 96 a2 3f 0e 28 b2 3f 9b 51 aa 3f
       1.194029 1.2702038 1.3918474 1.3306154
000100 e8 c0 b0 3f b2 a2 8a 3f be 7c 9e 3f 09 d7 8b 3f
       1.380887 1.0830901 1.2381818 1.0924999
000110 61 ff b0 3f 20 19 89 3f bc 7e b4 3f 0b 0c 88 3f
       1.3827935 1.0710793 1.4101176 1.0628675
000120 3d a0 a0 3f 7a 1f a6 3f f9 b1 b1 3f bf 22 9f 3f
       1.2548901 1.2978356 1.3882438 1.2432479
000130 eb c5 89 3f 87 51 a6 3f 70 5f b1 3f c1 1c 78 3f
       1.0763525 1.299363 1.385725 0.96918875
000140 36 73 a9 3f bb 4c b0 3f 0c 9c b0 3f 73 6a 85 3f
       1.3238285 1.3773416 1.3797622 1.0423111
000150 83 82 82 3f 64 99 ad 3f 1d eb af 3f f4 7f a5 3f
       1.0196079 1.3562436 1.3743626 1.2929673
000160 82 83 9e 3f b8 26 79 3f a3 40 b2 3f 91 93 b1 3f
       1.2383883 0.97324705 1.3925976 1.3873159
000170 9e 11 82 3f c0 c3 8a 3f fb ab b0 3f 13 94 82 3f
       1.0161626 1.0840988 1.3802484 1.0201439
000180 99 d8 8b 3f a9 50 97 3f eb 22 a8 3f bd c5 89 3f
       1.0925475 1.182149 1.3135656 1.076347
000190 35 2d b1 3f 06 b4 a3 3f ac ac a4 3f 65 20 a0 3f
       1.3841921 1.2789314 1.2865195 1.2509886
0001a0 bc 84 b1 3f bc 4a 78 3f f2 55 a0 3f 2b e1 b1 3f
       1.3868632 0.96989036 1.2526228 1.3896841
0001b0 b6 d1 97 3f 2b bc b1 3f 64 8f 97 3f 1b 29 b2 3f
       1.1860874 1.3885549 1.1840634 1.3918794
0001c0 f8 1a b2 3f eb 23 ad 3f 1a cf a8 3f 3b 8c 7c 3f
       1.391448 1.3526586 1.3188202 0.98651475
0001d0 9a 8a b1 3f 3a 14 b5 3f 0e fb a0 3f d0 aa 8e 3f
       1.3870423 1.4146798 1.2576616 1.1145878
0001e0 71 aa 84 3f 75 f6 b1 3f da 35 9c 3f ad d8 7e 3f
       1.0364515 1.3903338 1.2203934 0.9954937
0001f0 a5 20 98 3f b1 d7 9a 3f 89 c7 9c 3f f9 46 a0 3f
       1.1884962 1.2097074 1.2248393 1.2521659
000200 fd ef a1 3f 43 52 85 3f fd 07 84 3f e1 a6 81 3f
       1.2651364 1.0415729 1.0314938 1.0129052
000210 c6 d2 8e 3f c9 89 a5 3f 31 c1 9c 3f 45 9d a9 3f
       1.1158073 1.2932674 1.2246457 1.325112
000220 e4 c3 aa 3f ca 03 88 3f 47 20 a2 3f 0d 13 78 3f
       1.3341031 1.0626156 1.26661 0.9690407
000230 2d c5 b0 3f f7 9c a1 3f 6d 4b b3 3f 9e b1 af 3f
       1.3810173 1.2626027 1.4007393 1.372608
000240 8c ba 84 3f 36 66 a3 3f a4 4b 92 3f 7b 00 9e 3f
       1.036943 1.2765567 1.1429334 1.2343897
000250 2e 5b b2 3f 7b 2b 76 3f 33 07 b2 3f a6 0b 87 3f
       1.3934076 0.96160096 1.3908447 1.055043
000260 6c cd 9e 3f 4d 41 b1 3f 16 ce 8a 3f 0a 13 b0 3f
       1.240644 1.3848053 1.0844142 1.375581
000270 1f ba b1 3f e8 bb 97 3f 56 90 9d 3f cf 0c ab 3f
       1.3884925 1.185422 1.2309673 1.3363284
000280 18 76 6b 3f 9a 2e 84 3f 70 07 ab 3f d1 87 7f 3f
       0.9197707 1.0326722 1.3361645 0.99816614
000290 99 28 a1 3f de 13 b2 3f bc 36 aa 3f 9f f1 b0 3f
       1.2590514 1.3912313 1.3297954 1.3823737
0002a0 c9 76 b1 3f fa 73 9c 3f a0 3a a2 3f b5 a2 b0 3f
       1.3864375 1.2222893 1.2674141 1.3799654
0002b0 a4 30 b1 3f 55 31 8e 3f 91 6c 92 3f 45 2a b1 3f
       1.3842969 1.1108805 1.1439382 1.3841025
0002c0 29 49 a5 3f 31 6f 89 3f 89 c5 a4 3f 86 a3 af 3f
       1.2912952 1.0737058 1.2872783 1.3721778
0002d0 c2 7d af 3f 6b 1f ad 3f cc b6 81 3f 2e 53 79 3f
       1.3710253 1.3525213 1.013391 0.9739255
0002e0 09 e5 a3 3f 53 5a b1 3f 19 ca 75 3f 5a 34 b0 3f
       1.2804271 1.385569 0.960115 1.3765976
0002f0 ad 55 aa 3f b9 57 85 3f a5 d0 b1 3f 4e e2 8c 3f
       1.3307396 1.0417396 1.3891798 1.1006563
000300 1c 9e a3 3f ef 1a 78 3f e9 0c 8f 3f 75 ce 8e 3f
       1.2782626 0.969161 1.1175815 1.1156756
000310 5b 86 77 3f db 48 87 3f 74 c6 9f 3f 2b 43 b1 3f
       0.96689385 1.0569109 1.2482438 1.3848623
000320 27 ef 88 3f 40 47 b1 3f 23 e5 85 3f 41 57 ab 3f
       1.0697984 1.3849869 1.0460552 1.3386003
000330 9c 42 9f 3f dd 8e 84 3f 37 6e ab 3f 24 c5 89 3f
       1.2442203 1.0356098 1.339301 1.0763288
000340 0d c8 9c 3f 72 a1 82 3f 2c 26 a1 3f f4 1c 9e 3f
       1.2248551 1.0205519 1.2589774 1.2352586
000350 b5 0e 81 3f b5 d9 9e 3f 6c e5 84 3f a8 22 7c 3f
       1.0082613 1.2410189 1.0382514 0.9849038
000360 fb 81 b2 3f 21 74 b1 3f 58 31 b2 3f ee 24 82 3f
       1.3945917 1.3863565 1.3921309 1.016752
000370 ea d2 a4 3f 43 17 a9 3f ac 21 81 3f d1 43 a2 3f
       1.2876866 1.3210224 1.0088401 1.2676946
000380 cf d1 a4 3f 43 12 9b 3f a8 f0 a3 3f 5b 93 b0 3f
       1.2876529 1.2114948 1.2807817 1.3794969
000390 f8 5b 8c 3f 5a 4b 88 3f 03 63 9d 3f dc 7f 9b 3f
       1.0965567 1.0647995 1.2295841 1.2148395
0003a0 79 c6 af 3f 54 7a 97 3f 2c 8f 86 3f a2 9d a0 3f
       1.3732444 1.1834207 1.0512443 1.2548106
0003b0 cc 5f 83 3f 2d bf 8a 3f 9f a8 ae 3f 59 94 84 3f
       1.026361 1.0839592 1.3645209 1.0357772
0003c0 25 27 9f 3f 99 8e 83 3f 7e 09 a1 3f da 72 b1 3f
       1.2433821 1.0277892 1.2581022 1.3863175
0003d0 42 80 84 3f 39 01 84 3f 27 7d b0 3f c0 5f 93 3f
       1.0351641 1.0312873 1.3788193 1.1513596
0003e0 86 e5 8f 3f 3c b1 b0 3f 67 4c a9 3f 68 bc aa 3f
       1.124192 1.3804088 1.3226441 1.3338747
0003f0 f2 83 b2 3f 32 81 99 3f 2a b0 b1 3f 4f b8 9b 3f
       1.3946517 1.1992552 1.3881886 1.2165622
