DDPG/actor.ckpt (torch, 527895 bytes, 6 tensors)

l1.weight f4 [400, 24]
-0.14585371 -0.42172357 -0.27279177 1.2359526 0.08671678 0.08662037 -0.025005018 0.28062198
0.12082327 0.05713893 0.11322511 -0.07677931 0.26407847 0.33395037 0.00972726 0.19701882
0.11907267 -0.11084662 0.07727265 0.040205985 0.14880046 0.094471276 -0.049414873 0.033479515
0.3600093 0.6990281 -0.87127316 -0.122066215 -0.08902924 0.055136774 0.13087508 0.085595295
0.013658079 0.36457202 -0.09938095 -0.046236712 -0.061272763 0.023093613 -0.030075986 -0.11445515
-0.2692574 -0.21598703 -0.10179526 0.04104415 -0.09820988 -0.07825956 -0.15715913 0.17984413
0.45355573 0.54839325 -0.42917347 0.99635065 -0.079361595 -0.39365825 0.07551695 -0.017620413
-0.13487601 0.048761994 0.013690827 0.14921655 0.028018055 -0.10011869 -0.20053497 0.093652904
-0.033466145 0.099547185 -0.051580433 -0.021493366 0.16900793 -0.017985236 0.026216902 0.09275338
0.027130509 -0.24927329 -0.047186393 0.16445789 0.40086207 0.22622947 0.034220498 0.11052736
0.19875976 0.1042042 0.18686008 0.39839056 -0.00077812246 -0.35558903 -0.07072888 0.034437377
0.039059527 -0.08000073 0.16673216 0.15126412 0.14322387 -0.15028964 0.04942 -0.07287072
-0.151247 -0.08086553 0.07660479 -0.17448121 -0.48019508 -0.093291946 -0.14393185 -0.03892502
0.24971016 0.26323918 0.12160215 0.3386118 0.11641179 -0.00937122 -0.14284864 -0.33844015
-0.04038926 -0.2821462 -0.015337576 0.043102734 -0.10358934 -0.24037322 -0.17594634 -0.20406742
-0.23036194 0.45714983 -0.24554245 -0.22867234 -0.2603137 -0.48572263 0.31978613 -0.45408863
-0.011641724 0.09992467 0.07827628 -0.07518051 0.11729135 0.07911784 -0.26531106 -0.2120579
-0.23700522 0.0036701616 -0.20151526 0.04131548 -0.32987013 -0.2988701 -0.04287806 0.029767111
-0.33666995 -0.6033691 0.41906604 -0.30820847 0.24895702 -0.28471723 0.07635102 -0.14561641
-0.03628543 0.3164793 0.0644895 0.015485076 0.001087031 -0.18232608 0.24915944 0.13030528
0.24534193 0.083216056 0.21624865 0.09509013 -0.04830404 0.07763827 -0.027993208 -0.044896256
0.16744049 -0.23032118 -0.005215914 -0.71239567 -0.2319703 0.25160146 0.09571966 0.008128393
0.11250949 -0.3443665 0.09567766 0.55465245 0.09559972 -0.17735784 0.27289814 0.068879284
-0.09979282 0.086056516 -0.07549566 0.19958086 0.07838657 -0.09634053 0.2510264 0.15952969
-0.31023034 -0.6057579 0.1437641 0.1997092 -0.2400089 0.3455806 0.21436834 -0.1510026
-0.22074197 0.18844841 0.3907601 -0.025877839 0.12139411 -0.18182546 -0.08458966 0.12378373
-0.18753003 -0.091754146 -0.131404 -0.066940136 -0.20103475 -0.004164475 -0.13855268 0.0169397
-0.39326313 -0.1791637 -0.049167797 -0.37966922 0.17914346 -0.13193168 0.045744903 -0.031291593
-0.30691436 0.3016244 -0.16629948 -0.50542873 -0.24803935 0.033865713 -0.008975634 0.17039081
-0.14398554 0.16669783 -0.10149637 -0.041746207 0.1470288 0.16759962 0.017965948 0.13434978
0.19211179 0.38078955 -0.14021406 0.5237928 0.098093644 -0.48695388 -0.05890674 0.3512914
0.090803176 0.070810854 -0.06025957 -0.15388721 0.44362572 -0.06872667 0.004824169 0.1810786
00000000: ad5a 15be 27ec d7be 5dab 8bbe b233 9e3f
00000010: 9198 b13d 0566 b13d 53d7 ccbc afad 8f3e
00000020: 3172 f73d 830a 6a3d 91e2 e73d 793e 9dbd
00000030: 4b35 873e 8bfb aa3e 165f 1f3c 4dbf 493e
00000040: 5fdc f33d 8d03 e3bd 2041 9e3d 08af 243d
00000050: 265f 183e 287a c13d 4067 4abd d121 093d
00000060: 2453 b83e 81f3 323f c20b 5fbf dafd f9bd
00000070: f654 b6bd 19d7 613d 1e04 063e 964c af3d
00000080: 23c6 5f3c 2fa9 ba3e 3d88 cbbd b562 3dbd
00000090: 26f9 7abd d12e bd3c ea61 f6bc 7667 eabd
000000a0: 1bdc 89be b42b 5dbe 097a d0bd e91d 283d
000000b0: 4322 c9bd 8c46 a0bd 53ee 20be 0f29 383e
000000c0: 7538 e83e 8063 0c3f a0bc dbbe d610 7f3f
000000d0: 5588 a2bd 938d c9be a1a8 9a3d af58 90bc
000000e0: f01c 0abe a8ba 473d 7e4f 603c 39cc 183e
000000f0: 1f86 e53c 070b cdbd 0a59 4dbe 18cd bf3d
00000100: cc13 09bd 65df cb3d 0146 53bd db12 b0bc
00000110: 6a10 2d3e c655 93bc d4c4 d63c 7cf5 bd3d
00000120: cd40 de3c 7f41 7fbe 8546 41bd a667 283e
00000130: cb3d cd3e b3a8 673e cb2a 0c3d 2b5c e23d
00000140: ae87 4b3e 0369 d53d 4058 3f3e d9f9 cb3e
00000150: eafa 4bba c40f b6be 4eda 90bd 350e 0d3d
00000160: e2fc 1f3d 6cd7 a3bd d6bb 2a3e fbe4 1a3e
00000170: 47a9 123e 87e5 19be a06c 4a3d 3e3d 95bd
00000180: 7ee0 1abe d49c a5bd f9e2 9c3d 34ab 32be
00000190: 21dc f5be d90f bfbd df62 13be d76f 1fbd
000001a0: 05b4 7f3e 49c7 863e 8c0a f93d 875e ad3e
000001b0: 4e69 ee3d bf89 19bc ea46 12be 0748 adbe
000001c0: 356f 25bd 7775 90be 754a 7bbc 7e8c 303d
000001d0: a626 d4bd 6624 76be 472b 34be 0df7 50be
000001e0: 00e4 6bbe 8b0f ea3e 7b6f 7bbe 1529 6abe
000001f0: d647 85be a3b0 f8be 02bb a33e 4e7e e8be
00000200: eebc 3ebc 4ea5 cc3d 504f a03d 3df8 99bd
00000210: 7336 f03d 8908 a23d dad6 87be b525 59be
00000220: 7fb1 72be 1887 703b 045a 4ebe 6c3a 293d
00000230: bde4 a8be 8005 99be e8a0 2fbd 28da f33c
00000240: 0160 acbe 6676 1abf d38f d63e 80cd 9dbe
00000250: 97ee 7e3e 75c6 91be ec5d 9c3d 781c 15be
00000260: 08a0 14bd 9309 a23e 1213 843d 1eb5 7d3c
00000270: b57a 8e3a b0b3 3abe a723 7f3e bf6e 053e
00000280: ea3a 7b3e 2e6d aa3d 4970 5d3e 9dbe c23d
00000290: 75da 45bd d000 9f3d 0352 e5bc 23e5 37bd
000002a0: 8575 2b3e 51d9 6bbe 42ea aabb 905f 36bf
000002b0: 9f89 6dbe e8d1 803e ab08 c43d f42c 053c
000002c0: 606b e63d ce50 b0be a6f2 c33d b4fd 0d3f
000002d0: c9c9 c33d 4b9d 35be 4eb9 8b3e 9510 8d3d
000002e0: 2e60 ccbd 663e b03d 789d 9abd ed5e 4c3e
000002f0: 2389 a03d 2f4e c5bd 8886 803e c05b 233e
00000300: 83d6 9ebe f312 1bbf e536 133e 9280 4c3e
00000310: e5c4 75be f1ef b03e 6083 5b3e 6da0 1abe
00000320: 2f0a 62be 9ff8 403e b511 c83e c3fd d3bc
00000330: 7a9d f83d 7430 3abe 583d adbd 5382 fd3d
00000340: df07 40be 99e9 bbbd c58e 06be e917 89bd
00000350: 0edc 4dbe 2676 88bb c1e0 0dbe 20c5 8a3c
00000360: c959 c9be b076 37be 2c64 49bd 0164 c2be
00000370: 6271 373e 1919 07be 025f 3b3d 9d2b 00bd
00000380: e123 9dbe 836e 9a3e 694a 2abe c763 01bf
00000390: 07fe 7dbe c6b6 0a3d 8a0e 13bc ee7a 2e3e
000003a0: f270 13be d6b2 2a3e 54dd cfbd 12fe 2abd
000003b0: b88e 163e 3c9f 2b3e 532d 933c fd92 093e
000003c0: f4b8 443e d9f6 c23e 4694 0fbe 4917 063f
000003d0: 52e5 c83d 0552 f9be 3248 71bd 77dc b33e
000003e0: 04f7 b93d 4805 913d bdd2 76bd 9c94 1dbe
000003f0: e922 e33e 92c0 8cbd 1014 9e3b ab6c 393e

l1.bias f4 [400]
-0.17512529 0.22975819 0.03261869 -0.082610406 0.06462641 0.17460065 0.05670101 -0.04287518
-0.023129065 0.059864562 -0.20341943 -0.12781279 0.09999491 -0.22285295 -0.08961306 -0.12825005
-0.038421474 0.07195197 0.144328 -0.008071312 -0.092620894 -0.13494825 0.110588126 0.11180936
0.143898 0.32228276 0.045905318 0.19052982 -0.15399943 0.17722668 0.093734615 -0.099522084
0.067728445 0.073263705 0.07178976 0.17690605 -0.33571535 0.049902365 -0.1221357 -0.10544147
0.09923013 -0.107026376 0.10167671 0.038568374 0.11594358 0.12433545 0.006774288 0.06943169
0.06662534 -0.028161472 0.031260155 0.07236372 -0.081704855 -0.0028818692 0.21337384 -0.19088693
0.25915042 -0.3537635 -0.10383485 0.18420616 -0.14547026 -0.16335827 0.0035246606 0.07187338
0.04876309 0.32156637 0.10860406 0.11640534 0.15287715 0.15235466 -0.115751944 0.17076306
0.18443245 0.18777034 -0.16052233 -0.313691 0.1597071 -0.05878894 -0.1798303 0.04426887
-0.13091855 -0.19686235 -0.11851805 -0.12292091 0.004007322 -0.12937643 -0.20753074 -0.005423826
-0.07124499 -0.0941903 -0.103083245 0.018145896 -0.2943726 -0.11700704 0.09356461 0.26925465
0.08625438 -0.19648701 0.08044288 -0.1177734 0.17434606 0.13596778 -0.122520655 -0.08477423
0.016020391 0.22006954 -0.15806012 0.047792 0.045503814 0.09660012 -0.03868675 0.07096931
-0.04008621 -0.048344754 -0.09661691 0.08550324 -0.2184815 -0.24134102 -0.11471561 0.13029563
0.18413043 -0.06995553 -0.04912693 0.056849442 -0.13177568 -0.094783716 0.085410275 -0.10813085
0.096758455 0.1546505 0.07174146 -0.17833821 0.19666146 0.029087536 0.06563824 0.12509277
-0.11580237 0.039530378 -0.18008345 0.06520369 -0.036549762 -0.044310424 -0.1506747 0.049438976
-0.01647043 0.17596675 0.12403043 -0.010094675 0.3115169 -0.16059126 0.007788993 0.06701106
-0.12570052 -0.12212143 -0.20444076 -0.10375828 -0.15136565 0.18102166 -0.1661562 0.26363
-0.32915404 0.1196332 0.121237665 -0.07877137 -0.06015175 -0.21470404 -0.1827095 -0.14328146
-0.036132 0.21377392 0.17168196 0.092418574 -0.03897627 0.13583718 0.0388585 0.06187269
0.35908386 -0.024901155 -0.08870443 -0.01464381 -0.02743312 -0.031276245 0.105044395 0.07396551
-0.068943165 0.14037457 -0.23178443 0.27941626 -0.093611054 -0.10418362 0.03049014 -0.068761386
0.199563 -0.039939456 0.22054522 -0.0882023 0.09778393 0.1761539 -0.025312549 -0.011577891
-0.084211 0.0130325295 0.0040519927 0.016232684 0.11020702 0.21495338 -0.037250455 -0.04908771
0.11120681 0.28599855 0.16092876 0.0030919963 0.08567777 -0.24239072 -0.13172895 -0.23844875
-0.12563872 0.18864796 -0.1470583 0.04274844 0.19035427 0.2873385 0.13088223 0.108374596
0.06456632 0.11869529 0.024340495 -0.090062715 -0.060970556 -0.13955764 0.014680601 -0.018728068
-0.17886692 0.15889253 0.06321459 0.11340921 -0.1952852 0.018211076 -0.031804185 -0.097299814
0.15767278 0.1946127 -0.20648354 0.12622498 0.06362421 0.10639136 -0.041780047 -0.006949828
0.049927257 0.06593995 -0.29452437 -0.11893641 -0.1525044 -0.08459038 -0.07649934 0.04246987
00000000: 0b54 33be bb45 6b3e 2d9b 053d a52f a9bd
00000010: da5a 843d 83ca 323e 513f 683d e29d 2fbd
00000020: 2a79 bdbc 8b34 753d 2f4d 50be 5be1 02be
00000030: 22ca cc3d 9033 64be 0d87 b7bd fb53 03be
00000040: d65f 1dbd 8e5b 933d b8ca 133e 893d 04bc
00000050: 06b0 bdbd e02f 0abe 077c e23d 4efc e43d
00000060: ff59 133e 3f02 a53e 3707 3c3d 401a 433e
00000070: 07b2 1dbe e97a 353e eff7 bf3d 3cd2 cbbd
00000080: 36b5 8a3d 480b 963d 8206 933d dc26 353e
00000090: e2e2 abbe 6c66 4c3d 4822 fabd b3f1 d7bd
000000a0: 2b39 cb3d a530 dbbd e13b d03d dff9 1d3d
000000b0: d473 ed3d 96a3 fe3d d9fa dd3b 3432 8e3d
000000c0: de72 883d e3b2 e6bc a60a 003d 6e33 943d
000000d0: e054 a7bd bedd 3cbb ac7e 5a3e dd77 43be
000000e0: 5daf 843e 7d20 b5be 5ea7 d4bd 8aa0 3c3e
000000f0: 28f6 14be 6447 27be fefd 663b 5a32 933d
00000100: cebb 473d 59a4 a43e ce6b de3d ec65 ee3d
00000110: d48b 1c3e dc02 1c3e 5b0f edbd 83dc 2e3e
00000120: dcdb 3c3e de46 403e f75f 24be 1b9c a0be
00000130: 428a 233e accc 70bd 6f25 38be 4653 353d
00000140: 830f 06be 4996 49be 97b9 f2bd f5bd fbbd
00000150: da4f 833b 417b 04be f082 54be 5aba b1bb
00000160: e5e8 91bd d8e6 c0bd 4f1d d3bd b4a6 943c
00000170: 01b8 96be 63a1 efbd cd9e bf3d bfdb 893e
00000180: 23a6 b03d e433 49be 3dbf a43d 2e33 f1bd
00000190: c687 323e 233b 0b3e 1cec fabd 1d9e adbd
000001a0: 323d 833c e959 613e 83da 21be 8bc1 433d
000001b0: 3562 3a3d 49d6 c53d ff75 1ebd 5c58 913d
000001c0: 7031 24bd 2605 46bd 16df c5bd 531c af3d
000001d0: 9db9 5fbe 1a22 77be 05f0 eabd 386c 053e
000001e0: b08c 3c3e d844 8fbd 5239 49bd f6da 683d
000001f0: 34f0 06be f71d c2bd 95eb ae3d b573 ddbd
00000200: 4c29 c63d b35c 1e3e 30ed 923d 4b9e 36be
00000210: 9f61 493e fc48 ee3c 576d 863d 5218 003e
00000220: cb29 edbd 9bea 213d cc67 38be 8389 853d
00000230: 34b5 15bd d97e 35bd 784a 1abe 8680 4a3d
00000240: ffec 86bc a130 343e ab03 fe3d 2364 25bc
00000250: 257f 9f3e 0972 24be cf3a ff3b 183d 893d
00000260: a3b7 00be cd1a fabd eb58 51be 397f d4bd
00000270: 99ff 1abe be5d 393e da24 2abe 83fa 863e
00000280: e186 a8be 4002 f53d 744b f83d e252 a1bd
00000290: ae61 76bd 60db 5bbe 3318 3bbe 60b8 12be
000002a0: 26ff 13bd 8de7 5a3e 65cd 2f3e f345 bd3d
000002b0: 95a5 1fbd e718 0b3e 172a 1f3d 386e 7d3d
000002c0: d7d9 b73e 82fd cbbc abaa b5bd 97ec 6fbc
000002d0: 6cbb e0bc 851b 00bd 8421 d73d 3b7b 973d
000002e0: 1332 8dbd 5abe 0f3e e658 6dbe a60f 8f3e
000002f0: 27b7 bfbd 395e d5bd 75c6 f93c c5d2 8cbd
00000300: 3e5a 4c3e 8e97 23bd 9bd6 613e 68a3 b4bd
00000310: f142 c83d b061 343e 435c cfbc 32b1 3dbc
00000320: d176 acbd 6486 553c 94c6 843b 68fa 843c
00000330: 38b4 e13d bd1c 5c3e ef93 18bd 3210 49bd
00000340: 65c0 e33d 676e 923e 82ca 243e 17a3 4a3b
00000350: d477 af3d 4635 78be f4e3 06be e92b 74be
00000360: 70a7 00be ee2c 413e 7396 16be fd18 2f3d
00000370: 3bec 423e 081e 933e fe05 063e 80f3 dd3d
00000380: 593b 843d 8416 f33d b865 c73c cd72 b8bd
00000390: 43bc 79bd 33e8 0ebe e786 703c 9b6b 99bc
000003a0: e428 37be b9b4 223e a776 813d 1743 e83d
000003b0: d8f8 47be 652f 953c 1b45 02bd 2045 c7bd
000003c0: f974 213e 8d48 473e 6c70 53be 1f41 013e
000003d0: 694d 823d b7e3 d93d 8e21 2bbd 62bb e3bb
000003e0: 8680 4c3d 860b 873d e6cb 96be ef94 f3bd
000003f0: 1d2a 1cbe b93d adbd b0ab 9cbd e3f4 2d3d

l2.weight f4 [300, 400]
-0.09806802 0.04789698 0.10632753 0.051808164 -0.06292735 -0.08503447 0.030422458 0.10262706
0.21803372 -0.07424899 0.061640717 0.07515477 -0.06670631 0.1502656 -0.07320361 0.00028847664
0.15602379 0.068063125 0.02450478 0.1884394 0.0034561288 -0.02701221 -0.014041908 0.12059748
0.18395317 0.2353906 0.10039139 0.1585259 0.17978722 0.1345774 -0.07929386 -0.09108825
-0.110597275 0.011949555 0.06445502 0.051834848 0.036822874 -0.23752093 -0.09380959 -0.1301863
-0.039526854 0.07908028 0.025106471 0.13689344 -0.033328887 0.09773558 0.048877202 0.34034687
0.038181286 0.07110991 0.08353863 0.06562357 0.014902174 0.0149314385 0.057238318 -0.14427851
0.21424457 -0.1674627 0.041669615 0.06913958 -0.0396564 0.12142809 -0.060150642 0.11167683
-0.05859276 0.28743544 0.10145373 0.10394146 0.067029536 -0.014547559 -0.19789842 0.08879711
-0.01672361 0.0643416 0.24996616 0.0140991965 -0.09902215 0.08630674 -0.15846118 0.08571636
-0.1101304 -0.16212131 0.10155262 0.012423298 -0.05192809 0.22367997 0.028184844 -0.081916206
-0.29141566 -0.09942956 0.16252878 0.116597585 -0.0041664094 -0.065576755 0.004181954 0.12680285
0.019100947 -0.051311057 0.1271541 -0.13684103 0.16837816 -0.031348996 -0.021893147 0.07550687
0.020100545 0.10835704 0.04250723 0.036299717 -0.005641436 -0.08721163 0.02975081 0.0011082699
-0.058840066 0.04131292 0.014779732 -0.032321125 0.024124878 -0.1499027 0.09869783 -0.057283558
0.047613572 -0.1209359 0.18666598 0.1731689 0.08657916 0.06604766 0.2492289 0.12573688
-0.059343044 -0.0132078035 0.174473 0.09897569 0.008762626 -0.016770018 -0.13332699 0.10830073
-0.100996286 -0.016077256 -0.09068706 0.039194014 -0.034726255 0.057513062 0.019283064 0.17365415
-0.11096706 -0.08070042 0.040615395 -0.08018318 0.13355681 -0.046952244 -0.018972185 0.022075338
-0.15228914 0.16926457 -0.13086264 0.123059615 0.08760958 0.06642872 -0.0012567638 0.12125757
0.00080910657 -0.121896446 0.19939762 0.055461574 0.27536568 0.00059579295 -0.04660262 0.16265549
0.079553284 0.01932916 0.06969666 0.017722202 -0.06682456 -0.09721872 0.067807235 -0.19429599
-0.09562974 0.12199733 0.057841852 0.12748103 0.2498866 -0.016796313 0.173869 0.10012781
0.02353438 -0.036209386 -0.17258549 0.11887264 0.009411769 -0.017029312 0.17953274 -0.17302632
0.10135462 0.01077301 0.25485006 -0.07406533 0.06794123 -0.03846357 0.14316604 0.10886598
0.021061778 -0.030004473 0.147469 0.06936093 0.0952776 0.062344253 -0.006105772 -0.01939643
-0.005511552 0.19800872 0.070705414 0.18429744 0.09900201 0.006635035 -0.079236686 -0.19940126
0.028018616 -0.115593195 0.044199817 0.09087858 0.05108575 0.0475585 0.22000216 -0.034334272
0.026587697 -0.051033154 0.14050478 0.03554902 0.15184343 -0.13779196 -0.075055264 -0.18245456
-0.016432626 -0.009143418 0.065608084 0.083546646 0.020112284 -0.023758143 0.025034694 0.10107127
0.02219917 0.1315676 -0.032181937 -0.13477728 0.22689249 0.024713935 0.31928092 -0.08008253
0.12052559 0.081071444 0.008854208 -0.012909288 -0.026427481 -0.10193376 -0.0031425909 0.05885033
00000000: e3d7 c8bd a02f 443d 40c2 d93d cc34 543d
00000010: 0ee0 80bd 8d26 aebd 8538 f93c 232e d23d
00000020: 3b44 5f3e db0f 98bd fa7a 7c3d beea 993d
00000030: 519d 88bd 3adf 193e c6eb 95bd ae3e 9739
00000040: b3c4 1f3e ae64 8b3d 40be c83c 42f6 403e
00000050: 3880 623b b648 ddbc 0810 66bc d0fb f63d
00000060: 385e 3c3e 3c0a 713e 009a cd3d 9d54 223e
00000070: 241a 383e a8ce 093e d264 a2bd 7a8c babd
00000080: d380 e2bd 11c8 433c fe00 843d c750 543d
00000090: 95d3 163d b038 73be 3e1f c0bd 8f4f 05be
000000a0: e9e6 21bd d8f4 a13d 16ac cd3c cb2d 0c3e
000000b0: df83 08bd 9729 c83d 7633 483d f241 ae3e
000000c0: fb63 1c3d 13a2 913d 4d16 ab3d a665 863d
000000d0: 3f28 743c fea2 743c ba72 6a3d bfbd 13be
000000e0: ee62 5b3e 587b 2bbe c2ad 2a3d 0d99 8d3d
000000f0: c06e 22bd 4aaf f83d 8560 76bd d2b6 e43d
00000100: f6fe 6fbd bd2a 933e f9c6 cf3d 43df d43d
00000110: c846 893d e358 6ebc e2a5 4abe 42db b53d
00000120: f4ff 88bc 87c5 833d 21f7 7f3e 5100 673c
00000130: 20cc cabd 97c1 b03d a643 22be 0f8c af3d
00000140: 0c8c e1bd 2103 26be d2fa cf3d 178b 4b3c
00000150: 8db2 54bd 5d0c 653e e7e3 e63c afc3 a7bd
00000160: 6f34 95be baa1 cbbd f26d 263e b7ca ee3d
00000170: 6086 88bb 1b4d 86bd c608 893b 9bd8 013e
00000180: 9779 9c3c 8b2b 52bd af34 023e 0e20 0cbe
00000190: 536b 2c3e ce67 00bd 4259 b3bc 59a3 9a3d
000001a0: e6a9 a43c 4cea dd3d 101c 2e3d 03af 143d
000001b0: ccdb b8bb 039c b2bd f8b7 f33c 5e43 913a
000001c0: 4802 71bd bd37 293d b026 723c 2863 04bd
000001d0: 89a1 c53c 1880 19be 1722 ca3d 2aa2 6abd
000001e0: 7306 433d 3ead f7bd 5e25 3f3e 3053 313e
000001f0: 6a50 b13d ff43 873d dc35 7f3e 2bc1 003e
00000200: b111 73bd 8b65 58bc 0da9 323e c4b3 ca3d
00000210: 1e91 0f3c 4761 89bc df86 08be c6cc dd3d
00000220: 24d7 cebd 73b4 83bc 23ba b9bd e789 203d
00000230: 1e3d 0ebd d192 6b3d 84f7 9d3c 65d2 313e
00000240: b342 e3bd 4346 a5bd 545c 263d 1437 a4bd
00000250: 1ec3 083e ff50 40bd 8e6b 9bbc 57d7 b43c
00000260: aff1 1bbe b153 2d3e db00 06be ae06 fc3d
00000270: a76c b33d c80b 883d ffb9 a4ba e455 f83d
00000280: 391a 543a d8a4 f9bd e42e 4c3e ad2b 633d
00000290: bbfc 8c3e fd2e 1c3a 64e2 3ebd 298f 263e
000002a0: d5ec a23d 3058 9e3c 1fbd 8e3d 272e 913c
000002b0: 51db 88bd 9c1a c7bd 85de 8a3d 87f5 46be
000002c0: 86d9 c3bd bcd9 f93d 94eb 6c3d 638a 023e
000002d0: 46e2 7f3e 6c98 89bc b70a 323e cf0f cd3d
000002e0: 2ccb c03c 4b50 14bd 40ba 30be 8073 f33d
000002f0: d233 1a3c 0e81 8bbc 6ed7 373e d02d 31be
00000300: 0393 cf3d 4781 303c b57b 823e 90af 97bd
00000310: c624 8b3d fa8b 1dbd 1e9a 123e 20f5 de3d
00000320: c089 ac3c f1cb f5bc 1d02 173e 1a0d 8e3d
00000330: e720 c33d b05c 7f3d ee12 c8bb 43e5 9ebc
00000340: 409a b4bb ccc2 4a3e 00ce 903d 78b8 3c3e
00000350: 91c1 ca3d b56a d93b d846 a2bd d82f 4cbe
00000360: 4c87 e53c 20bc ecbd de0a 353d 8d1e ba3d
00000370: 4b3f 513d b4cc 423d 3f48 613e 18a2 0cbd
00000380: 71ce d93c 2408 51bd 7ce0 0f3e d99b 113d
00000390: d87c 1b3e 5619 0dbe 93b6 99bd 5ed5 3abe
000003a0: b79d 86bc 46ce 15bc 885d 863d 811a ab3d
000003b0: 84c2 a43c 70a0 c2bc 8f15 cd3c 74fe ce3d
000003c0: 09db b53c a8b9 063e 35d1 03bd 0e03 0abe
000003d0: 8156 683e e174 ca3c ca78 a33e 4f02 a4bd
000003e0: 1fd6 f63d c908 a63d 3d11 113c 7a81 53bc
000003f0: 727e d8bc a6c2 d0bd edf3 4dbb 0b0d 713d

l2.bias f4 [300]
0.037504 0.0329905 0.02789761 0.020080626 -0.048902206 -0.0693235 0.0012770093 0.02058453
-0.01016016 -0.021448646 0.041977353 0.03153934 -0.035741143 0.03124319 0.015318561 0.021010518
-0.00556346 -0.046636444 0.0048253913 0.03687874 -0.04168899 0.0027224827 0.031232147 0.002689797
-0.00218876 -0.00991118 0.019715812 -0.01739231 0.022520272 -0.004509225 -0.062866636 0.049880527
-0.072190404 0.083921365 0.040278625 -0.013170032 0.10682685 0.015980987 0.13390256 0.03251055
-0.005751203 0.009738515 0.020884892 0.021959329 -0.09604564 -0.042309802 -0.072924465 -0.031762853
0.031954285 -0.019972203 -0.0018637972 -0.09468251 -0.04723754 0.012664614 0.0065066437 -0.00011511027
-0.031339154 -0.039361686 0.01909718 -0.0140694305 0.0412169 -0.0047622663 -0.05989835 0.03416581
0.012650205 -0.018923962 0.05661789 -0.020706454 -0.047496155 0.004239264 -0.04197604 0.018281527
0.06556123 0.035036795 0.0010992121 -0.027671253 -0.03392161 0.058902282 -0.031683188 0.06764181
0.016361712 0.0029066082 -0.046193596 -0.047666714 -0.089899085 0.04126275 -0.06743497 -0.014427932
-0.05273544 -0.061831083 -0.12364926 -0.06051969 -0.00030131897 0.0135781905 -0.032007504 -0.023468522
-0.022287458 0.088583425 0.06866138 -0.0076035745 0.041529797 0.008041159 -0.05322125 0.031349484
0.033130936 -0.01565311 -0.045302317 -0.017910697 0.01282538 0.03455816 -0.0061664614 -0.009981787
0.025366917 -0.009183941 -0.011586335 -0.045740742 0.02713756 0.05335156 0.030513253 -0.09876742
-0.009745147 -0.059820134 0.031962674 -0.025601994 -0.052338608 0.037523627 -0.06513748 0.05172663
0.048887014 -0.047836304 -0.091896795 0.0177595 0.053469 -0.063100055 0.007316632 0.00634387
-0.043584388 0.03034225 0.015075715 0.073807456 -0.09486638 0.122289084 0.05099961 0.008055311
-0.06960733 0.0883703 0.028619517 0.028693493 -0.034269895 0.10469965 0.020438455 0.01877363
-0.0080712205 -0.028688988 -0.050742216 -0.02098334 -0.03561643 -0.006963875 0.057094872 -0.030032933
-0.016438475 -0.040067267 -0.026797121 0.021219593 0.0032097092 -0.033641823 -0.026692707 0.04395716
-0.0012969739 0.05830814 0.02025782 -0.03938525 -0.052242707 0.051873963 -0.0034235837 -0.042510405
-0.006011102 0.00661873 0.0022344475 -0.03262967 0.022478838 -0.021057513 0.1054659 0.007842099
-0.07141709 0.02117599 -0.0013899272 -0.10298732 -0.027521953 -0.029881112 0.00787331 -0.039016664
0.07074986 0.031157581 0.0028689047 0.020495854 -0.08075908 0.022690432 0.05170717 -0.01464229
-0.024384595 0.014240261 0.030340878 -0.004571823 -0.04798237 0.001601895 0.0052935756 0.048434343
0.04800391 0.0453996 -0.011406855 -0.041220605 0.017720645 0.03384303 0.05183694 -0.05074883
-0.0536662 -0.033094965 -0.043898508 0.022672774 -0.022096492 0.023823356 0.0035771325 -0.013881215
-0.009609298 -0.015274915 0.010369431 0.022643128 -0.080622174 0.05764666 -0.012274042 0.009150035
0.07822049 -0.01627658 -0.006240956 -0.15179338 0.024404772 0.028083062 0.0049184673 0.05217035
-0.034039848 -0.016655894 -0.04103638 -0.061269887 -0.0018477949 -0.054605894 0.0125803705 -0.10897536
-0.02974569 0.051232357 0.023248002 0.07287111 0.12363053 -0.07641506 0.094978236 -0.011987421
00000000: cb9d 193d 0c21 073d 8789 e43c 2080 a43c
00000010: ae4d 48bd 7bf9 8dbd 5261 a73a e3a0 a83c
00000020: cd76 26bc 12b5 afbc 72f0 2b3d 652f 013d
00000030: 4e65 12bd b8f1 ff3c b4fa 7a3c 401e ac3c
00000040: af4d b6bb db05 3fbd 511e 9e3b 290e 173d
00000050: 13c2 2abd ae6b 323b 8fda ff3c 4e47 303b
00000060: 4d71 0fbb 8062 22bc 0e83 a13c 517a 8ebc
00000070: 6f7c b83c 1fc2 93bb 39c0 80bd 864f 4c3d
00000080: 90d8 93bd f7de ab3d 33fb 243d 1ec7 57bc
00000090: 09c8 da3d 8fea 823c c11d 093e c829 053d
000000a0: 9674 bcbb 4b8e 1f3c cb16 ab3c 0de4 b33c
000000b0: 94b3 c4bd 0b4d 2dbd 6c59 95bd c419 02bd
000000c0: 7fe2 023d bf9c a3bc a84a f4ba e7e8 c1bd
000000d0: 277c 41bd 3e7f 4f3c af35 d53b 5b67 f1b8
000000e0: 7c5d 00bd b839 21bd b071 9c3c 7883 66bc
000000f0: 0dd3 283d c90c 9cbb f957 75bd 73f1 0b3d
00000100: ce42 4f3c 6d06 9bbc 29e8 673d 95a0 a9bc
00000110: 548b 42bd 86e9 8a3b 11ef 2bbd 24c3 953c
00000120: f744 863d be82 0f3d 7013 903a d3ae e2bc
00000130: 63f1 0abd 8543 713d 3bc6 01bd ca87 8a3d
00000140: ff08 863c cb7c 3e3b 7f35 3dbd 2c3e 43bd
00000150: 031d b8bd 2103 293d 581b 8abd 2263 6cbc
00000160: 1e01 58bd 9742 7dbd d33b fdbd 7fe3 77bd
00000170: 59fa 9db9 0f77 5e3c 4d1a 03bd 0f41 c0bc
00000180: 3094 b6bc 3a6b b53d 569e 8c3d 6827 f9bb
00000190: 261b 2a3d 11bf 033c 87fe 59bd 5168 003d
000001a0: 4eb4 073d f33a 80bc ec8e 39bd 74b9 92bc
000001b0: 8b21 523c db8c 0d3d 0710 cabb a68a 23bc
000001c0: 48ce cf3c 3e78 16bc 9cd4 3dbc a55a 3bbd
000001d0: 974f de3c 2a87 5a3d eef6 f93c 9346 cabd
000001e0: 1caa 1fbc f505 75bd 4beb 023d 46bb d1bc
000001f0: 0261 56bd 60b2 193d cd66 85bd 4edf 533d
00000200: c03d 483d 00f0 43bd 6334 bcbd 5f7c 913c
00000210: 4f02 5b3d 9a3a 81bd 5cc0 ef3b 3de0 cf3b
00000220: 8b85 32bd 4f90 f83c 2200 773c 5d28 973d
00000230: 4e49 c2bd b372 fa3d f8e4 503d 6cfa 033c
00000240: 4a8e 8ebd 7dfb b43d 7a73 ea3c 9e0e eb3c
00000250: 975e 0cbd c56c d63d 8c6e a73c 28cb 993c
00000260: 273d 04bc 2b05 ebbc 12d7 4fbd 41e5 abbc
00000270: 89e2 11bd 3831 e4bb 50dc 693d a007 f6bc
00000280: fba9 86bc 931d 24bd a385 dbbc b6d4 ad3c
00000290: fc59 523b 02cc 09bd aaaa dabc 6c0c 343d
000002a0: 39ff a9ba 84d4 6e3d baf3 a53c 6e52 21bd
000002b0: 73fc 55bd cb79 543d 345e 60bb 641f 2ebd
000002c0: c7f8 c4bb eee1 d83b cf6f 123b b0a6 05bd
000002d0: 8a25 b83c ce80 acbc 81fe d73d 267c 003c
000002e0: 2043 92bd 4579 ad3c 382e b6ba 04eb d2bd
000002f0: b875 e1bc 3cc9 f4bc 0eff 003c f0cf 1fbd
00000300: 4de5 903d 2f3e ff3c 3c04 3c3b ece6 a73c
00000310: 0465 a5bd 49e1 b93c e6ca 533d 37e6 6fbc
00000320: 34c2 c7bc fc4f 693c 6f8d f83c 3bcf 95bb
00000330: 2989 44bd adf6 d13a bb75 ad3b 1763 463d
00000340: bf9f 443d eef4 393d d1e3 3abc f0d6 28bd
00000350: e32a 913c fd9e 0a3d f952 543d 01de 4fbd
00000360: 17d1 5bbd 968e 07bd ecce 33bd 41bc b93c
00000370: b403 b5bc 3329 c33c 536e 6a3b 096e 63bc
00000380: 5170 1dbc a343 7abc 8ce4 293c 157e b93c
00000390: 3d1d a5bd e71e 6c3d 1019 49bc 07ea 153c
000003a0: 1032 a03d 7656 85bc ef80 ccbb b96f 1bbe
000003b0: 84ec c73c 730e e63c 182b a13b 94b0 553d
000003c0: 5e6d 0bbd f171 88bc c315 28bd 22f6 7abd
000003d0: b531 f2ba 6eaa 5fbd e61d 4e3c 792e dfbd
000003e0: 3cad f3bc 05d9 513d 9872 be3c 733d 953d
000003f0: 0132 fd3d 807f 9cbd f383 c23d e366 44bc

l3.weight f4 [4, 300]
0.45732114 -0.00431195 -0.23765776 -0.027933795 -0.2732198 0.25641003 -0.9194612 -0.7942068
0.008494204 0.16256069 0.111158825 -0.03500524 0.08155684 -0.005415293 0.21266668 -0.44105113
0.2312718 0.027498081 0.039039727 -0.36141846 0.041103326 -0.32789838 0.098956786 -0.10906766
0.3850861 -0.06310737 -0.19060393 0.19790317 0.01655128 -0.10140995 0.24808095 0.26591986
-0.59354323 0.42298192 0.29094118 0.3008104 0.19287036 -0.40233734 -0.26923048 -0.1990133
-0.0506292 0.24105506 -0.05110586 -0.052640386 0.40850225 0.3034013 -0.40624264 0.069459125
0.3041028 -0.5106362 -0.59109956 -0.47725606 -0.044148643 0.57964265 0.59063685 -0.0023494698
0.31842178 -0.39628756 0.011271686 -0.5091233 -0.15947467 0.085115105 -0.0462216 0.24049158
-0.41380098 0.15583849 -0.013054949 0.0050479597 0.11079205 -0.011950845 -0.046058092 0.011204026
-0.08221624 0.47410345 -0.15884207 0.025963953 0.07626971 0.06158585 0.07141652 -0.27130336
0.024341198 0.12410755 0.081788495 0.09735113 -0.33053672 -0.16857551 0.52573544 0.036635585
0.3017977 0.028761107 -0.4702762 0.3142284 -0.05570206 -0.04274618 -0.15019484 -0.023566268
-0.21844207 -0.27753928 -0.11255816 0.22876748 0.02607277 -0.26756933 0.2801109 0.030934706
0.29170233 -0.23029731 -0.04149405 -0.46510902 -0.052374568 0.008125048 0.1611773 -0.017695043
-0.3439157 0.44762197 0.078068025 -0.010547492 -0.9769531 -0.31295785 0.01819694 0.25222418
0.10245852 -0.20375551 0.77294236 0.24632677 -0.005206607 0.04303033 0.13838401 0.04501055
-0.12637696 0.32432562 0.50544727 -0.20295052 0.013899529 -0.46425572 0.3003652 -0.10811398
0.04603302 -0.124369346 0.07991454 -0.06822974 0.18519793 -0.06065303 -0.6827689 0.4239257
0.053964872 -0.23003618 -0.0882518 -0.07838319 0.04216682 0.6918222 -0.2115068 0.27724192
-0.73848885 0.0031141897 -0.07628768 0.31203264 -0.12745188 -0.05983033 0.047945563 0.020146074
-0.27212405 0.059616 0.040377196 0.076494336 0.24214828 0.05081942 0.028030464 -0.44860393
-0.16249049 0.5403053 -0.012032022 0.010478112 0.04649984 -0.13004504 -0.38913822 -0.17577894
-0.0529923 -0.59748274 0.029057615 0.032173946 0.40888447 0.038188227 -0.4020207 0.1863912
0.27445185 0.36483425 -0.24485877 -0.17579448 0.30440655 -0.011480883 0.3403868 -0.05719179
0.30075645 0.094434775 0.17006831 0.06284047 -0.039548196 -0.17014015 0.1626799 -0.19020818
0.2229917 0.0006256051 0.41040096 0.12980007 0.18988107 -0.08972268 0.1628989 -0.5362399
0.26043618 0.26996318 -0.20164368 0.29125056 0.33837676 -0.32564986 -0.09191216 -0.12611185
-0.5917084 -0.58332366 -0.20356967 0.04835919 0.037245378 0.1343615 0.40707108 0.04091557
0.07069304 -0.11231119 0.015894359 -0.12664485 -0.032252267 -0.4842086 0.003589276 -0.24432111
-0.69606364 0.044833813 0.08445948 -0.20936887 -0.19110765 0.14134523 -0.15633693 0.27227184
-0.2016295 -0.18940532 -0.34971058 -0.088086024 -0.10631814 0.011847142 -0.26756373 -0.29845
0.05507703 0.2758949 0.7310451 0.14196084 -0.3419458 0.20012224 -0.11807137 -0.25611123
00000000: ff25 ea3e 424b 8dbb 8e5c 73be 6ad5 e4bc
00000010: 77e3 8bbe 2d48 833e cf61 6bbf 2351 4bbf
00000020: 462b 0b3c 4f76 263e 3da7 e33d a861 0fbd
00000030: 4607 a73d c572 b1bb 4bc5 593e 74d1 e1be
00000040: 84d2 6c3e a843 e13c 1fe8 1f3d d70b b9be
00000050: f65b 283d 4ce2 a7be dba9 ca3d de5e dfbd
00000060: 012a c53e 703e 81bd ad2d 43be 21a7 4a3e
00000070: 8d96 873c 05b0 cfbd ef08 7e3e a626 883e
00000080: 73f2 17bf 1691 d83e 3ef6 943e d203 9a3e
00000090: cf7f 453e 29ff cdbe 94d8 89be 24ca 4bbe
000000a0: 9060 4fbd 23d7 763e 6154 51bd 729d 57bd
000000b0: 3527 d13e 6a57 9b3e 09ff cfbe 9640 8e3d
000000c0: 5db3 9b3e 0eb9 02bf 4d52 17bf e85a f4be
000000d0: 35d5 34bd 7663 143f fa33 173f 90f9 19bb
000000e0: 2e08 a33e 34e6 cabe e1ac 383c e855 02bf
000000f0: 544d 23be d450 ae3d dc52 3dbd 6d43 763e
00000100: b9dd d3be 2094 1f3e 6de4 55bc 5b69 a53b
00000110: f1e6 e23d 7acd 43bc 69a7 3cbd 1791 373c
00000120: fd60 a8bd b0bd f23e 7fa7 22be 5bb2 d43c
00000130: 4b33 9c3d 7241 7c3d d342 923d 46e8 8abe
00000140: 3167 c73c 192c fe3d ba80 a73d 0760 c73d
00000150: 1c3c a9be 0f9f 2cbe 9996 063f 320f 163d
00000160: 3a85 9a3e 6a9c eb3c 0bc8 f0be 8be2 a03e
00000170: d827 64bd 9e16 2fbd adcc 19be 0c0e c1bc
00000180: 47af 5fbe a119 8ebe e584 e6bd 0642 6a3e
00000190: 9096 d53c d9fe 88be b26a 8f3e c86a fd3c
000001a0: 025a 953e 0fd3 6bbe aaf5 29bd c522 eebe
000001b0: b786 56bd ec1e 053c aa0b 253e 32f5 90bc
000001c0: b815 b0be b52e e53e 21e2 9f3d 63cf 2cbc
000001d0: 9919 7abf 033c a0be c011 953c 8723 813e
000001e0: c6d5 d13d 49a5 50be 8ddf 453f 163d 7c3e
000001f0: 2f9c aabb 9240 303d 8ab4 0d3e fc5c 383d
00000200: f668 01be 020e a63e fe64 013f 43d2 4fbe
00000210: daba 633c edb2 edbe 78c9 993e dd6a ddbd
00000220: 1f8d 3c3d 5bb5 febd 3caa a33d 09bc 8bbd
00000230: 87a4 3d3e 506f 78bd f1c9 2ebf ca0c d93e
00000240: 450a 5d3d 9b8e 6bbe 5cbd b4bd 5e87 a0bd
00000250: 1eb7 2c3d 421b 313f 3d95 58be a7f2 8d3e
00000260: 9b0d 3dbf 6f17 4c3b b73c 9cbd bec2 9f3e
00000270: bf82 02be a610 75bd 9162 443d 6109 a53c
00000280: d853 8bbe e82f 743d 8f62 253d 10a9 9c3d
00000290: b8f5 773e 0628 503d 25a0 e53c 6aaf e5be
000002a0: e863 26be 7351 0a3f f521 45bc 63ac 2b3c
000002b0: 9e76 3e3d 872a 05be 203d c7be 65ff 33be
000002c0: 740e 59bd a1f4 18bf 3c0a ee3c d4c8 033d
000002d0: 4e59 d13e 426b 1c3d a8d5 cdbe 56dd 3e3e
000002e0: f484 8c3e 8ecb ba3e 42bc 7abe 7803 34be
000002f0: 2ddb 9b3e 501a 3cbc 2e47 ae3e f041 6abd
00000300: c0fc 993e 0567 c13d 6326 2e3e 81b2 803d
00000310: 4afd 21bd 3839 2ebe 8f95 263e efc5 42be
00000320: f057 643e a6ff 233a 1320 d23e 4fea 043e
00000330: 2f70 423e 86c0 b7bd f8ce 263e 0547 09bf
00000340: e457 853e 9d38 8a3e ae7b 4ebe cb1e 953e
00000350: b83f ad3e 94bb a6be 713c bcbd 7723 01be
00000360: 347a 17bf b354 15bf 9174 50be 4914 463d
00000370: 9c8e 183d 1096 093e 9f6b d03e 1697 273d
00000380: 83c7 903d 6903 e6bd e334 823c 30af 01be
00000390: f41a 04bd 31ea f7be 0f3a 6b3b 502f 7abe
000003a0: 3a31 32bf a9a3 373d 18f9 ac3d cb64 56be
000003b0: b9b1 43be cebc 103e ca16 20be 3767 8b3e
000003c0: f777 4ebe 78f3 41be 440d b3be 7266 b4bd
000003d0: 53bd d9bd 841a 423c 1dfe 88be 70ce 98be
000003e0: 7498 613d 1942 8d3e c625 3b3f 2f5e 113e
000003f0: 8513 afbe d8ec 4c3e 67cf f1bd 0321 83be

l3.bias f4 [4]
0.014118358 0.010261614 -0.056068525 0.016237197
00000000: af50 673c 5420 283c 1ca8 65bd df03 853c
